saved_model/quantized_models/layers7/trial1/paramcount542819.tflite (tflite, 560464 bytes, 32 tensors)

sequential_4/dense_9/MatMul f4 [7, 64]
00000000: 04f0 8a3e 448c 853e 4c65 8e3e f509 a53d
00000010: df8e 793e 41f3 003e e33b f83d 1aec 333b
00000020: a802 d03c d544 1ebe 981f ef3d 85fd 53bd
00000030: 677f 433e ee37 563e 5eef bbbc 2813 403e
00000040: 9110 14be 0cf3 053e d85b 54be a1a4 2d3e
00000050: 54ab c7bd d8ea 09be 4428 6dbe c1af 6f3e
00000060: 3fd2 f03d e2cb 2cbe 1608 37be 4d48 fbbd
00000070: 5e7f 87be b574 063c 1673 cb3c 9307 823e
00000080: a1a6 07be 6f95 1dbe 9304 d53d af72 22be
00000090: 3487 bfbd 747c f53c f0c3 dd3d 2ffc 1a3e
000000a0: 6984 99be b1e2 153e ee4a 44bd 965e 093e
000000b0: 6683 66be 3be8 34bb 3095 e93b 654b 9dbe
000000c0: f6c9 0dbe 361e 69be 2a5f 56be c863 363d
000000d0: 44ae 3f3e 2b61 70be 1633 81be 9345 6c3d
000000e0: 8614 70be 8033 cebd caca 8bbe fb65 98be
000000f0: 5767 543e 7a60 443c fe09 193e aa4a 4e3d
00000100: b1d4 753e b172 e83d 837e bdbd 9cee 8e3e
00000110: e186 50be 81ff 8e3e 247f 143e 03ae 86be
00000120: d58d 9fbd 19d4 703e 3a2f 003e 4168 693e
00000130: d6d2 90be f7a5 d4bd d4d4 6e3e a1f0 9abd
00000140: ba6a 333e 78e2 0abe 4c12 8c3e b4f9 acbd
00000150: f219 73bd 64d7 e23c 1200 8dbe fcd1 25be
00000160: 6326 3a3e 8bd6 7abe 09a0 863e 4fa2 333e
00000170: b054 463d 2a36 96be 3101 71be 325c f5bb
00000180: a7cf 51be 0087 56be 3261 1e3e 662f 45be
00000190: d454 d63d 1458 ae3d 3c95 35be b6d9 c8bd
000001a0: 76c7 1f3e 6629 f5bc 1b3f 613e d442 39be
000001b0: 0a79 24be 672e e83d d706 7c3b 2ee1 1a3c
000001c0: 156b 94be 775b 893e d7c5 8d3e 8f54 14be
000001d0: c12f f5bd 765c 73be 99e8 443e 9a16 46bc
000001e0: 5baf 27be d0c5 263e 3686 17be e1ca 21be
000001f0: b346 e53c 483d 3ebe 7eed b43d bfd4 3c3e
00000200: 3ce1 f6bd cac9 c83d 42f4 89be 1169 8e3e
00000210: 6df9 ce3d c87f d73d a983 123e 2620 f4bc
00000220: 2c22 92be b26c d13d 429c edbd faee 663e
00000230: e018 393e 2f13 19be 3d39 443e b57f 8cbd
00000240: 6ac5 02be b903 d6bc db21 423e f885 8bbd
00000250: b810 92be 936d e5bd e942 7e3e 9ebe f13d
00000260: fbbb a93c ef82 423e 26e6 323e eae6 743e
00000270: c50f 52be e0d8 933e b7cb 97bd 0c90 25be
00000280: 494f 363e 16ee e83d a753 99bd cf76 793d
00000290: ee2b 5e3e cf54 f93d 375a 803e e471 3fbd
000002a0: 5cd1 b63d 1ee2 333d 6d62 1f3e b690 38be
000002b0: 6012 a53d d199 57bd f180 c13c 5331 73bd
000002c0: 1cbb 8abe 5bc8 81be fcfa 05be 3ef3 90bd
000002d0: 754a fc3d e0cc 4ebe ae46 5cbe 9346 a73b
000002e0: 8b4e 093e 93b9 753e 133d 343e e069 793e
000002f0: 84df 4e3d 701c 6bbe c5a4 dabd 84ed 413e
00000300: d049 893e 1bae 993c 8456 5b3e fa1a 13bd
00000310: 8aee cbba 58da 0b3d 866d f5bd c493 8cbc
00000320: 7a7a 7c3e 6f6f 67be fd03 8ebd f838 813e
00000330: 6a00 87be aa72 393e 5602 993d 05a8 5bbe
00000340: e1ab 7b3e c620 003d 529e c73d 389d 893d
00000350: 529a 55be e6b9 0fbc a5b7 ad3d bab3 533e
00000360: 6e27 15be 5602 913e b5c6 6dbe f8bd 31be
00000370: 94f8 a9bd 7d0f 3f3e bff7 46be 15db f4bd
00000380: c86e 96be 6961 5d3e bb44 333e 173a 19be
00000390: ab2a 8abe a549 8ebd 57a4 603e f3a5 a2bd
000003a0: b97d 0c3e af30 24be 0c57 81be 9b18 08be
000003b0: ccb8 28be f709 24be 81fa 86be c53b 15bd
000003c0: 6782 89be caf6 3f3e c23d ab3d 4822 0c3e
000003d0: 0db6 d23d 9167 31be d4a8 4ebe 7bdf 93be
000003e0: 8648 35be 9fc8 e7bd 069f 0a3e bbdf 94be
000003f0: c29a e0bc f2f1 4ebe 7542 cb39 2318 253e
0.27136242 0.26083577 0.27811658 0.0805854 0.24370907 0.12592794 0.121207975 0.002745396
0.025391892 -0.15455945 0.11675948 -0.051755447 0.19091569 0.20919773 -0.022941288 0.18757308
-0.14459445 0.13080996 -0.2073816 0.16957332 -0.09749475 -0.13468492 -0.23159891 0.23406889
0.11758851 -0.1687465 -0.17874178 -0.1226965 -0.2646436 0.008206536 0.02483515 0.25396404
-0.13247158 -0.15389036 0.10401263 -0.15864061 -0.0935196 0.02996657 0.10828388 0.15135263
-0.29983833 0.14637257 -0.04792302 0.13414988 -0.22511062 -0.002760424 0.0071283802 -0.30721584
-0.13846573 -0.22765431 -0.2093474 0.044528753 0.18718821 -0.23474567 -0.25234288 0.05768354
-0.23445329 -0.100684166 -0.27303153 -0.29765305 0.20742546 0.011985892 0.14945218 0.050364174
0.24006917 0.11350001 -0.09252646 0.2791642 -0.20363952 0.2792931 0.14501625 -0.26304635
-0.07790724 0.23518409 0.12518016 0.22793676 -0.28285855 -0.10383218 0.23323375 -0.075654276
0.17521182 -0.13562953 0.2735771 -0.084460646 -0.059350915 0.027690597 -0.27539116 -0.16193384
0.18178706 -0.24495904 0.26293972 0.17542385 0.048420608 -0.293382 -0.2353561 -0.007487797
-0.2048937 -0.20949936 0.15466765 -0.19256362 0.104653984 0.08512893 -0.1773271 -0.0980715
0.15603432 -0.029926967 0.21996729 -0.18091899 -0.16061798 0.113369755 0.0038456225 0.009453101
-0.28987947 0.26827595 0.27690002 -0.14485382 -0.11971999 -0.2376574 0.19229354 -0.01209035
-0.16375487 0.16286397 -0.14797291 -0.15800048 0.027987814 -0.18578064 0.088343605 0.18440531
-0.12054679 0.09804113 -0.26944166 0.27814534 0.10106168 0.10522419 0.14308037 -0.029800486
-0.28541696 0.1022581 -0.116020694 0.225521 0.18075895 -0.14948724 0.1916246 -0.06860296
-0.1277062 -0.026124822 0.18958227 -0.06812662 -0.2852838 -0.1120254 0.24830212 0.118039355
0.020719519 0.1899526 0.17470607 0.23916212 -0.20513828 0.288764 -0.074119024 -0.16168231
0.17803682 0.11373536 -0.074866585 0.06090432 0.21696445 0.12174379 0.25068828 -0.046739474
0.08926651 0.043916814 0.1556489 -0.18023953 0.080601454 -0.052636925 0.023621054 -0.05937321
-0.27095878 -0.25348172 -0.13084024 -0.07077645 0.12318889 -0.20195341 -0.21511337 0.0051048486
0.13408868 0.23996572 0.17601423 0.24356794 0.05050613 -0.22960067 -0.106759585 0.18938261
0.26814127 0.018759778 0.21419722 -0.0359144 -0.0015558761 0.034143776 -0.119837806 -0.017160304
0.24656096 -0.22601102 -0.069343545 0.25238776 -0.26367503 0.18110147 0.07471149 -0.21450813
0.24577285 0.031281255 0.09746994 0.0671944 -0.2085965 -0.008772349 0.08482293 0.20674029
-0.14565822 0.28322095 -0.23220332 -0.17357624 -0.08299366 0.18658252 -0.19430445 -0.11955849
-0.29381394 0.2161919 0.17506687 -0.14963566 -0.26985678 -0.0694764 0.2193769 -0.079418086
0.13719834 -0.16034196 -0.25261724 -0.13290636 -0.16476744 -0.16019426 -0.26362994 -0.036433954
-0.26857302 0.18746486 0.08361389 0.13684952 0.1028863 -0.17324664 -0.2018159 -0.2888144
-0.17703447 -0.11317562 0.13537225 -0.29076943 -0.027417544 -0.20209482 0.00038768692 0.16122489

sequential_4/conv2d_28/BiasAdd/ReadVariableOp f4 [5]
00000000: 401d ddbb 66ad 04bb 368a c83a ea00 003c
00000010: 2095 6fbb
-0.0067478716 -0.0020244955 0.0015299979 0.007812718 -0.0036557391

sequential_4/conv2d_29/BiasAdd/ReadVariableOp f4 [5]
00000000: 143b 19bb 647b 3fb9 efca b139 0166 2b3a
00000010: 5d0b 553c
-0.002338116 -0.00018261146 0.00033911268 0.0006538332 0.0130031975

sequential_4/conv2d_30/BiasAdd/ReadVariableOp f4 [5]
00000000: 5222 603a 082c e5bb 0cd5 6739 697d 9b3a
00000010: 14f4 143b
0.0008550036 -0.0069937743 0.00022109243 0.0011862937 0.002272849

sequential_4/conv2d_31/BiasAdd/ReadVariableOp f4 [5]
00000000: 7ebe 253b 8b71 973a b8e3 9c3b 6a59 8c3b
00000010: c18c 1e3b
0.0025290544 0.0011554224 0.0047878884 0.00428312 0.0024192783

sequential_4/conv2d_32/BiasAdd/ReadVariableOp f4 [5]
00000000: 7221 793a 0092 2b3c f254 48bb 0980 353c
00000010: 608c 193c
0.000950358 0.010471821 -0.003056821 0.011077889 0.009371847

sequential_4/conv2d_33/BiasAdd/ReadVariableOp f4 [5]
00000000: 4427 9fba d09b 033b f8dd 323c dc82 ac3b
00000010: a92f b23b
-0.0012142439 0.0020081885 0.010917179 0.005264623 0.0054378104

sequential_4/conv2d_34/BiasAdd/ReadVariableOp f4 [5]
00000000: 6594 e4bb c216 8e3b 7a52 9dbb 1d5c 223c
00000010: f6c0 abbb
-0.006975698 0.004336209 -0.0048010917 0.009909657 -0.0052415086

sequential_4/conv2d_28/Conv2D f4 [5, 3, 3, 1]
00000000: bae8 933e a5cc 60bd 6e9f 4dbd ba31 57bd
00000010: ea95 9bbe e0e6 363e 19c3 04be 5200 893e
00000020: 11db 8bbd be92 c43d ad74 0dbd c727 c23d
00000030: 492f 9cbe c882 283e 05b7 5d3c 7687 14bd
00000040: fe19 30be 97f7 d8bc 3f2f dc3d 19ef d0bd
00000050: 8dec c7bb 5271 523e 7623 9d3e cfb0 16be
00000060: 4972 39bd dbdb 4cbd 0e57 bd3d d4a3 be3c
00000070: 51e6 55be 39c1 6a3e 8fe5 13be 2e59 4abe
00000080: fb17 81bd c4c2 e7bd 38e7 163e ae80 103e
00000090: aa3a 6a3e 774c 4cbe 3a05 b33d a903 bc3b
000000a0: 8136 c7bd 0e55 54be 63de 6b3e db0a 9bbe
000000b0: 3f32 0a3e
0.28888494 -0.054882664 -0.050200872 -0.052537657 -0.30387813 0.1786151 -0.12965049 0.26758057
-0.06828893 0.09598301 -0.0345351 0.09480243 -0.30504826 0.16456139 0.013532405 -0.036261998
-0.17197415 -0.026485248 0.10751199 -0.10201854 -0.006101197 0.20551041 0.30691117 -0.14715885
-0.045275006 -0.050014358 0.0924512 0.023271479 -0.2088864 0.22925271 -0.14443038 -0.19760582
-0.06303402 -0.113164455 0.1473664 0.14111587 0.22873941 -0.19951044 0.08741231 0.005737741
-0.09727193 -0.20735571 0.23034053 -0.3028172 0.1349573

sequential_4/conv2d_29/Conv2D f4 [5, 3, 3, 5]
00000000: ef8f fabd af54 013e 2bc0 f53b 0e09 083e
00000010: aee2 163d 81c5 5bbd 04e9 1a3d 6f6c 24be
00000020: bf60 023d 2068 67be d7e4 033e 8c3c 5ebe
00000030: 6e6d 83be 3588 573e a378 83bd 25ac e73b
00000040: 8175 28bc 0999 223e aacf 81be b570 66be
00000050: 08a1 853b 46d2 673d f0d0 ec3c 56e9 2a3e
00000060: eff5 383d 296f 34be 25c6 c4bd 84d6 b1bd
00000070: 732d 0e3d 70fd 773e fb67 87bd 9de6 ed3d
00000080: 6ecb 5dbe 3966 603d 5f1a ce3d e33f 013d
00000090: 3bed 48be 355f c8bd ba6a be3d 6e2f 163e
000000a0: ffdd 0ebe 9550 02bd d0a1 373e d967 2e3d
000000b0: e138 103e c88d 9f3d 1d78 d5bd fbd0 3bbd
000000c0: 4cc3 033e 0f6a 80be ce7d 83bd e765 aebb
000000d0: 2ead 4e3c f9a5 8b3d b9c7 e6bd 1580 19be
000000e0: 938a 6ebc e91b 35bd 1498 413d de67 363e
000000f0: c9ec 13be 7087 c9bd 81a8 483d 5b72 49be
00000100: 2ed4 d33d 4d48 733c c28c 0b3d 587c 183d
00000110: 2b52 dc3d f45d bcbd c3d9 c8bd 480e 7c3e
00000120: 56d0 933a 2739 7c3d 1cb2 17be d348 19be
00000130: f770 793e f659 05be edf6 7cbe b92e 563e
00000140: 9795 fd3d 935b 263e 8695 7e3d 9100 0fbe
00000150: 2000 06be 5442 973d 3573 a2bd a226 a23d
00000160: d857 0a3e d569 ec3d bbd4 763d c21c 26bd
00000170: 8108 77bd e9f4 b2bd 31bb e43b a974 663e
00000180: bef5 5bbd c8eb d93d bc6f 743d de6f 22bd
00000190: 3684 00be 7b9c e0bd 346c 21be ddaa f4bd
000001a0: 3f29 3f3d 2e8e 37bd 7320 07be 7bd5 75be
000001b0: 0f5a 01bd cd5f 6e3e 6d83 62bd 02b8 fd3d
000001c0: 8119 0ebe dc9f 273e 2cd1 cd3d 3871 febd
000001d0: 3d88 1abe 53db 7bbe ab99 783e bd32 cbbd
000001e0: feb2 91bd 807a c9bc e960 0f3e aaa8 033e
000001f0: b1e2 6dbd 21cc 39be 2695 f6bd 32af c43c
00000200: f9df 6d3e 1560 acbd fd63 80be 6116 703b
00000210: dc41 1d3e c1d0 103e 8f0d 98bd c2b5 8e3d
00000220: d7b1 f7bc 37df 3fbe 877d 03be 69a1 ad3d
00000230: a89b aa3c c329 05be bb0a 443e a305 763e
00000240: 060a 1ebe f40c 41be bbe1 2a3b 5efa 1bbe
00000250: f6ce 893d bd5d 923c 66ba 87be f314 6f3e
00000260: 22c3 e63d 7d96 88bd a945 793e 0736 e0bd
00000270: abe8 063e 1887 233e 4b13 9e3d 936a 7cbe
00000280: 1ca0 403e bb39 203e 1b13 54bd 2faf f53d
00000290: ffe4 63be 1e03 dc3d 1c65 a63d 0585 01bd
000002a0: 51a4 3abe a63d e63d 5b80 433e 2e08 583e
000002b0: b6c4 c33d 1b7b 313e c82a 01be ffc2 b3bd
000002c0: 6348 49be 889b 75be f3d2 4f3e ec5c 583e
000002d0: 8187 b0bd f257 e03d 7192 dd3d b6cc 4c3c
000002e0: b350 403e c36f 1abd c87c 4f3e 4506 0e3d
000002f0: 357f 2dbe c309 153e 5a21 9a3d 5a8f 333e
00000300: fa94 4d3e 15e5 7cbe e103 b03d 35d5 813e
00000310: c6d5 3fbe d668 363c 0e13 ba3d 7866 433e
00000320: 136e 063d ee1e 00bd e40e 733e 810e f0bd
00000330: 485b 2ebe c099 773e 3469 363e 7ff2 fe3d
00000340: 1882 333e eeb6 17be 7aa1 91bd bf97 bb3d
00000350: 29e3 6b3e 60eb 9abd c2bb 8a3d 7d42 883d
00000360: 3c80 69be bcab 223e 0818 823d 6b2b b0bd
00000370: 4b6c 073e 9471 01be 5b04 0e3e 67e2 363e
00000380: bdcf 97bd
-0.122344844 0.1262996 0.007499715 0.13284704 0.036837272 -0.05365515 0.037819877 -0.16056989
0.031830546 -0.22598314 0.12880264 -0.21702784 -0.25669426 0.21048053 -0.06419494 0.007070082
-0.010281921 0.15878691 -0.25353748 -0.22503932 0.0040780343 0.056597017 0.028908223 0.16690573
0.045156416 -0.17620529 -0.096081056 -0.08683494 0.034711313 0.24217772 -0.066116296 0.116162516
-0.21659634 0.054784987 0.10063624 0.031555068 -0.19621746 -0.09783784 0.092977 0.1466653
-0.13951872 -0.03181513 0.1793282 0.042579506 0.14084198 0.077907145 -0.104233004 -0.045853596
0.12867469 -0.25080916 -0.0642048 -0.0053222063 0.012614531 0.06818766 -0.11268563 -0.14990266
-0.014559406 -0.04421607 0.047264174 0.1781306 -0.14445795 -0.09840286 0.048988823 -0.1967253
0.103432044 0.014848781 0.034069784 0.03722796 0.1075786 -0.09197608 -0.0980716 0.24614823
0.0011277299 0.061577942 -0.14814037 -0.14969186 0.24359499 -0.13022599 -0.2470357 0.20916261
0.123820476 0.1624587 0.062154315 -0.1396506 -0.13085985 0.07385698 -0.0793213 0.07917525
0.13510072 0.11543623 0.06026147 -0.04055477 -0.060310844 -0.08738119 0.0069803228 0.2250544
-0.053701155 0.10640675 0.05967687 -0.039657466 -0.12550434 -0.10967346 -0.15763932 -0.11946652
0.046670195 -0.044813327 -0.13195972 -0.24007218 -0.031580027 0.23278733 -0.05530112 0.12388612
-0.13876916 0.16369575 0.10049662 -0.124239385 -0.15091033 -0.24595384 0.2427737 -0.09921787
-0.07114218 -0.024594545 0.14001812 0.12857309 -0.058077518 -0.18144275 -0.120401666 0.02400932
0.2322997 -0.08416764 -0.25076285 0.0036634433 0.15357155 0.14142133 -0.07424461 0.06968261
-0.030236168 -0.18737493 -0.12840854 0.08478052 0.020826176 -0.13004212 0.19144718 0.24025588
-0.15433511 -0.18852597 0.0026074487 -0.15232226 0.06728928 0.017866964 -0.26509398 0.23347835
0.112676874 -0.06669328 0.2434298 -0.10947805 0.13174693 0.15969503 0.077185236 -0.2465003
0.18811077 0.15647022 -0.051776033 0.11996304 -0.22255324 0.10742782 0.08124754 -0.031620998
-0.18226744 0.11242227 0.19091932 0.2109687 0.09559004 0.17332117 -0.12613976 -0.08777427
-0.1965652 -0.23985112 0.20295314 0.21129197 -0.08619595 0.10954274 0.10818947 0.012499979
0.18780784 -0.03770424 0.20262444 0.034673948 -0.16943057 0.14554505 0.075258926 0.17535153
0.20076361 -0.24696763 0.0859449 0.25357977 -0.18733892 0.011133393 0.09085666 0.19082057
0.03281982 -0.031279497 0.23736149 -0.117215164 -0.17027009 0.24179745 0.1781357 0.12448596
0.17530096 -0.14815876 -0.07110877 0.09159803 0.23035873 -0.075644255 0.06774093 0.06653307
-0.22802824 0.15885824 0.0635224 -0.08602031 0.13224904 -0.12640983 0.13868849 0.17859803
-0.0741267

sequential_4/conv2d_30/Conv2D f4 [5, 3, 3, 5]
00000000: b8ad 833d 9f8a 0e3e c813 c03d 2511 21bd
00000010: 071d 773d 9247 5cbe 8f7d 103d b858 dabd
00000020: 019e 2f3e 9a26 643d 68a3 4b3e 43ab febb
00000030: c1fc 6e3e bb22 d7bd 437d 963d 5898 ad3d
00000040: 9952 183e e28f 53be a9d9 60be f40e cd3c
00000050: afe5 ebbd 704f 173c d6b0 2dbd 6b87 643d
00000060: 1852 04be 8cb2 0d3d a111 743e 8ec5 35be
00000070: 0ddf 58be 900d 3a3e af44 6e3e 4f0e 36be
00000080: 3238 84be d812 aabd 0790 c93d 94de 7dbd
00000090: f73c dfbd 0a4e da3d 17db d5bd c74a 673e
000000a0: 3a2b 0c3e 216e f73d 0093 67bd 3b73 1e3a
000000b0: 7b10 8d3d 82bd d9bd 1a62 e73d 66d4 cf3d
000000c0: 1c75 4dbc 887f 2fbe aeb9 6d3e 9f55 5b3e
000000d0: f65b 123e 7f26 1bbe 2339 2bbd 5aa9 e43d
000000e0: d870 2dbe ceeb 813e 745a 31be 9c4a 683e
000000f0: b532 ddbd 100f 81be 5a74 bbbc 361f c93d
00000100: c124 2cbe 0d66 4c3e e2bd 69be 6101 72be
00000110: 0165 0c3e e016 73be 5d4c 3fbd 9ea8 3dbe
00000120: 8743 5cbe 3a6c b43d d31b 1b3e d46c 01be
00000130: 28e7 0f3e 8b43 0c3d a4e0 3abd c6fa 133c
00000140: 0bd5 28be 90b8 c0bc ddc6 62be 3b57 e2bc
00000150: 2624 6a3d a29f 6a3e b680 713e 901f 883d
00000160: 3d69 823e 193f 4fbd 6526 543d 72a0 5a3e
00000170: 440a 28be 8868 5bbe 451a 8d3b eeaf 0dbc
00000180: 9d6d 213e a104 28be 83c8 58bd edb9 f4bd
00000190: 5bc7 1dbe d627 2b3e 04ab f8bd 217a 77be
000001a0: 2e48 00be 1de1 f83d 99c4 27be c3a2 75be
000001b0: ec09 e439 e1fd c23d 25e1 80be d4ea 263e
000001c0: 4f5d 2b3e 005b 5abd a8c2 203e 6556 463e
000001d0: ca05 a33c caca 90bd 2611 663e afd9 133e
000001e0: 6a6a 45be 12ff 52be fd45 343e 0f28 38be
000001f0: e19f 18bd 8e5d 653d 1161 2f3e 345e e1bd
00000200: cf15 d0bd 9321 c8bc 787c bd3d 1f6c 253e
00000210: 6c0f 1ebe 49f8 423e 81ef 90bd 5cde 213e
00000220: 6952 44be 58e5 523e 7799 89bd ee99 86bc
00000230: 860f 7ebe b1a8 6bbe 1acd 83be e5f3 aa3c
00000240: 41dd 233e b98f 1cbe 7ad3 7bbd f6d2 843d
00000250: dbff 243e e328 a23d 2bd5 3fbd 4cf1 433e
00000260: 4186 ac3d 2d3b 4a3e 2fc6 21be 17cb 233e
00000270: 09f5 eb3d 25ae 1f3d d6e1 bd3c af47 80be
00000280: b8b8 893d 2f80 89bd e1a6 73bd 64b9 693e
00000290: 56aa 28be 7cef eebd aaa0 8bbd 36aa 81be
000002a0: 4f7a 57be 2846 cd3d 4dcb 22bd dc94 8f3d
000002b0: 5e8a 093e 8ddd 423d e890 643e ca32 6e3e
000002c0: a81c c83d 48a7 4c3e f69d 00be a07a c6bd
000002d0: 8e4d 8ebc b7a0 10bb 04f4 4cbe d79b 1bbe
000002e0: d6f6 5ebc 6535 443d 6b80 8bbd 9d90 c53d
000002f0: 16a8 c43d 6b3a 36be 3f37 3bbe dc74 81be
00000300: e3b0 73be c6eb b5bc e382 48be c43f 56be
00000310: 73aa 0c3d f0ca d73d b5e7 73be c823 573e
00000320: 2757 60be c1d5 b7bc 4acd 4fbe 78a0 383e
00000330: 71d1 5ebe 18c9 693d eab4 36be 3287 35be
00000340: b8e7 31be f1fa 2b3e da2b f1bd b14b 42be
00000350: 10bb 303d 11f6 f6bd 325a 3b3e 1c84 5a3e
00000360: a12b 79be 4612 81be bbff 603e 0c1c 793e
00000370: 5a02 71bd 790a 71be 1db6 21be 11d1 d6bd
00000380: 0eee b83c
0.064296186 0.13920067 0.09378773 -0.03932299 0.060330417 -0.21511677 0.035275992 -0.10661453
0.17150117 0.055700876 0.19886553 -0.007771881 0.23338605 -0.10504671 0.073481105 0.08476323
0.14875259 -0.20660356 -0.21958031 0.025031544 -0.11518418 0.009235248 -0.042404972 0.055793207
-0.12921941 0.034594104 0.2383485 -0.17751142 -0.21178837 0.18169236 0.23268388 -0.17778896
-0.25824124 -0.083043754 0.09841924 -0.061979845 -0.109003 0.10659416 -0.10442179 0.22587119
0.13688365 0.12081552 -0.056536674 0.00060443924 0.06887909 -0.10631849 0.11298008 0.10147934
-0.012540128 -0.17138493 0.23215362 0.2141938 0.14292893 -0.15151404 -0.041802537 0.11165114
-0.16937578 0.25375217 -0.17319661 0.22684711 -0.10800687 -0.25206804 -0.02288263 0.09820406
-0.16810896 0.19960804 -0.22826341 -0.23633339 0.13710405 -0.23739195 -0.046703685 -0.18521354
-0.21510135 0.08809705 0.15147333 -0.12639171 0.14053023 0.0342441 -0.04562439 0.009031957
-0.1648752 -0.023525506 -0.22146173 -0.027629485 0.05716338 0.22912458 0.23584256 0.06646645
0.25470915 -0.050597284 0.05179443 0.21350268 -0.16410166 -0.21426594 0.00430611 -0.008647902
0.1576447 -0.16408016 -0.052925598 -0.11949525 -0.1540808 0.16714415 -0.12141994 -0.24167682
-0.12527534 0.12152312 -0.1638359 -0.2398787 0.0004349494 0.0952108 -0.25171772 0.16300517
0.16734813 -0.05330944 0.15699255 0.19368894 0.019900221 -0.07069929 0.22467479 0.14438508
-0.19278875 -0.20605114 0.17604823 -0.17984031 -0.037261847 0.055997424 0.17126872 -0.11004296
-0.1016041 -0.024430072 0.09252256 0.16154526 -0.1543557 0.19040026 -0.07076932 0.1580748
-0.19172062 0.205953 -0.06718724 -0.016430821 -0.24810609 -0.2301357 -0.25742418 0.020868251
0.1600237 -0.15289201 -0.061480977 0.0648555 0.16113226 0.07917955 -0.046834152 0.19135016
0.084240444 0.19749136 -0.15798257 0.15995441 0.11521346 0.038984437 0.023178976 -0.2505469
0.067246854 -0.06713902 -0.05948532 0.22824627 -0.16471228 -0.11666772 -0.068177536 -0.25325173
-0.21042751 0.10023147 -0.039744664 0.070108145 0.13431689 0.04757457 0.22320902 0.23261562
0.09771091 0.19985688 -0.12560257 -0.096913576 -0.017370965 -0.002206845 -0.2001496 -0.15196167
-0.013608655 0.047902483 -0.06811603 0.096467234 0.09602372 -0.17795722 -0.18282793 -0.2528447
-0.23797946 -0.022207152 -0.1958118 -0.20922762 0.03434224 0.10536754 -0.23818858 0.21009743
-0.21908246 -0.022440793 -0.20293155 0.18029964 -0.21759583 0.057076544 -0.1784245 -0.17727354
-0.1737355 0.16794945 -0.11775942 -0.18974186 0.043147147 -0.12058652 0.18296126 0.21339458
-0.2433305 -0.25209254 0.21972553 0.24327105 -0.058840133 -0.23539151 -0.15792127 -0.10489095
0.02257445

sequential_4/conv2d_31/Conv2D f4 [5, 3, 3, 5]
00000000: 47e2 213e ed57 87bd 28d3 c33b 73dd 78be
00000010: 4cda e4bc 9d33 723e ca30 28be fea3 6d3e
00000020: eba8 0b3e 7ec2 193d e57c 6f3c 5700 7e3e
00000030: 19a5 093e c760 81be 7eac b53d 8c1a 053e
00000040: 848e 74bd d359 71be b93e 30be 1c94 d13d
00000050: 2608 833d 41bb 3bbe c094 e5bd 2895 a0bd
00000060: add7 1fbd 2086 653e cc20 2c3d 3c62 343e
00000070: c2da 343e d172 f5bd 3ca5 debd 6dd3 3fbe
00000080: 9858 593e 66f0 053d 0a54 fdbd e2f0 0fbe
00000090: aa2f d4bd 1014 263e db44 d8bd 5511 ac3c
000000a0: b54d f43d 39cb 42be 08a0 1abc 4766 253e
000000b0: fc27 1e3e 615a 253e 6575 463e 38e4 0e3e
000000c0: 5d73 49bd a04e 133d 3a20 5abd aed3 923c
000000d0: 14f7 8abd e130 343e 91f2 32be 39a3 4d3e
000000e0: 1029 7fbc 09d7 423e 31b0 81be 0490 4c3e
000000f0: c103 6abe 0f05 9cbd 285d 2fbe 15f3 0fbe
00000100: bfbe 61be d66c 42be 0e52 d8bd 3e95 503e
00000110: 7725 a9bd 6462 44be 734d c0bd d398 85bd
00000120: dd09 d83d 1a1b 7b3d 227c 30bd ad6d 6dbe
00000130: d879 803e 8d82 333e 314c 423d 4bb5 a0bd
00000140: 44e4 263e 1022 2fbe 171a 21bc 9895 a63c
00000150: 2aea 69be e5fb d93c 7985 b03d 66ae 0a3d
00000160: dd3a 203e 301a afbd 5ec6 7d3e e52a 13be
00000170: 75a9 d43c 3268 15be 0af9 bc3c 59c7 fcbb
00000180: ee32 813e 5ef5 2cbe 611b 103e e2cb ad3d
00000190: e3f1 a8bd a75b 803e f85f 343e 3a5a 3dbe
000001a0: da80 1e3e f2ec ef3d 104c 3dbe b5d3 83bc
000001b0: abc5 29be 3705 a9bd 7ce9 c7bd eadd 0cbe
000001c0: 85f5 fabd 410f f03d 8f66 2bbe f361 edbc
000001d0: bfb7 fb3d 36c4 d63d 3552 913d 7d6e 6f3e
000001e0: e70e 343c a112 3f3e 955e 07be 0abe 32be
000001f0: b30e 243e fd69 403e e76d 47be 59e4 25be
00000200: 0260 523e f1a2 f1bd 44b7 0d3d 50d7 1a3b
00000210: 4fa3 1dbd 538c f7bd 7713 563e 21ac 23be
00000220: a65a 2a3d 52ef 22be 200d cc3d 1b36 6bbe
00000230: 6393 a9bd 6d2f 0bbd 188f c7bd e6c5 5e3e
00000240: b614 5cbb 2a1c 67be 0344 203d 117c 29be
00000250: 6c02 aebd 70af 6d3e fe1e 623e 570a 063e
00000260: 2035 023e d660 34bd 8677 c53d 3070 a5bd
00000270: 84fc f0bd d446 72be 95a5 703e 5b92 e73d
00000280: 82da f93b 7fd2 33be b768 3fbe a12b d83b
00000290: 7344 6fbe a30b 81bd aa5c 9bbc 3858 c6bd
000002a0: 82a9 72be 0ee4 85bd 8edd 9bbd 02a7 5cbe
000002b0: f63b 633e 0c6d ea3d 4d5b 1dbe 1451 9bbd
000002c0: bc95 653d dcd7 45be 06f3 a3bd ce1e 6bba
000002d0: 73a1 2f3e fbd4 3fbe fc8a b03d 56e8 793e
000002e0: a2cb 693c 3af2 40bd aaf7 7a3e d925 4c3e
000002f0: 5745 8cbb cfe9 6dbe c830 893c 6871 433e
00000300: 7909 17be 7afd d8bd a1c9 53be dbce 353e
00000310: f15e 00be 774b 453e 1d61 1ebe b338 933d
00000320: fc68 5cbe 6127 473e 9721 573e f7ec 4a3d
00000330: e528 56be 41ff 76bd b2b2 1bbe 58a8 6c3e
00000340: 07b6 bb3c 4850 8e3c caf6 3a3e 9ce0 44be
00000350: b352 723e ac67 e43d 28c7 ec3d 5297 3dbe
00000360: 8d02 14be 808d 55be fbcb 64be 03e4 583e
00000370: 1023 acbd 9997 26be 9329 b2bd fede 313e
00000380: f572 30be
0.15808974 -0.066085674 0.0059760995 -0.24303226 -0.027936123 0.23652501 -0.16424862 0.2320709
0.13638656 0.037538998 0.0146171795 0.24804817 0.13441886 -0.25269148 0.08870791 0.12998408
-0.059706226 -0.23569421 -0.17211427 0.10233328 0.063980386 -0.1833315 -0.112100124 -0.07840949
-0.039024044 0.22414446 0.042023465 0.17615598 0.17661574 -0.1198479 -0.1087136 -0.18732996
0.21225202 0.032699965 -0.12369545 -0.14056733 -0.10360654 0.1621859 -0.10560008 0.021004358
0.11928884 -0.19022836 -0.0094375685 0.16152297 0.1544494 0.16147758 0.1938072 0.13954246
-0.049182285 0.035963655 -0.05325339 0.017923202 -0.06785408 0.17596771 -0.17475344 0.20081796
-0.015573755 0.19027342 -0.25329736 0.19976813 -0.22852995 -0.07618152 -0.1712538 -0.14057572
-0.2204542 -0.1898683 -0.10562526 0.20369431 -0.08259099 -0.19178158 -0.09389772 -0.065232895
0.10548756 0.061305143 -0.043087132 -0.23186369 0.2509296 0.1753027 0.047435943 -0.07847079
0.16298014 -0.17102838 -0.00983288 0.020335004 -0.22843233 0.02660937 0.08619208 0.033857726
0.15647455 -0.08549917 0.24782702 -0.14371832 0.02595971 -0.14590529 0.02306797 -0.007714194
0.2523417 -0.16890475 0.14072944 0.08486153 -0.08249261 0.25069925 0.17614734 -0.1849145
0.1547884 0.117151156 -0.18486047 -0.01609216 -0.1657931 -0.08252948 -0.097613305 -0.13756528
-0.122538604 0.117216595 -0.16738342 -0.02897737 0.12290906 0.10486643 0.07095758 0.23381992
0.010989881 0.1865945 -0.13219674 -0.17455307 0.16021232 0.18790431 -0.19475518 -0.16200389
0.20544437 -0.11798657 0.034598604 0.0023626871 -0.03848582 -0.120873116 0.20905863 -0.1598363
0.041590355 -0.15911606 0.09963441 -0.22969858 -0.08280065 -0.033980776 -0.0974409 0.2175518
-0.003358168 -0.22569337 0.03912736 -0.16551234 -0.08496556 0.23211455 0.22082135 0.13089882
0.12715578 -0.044037662 0.09641938 -0.08078039 -0.117669135 -0.23659831 0.23500665 0.11307212
0.007624925 -0.17560767 -0.1869229 0.006596998 -0.23365955 -0.06301048 -0.018965084 -0.09684795
-0.23697475 -0.065376386 -0.076106176 -0.21548083 0.22190842 0.1144658 -0.1536686 -0.07583824
0.056051 -0.19320625 -0.080053374 -0.0008969129 0.17151432 -0.1873359 0.08620259 0.24405035
0.014269741 -0.047106005 0.24508539 0.19936313 -0.004280727 -0.23233722 0.016746894 0.1908623
-0.14749707 -0.10595222 -0.20682384 0.1775469 -0.12536217 0.19267069 -0.15466733 0.07188549
-0.21524423 0.19448616 0.21008907 0.049542394 -0.20914038 -0.060302023 -0.15204886 0.23111093
0.022913946 0.017372265 0.18258205 -0.19226307 0.2366436 0.11152586 0.115614235 -0.18514755
-0.14454098 -0.20854759 -0.22343437 0.2118073 -0.08405125 -0.16268767 -0.08699336 0.17370221
-0.17231353

sequential_4/conv2d_32/Conv2D f4 [5, 3, 3, 5]
00000000: a0ac 9abc 6088 ba3d 21e0 5fbe 28d2 2b3e
00000010: 11a3 a7bc 3bd7 40be e240 fa3d 0247 43be
00000020: 8ff5 753e 0bd9 a43d 81b0 503e f6cc 623d
00000030: 0a6c 73bd 889e 773d 1f2f 333e fdf1 123e
00000040: 54ec 7a3d fb69 793e 4456 16be f1e6 043e
00000050: 80ef 9e3d d24e 76be 305b 43bc ce25 863e
00000060: da28 6c3e 993d b93d f1b7 70bd a7ab 1b3e
00000070: 98ab 2b3e 4ff3 80be 4d28 80be 451c cfbd
00000080: 9242 633e b459 54bd fc57 273d 688a c2bd
00000090: 9485 563e 4cce 5b3e 9fd8 673e c338 62be
000000a0: 7ee0 93bd b912 3e3e e78b 2c3e 3a44 0f3e
000000b0: 4333 81bd 7a4a 85be 8dda 22bd 1226 e5bd
000000c0: a71e 62bd 9565 eebd 48e8 62be 0756 91bd
000000d0: 2620 533e f53e dfbc 3672 59be c35c 603e
000000e0: 1334 063d 19d7 a13c 285c 89be 6e99 773d
000000f0: 59da 073e fcaa 0c3e 1b65 8bbd 6771 42bd
00000100: 14b7 7fbd 8561 813e b8d7 313e 824e dbbd
00000110: 01f3 17bd adea 753e 7e89 273e c949 2dbe
00000120: e891 6bbe 15f0 dd3d ef36 493e a30c 2d3d
00000130: 74ae b4bd 78c7 5ebe 77df db3d 47b3 e93c
00000140: 0786 fc3d 5624 603d 6d76 20be 864a 81bc
00000150: 41c3 073e 2204 48be 1b0f 3d3e 5cc3 6b3e
00000160: 39a5 933d 63fb 063e 17b3 923d 098b 4a3e
00000170: cfc7 b83d 80c3 053e 6b2a 00be d4ba c7bd
00000180: 6890 07be 7c07 80be 8b4a bdbd 0981 183e
00000190: 952f 3b3e a8a4 813e d5bd 493e 5e2f 3e3e
000001a0: b0b5 8abd bc63 49ba b562 84bd 8310 25be
000001b0: 8bce 27be 57fe 2ebe 8e31 583e 0366 113e
000001c0: b95d 1cbe 0ca8 60bd c834 573e d61f 0fbe
000001d0: 1b1b 6dbe b89c c8bc a5fe 783e b8c3 013e
000001e0: 605a cf3c 14d6 843e 8db7 e1bd 44f6 4fbe
000001f0: 604f 1cbe 06fd 5f3e 51e1 293e ce85 bfbd
00000200: 1e25 28be c078 333e 254b 6f3e 1098 ea3d
00000210: 7602 19bd ecc8 4a3e 1915 663e e0c9 383e
00000220: 0876 14bd 9705 a9bd 6e94 bfbd b3c4 21be
00000230: 62db 813e 15aa 91bd b144 bb3c 7216 0e3e
00000240: e5eb 783e dd6c 77be 24c9 17be d780 573c
00000250: 7fb8 79be 7849 07be 167c a1bd e643 0b3e
00000260: 0910 043e c94e 85bd bfc3 8d3d 9a1a 02be
00000270: cac6 8c3c 8378 23be d90d 38bd 29f5 33be
00000280: b129 353e 38ac dcbc 0b3d 84bd 95fc 83bc
00000290: 9a87 05be b3bf 723d f208 51be 8c9c 3dbe
000002a0: a3ae 7e3d 441c 26be 5b52 203e 2c26 78be
000002b0: 36dc 80bc 6645 81bd 0313 d3bd 480c 593e
000002c0: 7629 103e f372 4b3e 4148 8cbd f3f6 69be
000002d0: 9491 cb3d c2a1 243e 0c48 64bc 4f9e 2e3e
000002e0: 87c2 613e a8b7 59be 8083 ed3d 3c3d 833e
000002f0: 5e36 26be 0e60 033e 9a3a e23d 6ea8 5fbd
00000300: c926 853c ce77 373e a0db 3d3e 0f55 a6bd
00000310: 9284 54be aea1 16be b4d6 68be 51bb bfbd
00000320: 04d4 05be 243d ce3d 457c 36be 5045 18be
00000330: e8c8 45bd 9065 f7bd 124b 71bd 2bfd 8a3d
00000340: 1923 743d d1fd 0d3e b457 6d3e 40a6 f7bb
00000350: 70ef 453e a219 3f3c 3cfe 6dbe 5f35 623e
00000360: b322 4e3e 59d7 3e3e 6d98 323e 41ec d23a
00000370: 4893 a83d 6763 14be 6458 16be 1e3a 5c3e
00000380: 2c8b 3f3e
-0.018881142 0.09108043 -0.21862842 0.16779387 -0.020463498 -0.18832104 0.12219407 -0.19070056
0.24019454 0.0804921 0.20379831 0.055371247 -0.059429206 0.06045392 0.17498444 0.14350124
0.061260536 0.24356835 -0.14681345 0.12978722 0.07760525 -0.24053505 -0.011923596 0.26200718
0.23062459 0.09044952 -0.05876917 0.15202199 0.16764677 -0.2518563 -0.25030747 -0.10112814
0.22193363 -0.05184336 0.040855393 -0.09499055 0.20949394 0.21465415 0.22641228 -0.22091965
-0.07220553 0.1856183 0.16850244 0.1399087 -0.063086055 -0.26033384 -0.039759208 -0.11188902
-0.055205014 -0.11640469 -0.22158921 -0.070964865 0.20617732 -0.0272517 -0.21234974 0.21910386
0.032764506 0.019755887 -0.26828122 0.060449056 0.13266887 0.137371 -0.06806394 -0.04747143
-0.062430456 0.25269714 0.17367446 -0.107083336 -0.03709698 0.24015303 0.16361043 -0.16922678
-0.23004878 0.10836808 0.19649862 0.04224838 -0.08822337 -0.21755779 0.10735982 0.028527869
0.12330251 0.054722153 -0.15670176 -0.015782606 0.13258077 -0.19532827 0.18462794 0.23023742
0.07209248 0.13181834 0.07163065 0.197796 0.090224855 0.13062859 -0.12516181 -0.097524315
-0.1323868 -0.2500571 -0.092427336 0.14892973 0.1827987 0.25320935 0.19701321 0.18572757
-0.067729354 -0.0007682403 -0.06464139 -0.1611958 -0.16387384 -0.1708921 0.21112654 0.1419907
-0.15270127 -0.054847762 0.21016228 -0.13976988 -0.23154871 -0.024488792 0.24315889 0.12672317
0.025311649 0.2594458 -0.11021338 -0.20308787 -0.15264654 0.21873865 0.16589858 -0.09351693
-0.16420409 0.17526531 0.23368509 0.11454785 -0.037355863 0.19803208 0.22468986 0.18045759
-0.036245376 -0.08253019 -0.093544826 -0.15797691 0.25362688 -0.07112519 0.022859903 0.1387575
0.24308737 -0.24162622 -0.14822823 0.013153276 -0.24386786 -0.1321162 -0.07884996 0.1360012
0.12896742 -0.06509168 0.06922101 -0.1270546 0.017184634 -0.1596394 -0.04493508 -0.1757399
0.17691685 -0.026937589 -0.064569555 -0.016111651 -0.13040009 0.05926485 -0.20413569 -0.18516749
0.062178265 -0.1622172 0.15656416 -0.24233311 -0.015730005 -0.06312065 -0.103063606 0.21196091
0.14078316 0.19868068 -0.06849719 -0.2284811 0.09939876 0.1607733 -0.013933193 0.17052577
0.22046863 -0.21261466 0.11597347 0.25632656 -0.16231677 0.1282961 0.110463336 -0.054603986
0.016253846 0.17916796 0.18540812 -0.081216924 -0.20753697 -0.14710113 -0.22738153 -0.093619
-0.13069159 0.100702554 -0.17820843 -0.1487019 -0.048287302 -0.120799184 -0.058909483 0.06786569
0.059603784 0.13866355 0.23177987 -0.0075576603 0.1932962 0.011663826 -0.23241514 0.22090672
0.20130424 0.18636836 0.17440958 0.0016092138 0.08231217 -0.14491044 -0.14682156 0.21506545
0.18705434

sequential_4/conv2d_33/Conv2D f4 [5, 3, 3, 5]
00000000: 1cd4 2fbe 9fb0 2abe 3d1f 11bd ba4f 4d3e
00000010: 2a3b 1b3e e3f6 4d3e cbcf 1e3d bab3 26be
00000020: 636c 3abe 89de 9bbd 7ef5 6abe f5e7 943d
00000030: 35ef 0dbe aedf b83d afbf 0cbe 57fe 483e
00000040: 2858 573e dc83 f1bd 16b5 4c3e ed3e 8abd
00000050: 714d fa3c 4431 6e3e 5852 24ba 565c 193e
00000060: 1891 69be 8106 44be 2d97 c4bd 7025 0e3e
00000070: 255d 003e 1a1c 7b3d ea22 24bd 242c 12be
00000080: 90b2 f93d 5608 823e 5de9 383e 92a4 163e
00000090: f0b5 75be e7fa f23c 8160 68be fa4d 50bd
000000a0: 18fa c5bc 4ba3 103e 7a36 0ebe da0d 82be
000000b0: 8649 0f3e ba9a 4c3e c4c9 ebbd dca9 e73d
000000c0: af2c 603e 737a 033e 0cdd 06be b12e 59be
000000d0: 5507 a33d cf2f 48bd f07a 0cbe a317 43be
000000e0: 4d0a 4fbe ce0d 6a3e d090 113e b4cc 28bc
000000f0: e246 f53d c19d bd3d ccdb 3abe 2f81 c6bc
00000100: 0bba 0a3d 56d2 043e 9086 333e d5ad a13d
00000110: 5994 21be 6f40 d1bd ace0 93bb 069e 033c
00000120: b4d0 2e3e 5944 7a3e 1756 803e 20c5 a23d
00000130: bc47 b1bd 6b2f c9bd ce87 703c 0fba ebbd
00000140: ac91 7bbb 2e82 183e e6d5 c6bd f8df 2b3e
00000150: 4eee 123e b191 36be 5a86 1cbe 3e64 a93d
00000160: ae4f 393e 779b 5d3e 0a17 2e3e b985 29be
00000170: 913b 753d 29fc ee3d c82a 3e3d 41d8 fd3d
00000180: 3b59 14be c946 a33d 417f 31be c2ac b13d
00000190: 08da 0b3c ef1c 113e ee3b e33d eb4e 66be
000001a0: 7997 1dbd df58 013e dc85 9cbd e04a 2bbc
000001b0: b806 b0bc a431 b7bd 5c15 12be f9d2 003e
000001c0: 25c8 eabd d4cc 773d 0e9b f8bd b5f6 29be
000001d0: 0fbb 0d3e 8760 543e dafd e6bd 099a 483e
000001e0: 449b 7d3e e884 14bd bc95 28bb ce99 973d
000001f0: e1e9 afbd 0985 46be d68f 003e 19a7 f4bd
00000200: 0bfb 993d 5980 463e be73 9f3d 2832 16be
00000210: 53fe fb3d 8196 e2bc 02c9 46be 1a0b 1a3e
00000220: f14e 0abd b57d abba 37cc 1ebe b31c 7a3c
00000230: 169b eabd 67bb 303e 84f3 303e 4dc8 20bd
00000240: 2729 17be 0e55 41be 421b 983d e7db 89bd
00000250: c97f 423e b07b 21be 5fcf 083e 5c94 79be
00000260: 9399 1abe a0eb 88bd 2268 4a3e 21cf cdbd
00000270: 6fda 043e 4a7f f2bd c387 63be 40e2 65be
00000280: 6bfb 43be 1127 133e 6a2f 55be 0df8 683d
00000290: 6558 653e 92df 10be 84bd ea3d 5292 81be
000002a0: 5336 63be 0e84 0dbe 9ef2 28bd 6f6d 7bbe
000002b0: 19fa 053d c916 673e 5dbc 8cbd de90 e1bd
000002c0: 80a8 39be 5c76 62be c6e8 50be 10cd 363e
000002d0: f68c 713e 3ae2 20bd 8bbe 143e 352e d23d
000002e0: 2988 773e 7898 9c3d 3586 9b3d 27aa 7d3e
000002f0: b346 c33b 92c2 5ebe 9bcf 113e 89da 573d
00000300: 149c 55bd 2ce2 773d 1eee 4d3d f836 803e
00000310: 738a 19bd d801 773e 7381 24be 8621 22be
00000320: dfca 57be 3782 063d 389b 4dbe 1b65 183e
00000330: 6e37 1a3e 522b 7ebe 6996 853e 20c2 e13d
00000340: a5a5 2b3d a53c 04be dc47 0cbe b998 e13d
00000350: 6c86 603e b45e fa3d f155 4c3e 345b 74be
00000360: 8ca7 743e caed f43d a92c 603e 0ae6 763e
00000370: a0af 993d 9df5 d53d 4a37 97bc 0d16 253c
00000380: aac6 013e
-0.17170757 -0.16668938 -0.03543018 0.20049945 0.15159288 0.20113711 0.038772386 -0.16279498
-0.18205409 -0.076108046 -0.2294521 0.07270805 -0.13860781 0.090270385 -0.13744996 0.19628273
0.21029723 -0.11792728 0.19990954 -0.067502834 0.030554505 0.23260981 -0.00062683737 0.1497663
-0.22809255 -0.19143106 -0.09599147 0.13881469 0.12535532 0.061306097 -0.04007236 -0.14274651
0.12192261 0.25396985 0.18057771 0.14711216 -0.23995185 0.029660655 -0.22693063 -0.050855614
-0.024167106 0.14124791 -0.13887969 -0.25401193 0.1399289 0.19980898 -0.11513093 0.11311695
0.21892045 0.1283968 -0.1317026 -0.21209218 0.07960383 -0.04887372 -0.13718772 -0.19051985
-0.20218773 0.22856829 0.14215398 -0.010302711 0.119764104 0.09258605 -0.18247908 -0.024231521
0.03386883 0.12970862 0.175318 0.07894484 -0.15779246 -0.10217368 -0.004512867 0.008033281
0.17071801 0.24440135 0.2506568 0.07947755 -0.0865626 -0.098234974 0.014680816 -0.11510097
-0.0038386388 0.1489341 -0.09708767 0.16784656 0.14348719 -0.17829014 -0.15285626 0.08271073
0.18096802 0.21641336 0.17000976 -0.16554917 0.05987126 0.116691895 0.046427518 0.12394763
-0.14487164 0.079724856 -0.173337 0.08675529 0.008535869 0.14171194 0.11095415 -0.22491042
-0.038474534 0.12631558 -0.07642719 -0.010454863 -0.021487579 -0.08945015 -0.1426596 0.1258048
-0.11463956 0.060498074 -0.12138949 -0.16598018 0.13840888 0.20739947 -0.11278887 0.1959001
0.2476626 -0.03625956 -0.0025724014 0.07402383 -0.08589531 -0.19386686 0.12554869 -0.11945934
0.07518586 0.19384898 0.07785748 -0.1466757 0.12304368 -0.027659656 -0.19412616 0.15043297
-0.03376669 -0.0013083728 -0.1550759 0.0152656315 -0.114553615 0.17258988 0.17280394 -0.03925352
-0.14761792 -0.18880102 0.07427074 -0.06731396 0.18994059 -0.1576984 0.13360356 -0.24373001
-0.15097646 -0.06685567 0.19766286 -0.10049272 0.12973951 -0.11840685 -0.22219758 -0.22449589
-0.19138877 0.14370371 -0.20818868 0.056877185 0.22397001 -0.14147785 0.114619285 -0.25306946
-0.22188692 -0.13819906 -0.041247003 -0.24553464 0.032709215 0.22567286 -0.06871865 -0.11013959
-0.18130684 -0.22115463 -0.20401296 0.17851663 0.23588929 -0.039278246 0.14525811 0.102627195
0.24173035 0.076462686 0.07593957 0.24771939 0.0059593557 -0.2175391 0.14239351 0.052698646
-0.0521508 0.06051843 0.050275914 0.25041938 -0.03748555 0.24121797 -0.16065006 -0.158331
-0.21073483 0.032839026 -0.20078743 0.14882319 0.15060207 -0.24821213 0.26091316 0.110233545
0.041906018 -0.12913759 -0.13699287 0.11015458 0.21926278 0.122250944 0.19954659 -0.23862916
0.23892039 0.11959417 0.21892036 0.2411119 0.07504201 0.10447238 -0.018458981 0.010076058
0.1267344

sequential_4/conv2d_34/Conv2D f4 [5, 3, 3, 5]
00000000: d0dd 66bd 8109 bbbd d4fb 3d3b 1d1c 55bd
00000010: ff0b 4ebe b429 393e 9c9b 11bd af68 66be
00000020: ffdc 853d e99f 483e 9fb3 6b3e 1408 12bd
00000030: e6e9 2c3d f893 4fbe 3d40 a6bd 0ce8 803c
00000040: 3bb5 3a3e f5f2 c53d 1c4d 1c3e 5dbd aabd
00000050: fa85 cebd 8a99 f43c 57f0 9fbd 6606 463e
00000060: 84de 00b9 04ad 12be e367 493e 0495 10ba
00000070: e275 343e 4d82 833d 57cf aa3d b4db 8fbd
00000080: 6062 393e 7705 3bbe 6fa8 24be 731b b9bd
00000090: 5595 60be 728c 3e3e ab73 2d3e f823 01be
000000a0: f0eb 08be 031d 8d3d d562 5a3e 9f29 70bd
000000b0: aaea 803e b643 403e 04ea a13d c6ff 96bd
000000c0: 5510 4d3e 407c 54be 6795 773e e13a 39be
000000d0: 4da2 513e bfb4 7a3e ad8f 4f3e 2189 2a3e
000000e0: 60b9 133e 1f69 733e 16bc a4bc 8252 edbd
000000f0: b015 20bd 927d db3d f676 85be 5a58 593d
00000100: e10c 40be a809 b63c 401c 37be 3cdd a53d
00000110: 4255 b33d a2ca 523e 23c8 51bd 158b 93bd
00000120: caa3 52be 6eef e33d 862c 753e dce0 babc
00000130: 57f7 e7bd a284 1a3c e7f8 a8bd 3037 6b3e
00000140: a4e5 60be 3a48 223e e7f4 e4bd 7f6a 993d
00000150: ab59 41be bf05 12be 041f 733e 8ff1 363e
00000160: 6463 17be 4d61 c83d 268e 0cbe e18a fd3d
00000170: 1886 0dbd f0a9 4bbd 488b e13d c83d 23be
00000180: d0d3 13be 2f24 03be b8a7 e03d c459 803e
00000190: 223c fabd 5afc 463e 1f1b f4bc 15b4 ea3d
000001a0: 0d32 13be 455e 0c3e 668d 77be 9ef8 0d3d
000001b0: db22 7b3e f060 5cbe cd46 7cbd f60b 953d
000001c0: eb13 2abe 35db 1ebe 0cba 783d c7a0 d13d
000001d0: 62f5 b63c b910 433e 0cfb 843e a1c1 563d
000001e0: 86ed 0a3d 7e55 2d3d 83e6 843d 978c 903c
000001f0: e382 593e 49b1 0ebe 1464 753d a1a1 91bd
00000200: a9d5 803d b57a 803e ed02 d9bd 2f74 f4bd
00000210: e2dc 37be 465a 8e3a 1cba 4d3e 10d0 1fbd
00000220: 74c3 003e 6384 673e a32a 7d3d 7ca6 143d
00000230: 5e71 43be edf8 383d d12f 233b a82b bfbd
00000240: 8894 7d3e 81b5 763e 7cbd 66bc c8d2 7fbd
00000250: 2db5 7a3e fd36 0bbc a3c0 d8bc 7b04 26be
00000260: 256b 3a3e 440f b13d 647c 4f3e afb3 22bd
00000270: 087d ac3d 2af4 57bd b4f5 81be 4c04 073e
00000280: cfe6 87be 267c 05be 5ec0 823d 2e5e 7dbd
00000290: 3f16 163d a281 4abe c53a 103e 1628 12be
000002a0: 03c8 cbbd ebe0 be3d da9e 51bd 59b3 76be
000002b0: 56f1 22be 18b3 cdbd 799d 283e f621 0ebe
000002c0: 4137 5f3e ce6e 693d b351 fe3c 2274 83be
000002d0: 06b4 6a3e a71f 62be 74cf 3f3e 7065 5cbe
000002e0: 21c8 0dbe 3176 643e 91d2 3abc 2e5e 4dbd
000002f0: 7a8e bebd bbd9 2a3e c1a1 833e 1f99 69be
00000300: 9030 99bd b021 0fbe dfcb 283e fd1c 5f3e
00000310: b77f c9bd 5372 423e dd92 5e3e f848 27be
00000320: 7a40 ce3d 0857 62be 4b9e 6c3d c675 7e3e
00000330: fe2a 713e e1f7 c1bc e70a 0e3e f428 0fbd
00000340: d07d 183d ba65 f4bd d8f3 863e 0e5e 683d
00000350: a3b8 90bd e2f2 58be 1919 51be b4df 59be
00000360: d1d9 a43d e3e0 293c 203b de3d fc13 013e
00000370: 851a 973d 819a 56be 1f9a 41be e604 13be
00000380: 0133 c3bc
-0.05636388 -0.09132672 0.0028989213 -0.052028764 -0.20121764 0.18082315 -0.03554879 -0.22500871
0.06536292 0.19592251 0.23017739 -0.035652235 0.04221525 -0.2027129 -0.08117721 0.015735649
0.18233196 0.09665481 0.1526379 -0.083368994 -0.10084148 0.02985837 -0.07809513 0.19338378
-0.00012289925 -0.14323813 0.19668536 -0.0005515369 0.17623094 0.06421337 0.08340328 -0.07024327
0.18103933 -0.18263803 -0.16079877 -0.09038439 -0.21931966 0.18608263 0.16938655 -0.12611377
-0.13371253 0.06890299 0.21326764 -0.058633443 0.25179034 0.1877583 0.07905963 -0.07373004
0.20025761 -0.20750523 0.24178086 -0.18088867 0.20472069 0.24483012 0.20269652 0.16653873
0.14426184 0.2377057 -0.020109218 -0.11588003 -0.039083183 0.1071731 -0.26067322 0.053062774
-0.18754913 0.022221401 -0.1788187 0.08098838 0.08756496 0.20585111 -0.051216256 -0.07204262
-0.20570293 0.11129652 0.23942766 -0.0228123 -0.11326473 0.009431036 -0.08250599 0.22970271
-0.21962601 0.15847865 -0.11179524 0.07491016 -0.18881862 -0.14260004 0.237423 0.17865585
-0.14784008 0.09784184 -0.137261 0.12380005 -0.03455171 -0.049722612 0.11012894 -0.15941536
-0.14436269 -0.12806772 0.1096949 0.25068486 -0.12218501 0.19432202 -0.029798089 0.11460129
-0.14374562 0.13707836 -0.24175033 0.034660928 0.24525015 -0.21521354 -0.06159096 0.07277672
-0.1660916 -0.15513308 0.060724303 0.10235744 0.022333805 0.19049348 0.25972784 0.052430753
0.033917926 0.04231786 0.06489279 0.017645163 0.21241336 -0.13934816 0.059909895 -0.071109064
0.062907524 0.25093618 -0.10596261 -0.11936223 -0.17955354 0.0010860644 0.20090526 -0.039016783
0.1257456 0.22609095 0.06180824 0.036291584 -0.19086215 0.04515927 0.0024900327 -0.09334499
0.24763691 0.24092676 -0.0140832625 -0.062456876 0.24483176 -0.008496997 -0.026459044 -0.16212647
0.18204935 0.0864549 0.20262295 -0.03972214 0.08422285 -0.052723087 -0.2538277 0.13185233
-0.2654328 -0.1303564 0.063843474 -0.061857395 0.03664231 -0.19776013 0.14084919 -0.14273104
-0.099502586 0.093202434 -0.051176883 -0.24091853 -0.15912375 -0.10043925 0.16466321 -0.13880143
0.21798421 0.056990437 0.031044817 -0.2567454 0.22920236 -0.22082387 0.18731481 -0.2152307
-0.13845874 0.22310711 -0.011402742 -0.050138645 -0.09304519 0.1668462 0.25709346 -0.22812317
-0.07479966 -0.13977695 0.1648402 0.21788402 -0.09838813 0.18988924 0.21735711 -0.16336429
0.10070892 -0.22103512 0.057768147 0.24849615 0.23551556 -0.023677768 0.13871346 -0.034951165
0.03722936 -0.11933465 0.26357913 0.056730323 -0.07066467 -0.21186402 -0.2041973 -0.21276742
0.08049358 0.010368559 0.10851121 0.1260528 0.07378105 -0.20957376 -0.18906449 -0.14357337
-0.023828031

sequential_4/dense_9/BiasAdd/ReadVariableOp f4 [7]
00000000: 19d2 85bc a434 abb9 53e4 9bbb 56fb 023c
00000010: 0e25 d53b 9ca7 9abb d291 2c3b
-0.016335534 -0.00032654882 -0.004757443 0.0079944935 0.0065046614 -0.0047196876 0.0026332033

sequential_4/dense_8/BiasAdd/ReadVariableOp f4 [64]
00000000: 182d 253b 399d 08bc 7f66 04bc df35 03bc
00000010: 8a68 8cbb b8f0 173b 1f0f 04bc f182 7fbb
00000020: 9d75 a93b d6f4 28bb 5f19 a1bb 1c88 fc39
00000030: d518 a2bb e5da 58b9 44e0 b3ba 4c26 a9bb
00000040: a957 aabb 20cb d6ba ea9b 5eba ec0d 0139
00000050: c5f8 8bbb 63bb 3abb 0a76 9c3a e172 6ab8
00000060: 3db3 a3bb 2613 593b 915e 90bb b426 373b
00000070: 42c7 57bb 1bc0 443b ef50 a0bb 3540 e4bb
00000080: 6aa5 37bb 856e c83b 1ede dd39 96da 90ba
00000090: a231 b7bb 624b a8bb f5d6 0f3b ff1b 8fbb
000000a0: 094b 733b 0838 bb39 bdb6 a5b9 4b95 7c3b
000000b0: 828b 6abb a8bb ecb7 b6d6 e7ba 19a3 533b
000000c0: f73f 9bba 6b00 9c3a 46f1 0f39 6cb0 d1b9
000000d0: 2cde 0b3b 0d9a 27bb adfe b0ba d716 35bb
000000e0: b6e8 fa3a dd17 f23a 9800 c239 463a c2bb
000000f0: 81e4 55bb a53f 933a 2706 86bb 5bb7 6abb
0.002520388 -0.008338266 -0.008081078 -0.008008449 -0.004284923 0.002318425 -0.008060246 -0.003898796
0.0051714913 -0.00257807 -0.0049163545 0.00048166595 -0.004946808 -0.0002068091 -0.0013723453 -0.005162036
-0.005198438 -0.001638744 -0.0008491861 0.00012307585 -0.004271599 -0.002849304 0.0011937034 -5.5896937e-05
-0.004995732 0.0033122986 -0.0044058044 0.0027946653 -0.0032925163 0.003002173 -0.0048924605 -0.006965662
-0.0028022178 0.0061166906 0.00042317895 -0.0011051472 -0.0055906335 -0.0051359395 0.0021948193 -0.004367351
0.0037123582 0.00035709166 -0.00031607403 0.0038541134 -0.003578872 -2.8220777e-05 -0.001768789 0.0032293259
-0.0011844625 0.001190198 0.00013727424 -0.0003999503 0.0021342142 -0.0025574 -0.0013503634 -0.0027632022
0.001914284 0.0018470247 0.00037003006 -0.005927357 -0.003263742 0.0011234178 -0.004090089 -0.0035814855

sequential_4/batch_normalization_28/FusedBatchNormV3 f4 [5]
00000000: 4a43 683d 7c14 be3c 5c1e a23d 3275 953c
00000010: 8094 273c
0.056704797 0.023203127 0.07915947 0.01824436 0.010228276

sequential_4/batch_normalization_28/FusedBatchNormV31 f4 [5]
00000000: 33e1 3ebf 02ec 14bf 3077 7ebf 566c 15bf
00000010: 18af 21bf
-0.74562377 -0.5817262 -0.99400616 -0.5836843 -0.63157797

sequential_4/batch_normalization_29/FusedBatchNormV3 f4 [5]
00000000: 2b7e 4940 ff9a 6140 e15c 5140 7a2f 913f
00000010: 9021 353f
3.1483257 3.5250852 3.2712939 1.1342614 0.7075434

sequential_4/batch_normalization_29/FusedBatchNormV31 f4 [5]
00000000: eb79 4bbf f8da fdbe c28e a7bf 460f 0dbf
00000010: 49b4 21bf
-0.7948291 -0.49581122 -1.3090441 -0.5510143 -0.6316572

sequential_4/batch_normalization_30/FusedBatchNormV3 f4 [5]
00000000: 7183 8c3f 3072 0140 664c c53f 9c24 2f40
00000010: 079d 8a3f
1.0977613 2.0225945 1.541394 2.7366095 1.0829171

sequential_4/batch_normalization_30/FusedBatchNormV31 f4 [5]
00000000: 586b 11bf 9558 31bf 98de 39bf c538 0abf
00000010: a199 84bf
-0.5680442 -0.6927579 -0.72605276 -0.53992873 -1.0359384

sequential_4/batch_normalization_31/FusedBatchNormV3 f4 [5]
00000000: 0ceb 973f 92c2 e13f 913b ae3f 0418 da3f
00000010: 3d99 ab3f
1.1868606 1.7637503 1.3611928 1.7038579 1.340614

sequential_4/batch_normalization_31/FusedBatchNormV31 f4 [5]
00000000: 77aa 2bbf 6834 77bf e03d 3fbf 6321 98bf
00000010: ceda 41bf
-0.67056984 -0.9656434 -0.7470379 -1.1885189 -0.75724494

sequential_4/batch_normalization_32/FusedBatchNormV3 f4 [5]
00000000: 7187 833f 0a28 993f d5b9 403f 801d b33f
00000010: b210 873f
1.0275708 1.1965344 0.7528356 1.3993378 1.055197

sequential_4/batch_normalization_32/FusedBatchNormV31 f4 [5]
00000000: 90da 1cbf 03ac f8be 57ef fdbe 659d 4abf
00000010: af17 02bf
-0.61271 -0.48568735 -0.49596664 -0.79146415 -0.5081739

sequential_4/batch_normalization_33/FusedBatchNormV3 f4 [5]
00000000: 5ae8 0c40 059c a73f eb75 d53f 6945 1c40
00000010: 90cd f33e
2.2016816 1.3094488 1.6676611 2.4417365 0.4761777

sequential_4/batch_normalization_33/FusedBatchNormV31 f4 [5]
00000000: bc33 71bf 27a2 20bf a75e 12bf e4d7 aabf
00000010: 65fe b5be
-0.94219565 -0.62747425 -0.5717568 -1.3347135 -0.3554565

sequential_4/batch_normalization_34/FusedBatchNormV3 f4 [5]
00000000: 5dff 1640 aac1 bf3f 88c3 e83f 1a5c 613f
00000010: c1a2 bf3f
2.3593361 1.4980977 1.8184671 0.8803116 1.4971544

sequential_4/batch_normalization_34/FusedBatchNormV31 f4 [5]
00000000: 2820 34bf 6c8c 10bf 3c31 4ebf b89a e2be
00000010: 718d 43bf
-0.70361567 -0.56464267 -0.80543876 -0.44258666 -0.763877

sequential_4/dense_8/MatMul i1 [64, 8450] scale=0.00035092147 zero_point=0
00000000: 4a37 1d1f ed0b 15cc 0b29 b933 00e5 eac4
00000010: 39ea dd22 e1df 0df4 fceb 4ae4 19ab 1302
00000020: eb4f 28f4 17f9 06e7 3dc6 2f13 ed1c aecd
00000030: d5e6 2ac5 3c27 d9fb 30bc 38b5 40f3 2ddf
00000040: b146 e1f0 10b0 fce6 1cb6 f4f7 0d3a f5d0
00000050: 193c c933 bc17 294d 3bce 1111 58c1 3242
00000060: de09 11fd d8bf 50eb caf6 d0bd 350c f9a4
00000070: 1bc4 a3d5 2120 31b1 dd21 0bf1 d5df 292e
00000080: b822 eb36 aed3 2cc9 c643 0dc5 14fe 1a36
00000090: ee2a 1d08 45c2 ceea 5409 db4c c224 1ac8
000000a0: 2c36 05f5 a5b8 10f6 bbbe 2125 e6e9 dc44
000000b0: dc0c f6f5 f01f f918 35ee cfc2 de0e caba
000000c0: d9e0 f4ca d4d9 2bc7 27c2 dce3 f110 13cf
000000d0: d509 c146 1d1c ce24 c84e 1201 1b21 0bf8
000000e0: b2fa 434b 34eb 3f0b 4b44 c51d 3be8 2817
000000f0: e1b3 18da afd0 f837 0a1b 47dd 143c ced7
0.025968188 0.01930068 0.010176723 0.010878566 -0.006667508 0.0038601363 0.007369351 -0.018247917
0.0038601363 0.014387781 -0.024915425 0.017896995 0.0 -0.00947488 -0.0077202725 -0.021055289
0.020002523 -0.0077202725 -0.012282251 0.01193133 -0.010878566 -0.011580409 0.0045619793 -0.004211058
-0.0014036859 -0.007369351 0.025968188 -0.0098258015 0.008773037 -0.029828325 0.006667508 0.00070184295
-0.007369351 0.027722796 0.014036858 -0.004211058 0.0080711935 -0.0024564504 0.002105529 -0.008773037
0.02140621 -0.020353446 0.01649331 0.006667508 -0.006667508 0.0098258015 -0.028775562 -0.017896995
-0.015089624 -0.009123959 0.014738702 -0.020704366 0.021055289 0.013685937 -0.013685937 -0.0017546073
0.016844232 -0.02386266 0.019651603 -0.02631911 0.022458974 -0.0045619793 0.015791466 -0.011580409
-0.027722796 0.024564503 -0.010878566 -0.0056147436 0.0056147436 -0.028073717 -0.0014036859 -0.009123959
0.0098258015 -0.025968188 -0.004211058 -0.0031582932 0.0045619793 0.020353446 -0.0038601363 -0.016844232
0.008773037 0.021055289 -0.01930068 0.017896995 -0.02386266 0.0080711935 0.014387781 0.027020954
0.020704366 -0.017546074 0.005965665 0.005965665 0.03088109 -0.022108052 0.017546074 0.023160817
-0.01193133 0.0031582932 0.005965665 -0.0010527645 -0.014036858 -0.022809897 0.028073717 -0.007369351
-0.01894976 -0.0035092146 -0.016844232 -0.02351174 0.018598838 0.004211058 -0.0024564504 -0.032284774
0.00947488 -0.021055289 -0.032635696 -0.015089624 0.011580409 0.011229487 0.017195152 -0.027722796
-0.012282251 0.011580409 0.0038601363 -0.005263822 -0.015089624 -0.011580409 0.014387781 0.016142387
-0.025266346 0.01193133 -0.007369351 0.01894976 -0.028775562 -0.015791466 0.015440545 -0.01930068
-0.020353446 0.02351174 0.0045619793 -0.020704366 0.007018429 -0.00070184295 0.009123959 0.01894976
-0.0063165864 0.014738702 0.010176723 0.0028073718 0.024213582 -0.021757131 -0.017546074 -0.0077202725
0.029477404 0.0031582932 -0.012984094 0.026670031 -0.021757131 0.012633173 0.009123959 -0.019651603
0.015440545 0.01894976 0.0017546073 -0.0038601363 -0.031933855 -0.025266346 0.0056147436 -0.0035092146
-0.024213582 -0.023160817 0.011580409 0.012984094 -0.009123959 -0.0080711935 -0.012633173 0.02386266
-0.012633173 0.004211058 -0.0035092146 -0.0038601363 -0.0056147436 0.010878566 -0.0024564504 0.008422116
0.018598838 -0.0063165864 -0.017195152 -0.021757131 -0.01193133 0.0049129007 -0.01894976 -0.024564503
-0.013685937 -0.011229487 -0.004211058 -0.01894976 -0.015440545 -0.013685937 0.015089624 -0.020002523
0.013685937 -0.021757131 -0.012633173 -0.010176723 -0.005263822 0.0056147436 0.006667508 -0.017195152
-0.015089624 0.0031582932 -0.022108052 0.024564503 0.010176723 0.0098258015 -0.017546074 0.012633173
-0.019651603 0.027371874 0.0063165864 0.00035092147 0.00947488 0.011580409 0.0038601363 -0.0028073718
-0.027371874 -0.002105529 0.02351174 0.02631911 0.018247917 -0.007369351 0.022108052 0.0038601363
0.02631911 0.02386266 -0.020704366 0.010176723 0.020704366 -0.008422116 0.014036858 0.0080711935
-0.010878566 -0.027020954 0.008422116 -0.013335016 -0.02842464 -0.016844232 -0.0028073718 0.01930068
0.0035092146 0.00947488 0.024915425 -0.012282251 0.007018429 0.021055289 -0.017546074 -0.014387781
