saved_model/quantized_models/layers7/trial1/paramcount325575.tflite (tflite, 340448 bytes, 32 tensors)

sequential_2/dense_5/MatMul f4 [7, 64]
00000000: 676d 293d 5cd5 90be 6810 02be 3209 89be
00000010: 7564 f63d 4557 b03d 7d35 543e 234e 4c3e
00000020: f28e f9bd 012c f9bd dccc c4bd d84a e23d
00000030: fd38 91bd 23c9 3dbe 2b75 56be eb1e 82be
00000040: 60c6 803e 9b26 6bbe f729 8ebe 4572 88be
00000050: a184 96be 05bf 1c3e fddd 19be c5b3 42bd
00000060: f250 8b3e 6393 76bd ddc7 1fbe 9baf 463e
00000070: 9828 883e 0ad4 bfbd 83c1 52bd 7889 5d3e
00000080: eca4 39be 23dd 27be d611 14be 9a44 ac3d
00000090: 8ddb 7b3d c45e 2abe 6daf e3bd 27a5 503e
000000a0: f982 243e 73a9 ce3d dbca 14be ee6e 66be
000000b0: b038 77be 7f72 17be 040b a4bd 7049 97be
000000c0: f4c7 b2bd 3346 a53d 02e5 1e3e 7324 d8bc
000000d0: f554 a5bd ebb2 1f3e 275b 443e 1fdd d9bd
000000e0: cbaa 833d ea2d 9abe 1b73 a03d c393 943b
000000f0: 52ef 853e 9b34 4c3e 1942 73be 3f2a 6a3e
00000100: 2b75 813e 9795 b7bb 6758 c4bc 64ec 693e
00000110: 65f4 84be a486 91be cc44 c4bc c31c 2ebe
00000120: 1d3f 5cba 5afd 1fbd 164f 53be 5be6 8abe
00000130: 6f9d 863c 2ac9 1abd d75d 4d3e 4299 553e
00000140: c6f8 bd3c e93f c43d 13e3 e0bd 92cb 883e
00000150: 3b77 db3d 4f3e 153e 7eea ad3d b07d 38be
00000160: 0ba0 fcbc c37f 9b3d 5332 c7bb ac03 2d3e
00000170: 69df 77bd 54cb a3bb 163a 14be c023 11be
00000180: 3461 61bd 11fa 8f3e 08cb 0e3e 11a9 46be
00000190: 11e4 723e 585c 6c3e deb2 d23d 48ee 8bbd
000001a0: 6f12 45be 5d8f b33d 2f9d 8b3e fec3 d93c
000001b0: a5ce 503e 1726 633d e9a8 f63d f843 393e
000001c0: c105 20be 95fd 4e3d 2f02 ecbc f772 1bbe
000001d0: d991 78bd 723f 1d3e 5364 303e 33f1 53be
000001e0: f609 83bd b9d7 87bd 254d 513e de65 b03d
000001f0: 9341 32be 557c 873c e44a b03c 8db4 f8bc
00000200: 7003 f73d ed88 83bc f11b 42be 3665 503e
00000210: ddd1 c9bd e4cb 61be 6eb3 86bb 6a48 8a3e
00000220: 1712 663e c941 493d d74d f4bd 5ec8 7d3d
00000230: a81e 883e 513e 853e 95d0 6fbe 9d2f b9bd
00000240: 9854 6cbe 8086 343e b307 54bb 3aac 333e
00000250: 45cc 0bbd d8ee 81be 93b6 763e 2aca 533e
00000260: 2f56 3c3e 03ef 88bd 8cd3 833e 3b46 e3bd
00000270: 94ce 593e 571a 423d e5bb dbbd 5609 243e
00000280: 1588 0d3e c8e4 28be 83e8 0c3e c9b7 16bd
00000290: 41be 2dbe 6310 693e 4bc5 a83d 9708 333d
000002a0: b1b0 3b3e 10d6 573e 856e 413e 1aad 38be
000002b0: 7ec9 46be 88d0 61be 8237 3d3d 5e39 a23c
000002c0: b19b 59be 2fa9 2a3e 9427 903e 0393 493e
000002d0: c8aa 51be a543 623a 25c5 223e c5f0 3ebe
000002e0: 9317 57be 3bc2 b23d 7c64 833e c8d1 933d
000002f0: 494e 593e 64e5 f6bd 58c6 27be 5372 d9bc
00000300: a285 893e 0918 cf3d 31b7 453d 8845 23bd
00000310: 4fea 1e3e bb0d 89bd 0bbc 91be f8c6 8dbd
00000320: d481 643e 0a30 163e 4942 0abe 81cf d3bc
00000330: 3178 263e b153 80be d8e9 b6bd 05d9 83be
00000340: 78e0 17be fd8b d53d 15bc e6bb 47e6 ccbd
00000350: c6dd 3cbd e151 8dbe 13e8 1c3e d450 4bbe
00000360: 9539 123e 9831 1fbe 0859 db3d 186e bc3d
00000370: e9b3 8abd cb62 433e 4845 923e 57e3 3e3d
00000380: efb8 1f3e 6436 d1bd 5f56 0a3e 872f 393e
00000390: 5b54 bdbd aba6 fdbd d24a 2dbe ac8c 1a3e
000003a0: 5c40 913e b5a8 263e 526e 873e 373e 55be
000003b0: 0002 ddbd 0d65 4e3e 1e2f 93bd 8c5c 603e
000003c0: f340 843e ab81 383e e05d 92bd 576a 51be
000003d0: 10ef 133e f4ea 1ebe 72ec 98bb 59ec 35be
000003e0: fb5d 5b3c 979a 203e cdba 3b3e be08 753e
000003f0: 4446 1e3e 056c fb3d 0dbc 9b3c dd6d 28be
0.0413641 -0.2828778 -0.12701571 -0.26764828 0.120308794 0.08610395 0.20723529 0.19951682
-0.12185468 -0.12166596 -0.09609386 0.110494316 -0.07090948 -0.18533759 -0.20943134 -0.25414214
0.25151348 -0.22963946 -0.27766392 -0.2664968 -0.29398063 0.15307243 -0.15026088 -0.047534723
0.27210194 -0.060199153 -0.15603586 0.19402926 0.2659347 -0.09366615 -0.05145408 0.21634471
-0.18129319 -0.1639295 -0.14459929 0.08411522 0.061488677 -0.16637713 -0.11117444 0.203755
0.16065587 0.100909136 -0.14530508 -0.22503254 -0.24142718 -0.1478977 -0.080099136 -0.29548216
-0.08729544 0.0807003 0.15517047 -0.026384568 -0.08072845 0.15595596 0.19175397 -0.106378786
0.064290605 -0.30113155 0.078344546 0.004534216 0.2615915 0.19941942 -0.23755683 0.22867678
0.25284705 -0.0056025493 -0.023967935 0.22844082 -0.25967708 -0.28423035 -0.023958586 -0.17003159
-0.00084017386 -0.039059974 -0.20635638 -0.27128872 0.016432492 -0.0377895 0.20055328 0.20859244
0.023189913 0.095825024 -0.10980811 0.26717812 0.10716101 0.1457455 0.084919915 -0.18016696
-0.030838033 0.07592728 -0.006078997 0.16895932 -0.060515795 -0.004998604 -0.14475283 -0.14173794
-0.05502434 0.28120473 0.13944638 -0.19400431 0.23719813 0.23082101 0.102880225 -0.06832558
-0.19245313 0.08767579 0.2726836 0.026582714 0.20391329 0.055456247 0.12043936 0.18092334
-0.15627195 0.050534803 -0.028809635 -0.15180574 -0.060685966 0.15356234 0.1722577 -0.20697479
-0.06398384 -0.06632943 0.20439585 0.086131796 -0.17407827 0.016538778 0.021520086 -0.03035953
0.120612025 -0.016056502 -0.18955971 0.20351109 -0.09854481 -0.22050434 -0.004110745 0.27008373
0.22467838 0.049135003 -0.11928909 0.061958663 0.2658589 0.26024106 -0.23419411 -0.09042285
-0.23079145 0.17629433 -0.0032353222 0.17546168 -0.034130353 -0.25377536 0.24093084 0.20682588
0.18392251 -0.06686213 0.25747335 -0.1109738 0.2127021 0.0473884 -0.107291974 0.16019186
0.13821442 -0.16493523 0.13760571 -0.036796365 -0.16967107 0.22760157 0.08240756 0.043709364
0.18329121 0.21077752 0.18889816 -0.18034783 -0.194128 -0.22052205 0.046195515 0.019802745
-0.21250798 0.16666101 0.28155196 0.19684987 -0.20475304 0.00086312956 0.15895517 -0.18646534
-0.21005087 0.08728453 0.256626 0.07217747 0.2122127 -0.120554715 -0.16384256 -0.026543772
0.26859766 0.10112006 0.048270408 -0.039861232 0.15519069 -0.06692072 -0.28463778 -0.06922716
0.2231515 0.14666763 -0.13501848 -0.025855782 0.16256787 -0.2506385 -0.08931321 -0.2575151
-0.14831722 0.10427091 -0.007041464 -0.100048594 -0.046109937 -0.2760153 0.15322904 -0.19855052
0.14279778 -0.15546262 0.10710341 0.09200686 -0.067725964 0.19080655 0.28568482 0.046603527
0.1559789 -0.10215452 0.1350951 0.18084536 -0.09244605 -0.12385305 -0.16923073 0.15092725
0.28369415 0.16275294 0.26451355 -0.20824514 -0.10791397 0.20155735 -0.07186721 0.21910304
0.25830802 0.18018214 -0.071468115 -0.20450722 0.14446664 -0.15519315 -0.0046668584 -0.1776594
0.013389106 0.15683971 0.18332978 0.23929116 0.15456492 0.122764625 0.019010568 -0.1644816

sequential_2/conv2d_14/BiasAdd/ReadVariableOp f4 [3]
00000000: d0c2 053c 5e71 153b 6706 1d3a
0.008164123 0.0022803168 0.0005990029

sequential_2/conv2d_15/BiasAdd/ReadVariableOp f4 [3]
00000000: bda9 42bc c543 9fbb dbe4 23bb
-0.011881289 -0.0048603737 -0.0025008235

sequential_2/conv2d_16/BiasAdd/ReadVariableOp f4 [3]
00000000: 73ba 153c 486d 00bc ee09 e83b
0.009138691 -0.007838555 0.007081262

sequential_2/conv2d_17/BiasAdd/ReadVariableOp f4 [3]
00000000: 1cce 3c3c 9799 37bb c17e 41bc
0.01152375 -0.002801513 -0.011810006

sequential_2/conv2d_18/BiasAdd/ReadVariableOp f4 [3]
00000000: 3feb 283c 8a6b 463c eee4 d4bb
0.010309993 0.0121106 -0.006497017

sequential_2/conv2d_19/BiasAdd/ReadVariableOp f4 [3]
00000000: 6e48 34bc 8718 0d3c 5465 fabb
-0.011003597 0.008611805 -0.007641474

sequential_2/conv2d_20/BiasAdd/ReadVariableOp f4 [3]
00000000: 2b17 46bb 575d d73b c9d6 90bb
-0.0030226212 0.0065724063 -0.0044201356

sequential_2/conv2d_14/Conv2D f4 [3, 3, 3, 1]
00000000: 98bc f5bd 33bb 4fbe 0301 153e b44c 6f3e
00000010: 375b 233e 88d8 b9be 5469 cebe 06c0 bfbe
00000020: 0fff bebe 1a1f 2bbe 3955 473d 33d6 a9bb
00000030: 4150 c9be 79b5 b73e b1d2 0c3d f2ce 42be
00000040: d0c1 b03e 26ea 93bd 7be2 b9be 4aa4 acbc
00000050: d356 b93e 6f88 2cbd 8c26 2fbe 3752 febd
00000060: 1de3 d3be 752d bd3e cf92 afbe
-0.11998862 -0.20286255 0.14551167 0.23369104 0.15952764 -0.36298013 -0.40314734 -0.3745119
-0.3730397 -0.16711083 0.04866526 -0.0051830052 -0.3931904 0.3588064 0.03438062 -0.19024256
0.34522867 -0.07222395 -0.36305603 -0.021074433 0.36199054 -0.0421223 -0.17104548 -0.12418025
-0.4138421 0.36948743 -0.34291694

sequential_2/conv2d_15/Conv2D f4 [3, 3, 3, 3]
00000000: e617 1bbe 9743 a8bd 5b33 49be 94c3 a13e
00000010: 4233 6a3e 6166 8e3e 3f5a 833b 7d5b f8bc
00000020: 7e15 273e a5a2 58be 0322 e93d 0a1c 9fbd
00000030: aba2 12be b1fa 8b3e e6cb a5be 0a9b 50be
00000040: 7d6a 853e 91da 24be 6e11 853e f7bd cfbd
00000050: 747f 74be ed87 6e3e 7aca 813e 1011 26be
00000060: d4a7 74be 5166 82be f79a 943e 3f91 163e
00000070: 9066 dd3d 35c4 c43c 1e3c 91be 7041 733e
00000080: 9a60 0fbe e6c0 a4be 286a 743e fd3d a7bd
00000090: 84db 7cbe 1811 833e 682c 6bbe abd8 ba3d
000000a0: 18ad a13e 744c 23bd 4119 ef3d 0d48 503e
000000b0: 6b50 8fbe dc28 a9be cc2b 243e 7858 94be
000000c0: 916c 8b3e f0b6 eabd 8167 593d 5ccb 963e
000000d0: 5dd0 9cbe d52c a1bd 01f5 8fbe 0be1 173e
000000e0: 7670 5cbe d2b2 0abe fc59 7a3a dff8 803e
000000f0: 52cd 623e 6c27 c0bd 642c 4ebd 550a 44be
00000100: f5f4 ed3d 2f71 033d 366f 2bbe 259b a03d
00000110: 04cd 393d edb6 5f3d 4377 873e d42c 6e3e
00000120: cf97 51be 0e0b 173d a2f3 62be 49ac 05bd
00000130: 2360 433d 81b9 433e a9e8 8b3d 06d5 a33d
00000140: 6780 263e
-0.15145835 -0.08216017 -0.19648497 0.31594527 0.22871116 0.27812484 0.004008561 -0.030317063
0.16316792 -0.21155794 0.1138344 -0.0776902 -0.14319865 0.273397 -0.32382125 -0.20371643
0.26057807 -0.16099001 0.2598986 -0.10143655 -0.23876745 0.23294039 0.2534979 -0.16217446
-0.23892146 -0.25468686 0.2902448 0.14703844 0.10810578 0.02401934 -0.28366178 0.23755431
-0.14001694 -0.3217842 0.2386862 -0.0816612 -0.24693114 0.2559898 -0.22966158 0.091233574
0.31577373 -0.039867833 0.11674739 0.20339985 -0.27991042 -0.33038986 0.16032332 -0.28973746
0.27231267 -0.11460674 0.053077225 0.29452026 -0.3062772 -0.07869879 -0.2811661 0.14831941
-0.21527275 -0.13544777 0.0009550152 0.25189874 0.22148636 -0.09382519 -0.050335303 -0.19144566
0.116189875 0.032090362 -0.16741642 0.078420915 0.045361534 0.05461781 0.26458177 0.23259288
-0.20468067 0.036875777 -0.22163251 -0.032635007 0.047699105 0.19113733 0.06831486 0.07999615
0.16259919

sequential_2/conv2d_16/Conv2D f4 [3, 3, 3, 3]
00000000: d530 1a3d 8bb7 8b3e 29d0 e1bd 2bb6 033e
00000010: 91f4 02be b680 503e d38b 06be 50d8 47be
00000020: f43a 2a3e 2831 96be 36a1 963e dce5 8c3e
00000030: 3959 f4bc c918 c73d 273a 483e 6705 2abe
00000040: 4c46 8cbe 35b7 dcbd 04bd 513e 0758 9fbe
00000050: a80d 203e 2649 8ebd 0f14 043d a08e 4f3e
00000060: ce6b 2cbe 6091 23be 281a 8cbe 6871 14bd
00000070: cdcd 033e cc60 a7be 6851 023e f156 213e
00000080: 49a9 a1bd b323 e4bc 7349 473e b76b 133e
00000090: 816c 353e c7f0 673d 9718 93be df73 a23d
000000a0: c1e1 59be 8249 b53c 0d05 a3bd 2a1d b53d
000000b0: 3b1c 4a3e 03e7 5e3e ed8a 54bd d5f7 17be
000000c0: 4dad 1cbe c6b5 9b3e d8ad 833e fc41 033e
000000d0: 6a74 37bc c945 58be 7637 ff3c f8c6 74be
000000e0: bf56 9fbe f5b5 acbe f376 a73d d0dd 1a3e
000000f0: 622c a6bd 0d1b e8bd b04e 683e a562 1a3e
00000100: 3544 2fbc bca4 173e bb61 a43d 1a63 243e
00000110: f384 af3d f17b 5a3e 1e03 19be 7103 833e
00000120: 4226 813e a1ab 96be fae9 2abe 2d50 90be
00000130: 7b82 823e 24be 7dbe ef67 123e a9ed 81be
00000140: 3112 533e
0.037644226 0.2728847 -0.110260315 0.1286246 -0.12788607 0.203616 -0.13139276 -0.1951611
0.16624051 -0.29334378 0.2941987 0.2751912 -0.0298277 0.09721524 0.19553433 -0.16603623
-0.27397382 -0.107771315 0.2048226 -0.31121847 0.1563021 -0.06947546 0.032245692 0.20269251
-0.16837999 -0.15973425 -0.27363706 -0.036240965 0.12871476 -0.32691038 0.12726367 0.15755822
-0.07893617 -0.027849054 0.19461612 0.14396559 0.17717172 0.056626108 -0.28729698 0.07932257
-0.21277525 0.022129778 -0.07959948 0.08843453 0.19737332 0.21767811 -0.051890302 -0.14840634
-0.15300484 0.3041212 0.2571857 0.1281814 -0.011197189 -0.21120371 0.031154376 -0.23904026
-0.3112087 -0.33732572 0.08176985 0.15123677 -0.08113934 -0.113332845 0.22686267 0.15076692
-0.010697414 0.14808935 0.08026453 0.16053429 0.0857028 0.21336342 -0.14942595 0.25588563
0.252245 -0.29427817 -0.16690817 -0.2818617 0.25490174 -0.24779564 0.1429746 -0.25376633
0.20612408

sequential_2/conv2d_17/Conv2D f4 [3, 3, 3, 3]
00000000: 4de2 3a3e 2791 a9be 0a67 413e 8473 313e
00000010: 8414 933e cfaa e6bd 7285 23be 779e a5be
00000020: e0c1 3a3e af71 39be 917a dc3c ddbb 463d
00000030: f689 0b3e b41a 8fbe e026 a0be daf3 023d
00000040: b1d6 703e a4cf 993e e23a 7e3e 06bc c7bd
00000050: fec6 82bc 781c 3abe 46a2 a43e be73 aa3c
00000060: f4d9 2d3e 453b 32bc 4a56 833e bc68 893e
00000070: 2123 d3bd 6084 3b3e 46b8 113e 9fad 373e
00000080: de13 293e 480b 193e 57e6 313e 0129 eebd
00000090: 5f8a 06be abcc 7f3e 2fc5 d8bd cba9 21be
000000a0: 804c 6e3e a1d8 40be c0a8 e4bd e790 98be
000000b0: 1bab cabc e41e 1b3d 8314 a0bd 5c8b 233b
000000c0: 41de d1bd b49e b63c c516 4c3e 9913 593e
000000d0: 4c4c 08be 124e 8c3e 89b6 493e a463 61be
000000e0: c275 5c3e ff7f 28be 5d6f a5bc a5d2 13be
000000f0: 01ef 0f3e bda8 20be 2c1f 9abe 1851 6abe
00000100: bf8f 923c cc03 50be 8614 71be 531f a7be
00000110: 952d a2be 4fc2 793e 0eda 9cbe d23d 2b3d
00000120: 1d63 9c3e 2797 883e dc16 97be d174 7dbe
00000130: 6a8d 53be c36d 7fbe a2a6 d2bd 2075 a93e
00000140: f4bf 72be
0.1825039 -0.33118555 0.18886963 0.17329222 0.2872659 -0.11263048 -0.15968874 -0.32347462
0.1823802 -0.18109773 0.026913913 0.048519004 0.13626847 -0.2795006 -0.3127966 0.031970836
0.23519398 0.3004123 0.2482715 -0.097526595 -0.015964027 -0.18174922 0.32155055 0.020807143
0.16977674 -0.010878389 0.2565177 0.26837718 -0.10309435 0.18312216 0.14230451 0.17937325
0.16511485 0.1494571 0.17373024 -0.116289146 -0.13138722 0.24980418 -0.10584485 -0.15787427
0.2327137 -0.18832637 -0.11164999 -0.29798052 -0.024739793 0.037871256 -0.07816412 0.002495489
-0.1024747 0.022292472 0.19930561 0.21198882 -0.13310355 0.27403313 0.19698538 -0.22010666
0.21529296 -0.16455077 -0.020194704 -0.14435823 0.14056017 -0.15689369 -0.30101907 -0.22882497
0.01789081 -0.20313948 -0.23542985 -0.32641086 -0.316754 0.24390529 -0.30635113 0.041807003
0.30544367 0.2667782 -0.29509628 -0.24751593 -0.20659414 -0.24944215 -0.10285689 0.33097172
-0.23706037

sequential_2/conv2d_18/Conv2D f4 [3, 3, 3, 3]
00000000: b247 61be 5e0d 18be a132 22be aa97 a13d
00000010: 2b1f 453e 724e 263e 6cbd 07bd 2ccc 93be
00000020: df54 393e 3537 03bd 465e 69be b7e7 e63d
00000030: 91d4 a3be 343e 63be 2387 30bc 153b 60be
00000040: 2cfc 1a3c 6298 3ebe f233 58be d5c1 e2bd
00000050: a2c2 32be 6f6b d73b 5abc 98be 1301 8a3d
00000060: 9d82 a83e 20ca 4b3e 3058 523d 3ffd 173e
00000070: 776a 2cbe f36e afbe 4208 943b a3b4 913e
00000080: 22fd 3a3d d825 9abe 57ac 2b3e e569 a4be
00000090: 9ada 513e 7b9a 663e d1a6 c2bd 9f87 df3d
000000a0: 4730 923e 4886 573e 937b 943e 976c 1ebd
000000b0: 04df bdbd 81e8 993e 6ec1 863c 0cb3 153d
000000c0: d852 5bbe f158 8bbd 6bdf 2c3e b2cc 6ebe
000000d0: ec2c 373e 5364 80be e8fd c13d 8fe8 6f3e
000000e0: dd1c 35be aa78 11bc ebd0 a3bd 39f9 443e
000000f0: e39c 643e d501 6fbe e15b 253e 31f2 893e
00000100: 7ffb 20be aea5 bebd 55cd 763e e875 a63d
00000110: 051e 83be c9c0 95bd fd3d 21be 7ff0 27be
00000120: bc95 a9bd 2be0 a8be d777 023e 2959 7ebe
00000130: 72a8 68be 82ab ac3e 438d dabd 14ee 0b3e
00000140: a3c8 d1bd
-0.22000006 -0.14848849 -0.15839626 0.07890256 0.19250171 0.16240862 -0.03313963 -0.28866708
0.18098782 -0.03203507 -0.22789869 0.11274665 -0.31998113 -0.22191697 -0.010774407 -0.21897538
0.0094595365 -0.18612817 -0.21113566 -0.11072127 -0.17457059 0.0065740864 -0.298312 0.06738486
0.3291215 0.19901323 0.051353633 0.148427 -0.16837488 -0.34264335 0.004517586 0.28458127
0.045651563 -0.30106997 0.16764961 -0.3211204 0.20493546 0.22519867 -0.09504474 0.109145395
0.28552458 0.21047318 0.2900053 -0.038677778 -0.092710525 0.300602 0.016449656 0.036547706
-0.21418321 -0.068040736 0.16882102 -0.23320273 0.1788823 -0.2507654 0.09472257 0.23428558
-0.17686792 -0.008878866 -0.07998832 0.19235696 0.22325473 -0.23340543 0.1614833 0.2694259
-0.15720938 -0.09308945 0.24101765 0.081279576 -0.2560884 -0.073121615 -0.15746303 -0.16400336
-0.08280513 -0.32983527 0.12741028 -0.248387 -0.22720507 0.337246 -0.10671475 0.13665038
-0.102433465

sequential_2/conv2d_19/Conv2D f4 [3, 3, 3, 3]
00000000: 2ebc a53e 43f1 383e 66f8 47be a57c 1f3e
00000010: 2163 ef3d 26ab 923d be6d 0dbd 33ee b1bd
00000020: c1fb 8b3e 9c9c 4d3e 6677 ffbd db9c f7bd
00000030: 6cfc db3d 7997 8c3e ffb2 533e 8131 97be
00000040: cab0 64bd 156d 1dbe 6159 a43e 1d9d 833d
00000050: 251e 7b3e 2e2a 46bc 6db0 a63d 76b1 80bd
00000060: 187c dc3d 8fab 23be 67a6 203e 0457 a4be
00000070: 06cd 67be 7762 9e3e 9938 27be c276 78be
00000080: 5e2b f53d 0ae3 683e 9359 8d3e 6ac8 823d
00000090: 36a1 4e3e ab6c a7bd dd74 94be 3502 a9be
000000a0: 1f94 79bd 2ea4 2a3e ae8f 093d 1440 093e
000000b0: 0e90 28be 03ba 513e 826c a7bd 38bc e73d
000000c0: 8785 183d 177a 5e3e ac97 213e b261 2d3e
000000d0: 9a94 383e 173e 9b3e 8b21 433e 8a99 e93d
000000e0: 9735 b2bd 8e71 9d3e db16 b93d be75 2fbe
000000f0: 0989 713e 1f4a 2bbe 1ff8 0abe 733b 8ebc
00000100: 59ae 6fbe e55b e3bd d7ee f63d 1f78 393d
00000110: dc74 93be 2cb0 3a3c f80e 843e ef82 1abe
00000120: 0cfc 57be ea11 7bbd 99b2 2c3e cf8e c43d
00000130: 1a98 523d 62c1 10be 3b51 143e 8dbe 85be
00000140: 2ba3 6c3c
0.32370132 0.18060784 -0.1952835 0.15574892 0.11688829 0.0716155 -0.034528486 -0.08688011
0.2734051 0.20079273 -0.12473945 -0.12090465 0.10741505 0.27459314 0.2067375 -0.29529956
-0.05583266 -0.15373643 0.3209944 0.06426451 0.24523218 -0.012095017 0.08139119 -0.06283848
0.107658565 -0.15983413 0.15688477 -0.32097638 -0.22636804 0.30934498 -0.16330184 -0.24264053
0.11971162 0.22742859 0.27607402 0.06385882 0.20178685 -0.08175024 -0.2899541 -0.33009496
-0.060932275 0.16664192 0.03358429 0.1340335 -0.16461203 0.20481114 -0.08174993 0.11315197
0.037236717 0.21726261 0.15780514 0.16931799 0.18025437 0.30320808 0.19055764 0.114062384
-0.08701628 0.30750698 0.090375625 -0.17134759 0.23587431 -0.16727494 -0.13571213 -0.017362332
-0.23406352 -0.11101512 0.12057274 0.045280572 -0.28800094 0.011394542 0.2579267 -0.1508901
-0.21092242 -0.06129638 0.16865005 0.09597551 0.051414587 -0.1413627 0.14484112 -0.2612194
0.014443199

sequential_2/conv2d_20/Conv2D f4 [3, 3, 3, 3]
00000000: 1fea 4bbd 4240 64be 79cb 8abe 7dae 9d3e
00000010: 9d95 7fbe cf04 923e 8ce0 213e aedc 7b3e
00000020: 0579 963e 4cad a13e 0f56 86be 8066 b73d
00000030: 5bdb cfbd a641 27be f5f2 d2bd 9931 9ebe
00000040: 1cae 6ebe 6d42 86be d5de 7b3a 79b7 6bbe
00000050: 989e 64be 37c8 9a3e 8b37 10be 6146 b33d
00000060: c42e 51be f7cf 82be 53ac 623b f947 30be
00000070: 2dd7 d03d fc19 8ebe 6938 7bbe 81d4 2ebe
00000080: 84fe 22be 6458 56be d398 8b3e b535 883e
00000090: b251 d83d a8ec 9ebe 9c98 cebd 232e 173e
000000a0: 9d4c b8bd 5a9e ab3e 2869 b9bc 8405 6e3e
000000b0: 9a92 973d 82fd 483e 6128 b13d 74ee 43be
000000c0: 984f bbbd 6619 acbe d0fd 063e b8ce 5d3c
000000d0: 31a3 723e 0ee3 a73e ad92 67be 8ad1 5abd
000000e0: a448 84be be8c b2bd a4fa afbe e8fc 843e
000000f0: 29ca 003d fffd 9f3e da64 2f3e 8082 913e
00000100: cc7a cabd aeed ccbd 8879 913e 2ef8 36be
00000110: 8def 9cbc e529 353e a696 6fbe dd8e 8a3e
00000120: d4c3 4b3e d425 913e 5653 60be a83a 50be
00000130: b2cd 23be 87ba a3be f534 72bd f5b7 8c3e
00000140: c149 2c3e
-0.049783822 -0.22290137 -0.27108362 0.30797186 -0.24959417 0.28519294 0.15808314 0.24595901
0.29389206 0.31577528 -0.26237532 0.08955097 -0.101492606 -0.16333637 -0.103002466 -0.30897215
-0.23308605 -0.26222554 0.00096080947 -0.23019208 -0.22326124 0.30230877 -0.14083688 0.08753658
-0.20427996 -0.2554929 0.0034587577 -0.17214955 0.101972915 -0.277542 -0.24533238 -0.17073251
-0.15917403 -0.20932156 0.27265033 0.26603475 0.10562457 -0.3103993 -0.10087702 0.14763694
-0.08998988 0.3351925 -0.02263315 0.23244292 0.07401009 0.19627956 0.0865028 -0.19133931
-0.09146041 -0.33613127 0.1318276 0.013538055 0.23695065 0.32790416 -0.22614546 -0.05342249
-0.2583667 -0.08718251 -0.3437091 0.25974202 0.031442795 0.3124847 0.17128316 0.28419876
-0.09886703 -0.10006271 0.28413033 -0.1786811 -0.019157195 0.17691763 -0.23397312 0.2706212
0.19898921 0.28349173 -0.2190679 -0.20334876 -0.15996435 -0.31978247 -0.059132535 0.27484098
0.1682501

sequential_2/dense_5/BiasAdd/ReadVariableOp f4 [7]
00000000: 8420 c8bc dc93 6ebb d296 2d3b 6e83 97bb
00000010: 294d 033c 5c05 1fbb 21cb 6b3a
-0.024429567 -0.003640405 0.00264876 -0.004623822 0.008014002 -0.002426467 0.0008994807

sequential_2/dense_4/BiasAdd/ReadVariableOp f4 [64]
00000000: 0a0e ebbb ad9d a5bb c1cf 83bb fa22 493a
00000010: 39df 0dbb 53d4 94bb 743c 8dba 3e9d e93a
00000020: 3425 bcbb 3d67 7c3a 9144 1ebb c4ee 0abb
00000030: f426 d1bb 6e47 94bb 111e c7bb 14a0 e9bb
00000040: c3e2 b9bb 23ca 033b ef35 0a3c 3c43 a4ba
00000050: 43a4 cbbb 2721 1cbc 431c 423b 1078 81bb
00000060: 9ed1 99bb abb2 e239 f9c5 cfba 80e6 02bc
00000070: c122 83bb ef19 8dbb 7c91 083b 405b dbba
00000080: 0910 5c3b 30b4 4dbb f42c 4e3b 24a6 4bbb
00000090: 0ebc 6cba 0932 84bb 5dfe 2ebb 5012 8ebb
000000a0: c0f3 e0bb 3836 95bb 4577 94bb a11e 26bb
000000b0: b850 4dba 67de b239 0d88 b7bb 761f 07bb
000000c0: 7d37 383b 1e1e 79bb 8416 4c3b 7559 bcba
000000d0: 1fdd d6ba 0ac1 2bbc 2cc9 a9bb 5ca2 edba
000000e0: 3178 523a 6ec4 bb3a c888 b83a de19 283b
000000f0: c422 32bb 3e99 76bb 388d a1ba 1bb2 2dba
-0.0071733044 -0.005054197 -0.004022569 0.00076727534 -0.0021647944 -0.0045419126 -0.0010775463 0.0017823351
-0.0057417396 0.0009628421 -0.0024149755 -0.0021199444 -0.0063828174 -0.0045251166 -0.0060765822 -0.0071296785
-0.005672784 0.0020109497 0.00843571 -0.0012532244 -0.00621465 -0.0095293885 0.0029618896 -0.00395108
-0.004694178 0.00043239197 -0.0015851847 -0.007989526 -0.0040019457 -0.00430607 0.0020838669 -0.0016735569
0.0033578894 -0.0031387918 0.00314599 -0.003107437 -0.0009030708 -0.004034285 -0.0026701905 -0.004335679
-0.0068649948 -0.0045535825 -0.0045308196 -0.0025347846 -0.00078321574 0.00034116508 -0.0056009353 -0.0020618117
0.0028109245 -0.0038012336 0.003114135 -0.0014369922 -0.0016392804 -0.010483036 -0.0051814523 -0.0018130052
0.0008028774 0.0014325508 0.001407885 0.0025650184 -0.0027181366 -0.003762796 -0.0012325412 -0.0006625966

sequential_2/batch_normalization_14/FusedBatchNormV3 f4 [3]
00000000: 9aa2 963c df17 bf3b 6bb0 d43b
0.018388081 0.005831703 0.006490757

sequential_2/batch_normalization_14/FusedBatchNormV31 f4 [3]
00000000: 929b 09bf fa42 2bbf 56da 1ebf
-0.53753006 -0.66899073 -0.62051904

sequential_2/batch_normalization_15/FusedBatchNormV3 f4 [3]
00000000: b2de ec3f 2463 6940 e40f 983f
1.8505461 3.646676 1.187985

sequential_2/batch_normalization_15/FusedBatchNormV31 f4 [3]
00000000: 89c8 01bf 8062 38bf 4846 f1be
-0.5069662 -0.720253 -0.47123933

sequential_2/batch_normalization_16/FusedBatchNormV3 f4 [3]
00000000: 84df 753f df60 b33f b283 2740
0.9604418 1.4013938 2.617413

sequential_2/batch_normalization_16/FusedBatchNormV31 f4 [3]
00000000: 6bbd 2ebf c444 08bf 6575 26bf
-0.6825778 -0.5322993 -0.6502288

sequential_2/batch_normalization_17/FusedBatchNormV3 f4 [3]
00000000: 933d c03f 5428 883f b4b2 f63f
1.5018791 1.0637307 1.9273286

sequential_2/batch_normalization_17/FusedBatchNormV31 f4 [3]
00000000: a27c f2be 5c45 f3be 0eb7 c9bf
-0.47360712 -0.47513855 -1.5758989

sequential_2/batch_normalization_18/FusedBatchNormV3 f4 [3]
00000000: 1436 3040 fd96 293f 8198 7240
2.7533007 0.66246015 3.790558

sequential_2/batch_normalization_18/FusedBatchNormV31 f4 [3]
00000000: c9cf c6bf 7c9e 09bf 125c 86bf
-1.5532161 -0.5375745 -1.0496848

sequential_2/batch_normalization_19/FusedBatchNormV3 f4 [3]
00000000: d373 1a40 08e7 bd3f eb80 1640
2.4133193 1.483613 2.3516185

sequential_2/batch_normalization_19/FusedBatchNormV31 f4 [3]
00000000: bc68 89bf ac8c 14bf 118c aabf
-1.0735087 -0.5802715 -1.3323995

sequential_2/batch_normalization_20/FusedBatchNormV3 f4 [3]
00000000: 0dc6 e63f 1737 ec3f cc2d f93f
1.802919 1.8454312 1.9467101

sequential_2/batch_normalization_20/FusedBatchNormV31 f4 [3]
00000000: badb 9cbf 9494 8dbf df7e 87bf
-1.2254555 -1.1060967 -1.0585593

sequential_2/dense_4/MatMul i1 [64, 5070] scale=0.0004799277 zero_point=0
00000000: cf05 162f cc05 eb07 39e3 3b18 d303 b828
00000010: 090d c8fa e9ca 3a12 38dc 3225 28d1 3322
00000020: e6fe ae00 b303 df12 fd22 ebcb c917 0516
00000030: 5438 1724 1d20 3711 cf12 cdec e446 f6d1
00000040: f4c4 bae3 c0b7 e5e4 e40a 27b9 0bca 1fe7
00000050: ee04 10c3 c50b 3aeb cb04 37b0 b83c d3cf
00000060: 31eb 2fd4 dad6 35cc e12b 3236 0a2e cbee
00000070: 1f15 14fa 00d6 2b0d 4116 c412 0a12 3bd2
00000080: 122d 00ef f01a 0c18 ece3 feeb 2a2b f63f
00000090: 1fc6 1006 2dc5 c6e5 4d06 04f9 56ea 40c6
000000a0: af1c 01de 07d4 e8d2 38ec efe1 d10e 3924
000000b0: dc46 4227 d0f0 f538 eedd 2ede cbbe 113c
000000c0: 1edd 2de7 b5f9 25f7 1e19 ff35 ebce bff7
000000d0: ea2f c5cc 4420 c5e2 c14e 0fda dc1e 35dc
000000e0: 42eb eb34 fd20 44ff 31df 05ef 1fc9 f6b8
000000f0: 2b02 ae34 facc d715 2e22 eefa 3a3c 10bf
-0.023516458 0.0023996385 0.01055841 0.022556601 -0.02495624 0.0023996385 -0.010078481 0.0033594938
0.027355878 -0.013917903 0.028315734 0.011518264 -0.021596747 0.001439783 -0.034554794 0.019197108
0.0043193493 0.00623906 -0.02687595 -0.002879566 -0.011038337 -0.025916096 0.027835807 0.008638699
0.02687595 -0.017277397 0.023996385 0.017757325 0.019197108 -0.022556601 0.024476312 0.01631754
-0.01247812 -0.0009598554 -0.03935407 0.0 -0.036954433 0.001439783 -0.015837613 0.008638699
-0.001439783 0.01631754 -0.010078481 -0.025436169 -0.026396023 0.011038337 0.0023996385 0.01055841
0.040313926 0.02687595 0.011038337 0.017277397 0.013917903 0.015357686 0.026396023 0.00815877
-0.023516458 0.008638699 -0.024476312 -0.009598554 -0.013437975 0.03359494 -0.004799277 -0.022556601
-0.005759132 -0.028795661 -0.03359494 -0.013917903 -0.030715372 -0.03503472 -0.012958048 -0.013437975
-0.013437975 0.004799277 0.018717181 -0.034074865 0.005279205 -0.025916096 0.014877759 -0.011998192
-0.008638699 0.0019197108 0.007678843 -0.029275589 -0.028315734 0.005279205 0.027835807 -0.010078481
-0.025436169 0.0019197108 0.026396023 -0.038394216 -0.034554794 0.028795661 -0.021596747 -0.023516458
0.023516458 -0.010078481 0.022556601 -0.02111682 -0.018237252 -0.020156963 0.025436169 -0.02495624
-0.014877759 0.02063689 0.023996385 0.025916096 0.004799277 0.022076674 -0.025436169 -0.008638699
0.014877759 0.010078481 0.009598554 -0.002879566 0.0 -0.020156963 0.02063689 0.00623906
0.0311953 0.01055841 -0.028795661 0.008638699 0.004799277 0.008638699 0.028315734 -0.022076674
0.008638699 0.021596747 0.0 -0.00815877 -0.007678843 0.01247812 0.005759132 0.011518264
-0.009598554 -0.013917903 -0.0009598554 -0.010078481 0.020156963 0.02063689 -0.004799277 0.030235445
0.014877759 -0.027835807 0.007678843 0.002879566 0.021596747 -0.028315734 -0.027835807 -0.012958048
0.036954433 0.002879566 0.0019197108 -0.0033594938 0.04127378 -0.01055841 0.030715372 -0.027835807
-0.038874142 0.013437975 0.0004799277 -0.01631754 0.0033594938 -0.02111682 -0.011518264 -0.022076674
0.02687595 -0.009598554 -0.00815877 -0.014877759 -0.022556601 0.0067189876 0.027355878 0.017277397
-0.017277397 0.03359494 0.031675227 0.018717181 -0.023036528 -0.007678843 -0.005279205 0.02687595
-0.008638699 -0.01679747 0.022076674 -0.01631754 -0.025436169 -0.031675227 0.00815877 0.028795661
0.014397831 -0.01679747 0.021596747 -0.011998192 -0.03599458 -0.0033594938 0.017757325 -0.0043193493
0.014397831 0.011998192 -0.0004799277 0.025436169 -0.010078481 -0.023996385 -0.0311953 -0.0043193493
-0.01055841 0.022556601 -0.028315734 -0.02495624 0.03263508 0.015357686 -0.028315734 -0.014397831
-0.030235445 0.037434362 0.0071989154 -0.018237252 -0.017277397 0.014397831 0.025436169 -0.017277397
0.031675227 -0.010078481 -0.010078481 0.02495624 -0.001439783 0.015357686 0.03263508 -0.0004799277
0.023516458 -0.015837613 0.0023996385 -0.00815877 0.014877759 -0.026396023 -0.004799277 -0.034554794
0.02063689 0.0009598554 -0.03935407 0.02495624 -0.002879566 -0.02495624 -0.019677036 0.010078481
0.022076674 0.01631754 -0.008638699 -0.002879566 0.027835807 0.028795661 0.007678843 -0.0311953
