saved_model/quantized_models/layers7/trial1/paramcount869495.tflite (tflite, 893752 bytes, 32 tensors)

sequential_7/dense_15/MatMul f4 [7, 64]
000000 b1 95 fc bc 23 4d f6 3c 77 71 17 bd e2 ae 78 be
       -0.030833097 0.030066079 -0.036973443 -0.24285462
000010 6d cd 45 bc a9 91 7e 3e b1 0b b5 bd 74 f7 8a 3e
       -0.012072903 0.24860252 -0.088401206 0.27141917
000020 89 bb 0b be 50 7b 94 bd e6 0b 5b 3e 8b d9 1e be
       -0.13645758 -0.072500825 0.21391258 -0.15512674
000030 e3 74 54 be 2d 2d e6 bd 28 f2 d0 3d 4b 8d 8b 3e
       -0.20747714 -0.11239085 0.10202438 0.27256235
000040 8a 17 86 3e 00 68 3d 3e 5d b2 08 3e ac 34 13 be
       0.26189834 0.18496704 0.1334929 -0.14375561
000050 9e 0d 51 be 26 32 1a 3e 6a 75 32 be 3f 41 83 3e
       -0.20415351 0.15058193 -0.17427602 0.25635716
000060 81 f5 98 3d 82 f3 f5 bc c5 2c 8b 3e 72 b0 4b be
       0.07468701 -0.03002334 0.27182594 -0.19891527
000070 ff cb 46 3c 8e 2b bc bc 69 43 82 3c 7d fd 0b 3e
       0.012133597 -0.022969987 0.015901284 0.13670917
000080 e8 d0 31 be 07 7c 74 be 27 f9 9b bd 32 72 9b bd
       -0.17364848 -0.23875438 -0.076158814 -0.075901404
000090 a4 54 04 3e b9 ba d2 bd 23 fd 61 be 5d ca d6 bb
       0.12922913 -0.10289521 -0.2206922 -0.0065548853
0000a0 14 cd 41 3d cb 1d 12 bb da 1a 97 be d4 ce 58 be
       0.04731472 -0.002229559 -0.29512674 -0.21172649
0000b0 dd 47 0e 3d c3 0c 48 be 55 73 4c be 6a 11 ea bd
       0.034736503 -0.19536118 -0.1996587 -0.11429103
0000c0 00 38 4a be f2 fb 84 bd b5 af 79 be 36 54 4d be
       -0.19747925 -0.06493367 -0.24383433 -0.20051655
0000d0 97 a8 2d 3e db d6 79 be df 48 30 3e 9e 9a 53 3d
       0.16958843 -0.24398367 0.17215298 0.051661126
0000e0 dc a1 3a bb 7b 8a 80 bd 15 ba a2 3d 66 a4 58 3d
       -0.0028477823 -0.06276413 0.079456486 0.052891158
0000f0 dd c2 8e be 13 fe bf 3d 73 ea 6a 3e ab 3c 4f be
       -0.27883044 0.09374633 0.22940998 -0.20237987
000100 54 a2 7e 3e cf f7 b9 3d 3d 24 04 3c d1 93 e0 3d
       0.24866611 0.09080469 0.0080652805 0.10965694
000110 bb 71 6a be c5 8f cf 3d 17 59 4f 3d 4e 4d 7c 3e
       -0.22894947 0.10134844 0.050622072 0.24638864
000120 34 2f 85 3e de b4 0f 3d b1 09 a8 bb d2 bf 72 3e
       0.26012576 0.035084598 -0.0051281084 0.23705986
000130 08 16 0f be a2 97 f1 bd ea ce 9e 3d b5 3d 48 3e
       -0.13973248 -0.117965 0.077543095 0.1955479
000140 36 e1 29 3e 4b f0 62 3e 03 b1 41 3e 1d 75 5c 3e
       0.16589817 0.22161977 0.18915181 0.2152905
000150 79 20 91 bc 78 36 58 be f3 27 48 3e 07 c1 19 3e
       -0.01771568 -0.21114528 0.1954649 0.1501504
000160 25 99 f8 3d 0d 79 68 be 56 75 4e be 4a fa ee bc
       0.12138585 -0.22702427 -0.20161948 -0.029172082
000170 27 0d ad 3d 0d 0f e8 3d 88 b9 80 3e fd 65 4f be
       0.08449774 0.11330996 0.2514155 -0.20253749
000180 92 11 3f 3c 4e 55 57 be ab 1a 8a 3e 48 6f 8a 3e
       0.011661904 -0.21028635 0.2697347 0.27038026
000190 b6 0f 2b 3c ff eb 15 3e 17 44 8f be 6f b5 4d 3e
       0.0104407575 0.14640807 -0.27981636 0.20088743
0001a0 d7 ca 0d 3d 12 ee 2f 3e 11 54 4c 3d f8 df 59 be
       0.03461727 0.1718066 0.04988486 -0.21276844
0001b0 6f 90 da 3c 2f 8c 27 3e 47 d8 24 3e 50 a7 8b 3e
       0.0266802 0.1636207 0.16098128 0.27276087
0001c0 c2 13 71 be 89 f0 5c 3e 55 a4 2b be 7c 25 66 bc
       -0.23542693 0.21576132 -0.16761906 -0.014047023
0001d0 1b cd 89 3e f8 22 86 be 73 c3 5a be d4 89 88 be
       0.26914296 -0.26198554 -0.2136362 -0.26667655
0001e0 e8 72 66 bc 24 de 08 be 0b 17 80 be e7 b3 1f be
       -0.014065482 -0.1336599 -0.2501758 -0.15595971
0001f0 30 7e 92 3d 16 5c 3c 3d 0d b7 b6 bd 6d fa c6 3d
       0.071529746 0.045986257 -0.08921633 0.09715734
000200 90 e0 86 3e ab eb 18 3e da 8d 9e bd e8 ea c5 3d
       0.26343203 0.1493365 -0.077419 0.096639454
000210 fb b4 bc 3c db be 81 3c 1d e7 11 3e 44 ae 0f be
       0.023035517 0.015838077 0.14248319 -0.14031321
000220 c3 50 ba 3d 63 c9 12 bd 9a f1 af bd 39 72 cf bc
       0.09097435 -0.03583659 -0.08591004 -0.02532302
000230 c1 54 1b be 39 63 47 3e d8 11 7c be 19 e1 87 be
       -0.1516905 0.19471444 -0.24616182 -0.26538923
000240 fa b0 82 3d a8 b9 8c be 97 d1 77 3e 8f 1d 7c 3e
       0.06381412 -0.27485394 0.24201046 0.2462065
000250 ec 6c 50 bc 55 0a e1 bd b7 b1 67 bc 25 cc ed 3d
       -0.0127212815 -0.10988299 -0.014141492 0.11611203
000260 e7 a6 67 3e 2a f9 64 be 9a 4a 8a 3b 57 a5 db 3d
       0.22622262 -0.22360674 0.004220319 0.107248954
000270 f3 d0 40 3d 21 12 84 be 93 95 a3 bd d9 5d bf bd
       0.04707427 -0.2579508 -0.079875134 -0.09344072
000280 0c 18 45 be 83 1d 89 be fa ee ea 3c e1 8b 1d bd
       -0.19247454 -0.26780328 0.028678406 -0.038463477
000290 34 9b 1f 3e 4f 63 84 be 86 9b 89 3d 69 99 68 be
       0.15586549 -0.25857016 0.06719117 -0.22714771
0002a0 b2 9d 0f be a6 8d 37 3d a7 23 56 3e af 5c e7 bc
       -0.14025 0.04481282 0.20912038 -0.028242437
0002b0 10 79 92 3e 5e 1a 79 3e 8a 36 26 3e 4e cf 0c be
       0.28607988 0.24326465 0.16231743 -0.13750955
0002c0 9f 91 20 be 06 39 61 3e fe 6f 4c bc d0 3d 8b be
       -0.1568055 0.21994409 -0.012477873 -0.27195597
0002d0 bc 29 98 3c 38 be 92 be 56 d5 8d 3c 33 2a c9 bd
       0.018574588 -0.2866075 0.01731364 -0.09822502
0002e0 4c a9 97 3c 36 e9 0b 3e 4b b1 56 bd 8a 53 e9 bd
       0.018513344 0.13663182 -0.052415174 -0.11392887
0002f0 79 6f 2e bd 2a 54 6e be f8 ef e6 3d 84 eb e9 bd
       -0.042586777 -0.23274294 0.11276239 -0.11421874
000300 57 4b 74 be f0 15 34 be 14 49 66 be b7 6f 5a 3d
       -0.23856865 -0.17586493 -0.22488815 0.053329196
000310 37 3b be 3d 80 f8 6e 3d 70 c0 30 be f0 d1 07 3e
       0.09288638 0.058342457 -0.17260909 0.13263679
000320 54 58 22 bc 32 4d 7d 3e 48 24 0d 3e 19 54 8c 3e
       -0.009908754 0.24736479 0.13783371 0.2740791
000330 0e 13 31 3e 76 84 0e 3e 36 9e 2e 3e 1f 05 3c 3e
       0.17292425 0.13917717 0.1705254 0.18361329
000340 31 65 91 be ed 23 91 be 3b 09 8d be 23 89 47 3e
       -0.28397515 -0.28347722 -0.27546105 0.19485907
000350 a6 59 f8 3d 44 74 09 3c 43 e2 c8 bd 33 27 ec bd
       0.12126474 0.008389536 -0.09808781 -0.11530914
000360 54 fb f6 bd 40 12 6a be ba fe fb bd c4 01 8d be
       -0.12059656 -0.22858524 -0.123044446 -0.2754041
000370 bb ef 5e 3d b0 2e 83 3e eb fc 72 bd 82 76 dc 3d
       0.054427844 0.25621557 -0.059323233 0.10764791
000380 f5 cf b1 bd f0 3b 73 be de e8 7b bd 3f 6c c7 3d
       -0.08682243 -0.23753333 -0.061501376 0.09737443
000390 84 d9 73 3c 7c db 05 be 49 32 35 3e c1 38 60 3e
       0.014883403 -0.13072008 0.17694964 0.2189665
0003a0 04 d7 8c 3e 86 3e 90 bb 8c 57 62 be 1c 81 02 3e
       0.27507794 -0.0044019846 -0.22103709 0.12744564
0003b0 e5 26 23 bc 91 ef e2 bd 2a d0 2a 3e 3b 84 dd 3d
       -0.009958004 -0.1108085 0.16680971 0.108162366
0003c0 a6 35 8e 3e dd c2 69 3c 6f c5 ee bd c6 bd 78 3c
       0.27775306 0.01426765 -0.11658751 0.015181964
0003d0 26 fd a7 3d d4 32 8d 3e 75 69 6b be 9e 14 1d bd
       0.08202581 0.2757784 -0.22989447 -0.03834974
0003e0 13 11 81 3c 8d 1f 45 bd 24 fc 8a 3d 3f 28 c6 3d
       0.015755212 -0.048125792 0.06786373 0.09675645
0003f0 cd aa 67 be 8c 38 38 bd 39 4a 1a bb 3f 35 f9 3d
       -0.22623749 -0.044975802 -0.0023542775 0.12168359

sequential_7/conv2d_49/BiasAdd/ReadVariableOp f4 [8]
000000 7c c7 0d 3c 50 0d c2 bb 85 20 3c bb 6f 2e b1 3b
       0.008653518 -0.005921997 -0.0028705907 0.0054071466
000010 31 9e 1c 3c aa 7e 98 3b df a0 e1 3b 56 ac 3c 3b
       0.0095592 0.0046537714 0.0068856324 0.0028789244

sequential_7/conv2d_50/BiasAdd/ReadVariableOp f4 [8]
000000 68 5a 9d 37 e9 09 ab 3b 5e aa 92 bb b4 ac cb 3b
       1.8757957e-05 0.0052196872 -0.0044758758 0.006215656
000010 e4 be a0 ba da 2c 18 bb d6 ec e4 39 79 37 1f bc
       -0.0012263921 -0.0023220093 0.00043664005 -0.009717816

sequential_7/conv2d_51/BiasAdd/ReadVariableOp f4 [8]
000000 1f 9c fe ba 24 fe 87 b8 dc 1c b3 bb 9c b8 31 3c
       -0.001942519 -6.484639e-05 -0.005466087 0.010847237
000010 b6 3c 47 bb ef 4d 7b 3c ca ab 8a 3b 5c d0 ef 3b
       -0.0030401177 0.015338405 0.0042319046 0.0073185395

sequential_7/conv2d_52/BiasAdd/ReadVariableOp f4 [8]
000000 63 67 0e 3a 5a 3f 6a 3c cf 8d 48 ba 83 e3 ae 3b
       0.0005432276 0.014297331 -0.00076505257 0.00533718
000010 05 9b 87 3b 69 e8 bc 3b 5c 6a b5 bb b0 ce 4e 3c
       0.004138353 0.00576501 -0.0055363607 0.01262252

sequential_7/conv2d_53/BiasAdd/ReadVariableOp f4 [8]
000000 a3 6c 4f 3a 76 ac cd 3a 74 32 74 3b d6 14 14 bb
       0.00079126115 0.0015691656 0.0037261518 -0.0022595427
000010 48 a7 a8 b9 e4 98 fc bb ee a5 17 3b 1a 44 50 bb
       -0.0003216809 -0.0077086557 0.0023139673 -0.0031778873

sequential_7/conv2d_54/BiasAdd/ReadVariableOp f4 [8]
000000 9b a5 ab 3b 54 25 93 3b f2 01 0e bb de 49 ee bb
       0.0052382476 0.004490534 -0.002166864 -0.0072719892
000010 da 44 18 3c e6 78 3c bc 30 75 85 bc 81 38 be bb
       0.009293759 -0.011503434 -0.01629123 -0.0058050756

sequential_7/conv2d_55/BiasAdd/ReadVariableOp f4 [8]
000000 91 84 5b 3b 42 50 cb bb 29 b6 2d bc 38 f8 01 bb
       0.0033495764 -0.006204636 -0.010602512 -0.0019831788
000010 ee e5 33 ba 91 b3 3b 3c f8 d9 73 3a 0a b7 d9 3b
       -0.00068625703 0.011456386 0.0009302194 0.0066441344

sequential_7/conv2d_49/Conv2D f4 [8, 3, 3, 1]
000000 74 84 06 3e 36 7a 76 be fc 16 0e 3e 01 7a 58 3e
       0.13136464 -0.24070057 0.13875955 0.21140291
000010 dc 93 4e be 16 b0 58 3d 97 11 3e be 52 3d 71 3e
       -0.20173591 0.052902304 -0.18561397 0.23558548
000020 d8 f6 9a bd 5e d4 66 3b 63 4e 31 bc e5 2c 9f bd
       -0.07566613 0.0035221796 -0.0108219115 -0.07772235
000030 cf f2 59 3e a5 18 f7 3d 9a 33 c6 3d 76 d9 9e 3d
       0.2128403 0.120652474 0.09677811 0.07756321
000040 a8 64 3c be 31 a1 2b be 47 1c 46 be 89 bc 4d 3e
       -0.18397772 -0.16760708 -0.19346724 0.20091452
000050 d6 95 97 bd 80 37 f5 3d 18 1b 34 be 4f de c7 bb
       -0.07401626 0.119734764 -0.1758846 -0.0060994993
000060 36 a4 bf 3d bc 3c 87 be 2b b9 55 3d a0 70 8b be
       0.093574926 -0.26413524 0.052178543 -0.27234364
000070 0d a5 a0 3d 3d 71 2b 3b fe 30 27 bd e9 22 b8 3d
       0.07843981 0.0026160025 -0.040818207 0.089910336
000080 a5 69 30 3e a8 03 dd bd 8d 70 1f 3e 81 ec 4e 3e
       0.172278 -0.10791713 0.15570278 0.20207407
000090 49 08 c8 bc f0 18 8a 3e 37 c6 56 3c 15 83 65 3e
       -0.024418013 0.2697215 0.013108782 0.22413285
0000a0 10 e9 89 3d 16 3f 35 3e ff 80 75 be 65 e5 5b be
       0.06733906 0.17699847 -0.2397499 -0.21474226
0000b0 39 78 61 3e e8 61 fb 3c 09 76 18 3d 36 96 82 be
       0.22018518 0.030686334 0.037221942 -0.25505227
0000c0 2c 45 67 be 47 9f 95 bd cc 84 73 3e 93 c1 7b 3d
       -0.2258498 -0.0730577 0.23781127 0.061463904
0000d0 22 9f 3a be 07 a9 f4 3d fa d6 5d be 3d fe 65 3e
       -0.18224767 0.11946302 -0.21664038 0.22460265
0000e0 8d c3 0d 3b 3b 72 04 3d 10 3a 51 be 0b 12 6a be
       0.002163145 0.0323355 -0.20432305 -0.22858445
0000f0 26 35 ee bd 6d 28 86 3e bb de 81 3e 5c 0c 2f 3e
       -0.11631231 0.26202717 0.25365242 0.17094558
000100 7d 96 24 be a4 96 af 3d 95 a1 88 be 6f df b8 3d
       -0.16073032 0.08573654 -0.26685777 0.090269916
000110 9c 89 49 3e e4 c2 8d be 2d 8d 58 be 65 1d 26 3e
       0.196814 -0.27687752 -0.21147604 0.1622215

sequential_7/conv2d_50/Conv2D f4 [8, 3, 3, 8]
000000 fa b9 11 3e 6e 66 24 3d d8 c8 0e 3e 84 08 0b be
       0.142311 0.040136747 0.13943803 -0.13577467
000010 22 30 4e 3e 2a ee dd 3d c2 86 fd 3d 98 63 20 3e
       0.20135549 0.10836442 0.12379219 0.15662992
000020 88 b6 00 3d 0b 00 36 be d9 ac 17 be f6 49 19 bc
       0.031424075 -0.17773454 -0.1481203 -0.009356013
000030 bf 1e ed ba 59 a9 97 b9 bf 1e 93 3d b2 da 93 bd
       -0.0018090828 -0.00028927138 0.07183599 -0.07219447
000040 5d fb 5f 3d 9f bf 31 be c3 0d 38 3d a2 d8 11 3e
       0.054683078 -0.17358254 0.044935 0.14242795
000050 43 07 29 be 86 4a 5e 3d e3 d5 25 be 59 af cc bc
       -0.16506676 0.05427029 -0.16194873 -0.024985956
000060 2f e2 4f 3e 13 01 91 3d 46 a0 3c bd ae 24 00 bd
       0.20301126 0.07080283 -0.046051286 -0.03128498
000070 bb 61 3a be c1 c6 b7 3c f9 be ae 3d 0f 87 5c 3c
       -0.18201344 0.02243364 0.08532519 0.013459935
000080 b5 5f ca 3d ae 4d 2a be a3 0e 41 3e a3 93 ae 3b
       0.09881536 -0.16631195 0.1885324 0.0053276583
000090 70 59 c0 bd 5a 34 66 3d 36 55 fc 3d 53 0e e0 bd
       -0.09392059 0.05620227 0.1232094 -0.10940232
0000a0 ed a6 09 3e e8 3b 30 3e b5 48 7f 3d ae f8 a6 3d
       0.13442583 0.17210352 0.0623252 0.08152901
0000b0 e4 37 eb bd 92 86 3e 3e 9c fd 0e 3e 83 22 5b 3d
       -0.1148527 0.18606022 0.13963932 0.05349971
0000c0 48 6f 20 3e 3e 30 6d 3d bd 28 f5 bc fa c8 82 3d
       0.1566745 0.057907335 -0.029926652 0.063859895
0000d0 66 78 25 3e 5b a1 b4 3b 0d 1f 88 3d de 23 47 be
       0.1615921 0.005512399 0.066465475 -0.19447276
0000e0 68 89 b6 3d 9d f0 9d 3d 63 56 eb bd 60 01 08 be
       0.08912927 0.07711909 -0.11491086 -0.13281775
0000f0 3d e7 d2 bd da 09 9b bd de 91 1c 3e bc c3 d7 3d
       -0.102980115 -0.075702384 0.15290019 0.1053538
000100 29 28 60 bd a9 60 dc bd 09 ec d9 3d 31 1d cc bd
       -0.0547258 -0.10760624 0.10640723 -0.09966505
000110 ce c2 ec bd 55 41 25 3b 5a a8 d9 bd 48 b3 49 be
       -0.115605935 0.0025215943 -0.10627814 -0.19697297
000120 66 94 d3 bd 2f 47 08 be 5b 54 ee 3d a7 bd 29 3e
       -0.10331039 -0.13308404 0.11637183 0.16576253
000130 7f 3d e8 3d 48 44 36 3c d1 81 de bc f8 30 b1 3d
       0.113398544 0.011124678 -0.02716151 0.08651918
000140 9c b0 2f bd 41 61 fd bd aa e1 95 bd 56 38 14 3e
       -0.042893037 -0.12372065 -0.07318433 0.14474615
000150 25 86 94 bc 32 39 05 be 29 26 41 3d 0c 45 7a 3d
       -0.018130371 -0.130101 0.047155533 0.061101004
000160 ad 62 37 be 39 f6 e4 3d d0 18 20 be ed fd 97 bc
       -0.17908736 0.11179776 -0.15634465 -0.018553698
000170 a5 dd 82 bd 6f c0 fc 3d de f2 ae bd 99 67 41 be
       -0.063899316 0.12341391 -0.08542417 -0.18887176
000180 9a ce 0d 3e 63 36 0b 3e 10 be 5a 3d 62 be 1d 3e
       0.13848343 0.13594966 0.053403914 0.15404657
000190 4d 05 0f be 0a f3 17 be 6a be 3f be 8e 72 ae 3d
       -0.13966866 -0.14838806 -0.18724981 0.08517943
0001a0 4b f0 3d 3e 2d ac 05 bd 45 42 4c be 9a c9 0c bc
       0.18548696 -0.032634903 -0.19947155 -0.008592987
0001b0 e3 26 1f 3e 59 50 8c 3c 2b d2 25 3e a3 8f 48 3e
       0.15542178 0.017128156 0.16193454 0.19586043
0001c0 a3 38 19 be 54 cc 1c 3e c1 76 2c 3e a5 7d 2e be
       -0.14963011 0.1531232 0.16842176 -0.17040117
0001d0 1f ce f5 bd 46 96 b7 bd 6a 45 22 be 43 4b 14 be
       -0.12002205 -0.08964209 -0.15846792 -0.14481835
0001e0 dd c8 27 3d 24 31 f4 3d ee be b4 3d ae 7c 3a 3e
       0.040963043 0.11923435 0.088254794 0.18211624
0001f0 42 1d 27 3e 4b 44 3c be 42 22 fd 3c 66 6a 31 3e
       0.16319755 -0.18385427 0.030900124 0.17325744
000200 90 f6 8e bd 6c a1 19 be 14 0e 3b bb 4e 0c f8 bd
       -0.06980622 -0.15002984 -0.0028542327 -0.12111722
000210 92 d7 00 be 1b 55 0f be a9 d7 37 be 10 52 ed 3d
       -0.12582234 -0.13997309 -0.17953362 0.11587918
000220 e4 d5 da bd 46 f3 f0 bd 02 1e 85 3d 15 f0 38 3e
       -0.10685328 -0.11765151 0.06499864 0.18060334
000230 de 6e f5 3d e1 ff 5b bd 0f 04 0a 3e 05 c9 37 3d
       0.11984037 -0.053710822 0.1347811 0.04486944
000240 ab 00 a3 bd 20 17 48 3d c6 8f 84 3d 04 91 b9 3d
       -0.07959112 0.04885018 0.06472735 0.09060863
000250 e9 a1 34 bd f1 97 30 be e0 c7 14 be 8b 49 9c bd
       -0.044099722 -0.17245461 -0.14529371 -0.07631215
000260 c0 de 40 be 21 3b 2d 3d 8a 4f 1d 3e 86 e4 d1 3d
       -0.18834972 0.042292718 0.15362373 0.102486655
000270 7e c2 39 3e e1 5d 00 3e a4 39 49 be c0 7b b5 3d
       0.18140599 0.12535812 -0.19650894 0.08861494
000280 bd 5e b8 bd ff fd 6b bc 91 16 ea 3c 0b a2 10 be
       -0.09002445 -0.014403819 0.028575214 -0.14124314
000290 20 06 2b 3e 14 f5 83 3d ba 34 90 bb 74 14 7b bc
       0.16701555 0.06443229 -0.0044008167 -0.015324701
0002a0 db 51 dd 3d aa 10 e7 3b 6c 55 db 3d 3a 3c 7a bc
       0.10806628 0.007051547 0.10709652 -0.015273148
0002b0 7c d4 03 be 00 ca 08 3e 56 53 a9 bd b2 f2 7f bd
       -0.12874025 0.13358307 -0.08267848 -0.06248731
0002c0 d8 59 c0 bd 69 fe 07 3e 5f 8e a7 3d 2d e8 c6 bd
       -0.09392136 0.13280644 0.08181452 -0.09712253
0002d0 73 a4 42 3e 4f 0d a5 3d de ec 88 bd 25 6f f6 3d
       0.19008045 0.08059179 -0.06685804 0.12032918
0002e0 0c 69 d7 3b 5f 28 3d 3e a7 ba 95 bd c9 c2 0a be
       0.006573802 0.18472432 -0.07310992 -0.13550867
0002f0 65 51 a0 3d de 83 a3 3d 4a 68 82 bd f5 3c 94 bd
       0.07828025 0.07984136 -0.06367548 -0.07238189
000300 69 10 e8 bd 35 91 dd bd 24 4f 4d 3c 88 1e a5 3c
       -0.11331255 -0.10818712 0.012531076 0.02015616
000310 ba d4 a6 3c 05 26 0e be 60 fe 2a 3e ae 31 42 be
       0.020365108 -0.13881691 0.16698599 -0.18964264
000320 d6 8e 21 3e 06 4a 14 be fe d2 31 3e f3 bc 69 bc
       0.15777144 -0.14481363 0.17365643 -0.01426624
000330 3a 02 af bd a5 36 59 3d 5c 84 51 ba 0a fc 20 be
       -0.085453466 0.05303063 -0.00079924404 -0.15721145
000340 1e c7 27 3e 7b 96 85 bd d5 1f be 3d bb 26 b6 3d
       0.16384551 -0.065228425 0.09283415 0.08894106
000350 e3 a0 c6 3c f6 d6 4a be 27 ec 04 be 93 d8 c0 3d
       0.024246639 -0.19808564 -0.1298071 0.09416308
000360 e7 11 fc bd 1d a1 22 be f8 be 11 3e 2c 8b 54 bd
       -0.12308102 -0.15881772 0.14233005 -0.051890537
000370 b8 a4 a1 bd 05 28 b0 bc f6 63 2c be b0 ff 25 3e
       -0.07892746 -0.021503458 -0.16835007 0.16210818
000380 9b b3 94 3d c3 1d 4e be 6a eb 08 bd 70 b5 9a 3d
       0.072608195 -0.2012854 -0.033427633 0.07554138
000390 2b ce 92 3c 27 02 e4 bc 54 1e b3 bb 74 b8 84 bd
       0.017920574 -0.027833058 -0.005466262 -0.06480494
0003a0 8a 66 12 3d 05 02 00 be b8 f4 6d bb d9 57 91 bc
       0.03574232 -0.1250077 -0.0036309194 -0.017742084
0003b0 4c 3a 5f bd 31 85 e7 3d c2 08 c4 3c 75 cd 11 3d
       -0.054498956 0.11304701 0.023929957 0.03559633
0003c0 20 ca a4 bd b5 84 31 3e bc 53 fe 3c 81 8a 05 3d
       -0.08046365 0.1733578 0.031045787 0.03260279
0003d0 d2 d6 3a bd b1 23 44 3e eb cb 55 3c b0 1f e5 3c
       -0.045615025 0.1915424 0.013049106 0.027969211
0003e0 88 1e f1 3d c5 69 cd 3d 29 05 10 3e 70 ff 0f be
       0.117734015 0.100299396 0.14064468 -0.14062285
0003f0 f8 3d ea bd 63 4c df 3c 7c 3c 42 be e7 0c 71 bd
       -0.11437601 0.027258104 -0.18968385 -0.058850195

sequential_7/conv2d_51/Conv2D f4 [8, 3, 3, 8]
000000 24 07 ad bd 79 14 dc 3d 28 a2 78 3c 01 79 8a 3d
       -0.084486276 0.10746092 0.01517538 0.06761361
000010 57 72 2c bd b5 ad 91 bd e3 9f 47 3e 52 6d 3e bd
       -0.04210123 -0.0711321 0.19494586 -0.046490975
000020 bd cb 3f 3d d3 33 1d 3e 86 41 0b 3e a4 1b 83 3d
       0.04682516 0.153518 0.13599214 0.064017564
000030 f0 80 f0 3d 53 c2 22 bd 7c b2 11 be 68 65 7d bd
       0.11743343 -0.039736103 -0.14228243 -0.061864287
000040 99 24 ee bc ef 7a ba bc da ee b9 bd 13 06 3f 3d
       -0.029070185 -0.022763697 -0.090787604 0.046636652
000050 f8 d7 6e 3d 69 f6 17 3e 9b 9a a7 bd bd b8 55 bd
       0.058311433 0.14840092 -0.081837855 -0.052178133
000060 d2 0d 39 3d 67 0c 3f 3c 4f 42 d6 bd 8b 7d 88 bc
       0.045179196 0.011660672 -0.10461866 -0.016661426
000070 3a 6d e2 3c e4 f2 29 be 6d 1b c2 3c 01 72 01 3e
       0.027639974 -0.16596562 0.023694718 0.12641145
000080 18 49 6e 3d a3 d5 ce bd cf 09 00 be 8c bc a2 3d
       0.058175176 -0.10099342 -0.12503742 0.07946119
000090 2a 0d 1a bd 80 1e 2b 3e c3 ad 27 be 4e 58 c2 3a
       -0.03761021 0.16710854 -0.16374879 0.0014827342
0000a0 37 8f 8a 3c 37 17 2a be ea be 17 3e 81 40 b4 3c
       0.016913993 -0.16610418 0.14818922 0.022003414
0000b0 b9 80 70 3d 11 83 35 3d b1 9a e2 bd 2a 44 21 3e
       0.05871651 0.044314448 -0.11064661 0.15748659
0000c0 5b 7e be bd ad 32 44 be 90 50 8d 3d 24 c1 84 bd
       -0.09301444 -0.19159956 0.06900132 -0.06482151
0000d0 c3 d9 0a 3e 4a d0 44 bc 75 ca 79 bd 13 73 de bd
       0.13559632 -0.012012551 -0.060984094 -0.108617924
0000e0 35 d2 37 be 0f 94 3c 3e e8 48 20 bd 95 82 9f bd
       -0.17951281 0.18415855 -0.03913203 -0.077885784
0000f0 c3 1d 3c bc c3 ee be bd a4 66 47 3e 5d 57 09 bc
       -0.011481705 -0.09322884 0.19472748 -0.008382645
000100 02 1b 34 be 1a cc 6d bd f8 c3 0f be fb 69 eb bd
       -0.17588428 -0.058055975 -0.140396 -0.114948235
000110 05 b9 5c bd 61 ee d4 3d 66 81 58 bd f1 41 c2 bd
       -0.053887386 0.1039703 -0.05285778 -0.094852336
000120 43 d8 41 3e e8 22 c5 bd f5 1e 80 3d b8 78 df bd
       0.18930154 -0.096257985 0.062559046 -0.10911697
000130 ff 11 16 bd d1 5a 45 be 5e 6f 8f bd fc 05 c5 bd
       -0.036638256 -0.19272925 -0.070036635 -0.09620282
000140 36 49 32 be 30 38 94 bd 9c ec 29 3e 45 d1 39 be
       -0.1741074 -0.072372794 0.16594166 -0.18146236
000150 0a 54 3e be 94 c1 f7 bd bc 69 de bb 4d bf 01 be
       -0.18586746 -0.12097469 -0.006787507 -0.12670632
000160 50 78 2b be 6d b1 35 be e9 16 41 be 9c f1 ce 3d
       -0.16745114 -0.17743464 -0.18856396 0.10104677
000170 5c ba b6 3c 4c 8b d0 bc 12 bd c1 bd 76 8f 51 be
       0.02230566 -0.025457047 -0.094598904 -0.20464882
000180 95 c0 48 be 2c 75 4c bc 4e f4 36 3e 5d cc 1a bd
       -0.19604714 -0.012479108 0.17866632 -0.037792552
000190 de 82 d5 3c d2 02 15 3e 3c 76 44 3d 8b 1d b1 3c
       0.026063379 0.14551857 0.04796432 0.021620532
0001a0 c7 18 5e 3d b3 da 23 be 00 e7 06 be c2 6f 2a be
       0.05422285 -0.16001396 -0.13174057 -0.16644195
0001b0 06 2a 2e 3e de 3d 4a 3e 3e 8a 23 3c 52 3e 28 be
       0.17008218 0.19750163 0.00998169 -0.16430023
0001c0 6a 3b bd 3d b8 f0 7b 3d 4a 18 43 bd 7d aa 09 be
       0.09239848 0.061508864 -0.047630586 -0.13443942
0001d0 38 70 ee bb 6a 62 89 3c 67 d1 30 be 61 9d 1e 3d
       -0.007276561 0.01677056 -0.1726738 0.038724307
0001e0 43 78 a0 bb 36 13 07 be fe 26 0c bd 44 fc 8d bd
       -0.004897149 -0.13190922 -0.034216873 -0.069328815
0001f0 f9 4d ef bd 23 a6 45 be 5f 9d 47 3e 71 33 e3 bd
       -0.11684794 -0.19301657 0.19493626 -0.11093796
000200 50 38 4c 3e 8d 2e b6 bd 1c 2e c4 3d a9 e5 bf bd
       0.19943357 -0.088955976 0.09579107 -0.09369976
000210 09 d4 f3 3d ca 4b 37 be 18 9d 01 be 56 bb 3e be
       0.11905677 -0.17900005 -0.12657583 -0.1862615
000220 96 e4 08 be 55 52 2e be 7a bc 8b bd fb cd 8b bc
       -0.13368449 -0.17023595 -0.068230584 -0.017065993
000230 f6 ef f9 bd a1 c4 9d bd 51 f5 d5 3d 2b e9 30 3e
       -0.12203972 -0.077035196 0.10447181 0.17276447
000240 43 7a c1 3d c8 4f 3d 3e a2 2d 0e bd 46 40 8a 3c
       0.09447148 0.18487465 -0.034711488 0.016876351
000250 98 7a 3e 3e d4 c4 36 3e 50 76 4b 3c a0 de 24 be
       0.18601453 0.17848521 0.012418345 -0.1610055
000260 5d 75 bd 3c a6 3a 11 bd 1b e5 54 3d cc 73 53 3b
       0.023127252 -0.035456322 0.051976305 0.0032265065
000270 5b 35 a6 bd b2 e9 08 3e 9f 6d 12 be af eb cf 3c
       -0.081156455 0.13370398 -0.1429963 0.025380937
000280 fd 8a 2f bc 83 bd 37 be d2 f8 11 3e a5 43 af 3d
       -0.01071429 -0.17943387 0.14255074 0.08557824
000290 2c be 6c bd 86 6b 22 bd 62 a4 98 bd ec 94 f4 3c
       -0.05779855 -0.039653324 -0.074532285 0.029856168
0002a0 ec e1 f0 bc ae 7e 24 bd be c7 99 3d e0 78 08 3e
       -0.029404603 -0.040159874 0.07508801 0.1332736
0002b0 7a 34 e4 3d 53 94 8d 3d 8c 76 21 bd c3 4e 3c 3c
       0.111428216 0.06913056 -0.039419696 0.011493388
0002c0 17 cc cb bb d3 a2 dc 3d f2 f1 61 bc a5 2f ab bd
       -0.0062193978 0.10773244 -0.013790594 -0.08358697
0002d0 0d 5c 1a 3e 31 40 df 3d e2 ef 23 3e cc 40 64 3d
       0.15074177 0.109009154 0.16009477 0.055725858
0002e0 dc 4e 56 3d 61 ae 27 3e 2e e2 5b bd 32 3e b0 bd
       0.0523213 0.16375114 -0.0536825 -0.08605613
0002f0 3b c9 91 bd 1a ed 57 3d db ae c5 3d 62 e8 96 3c
       -0.0711846 0.052716352 0.09652492 0.018421356
000300 b5 4a 46 3d 36 31 ee 3d 0f 38 f0 bc bf 9b f8 3c
       0.04841109 0.1163048 -0.029323606 0.030347703
000310 28 f4 cd bd c1 91 cd bd 0b 96 45 3e bf 31 33 3e
       -0.10056335 -0.10037566 0.19295518 0.17499445
000320 a8 4a 25 3d 15 61 4e bd 4e 9a a2 3d 12 be c4 3d
       0.0403544 -0.050385553 0.079395875 0.096065655
000330 3b e3 33 be 93 f9 2c be f9 fc 4a be 6f ac 05 3d
       -0.1756715 -0.1689208 -0.19823064 0.03263515
000340 46 7f f3 3d 07 77 44 3e 78 03 e4 3c a6 13 5a 3d
       0.1188951 0.1918603 0.027833685 0.053241394
000350 d5 04 64 bd ad 66 42 bd 55 71 c5 3c aa 5e 23 3e
       -0.05566867 -0.0474612 0.024101892 0.1595408
000360 03 37 c5 bd 10 c6 15 3e 43 3e f4 3d 18 63 0a 3e
       -0.09629633 0.14626336 0.11925938 0.13514364
000370 8b 19 8c 3d a4 6d aa 3d c5 d1 14 be cd 88 04 be
       0.068408094 0.083216935 -0.14533146 -0.1294281
000380 e4 9b f7 3d 7f 9b d4 3a ca 28 4c 3c 2c e1 68 ba
       0.12090281 0.0016220658 0.012460897 -0.0008883651
000390 be af f2 3d 77 85 d1 3d 21 aa 01 be e4 d1 30 bc
       0.118499264 0.102305345 -0.12662555 -0.010792229
0003a0 46 8a 1e 3e 1f 36 95 3d f3 e5 3e bd 0c 50 90 3d
       0.15482435 0.072857134 -0.046606015 0.07046518
0003b0 01 7b ca bc fe 4c 92 3d 76 26 9d bd 95 52 10 3d
       -0.024716856 0.07143591 -0.076733515 0.035235006
0003c0 c4 66 8e 3b d6 66 6d 3d c2 bb 95 3d a8 44 3f 3e
       0.0043457467 0.0579594 0.073112026 0.18678534
0003d0 2d dc b0 3d 57 51 bc 3c 12 a6 08 3b 45 53 21 3e
       0.08635745 0.022988005 0.0020850939 0.15754421
0003e0 b8 d6 e7 bd 08 5e 9c bd 5d e7 fd bd 40 10 32 3e
       -0.11320251 -0.076351225 -0.12397645 0.17389011
0003f0 5f ff 96 bd b8 f0 2b 3e 59 27 48 be 4f bb 57 bc
       -0.07372927 0.16791046 -0.1954626 -0.013167216

sequential_7/conv2d_52/Conv2D f4 [8, 3, 3, 8]
000000 c4 1d f4 3d 6c 27 47 be c9 97 eb bc 14 13 fb bd
       0.1191974 -0.19448632 -0.0287589 -0.12259498
000010 f8 fd 96 bd ba 97 08 be 30 94 0a be d0 a0 e7 3d
       -0.073726594 -0.13339129 -0.13533092 0.113099694
000020 46 83 93 39 cd ba 33 3d 5f 78 d9 bd 7f a0 d7 3d
       0.0002813583 0.04387932 -0.10618662 0.10528659
000030 62 90 81 3b e0 9c 10 be 04 71 ca bd b8 66 0b 3e
       0.0039539794 -0.14122343 -0.09884837 0.13613403
000040 4d f8 4f 3e 0a 9d 24 be 69 67 b3 3d 5b c2 5e bc
       0.20309563 -0.1607553 0.08759958 -0.013596143
000050 2a 7e f6 3d a0 ce 71 3d 4e e1 2d be 5f 19 33 3c
       0.12035783 0.059034944 -0.16980478 0.010931342
000060 dd 89 88 bd 1c 61 ec bd 5d 3a 20 be e1 bf 05 be
       -0.0666692 -0.1154196 -0.15647264 -0.13061477
000070 0e 55 46 be 28 cb 0c 3e 79 56 a7 bd 55 bd de 3d
       -0.19368383 0.13749373 -0.0817079 0.10875956
000080 8a a1 38 be cb f2 02 3e 4c 2d ea 3d c7 74 9f 3d
       -0.18030372 0.1278793 0.11434421 0.077859454
000090 25 30 46 3d e2 2b 18 3c bf fe 7a 3d 46 bd 13 be
       0.048385758 0.009287806 0.0612781 -0.14427671
0000a0 e9 a5 95 3d ca eb 4e 3d 1c d1 f1 bd 93 22 4b be
       0.073070355 0.050517835 -0.118074626 -0.19837408
0000b0 b9 36 5c bc e2 df 3e be 1c 5a 58 bd 27 76 bd bc
       -0.013440781 -0.18640092 -0.05282031 -0.023127628
0000c0 33 3b 51 bd 5b 91 db bd 96 df 04 be 00 67 2f be
       -0.051081847 -0.10721084 -0.12975916 -0.17129135
0000d0 10 0a 32 be 9d 4c fa 3d a1 4c 92 bd d8 53 0a be
       -0.17386651 0.12221644 -0.07143522 -0.13508546
0000e0 90 a1 c5 3d e3 32 0c be cd 57 0d 3d 71 7a ed 3d
       0.09649956 -0.13691287 0.03450756 0.115956195
0000f0 49 03 3b bd 38 d2 60 3c 99 02 47 3e 8a 66 00 3e
       -0.04565743 0.013721995 0.19434585 0.12539116
000100 64 fc 86 3d 62 77 e2 bd 33 d5 95 3d 23 b7 a5 3d
       0.065911084 -0.11057927 0.07316055 0.08091571
000110 2b 6e a7 bb d4 98 4f bd b6 f7 c1 bd 5b d3 2f be
       -0.0051095686 -0.050682858 -0.09471075 -0.1717047
000120 0c 49 ad 3d cb df 33 be 8f ab 95 bd 8f e9 12 be
       0.08461198 -0.17565839 -0.07308113 -0.14346908
000130 f1 eb c4 3d 97 e1 12 3e 94 f2 9a bd 15 32 eb bd
       0.09615315 0.14343868 -0.07565799 -0.11484162
000140 c1 7d 3e 3d 78 44 b5 3d d6 a9 a1 3d 21 d9 83 bc
       0.046506647 0.0885095 0.07893722 -0.016094746
000150 86 95 0a 3e 48 07 05 3e 62 52 df bc 4a 15 3a 3d
       0.13533601 0.12991059 -0.027260963 0.04543046
000160 6b d0 36 be c3 03 a1 bc d3 64 10 3e f6 94 0b 3e
       -0.17852943 -0.019655114 0.14100961 0.13631043
000170 fd cf fd 3d f1 52 95 bc 3b 01 37 3e 07 84 e4 bd
       0.12393186 -0.018228026 0.17871563 -0.11157995
000180 8a b5 4c be 32 d4 0e 3e ad fe 4c bd d5 75 29 be
       -0.19991127 0.13948134 -0.050047565 -0.16548856
000190 52 75 28 be 9c f3 7d bd 61 41 5e bd 59 07 4b 3e
       -0.16451004 -0.061999902 -0.05426157 0.19827022
0001a0 6d 20 19 be e3 64 4c be d5 7d 26 bd c3 a9 f9 3d
       -0.14953776 -0.1996036 -0.040647347 0.121905826
0001b0 03 01 3a 3d 3b 42 32 3e af 29 9c 3d 82 a1 30 3e
       0.04541112 0.17408077 0.07625138 0.1724911
0001c0 fd 43 36 bd c7 f0 00 3c 16 93 07 be c2 42 17 be
       -0.044498432 0.007869906 -0.13239703 -0.1477156
0001d0 cf c7 3f bd 9a c4 64 bc 0a e7 d7 3d 2c 4a 4f 3d
       -0.04682141 -0.013962889 0.10542114 0.050607845
0001e0 7f 65 7e 3d a4 07 d8 3d 15 29 4d 3e 05 9a 00 3e
       0.062108513 0.10548332 0.20035203 0.12558754
0001f0 a7 db 39 bc 9a 32 c6 bd fb 9d b7 bd 7f 9b 3b 3e
       -0.011343873 -0.0967762 -0.08965679 0.18321036
000200 6e bf ae 3c 53 32 b8 bd 60 c1 14 3e d1 e3 40 be
       0.021331515 -0.089939736 0.14526892 -0.18836905
000210 41 05 26 3e 7d 9e 54 be f7 6d 13 be 8b 26 03 3e
       0.16212942 -0.20763583 -0.14397417 0.12807672
000220 a4 bb 15 bd 4d fd 44 3e 5d ad 83 bd ea e7 fc 3d
       -0.0365559 0.19237252 -0.06429551 0.123489216
000230 b9 1e cd 3d 22 66 1b be b3 d5 0b 3d 10 56 ca 3d
       0.100156255 -0.1517568 0.034139346 0.09879696
000240 c4 3f 3a 3e d1 1e 26 3e f2 06 ad bd 23 45 56 be
       0.18188387 0.16222693 -0.0844859 -0.20924811
000250 c7 fb e7 bc 71 bd 49 3e 42 93 34 3e 0e 26 bb 3d
       -0.028318299 0.19701172 0.176343 0.09138118
000260 aa 1c 33 3e 6f 79 d1 3d 24 45 aa 3d ec 0b 42 be
       0.17491403 0.1022824 0.08313969 -0.1894986
000270 cf ac 26 3e e6 d2 00 be 1b 47 52 be e5 27 44 3e
       0.16276859 -0.12580451 -0.20534937 0.19155844
000280 e8 07 16 3e 5e 4f 09 3e 31 b4 06 3d e3 b7 35 be
       0.14651453 0.13409182 0.032886688 -0.17745928
000290 53 24 c9 bd e6 ae fc 3d bc 01 4b be 7b 59 a4 bd
       -0.098213814 0.12338047 -0.1982488 -0.080248795
0002a0 89 e1 40 be 95 b4 43 bd 71 7f 6b bd 10 20 46 be
       -0.18836035 -0.04777964 -0.057494584 -0.19348168
0002b0 05 0c 26 3e c9 6d 37 3e e0 87 3d 3e ed 91 5b bd
       0.16215523 0.17912973 0.18508863 -0.053605963
0002c0 e0 0a 0a be b4 24 40 3e a6 27 47 bc 43 4c af bc
       -0.13480711 0.18764001 -0.012155449 -0.02139867
0002d0 27 4e 09 be 11 47 27 3e 7e d4 18 3d 34 9b 3b be
       -0.13408719 0.16335703 0.037312023 -0.18320924
0002e0 58 8b df bc be bd eb bb 53 f6 85 bd d6 99 1f 3e
       -0.027288124 -0.00719425 -0.06541123 0.15586028
0002f0 79 99 98 3a 66 6d e9 3d 08 cc 21 bd 05 c9 3e 3d
       0.0011642418 0.11397819 -0.03950122 0.046578426
000300 ce 18 f2 bd 2e cb 46 be c3 48 13 be fe 18 f7 bd
       -0.11821137 -0.19413444 -0.14383225 -0.12065314
000310 73 76 b8 bd bc b7 be bd bd 74 80 bc 2f 22 8b bc
       -0.090069674 -0.09312388 -0.015680665 -0.016984073
000320 9f 62 34 3e 3d 61 05 be 90 86 b2 bd ac 31 b5 3d
       0.17615746 -0.13025375 -0.08717072 0.08847365
000330 dc d3 e8 bd 2f d5 0d 3d 4a 09 00 be ad 3a 0c 3e
       -0.11368534 0.034627136 -0.12503543 0.13694258
000340 2b 97 b9 3d 2b 6b 94 3d 15 f3 31 be 77 b6 a6 bd
       0.09062036 0.07247003 -0.17377885 -0.08140271
000350 33 29 24 3e 65 6c 1a be 11 a1 43 bd 9f 61 c7 3d
       0.16031341 -0.15080412 -0.047761027 0.097354166
000360 28 6b d6 bd b3 bf 0b 3e c0 84 7a bd ed 64 34 3e
       -0.10469657 0.13647346 -0.061161757 0.17616625
000370 93 87 07 3e 56 12 94 bd 47 a0 08 3e f5 51 14 3e
       0.13235311 -0.0723006 0.13342391 0.14484389
000380 68 86 f5 b8 6b 00 28 be 55 5a 0a bc 64 c1 3f 3e
       -0.000117075455 -0.1640641 -0.008444388 0.18726116
000390 f6 f4 7c bd 12 66 f9 3d 73 18 31 be e9 5b e3 bd
       -0.06175705 0.121776715 -0.17294483 -0.11101515
0003a0 6d 43 ee 3c df 38 26 be 62 0c 4e be 8c d7 40 3e
       0.029084885 -0.16232632 -0.20121911 0.18832225
0003b0 16 6b 36 be fb 6e da bd 9c c6 30 bc f4 5c ca 3d
       -0.17814288 -0.10665699 -0.01078954 0.09881011
0003c0 17 3f e2 bd 10 cc 01 3e e4 42 fd bb 29 13 45 3d
       -0.1104719 0.126755 -0.0077289212 0.048113976
0003d0 25 cb 4b bd cb f2 3c 3e a4 89 07 bd d3 70 03 3e
       -0.04975428 0.18451993 -0.03309025 0.12836008
0003e0 6a f2 eb bd e5 70 39 3d 6a 40 d3 3d 4c b3 10 3e
       -0.11520846 0.04527368 0.103150204 0.14130896
0003f0 3b 28 57 3d 25 e4 31 3e 08 50 db bd 0a 24 25 3d
       0.0525286 0.17372186 -0.10708624 0.040317573

sequential_7/conv2d_53/Conv2D f4 [8, 3, 3, 8]
000000 c9 f9 f3 bd 49 c2 03 3e 93 62 2b 3e 1d 15 24 be
       -0.11912877 0.12867083 0.16736822 -0.16023679
000010 05 f4 83 bd 0f b9 96 bd b6 f4 fb 3d b9 0f 29 3e
       -0.064430274 -0.07359516 0.12302534 0.16509904
000020 96 1b 3a 3e 3f cc ef 3d 1f b3 13 3e 98 81 47 3c
       0.18174586 0.11708879 0.14423798 0.012176894
000030 84 05 a0 bd d4 2c fa bd 40 88 60 3d ee 28 2e 3e
       -0.07813552 -0.122155815 0.054817438 0.17007801
000040 98 b2 3c 3e 7b aa 16 3e e1 f8 38 bd 7e c5 f4 3d
       0.18427503 0.1471347 -0.045159224 0.11951731
000050 2d 38 22 be 23 7b 68 bd d5 0b b9 3d 8a 05 1b bd
       -0.15841742 -0.056758057 0.0903546 -0.03784708
000060 cd c9 1c 3e c0 f2 01 be f5 55 ff 3d 80 32 06 bd
       0.15311356 -0.12690258 0.12467567 -0.032763004
000070 67 2f bd bd a6 d3 41 be 21 e6 e5 bd 75 38 03 3e
       -0.09237557 -0.18928394 -0.11225534 0.12814505
000080 db 8c 21 3c f3 bd 1e 3d fb 47 3e 3e db 5a a4 bc
       0.009860243 0.03875537 0.18582146 -0.020062855
000090 80 76 a2 bd 74 62 31 bc e5 e4 df 3d fb 06 a6 bd
       -0.07932758 -0.010826696 0.1093233 -0.081068
0000a0 62 c4 7f 3d 54 38 0d bd d1 9f 06 be 2d 9d 21 3d
       0.062443145 -0.034477547 -0.13146903 0.039456535
0000b0 0b 5e 3f 3d e9 73 80 bd e2 14 2c be d8 f9 8b bd
       0.046720546 -0.06272108 -0.16804841 -0.06834763
0000c0 f2 e0 42 3b 17 b2 7c bd 10 45 2e be 75 93 e3 bd
       0.0029736129 -0.061693277 -0.17018533 -0.111121096
0000d0 72 d4 d8 bd f5 32 1e be fa dc 2e 3e 62 83 9c bc
       -0.10587396 -0.15449126 0.17076483 -0.019105617
0000e0 f6 d3 56 3d d2 79 d9 3b 98 19 40 3e 7d 18 95 bc
       0.052448235 0.0066368366 0.18759763 -0.018200153
0000f0 a7 bb 0e 3d df 84 a9 bc 2e ec ec 3a f4 74 58 3d
       0.034846928 -0.02069324 0.0018075758 0.05284591
000100 7e 19 7f 3d 32 8d 10 3e 5e f3 57 bd fd 50 79 bd
       0.06228017 0.14116362 -0.052722327 -0.060868252
000110 b9 93 11 3e c7 f9 f3 bd 18 b8 ce bd 09 af b1 3d
       0.14216508 -0.119128756 -0.10093707 0.086759634
000120 4b 06 9b 3c 25 e1 fe bd 44 ab 01 3e 43 2e 20 be
       0.0189239 -0.12445287 0.12662989 -0.15642647
000130 7e 9d 32 3e 40 ab cf 3d 9e 27 e8 bd 8f 62 12 be
       0.17442891 0.10140085 -0.113356814 -0.1429541
000140 f2 3b 18 3d 77 b4 68 bd 96 61 34 3c 27 95 e5 bd
       0.037166543 -0.05681273 0.011009594 -0.11210089
000150 72 4c 20 3e 0f f8 4c be d0 52 41 be 25 71 c9 bc
       0.15654162 -0.20016502 -0.18879247 -0.024590084
000160 49 18 9e bd ea e9 28 3e 46 15 f3 3d 70 a8 31 3e
       -0.07719476 0.16495481 0.11869292 0.1734941
000170 cb 01 33 be 9f 2a b8 3c 2b 67 3b 3e 3f 49 51 3e
       -0.17481153 0.02248126 0.18301074 0.20438097
000180 9e 9c eb 3d ca 79 09 bc 8f 72 fc 3d 0f bd 4b be
       0.11504482 -0.008390853 0.12326538 -0.19896339
000190 a0 7d e5 3d 1a 83 51 3d 81 62 62 3d 2c ee 30 3e
       0.11205602 0.05115042 0.055269722 0.17278355
0001a0 f4 bd 98 bc 46 b5 9b bd 39 51 31 3e 10 7f 1b be
       -0.018645264 -0.076029345 0.1731614 -0.15185189
0001b0 7b 95 d5 3c b9 0c 3f 3d 5f 78 44 3e 0b 93 54 bd
       0.026072254 0.046642993 0.19186543 -0.051898044
0001c0 c7 28 9b bd c2 53 67 3d 0d a9 09 3e cf e3 b9 3d
       -0.07576137 0.056476362 0.13443394 0.09076654
0001d0 fd 7a 7a bd 3a 80 80 bd d9 82 82 bd ea b7 41 3e
       -0.061152447 -0.06274457 -0.063726135 0.18917814
0001e0 c7 26 24 be 4e 12 3e 3e 6b 66 4b 3e 38 11 21 bc
       -0.16030417 0.1856167 0.19863288 -0.009830765
0001f0 19 1e 09 be 89 30 86 bd 0e 1c d1 3c d5 91 0e 3e
       -0.13390388 -0.06552226 0.025526073 0.13922818
000200 3f 8e 7d 3c b2 55 1a 3e 8e cf 39 be a1 09 fe bd
       0.015475809 0.15071753 -0.18145582 -0.1240418
000210 d5 9a 12 be b7 a5 12 be 8c 6a 00 be 79 5b f6 bc
       -0.14316876 -0.14321028 -0.12540644 -0.030072914
000220 b3 c1 92 bc fc 47 df bd 2c 92 41 bd 49 8c b0 bc
       -0.017914629 -0.10902402 -0.04725854 -0.021551268
000230 c2 a8 49 3e ed 64 fb 3d 61 a8 fe bd 2c cd 1d be
       0.19693282 0.122751094 -0.124344595 -0.15410298
000240 d2 09 dd bc eb ce e0 3d ff a6 08 be 9b 9f bd 3d
       -0.026982222 0.109769665 -0.13344954 0.09258958
000250 7d 86 2f 3d c2 fa 22 3e 78 7a 06 be 14 81 4d be
       0.042852867 0.15915969 -0.13132656 -0.2006877
000260 09 b2 e3 3d a2 6b 27 bd d3 87 21 bc b5 db 1e be
       0.11117942 -0.04087413 -0.009859043 -0.15513499
000270 56 49 20 3c 19 48 3e 3e 57 19 01 be 8f 21 54 3d
       0.00978311 0.1858219 -0.12607323 0.051789816
000280 3d fb 40 be 38 dd 5b 3d 81 4a c6 bd 01 98 43 bd
       -0.1884584 0.053677768 -0.09682179 -0.047752384
000290 4b df d7 bd 36 52 22 3e 41 fa bd bd fa 20 3f 3e
       -0.10540637 0.15851673 -0.09276248 0.18664923
0002a0 09 d5 2a 3d 1f c2 22 be 48 80 07 3e 9d af 4f be
       0.041707072 -0.15894364 0.13232529 -0.20281835
0002b0 4f ef 10 3d c1 e2 ed 3d 9f c1 b9 3d 68 03 14 be
       0.035384472 0.116155155 0.090701334 -0.14454424
0002c0 90 f9 ac 3d 8b 7d 50 bc 62 d9 23 be fe 0e af bd
       0.08446038 -0.012725244 -0.16000894 -0.085477814
0002d0 c6 a4 15 3e 88 02 5b bd 7d d7 7c bd 5c db 34 be
       0.14613637 -0.05346921 -0.061728943 -0.17661804
0002e0 f4 6d 4a be 8f e0 f8 3b 13 77 f7 b9 eb a9 a6 3d
       -0.19768506 0.007595129 -0.00047200228 0.08137878
0002f0 26 fc 4b bd a6 c0 c5 bd cf 42 2a 3e c8 ae 1e bd
       -0.049801014 -0.096558854 0.16627048 -0.038740903
000300 a5 6c 44 3d 78 da 04 3e c3 68 2b be 5f 53 51 be
       0.047955174 0.12973964 -0.16739182 -0.2044196
000310 5b 96 f8 3d cc 02 32 be 4c 26 20 be 1e 3f 46 3e
       0.12138053 -0.1738388 -0.15639609 0.19360015
000320 0e 78 4b 3d 3c c3 57 bd c2 20 2d bd ec 9c a0 3d
       0.04967504 -0.052676424 -0.04226757 0.078424305
000330 dc ea 03 be ac 59 2f be 5d 4e 54 3d cd d1 22 be
       -0.1288256 -0.17124051 0.051832546 -0.15900345
000340 40 90 2f bd 9e 34 8b 3c df 17 c6 bd 9e 9d e1 bd
       -0.042862177 0.016992863 -0.09672522 -0.11016391
000350 48 87 2a 3d a2 eb 20 3e 02 98 32 be 10 ed 0b bd
       0.04163292 0.15714887 -0.17440799 -0.034161627
000360 67 46 a7 bb 06 9c b4 bd aa 8f ac 3c 3f 6b 52 3e
       -0.005104828 -0.088188216 0.021064598 0.20548724
000370 fd 32 44 3e bf b7 0f be 2b de 4d bd 6a 50 c1 3d
       0.19160075 -0.14034937 -0.050260704 0.09439166
000380 36 37 1b 3e e2 d1 57 bd 4c 80 32 bd 2a 73 05 3e
       0.1515778 -0.052690394 -0.043579385 0.13032213
000390 d8 0f 3a 3d ea 6a d7 3c 06 c4 0e be e3 5b 31 be
       0.045425266 0.026296098 -0.13941965 -0.17320208
0003a0 cb 88 42 3d e3 47 f0 3d ac b4 9a bd 84 97 15 be
       0.047493737 0.11732461 -0.07553992 -0.1460858
0003b0 f4 c6 f8 bd 5a 21 48 3e 81 bc 7d bd 65 c9 84 3d
       -0.12147322 0.19543973 -0.06194735 0.064837255
0003c0 dc f5 56 3d ad fb b3 3c 74 89 04 3e af c3 f3 3c
       0.052480564 0.021970594 0.12943059 0.029756395
0003d0 01 cd a3 3d 47 57 db 3d f0 6c 04 3e 25 8a 71 bd
       0.07998086 0.10710006 0.12932181 -0.058969636
0003e0 0f 80 1c be cd a8 ab bb cf ad 10 be d7 43 be bc
       -0.15283225 -0.0052386285 -0.14128803 -0.023225708
0003f0 09 60 c7 bd ea 53 d1 3b c4 f7 0b 3e 19 e0 df 3c
       -0.09735114 0.006388177 0.13668734 0.027328538

sequential_7/conv2d_54/Conv2D f4 [8, 3, 3, 8]
000000 e8 11 01 3e f5 7c 28 bd 34 e3 1b 3e c2 83 30 3e
       0.12604487 -0.041134793 0.1522339 0.17237762
000010 fc a6 d2 3d fe bd ee 3d c1 7d 40 3e bf 8b 66 bc
       0.10285756 0.11657332 0.18797971 -0.014071404
000020 0b 05 a6 bd bf bb 46 3e e4 df af bc b1 f4 c4 bc
       -0.081064306 0.19407557 -0.021469064 -0.02404246
000030 cc 1c 42 3e f3 25 2e 3e 07 6f 94 bc e5 1b e7 bd
       0.18956298 0.17006664 -0.018119348 -0.11284617
000040 68 18 7b bd 52 63 99 3d 1b 11 3e 3e 26 f0 af 3d
       -0.061302572 0.07489647 0.18561213 0.085907266
000050 2c 56 10 bd 06 c1 08 3d a4 c9 1c be 5b 71 05 3e
       -0.03523843 0.033387206 -0.15311295 0.13031523
000060 59 72 3e 3e f0 d3 3c be db 0e 1e 3d fe f2 38 be
       0.18598308 -0.18440223 0.038588386 -0.18061444
000070 5e 34 07 be c7 08 18 3c 99 04 b2 3d 09 03 33 bd
       -0.1320357 0.009279436 0.08692283 -0.043704066
000080 92 b4 29 be de 14 c0 bd 42 32 2a be 5f 11 38 3e
       -0.16572788 -0.0937898 -0.16620734 0.17975377
000090 94 f5 26 3e ef 29 05 3e b8 da 39 bc 64 e6 47 be
       0.16304618 0.13004278 -0.0113436505 -0.19521481
0000a0 7d 35 f6 bd ce b0 11 be 6f fc 94 3d 50 f5 fc bd
       -0.12021921 -0.14227602 0.072747104 -0.12351477
0000b0 15 18 53 be cf 1e 15 be 97 16 0f be ce 3f d3 bd
       -0.20614655 -0.14562534 -0.13973461 -0.10314904
0000c0 3c ba 74 bd 88 1a 20 be 56 72 1a 3d f0 01 da 3d
       -0.05974792 -0.15635121 0.037706695 0.10644901
0000d0 a7 a7 2a 3e 7e 80 a1 bd fc 7b 04 3e 06 98 0b 3e
       0.16665517 -0.07885836 0.12937921 0.13632211
0000e0 0c c2 37 3e f0 b9 7a 3d 9c b1 54 be f6 16 44 3e
       0.17945117 0.06121248 -0.20770878 0.19149384
0000f0 20 02 06 3e c7 78 0d bd 94 89 a1 3b 35 ba 4f be
       0.13086748 -0.03453901 0.0049297307 -0.20285876
000100 34 2b d5 bd 84 27 5e 3d e5 72 08 3e cb e0 61 bd
       -0.10408631 0.054236904 0.13325079 -0.05514602
000110 24 76 f4 bd 92 71 03 3e e4 6a 24 be f0 36 a8 3c
       -0.11936596 0.12836292 -0.160564 0.020534009
000120 00 d5 42 be 3f b1 e1 3d da c4 d2 3d ca 25 26 be
       -0.19026566 0.11020135 0.10291453 -0.16225353
000130 41 af 52 3e 6e c8 36 3c e2 86 28 3e 05 a3 b2 bd
       0.20574667 0.011156185 0.16457704 -0.087225
000140 8d 5f 38 be 01 51 84 3d 5c 79 de 3d 6e a3 17 3d
       -0.180052 0.06460763 0.10862991 0.037021093
000150 e7 81 c1 bd 78 9e 4c be 9d 83 ef bc 20 d4 06 be
       -0.09448605 -0.19982326 -0.029237563 -0.13166857
000160 10 f6 00 be fa 75 93 3d 93 d4 f3 bd 67 86 88 3d
       -0.12593865 0.072002366 -0.1190578 0.0666626
000170 0e 21 f1 bd e7 34 1a be 32 36 4e 3d 2f 3c d9 3d
       -0.11773883 -0.15059243 0.050344653 0.10607182
000180 83 86 9b bd 1e d3 a5 3d 0e a8 53 bd fa d1 33 3e
       -0.075940154 0.08096908 -0.05167394 0.17560568
000190 da c2 64 bd 59 d5 01 3d b2 69 6d 3d 31 b8 42 3e
       -0.055849887 0.031697605 0.057962127 0.19015576
0001a0 d7 63 8f 3d 75 58 b0 bc 08 4c c9 bc d1 be 07 3e
       0.07001465 -0.021526555 -0.024572387 0.13256384
0001b0 01 1c e6 bd 91 2f 5f ba 97 62 3a 3e 29 04 c8 bd
       -0.1123581 -0.0008513863 0.18201672 -0.097664185
0001c0 e9 3d 51 be d9 09 07 3e a3 55 7c bd ed 72 3f be
       -0.20433773 0.1318735 -0.061605107 -0.18696184
0001d0 0a 0b ad 3d ed ee 2c be b0 9c c5 3d 0e c3 26 be
       0.08449371 -0.16888018 0.096490264 -0.16285345
0001e0 43 2c 22 3d be 54 be bd 9c 8d 02 be 75 73 4c 3e
       0.039592993 -0.09293507 -0.12749332 0.19965918
0001f0 6b 56 da bd b0 42 d0 3d 06 e6 2f be e8 74 43 3e
       -0.10661014 0.1016897 -0.1717759 0.19087565
000200 1c da 36 bc 33 4a 00 3c 40 46 e7 3d 8b 04 7f bd
       -0.0111604 0.0078301905 0.11292696 -0.062260192
000210 1f cd a4 3d de a3 12 3e 46 2b 4a 3e 3b 4a 13 3e
       0.08046936 0.14320323 0.1974307 0.14383785
000220 7a 9e 45 be 56 fe 7f bd 22 7d 71 3a 48 14 4c be
       -0.19298735 -0.062498413 0.00092120667 -0.19929612
000230 61 64 fd 3d ab 5c 29 3e 09 a7 4f 3e 32 b3 c1 3c
       0.123726614 0.16539256 0.20278563 0.023645017
000240 6b d9 42 3e c4 80 1a be 1d 64 07 3d c8 9f 3a be
       0.19028251 -0.15088183 0.03305446 -0.18225014
000250 81 81 fd bd a9 a6 ce bd c0 73 e6 3c d4 69 e6 bd
       -0.123782165 -0.10090382 0.028131366 -0.11250654
000260 83 de c5 3d 3b c6 37 be af c1 93 bb 5d 9d bf bd
       0.09661581 -0.17946713 -0.004509173 -0.093561865
000270 e4 ce a7 3d bb 24 f9 bd bc 7e 8d ba 8a 77 16 bd
       0.08193758 -0.12165209 -0.0010795216 -0.036735095
000280 1e ee 99 bd 16 97 33 be d8 8e 22 3e 99 21 ae bd
       -0.075161204 -0.17538103 0.15874803 -0.08502502
000290 4d 97 65 bc 66 95 12 be 2a 57 48 3d dd 84 88 3c
       -0.014013124 -0.14314803 0.04891125 0.016664917
0002a0 76 4e 17 be 27 61 35 3e 93 1a b9 3d 2d 17 f4 3d
       -0.14776024 0.17712842 0.09038272 0.11918483
0002b0 93 41 bb 3c bb 1d 10 3e 75 08 2d 3e 65 42 08 3e
       0.022858417 0.14073841 0.16897757 0.13306578
0002c0 75 a3 5e bd 0c e1 31 3e a1 da 06 be 92 f8 46 3e
       -0.054355104 0.17371005 -0.13169338 0.1943076
0002d0 40 eb b5 3d be 0b 3f 3d 57 26 be bd 9a 16 82 bd
       0.08882761 0.046642058 -0.092846565 -0.06351967
0002e0 15 62 2d 3e fe 29 22 be 85 ab a4 bc af fd b3 bd
       0.16931947 -0.15836331 -0.020101318 -0.08788621
0002f0 79 c5 06 3e dd e7 4b be 47 1c 22 bd 33 dc e5 bc
       0.13161267 -0.19912668 -0.03957775 -0.0280591
000300 f7 f4 dd bd 11 33 21 3e 60 b7 ab bd 09 bb 14 3e
       -0.10837739 0.15742137 -0.083845854 0.14524473
000310 22 0d be bd b5 62 24 3e c5 82 4d 3d 21 29 39 be
       -0.09279849 0.16053279 0.05017354 -0.18082096
000320 aa f8 22 be 6d 0c 9c 3d ca d9 a6 bd 08 06 26 3e
       -0.1591517 0.076195575 -0.08147009 0.16213238
000330 37 cd bd 3c f7 70 e9 bd 6c c5 88 3d b3 26 37 3e
       0.023169143 -0.113984995 0.0667828 0.17885856
000340 ab a9 ea 3c d6 5b cc 3d 09 de 13 be 34 4a 3b bd
       0.028645357 0.09978454 -0.14440168 -0.045725062
000350 2f d5 04 3e 40 02 ce bd b6 d2 75 3b f7 c4 18 3d
       0.12971948 -0.10059023 0.0037509627 0.037297215
000360 8f 58 0f be ac d5 7c 3d a1 3b 4c 3d bd 73 32 bd
       -0.13998626 0.06172721 0.049861554 -0.043567408
000370 e2 0f e6 3d 4f 84 de bd 1e 4e 8d bd df be 50 3d
       0.11233498 -0.108650796 -0.06899665 0.05096328
000380 20 2b 41 3e 84 b5 8f 3d d2 6c 3e be ad f9 92 bd
       0.18864107 0.07017043 -0.18596199 -0.07176528
000390 b3 33 af bd f0 1b 4a be b0 45 17 3d 81 c4 8a bc
       -0.08554783 -0.1973722 0.036931694 -0.016939403
0003a0 9a d2 02 3d a7 16 99 bd 00 29 49 3e ff 1b 21 3e
       0.031939127 -0.07475024 0.19644547 0.15733336
0003b0 8d c9 4e 3d dd 83 b0 3c 42 9a ff bd cc a3 23 be
       0.050485183 0.021547252 -0.12480594 -0.15980452
0003c0 74 60 ea bd 04 a5 47 be 84 5a 77 3a f6 1b 2b be
       -0.11444178 -0.19496542 0.000943579 -0.16709885
0003d0 3c ec 6a 3c 1e b7 65 3d 3a 4f 1a be 50 cb b4 bd
       0.014338549 0.056082837 -0.15069285 -0.08827841
0003e0 e1 63 e4 3d 82 46 6b bc 67 47 1b 3e 97 ba 97 3d
       0.11151863 -0.014360072 0.15163957 0.07408636
0003f0 ef 38 a2 bb 3d 2e fd 3b a1 82 47 be 35 1a b3 bd
       -0.0049506347 0.0077264593 -0.19483425 -0.08745233
