saved_model/quantized_models/layers7/trial1/paramcount760495.tflite (tflite, 782232 bytes, 32 tensors)

sequential_6/dense_13/MatMul f4 [7, 64]
0	0x3e13cf67	0.14434586
1	0x3e8bf586	0.27335757
2	0xbab43362	-0.0013748223
3	0x3e2e6ec4	0.17034441
4	0x3cefae8d	0.029258037
5	0xbe8be722	-0.27324778
6	0x3e494737	0.19656073
7	0xbe3609bb	-0.1777715
8	0x3e8fd370	0.28091002
9	0x3e882c5b	0.2659634
10	0x3e87ee75	0.26549116
11	0xbe8c08c2	-0.27350432
12	0x3de35942	0.11101009
13	0x3de59d60	0.112116575
14	0xbe2984f3	-0.16554622
15	0x3d0e70ee	0.034775667
16	0xbe5d1ca9	-0.21592964
17	0xbe1d920d	-0.15387745
18	0x3e085621	0.13314106
19	0xbe81d5d3	-0.25358447
20	0x3d7d4213	0.06183059
21	0x3de99327	0.1140502
22	0x3e48a15f	0.19592808
23	0x3b3832d0	0.0028106458
24	0xbdc303ae	-0.09522186
25	0xbdfd54eb	-0.123697124
26	0x3e2ec4ab	0.1706721
27	0xbe5094d2	-0.2036927
28	0xbd901c4c	-0.07036647
29	0xbe482482	-0.19545177
30	0x3ddcf35f	0.10788607
31	0x3c1c8a32	0.009554433
32	0xbe83d01b	-0.2574471
33	0xbc8b5307	-0.017007364
34	0xbe04d860	-0.12973166
35	0x3e1758ea	0.14780012
36	0xbdd193db	-0.10233279
37	0xbe963307	-0.29335806
38	0xbe5201ba	-0.20508471
39	0xbccacf3e	-0.024757024
40	0x3d5225e6	0.051305674
41	0xbb577a5a	-0.0032879324
42	0xbd195aef	-0.037440237
43	0x3dbfbdd4	0.09362379
44	0xbdbabbab	-0.09117826
45	0xbe3b6e0c	-0.18303698
46	0x3e4a03e1	0.19728042
47	0x3e723776	0.23653969
48	0x3e2016f6	0.15633759
49	0x3db23956	0.08702342
50	0xbe03b647	-0.12862502
51	0xbe8ac57b	-0.2710379
52	0xbe277691	-0.16353823
53	0x3d930a73	0.071797274
54	0xbe05696b	-0.13028495
55	0x3e338f91	0.17535235
56	0xbe8ad971	-0.2711902
57	0xbe833826	-0.25628775
58	0x3e4f6c5b	0.20256178
59	0x3d8c6cc8	0.06856686
60	0xbe84baba	-0.2592371
61	0xbe340a49	-0.17582048
62	0x3e636e24	0.22209984
63	0xbe877a9d	-0.26460734
64	0x3dfc0aab	0.12306722
65	0x3dede5c9	0.11616094
66	0xbdc34950	-0.095354676
67	0x3e705829	0.2347113
68	0xbe6bad44	-0.23015314
69	0x3e813172	0.25233036
70	0xbdc2482a	-0.094864205
71	0xbe531aa3	-0.2061563
72	0xbddd0f73	-0.10793962
73	0xbdea030a	-0.11426361
74	0xbe8eb59d	-0.27872935
75	0x3e82f0bf	0.255743
76	0x3d9a9566	0.07548027
77	0xbe9183ea	-0.28420955
78	0x3bbd31ef	0.005773775
79	0xbe915ccd	-0.28391114
80	0xbded55f7	-0.11588662
81	0xbe53971b	-0.20663111
82	0xbd809632	-0.062786475
83	0x3db79202	0.08963396
84	0xbe829b92	-0.25509316
85	0x3e537fd2	0.20654228
86	0xbe613cca	-0.21995845
87	0xbe739f8c	-0.23791331
88	0xbe3ac9a0	-0.18240976
89	0x3e527002	0.2055054
90	0xbde6656e	-0.11249815
91	0xbe1e714d	-0.15472908
92	0x3dfdc307	0.12390714
93	0xbdf3eb54	-0.1191012
94	0xbe3ab5dd	-0.18233438
95	0xbd1500ae	-0.0363776
96	0xbd6d6b50	-0.05796367
97	0xbe47dbc0	-0.19517422
98	0xbc8eb10b	-0.017418405
99	0xbdd486de	-0.103772864
100	0xbe513170	-0.20429015
101	0xbe7b84e2	-0.2456241
102	0xbe3daa95	-0.18522103
103	0x3e0f6768	0.1400429
104	0x3e242654	0.16030246
105	0x3e344649	0.17604937
106	0xbe25e8f6	-0.16202149
107	0x3db23fa2	0.08703543
108	0xbe0d0320	-0.13770723
109	0x3e39c16a	0.18140188
110	0x3e6459b0	0.22299838
111	0x3dd26f21	0.102751024
112	0x3e8f98c8	0.2804625
113	0xbe70bbbb	-0.23509113
114	0xbe5f122c	-0.21784276
115	0x3c6027ca	0.013681361
116	0xbe23c2c2	-0.15992263
117	0x3e04d73c	0.1297273
118	0x3e77de8b	0.24205987
119	0x3e8ddc3a	0.27707082
120	0xbdc1b896	-0.09459035
121	0xbe0e38f0	-0.13888907
122	0xbe843f57	-0.25829574
123	0x3e7833bf	0.2423849
124	0xbd9505f5	-0.07276527
125	0xbe0f2568	-0.13979113
126	0xbe665755	-0.22494252
127	0xbe0958ee	-0.1341283
128	0xbe803bbe	-0.2504558
129	0x3e9051a2	0.2818728
130	0xbe88865c	-0.26665008
131	0x3e31f0d2	0.17377022
132	0xbe0f64af	-0.14003251
133	0xbd0f2559	-0.034947727
134	0x3d8a52e8	0.06754094
135	0x3e55921c	0.20856518
136	0xbdd74716	-0.105116054
137	0x3dc7a5f3	0.09748449
138	0xbe734330	-0.23756099
139	0xbe53adaa	-0.20671716
140	0x3e78733b	0.24262707
141	0x3dc1b6f7	0.09458726
142	0x3e6f5529	0.2337233
143	0xbe0db3cc	-0.13838118
144	0xbe8af5a1	-0.27140525
145	0xbc5ede56	-0.013602814
146	0x3cb3906f	0.021919457
147	0x3e84475a	0.25835687
148	0xbc892579	-0.016741501
149	0xbdecd135	-0.115633406
150	0xbd5dc559	-0.054143284
151	0xbbf69654	-0.0075252447
152	0xbe012757	-0.12612663
153	0x3d3fccbc	0.04682611
154	0x3e56289b	0.20913927
155	0xbd32ff3f	-0.043700453
156	0x3e85fcdc	0.2616948
157	0xbe77658e	-0.24159834
158	0xbd860cf2	-0.06545438
159	0x3d87d664	0.06632689
160	0xbe25b2e8	-0.16181529
161	0xbd818f57	-0.06326168
162	0x3e62f955	0.22165425
163	0x3e643080	0.22284126
164	0x3e01fc01	0.12693788
165	0x3e2e26e0	0.17007017
166	0x3e3ad37d	0.18244739
167	0xbe33063a	-0.17482844
168	0x3d015e48	0.031584054
169	0x3e63b3d2	0.22236565
170	0xbca0ada4	-0.019614048
171	0x3df210f8	0.11819643
172	0x3e7b4109	0.24536528
173	0xbdfc43bb	-0.12317606
174	0x3e2f8b10	0.17142892
175	0x3e45e1d3	0.19324426
176	0x3da9928c	0.08279905
177	0xbd322d93	-0.043500494
178	0x3d21537b	0.039386254
179	0xbd9b02ac	-0.07568869
180	0xbdca65ac	-0.098826736
181	0xbe049230	-0.12946391
182	0xbda1d710	-0.07902348
183	0xbd9f179d	-0.07768176
184	0x3dc75144	0.09732297
185	0xbddff611	-0.10935605
186	0x3e6a260e	0.22866079
187	0xbd3a2025	-0.04544081
188	0xbe928929	-0.2862027
189	0xbdff81e0	-0.124759436
190	0x3e106cf9	0.1410407
191	0xbe90f27a	-0.28309995
192	0xbd8b03b1	-0.067878135
193	0xbdbaaaf6	-0.091146395
194	0x3e3c824f	0.18409084
195	0xbd8825cc	-0.06647834
196	0x3d5d08f7	0.053963628
197	0x3dea10ea	0.11429007
198	0xbe5f8363	-0.21827464
199	0x3e3adfe6	0.18249473
200	0xbe923138	-0.28553176
201	0xbe3de714	-0.1854518
202	0x3d825d4b	0.063654505
203	0x3e2156e3	0.15755801
204	0xbd925509	-0.071451254
205	0xbda8e23e	-0.08246277
206	0x3e57f05b	0.21087782
207	0x3d8b9013	0.06814589
208	0x3e1c8b13	0.15287428
209	0xbda9075c	-0.08253357
210	0xbe434993	-0.19071035
211	0x3db1d999	0.086840816
212	0x3e0b6892	0.13614109
213	0x3e09448e	0.13405058
214	0xbcd79c35	-0.026319603
215	0xbdee4352	-0.11633934
216	0xbe114b5d	-0.14188905
217	0xbd8a576a	-0.06754954
218	0xbe8a6b24	-0.27034867
219	0xbe6541dc	-0.22388405
220	0xbc20b9ad	-0.009809894
221	0xbe8b5424	-0.27212632
222	0xbcbbf1c5	-0.022942433
223	0xbdfedc77	-0.12444394
224	0x3e8e42c3	0.2778531
225	0x3e8f84da	0.28031045
226	0x3e859535	0.26090398
227	0xbe5113d7	-0.20417725
228	0xbd42aa84	-0.047525898
229	0x3df4b270	0.11948097
230	0xbe4895e9	-0.19588436
231	0x3e005678	0.12532985
232	0x3caa907f	0.020820854
233	0xbe20f032	-0.15716627
234	0x3c1e7cb0	0.0096732825
235	0xbd992bcc	-0.07479057
236	0x3d9ca130	0.076479316
237	0x3d9724f5	0.07380096
238	0x3e85a969	0.26105812
239	0xbe93f138	-0.28894973
240	0x3e187a52	0.14890411
241	0x3e2028af	0.1564052
242	0xbdb80276	-0.089848444
243	0xbda98f6c	-0.08279309
244	0xbd9af0f1	-0.07565487
245	0xbd95dc20	-0.07317376
246	0x3daee866	0.0854042
247	0xbe8e467d	-0.27788153
248	0x3d5fa4a6	0.05460038
249	0xbe934cb9	-0.28769472
250	0x3d9df34d	0.077124216
251	0xbe10b091	-0.14129855
252	0x3e060208	0.13086712
253	0xbe8bcfd1	-0.2730699
254	0x3acc6d8b	0.0015596611
255	0xbe1a8964	-0.15091473

sequential_6/conv2d_42/BiasAdd/ReadVariableOp f4 [7]
0	0xba936c45	-0.0011247477
1	0xbb8961da	-0.004192573
2	0xbc834870	-0.016025752
3	0xbc835b2a	-0.016034681
4	0xbb9ffcf8	-0.004882451
5	0x3ba272df	0.0049575414
6	0xbaeed643	-0.0018221814

sequential_6/conv2d_43/BiasAdd/ReadVariableOp f4 [7]
0	0xbbc0bd41	-0.005881936
1	0xbbe3a43f	-0.00694707
2	0xba4a1cbb	-0.00077099697
3	0xbc62b338	-0.013836674
4	0xbbf0a1cd	-0.007343507
5	0x3c08c676	0.008348098
6	0x3c0b5688	0.008504517

sequential_6/conv2d_44/BiasAdd/ReadVariableOp f4 [7]
0	0xbb35066a	-0.0027622231
1	0x3b726074	0.003698376
2	0x3c36feb7	0.011169127
3	0xbc098d6d	-0.008395535
4	0xbaae449a	-0.0013295591
5	0xbb9a9916	-0.0047179563
6	0xbc13b94b	-0.009016345

sequential_6/conv2d_45/BiasAdd/ReadVariableOp f4 [7]
0	0xbb8e67df	-0.0043458785
1	0x3b748e43	0.003731624
2	0x3bd38a23	0.006455676
3	0xbc0383c1	-0.008027018
4	0x3b0a37e1	0.0021090435
5	0xbb7511a8	-0.0037394557
6	0x3bc84250	0.0061114207

sequential_6/conv2d_46/BiasAdd/ReadVariableOp f4 [7]
0	0x3b51024b	0.0031892236
1	0xbbfe4083	-0.0077591552
2	0xb8fc4486	-0.0001202906
3	0x3b831023	0.0039997264
4	0xbba28e6f	-0.004960827
5	0x3b8c499a	0.004281235
6	0x3b7a6d83	0.0038212247

sequential_6/conv2d_47/BiasAdd/ReadVariableOp f4 [7]
0	0xbb3c71d2	-0.0028754366
1	0x3b7f2196	0.003892993
2	0xbc458606	-0.012055879
3	0xbb4db4a0	-0.0031388178
4	0x3c06ea2f	0.008234545
5	0xbbc28e6d	-0.0059373886
6	0x3b3d1369	0.002885068

sequential_6/conv2d_48/BiasAdd/ReadVariableOp f4 [7]
0	0xbbe73550	-0.007055916
1	0xbae3e891	-0.0017388036
2	0xbc263f57	-0.010146937
3	0x3c009008	0.00784684
4	0xbb45ec7f	-0.0030200777
5	0xbc21bd76	-0.009871831
6	0xbb2e2e84	-0.0026578018

sequential_6/conv2d_42/Conv2D f4 [7, 3, 3, 1]
0	0xbda7434c	-0.08167133
1	0xbd18a85e	-0.037269942
2	0xbd3289e5	-0.043588538
3	0x3e2df063	0.16986232
4	0xbdf0c3c7	-0.117560916
5	0xbe1459b6	-0.14487347
6	0xbd35af5c	-0.04435669
7	0x3dc257dd	0.09489415
8	0xbe0b82ea	-0.13624159
9	0xbc9b9326	-0.018991064
10	0x3e0ff526	0.1405836
11	0xbe95a05a	-0.292239
12	0xbc7dce25	-0.015491043
13	0x3df12d5b	0.11776229
14	0x3e64744e	0.22309992
15	0xbe00b60e	-0.12569448
16	0xbd849822	-0.064743295
17	0x3d867e00	0.06567001
18	0x3e922274	0.2854191
19	0x3de0fb5d	0.10985444
20	0x3e4e4b8f	0.20146011
21	0xbe4785a7	-0.19484578
22	0x3e49e492	0.19716099
23	0x3e174a25	0.14774378
24	0xbe0e9a71	-0.13926102
25	0x3e4a1638	0.19735038
26	0xbe77cbe4	-0.24198872
27	0xbcbbced7	-0.022925777
28	0xbdb556dc	-0.08854458
29	0xba6706a0	-0.0008812938
30	0xbd8ac11c	-0.06775114
31	0x3e52258f	0.2052214
32	0x3e909b8c	0.28243673
33	0x3e3a7e45	0.1821223
34	0x3e775be2	0.24156144
35	0xbbbdf9da	-0.005797607
36	0xbe85d50b	-0.261391
37	0xbddffccc	-0.10936889
38	0xbe41015d	-0.18848176
39	0xbe0ccafb	-0.13749306
40	0x3e8d2387	0.27566168
41	0xbde8d846	-0.11369376
42	0xbe77ad47	-0.24187194
43	0xbdda2b43	-0.10652783
44	0xbdfc9d63	-0.12334707
45	0xbe186aa6	-0.14884433
46	0xbe7f6869	-0.24942173
47	0x3e418849	0.18899645
48	0xbe3fa65a	-0.18715802
49	0xbdec50a4	-0.115388185
50	0xbe60c94d	-0.2195179
51	0xbe8198a3	-0.25311765
52	0x3e5749c4	0.21024233
53	0x3d52f34a	0.05150155
54	0xbe084854	-0.13308841
55	0xbe4697da	-0.19393864
56	0xbe42c36d	-0.19019862
57	0xbe90411b	-0.28174672
58	0xbe4b2577	-0.1983851
59	0xbe012054	-0.12609988
60	0xbe528039	-0.20556726
61	0x3deedcf7	0.116632394
62	0xbe32fa78	-0.17478359

sequential_6/conv2d_43/Conv2D f4 [7, 3, 3, 7]
0	0xbe0b9522	-0.13631108
1	0x3cf2c618	0.029635474
2	0xbe0c9f10	-0.13732553
3	0xbe1b9288	-0.15192616
4	0x3e079fa9	0.132445
5	0x3e2a2dd5	0.16619046
6	0xbc8569ed	-0.01628586
7	0x3db2e1f9	0.08734507
8	0x3df915be	0.1216235
9	0xbdbd251b	-0.09235593
10	0xbd93bfbc	-0.07214305
11	0xbc486b84	-0.012232665
12	0x3db0e2b0	0.08636987
13	0x3d247a4b	0.04015569
14	0x3e473690	0.19454408
15	0x3c2d809f	0.010589748
16	0x3df339fa	0.118762925
17	0x3d870896	0.065934345
18	0xbd8923d3	-0.06696286
19	0x3e514b8d	0.20438977
20	0xbe14f3bb	-0.14546101
21	0x3c9e044e	0.019289162
22	0x3e2bbe3a	0.16771784
23	0xbcae4fa4	-0.02127821
24	0x3e196d56	0.14983115
25	0x3e1ee434	0.1551674
26	0x3e512e77	0.20427881
27	0xbdb5f8de	-0.08885358
28	0xbcfa863d	-0.030581588
29	0xbda3053b	-0.07959982
30	0xbe310941	-0.17288686
31	0x3d8e4b69	0.06947977
32	0x3d67179d	0.056419004
33	0x3d44fb57	0.04809126
34	0x3e3107d3	0.17288141
35	0x3d635594	0.055501536
36	0xbe263b0c	-0.16233462
37	0x3e4ff99d	0.20310064
38	0xbdafc32a	-0.085821465
39	0x3dc43090	0.09579575
40	0x3e048c02	0.12944034
41	0x3e4e6a4a	0.20157734
42	0x3da450ac	0.080231994
43	0xbc5703ab	-0.013123433
44	0xbcc6c480	-0.02426362
45	0xbdb88304	-0.09009364
46	0xbe2d378d	-0.16915722
47	0xbe288a41	-0.1645899
48	0xbd476fda	-0.048690654
49	0xbe528958	-0.20560205
50	0xbdf9f007	-0.12203985
51	0xbdc184f1	-0.09449185
52	0x3de1afaf	0.11019837
53	0x3d71b136	0.059006892
54	0x3b575ca6	0.003286162
55	0xbe2deb39	-0.16984262
56	0xbe342243	-0.17591195
57	0x3bf05fdc	0.007335646
58	0xbdcf5be9	-0.10124952
59	0x3d946cd1	0.072473176
60	0x3c63244b	0.013863633
61	0xbdb532de	-0.08847593
62	0x3dc5cab2	0.09657802
63	0x3d2ab2c0	0.041674376
64	0xbe13cc66	-0.1443344
65	0xbdff0185	-0.12451462
66	0x3d9e9f47	0.077452235
67	0xbe52f961	-0.20602943
68	0x3e27c96e	0.16385433
69	0xbcce38b2	-0.025173519
70	0x3e57c67e	0.21071813
71	0x3e5d8214	0.21631652
72	0xbd87da12	-0.066333905
73	0x3d0e3c49	0.03472546
74	0xbd32b693	-0.043631148
75	0xbe5b3408	-0.21406567
76	0x3d7b656e	0.061376028
77	0x3e1e44ed	0.1545598
78	0x3dfb1efa	0.12261768
79	0xbe0c4d08	-0.1370126
80	0xbdf9fc07	-0.122062735
81	0xbcb45515	-0.022013227
82	0xbd4281c2	-0.047487028
83	0xbd50c35e	-0.050967567
84	0xbdf28943	-0.11842587
85	0x3e60de06	0.21959695
86	0x3e56f7d4	0.20992976
87	0xbe4ec25c	-0.2019133
88	0xbe049c63	-0.12950282
89	0xbe3912ae	-0.18073532
90	0x3c3485a9	0.011018195
91	0x3d02053f	0.031743284
92	0xbd2e0f9c	-0.042495355
93	0x3cf86824	0.030323096
94	0xbe4b02db	-0.19825308
95	0x3d87b0ed	0.06625543
96	0x3d66f887	0.056389358
97	0xbdc6e52a	-0.09711678
98	0x3d1b7e46	0.03796222
99	0xbdf48022	-0.11938502
100	0x3c5d867a	0.013520831
101	0x3db4c98c	0.088275045
102	0x3d08a5b7	0.033361163
103	0xbd776cfb	-0.060406666
104	0xbe46809b	-0.19384997
105	0x3e563b89	0.20921148
106	0xbd7158f1	-0.05892271
107	0xbdc386aa	-0.095471695
108	0x3dfa1b49	0.122122355
109	0xbd18d6be	-0.03731417
110	0x3dc421a0	0.09576726
111	0x3e4b1485	0.19832046
112	0xbe26e585	-0.16298492
113	0x3e40d6f4	0.18831998
114	0x3cb3d6c5	0.021952996
115	0x3e35b167	0.17743455
116	0x3e08b967	0.13351975
117	0xbe35b011	-0.17742945
118	0xbdd21fdc	-0.10259983
119	0xbe236629	-0.1595694
120	0xbe088ed9	-0.13335742
121	0x3e4b0a94	0.19828254
122	0x3d5efd13	0.05444057
123	0xbe425fde	-0.18981883
124	0x3e4d0657	0.2002195
125	0xbe38726f	-0.18012403
126	0x3e17b58f	0.14815353
127	0xbe34f94f	-0.17673229
128	0xbd299059	-0.041397426
129	0xbe51f7c4	-0.20504671
130	0x3e49b448	0.19697678
131	0x3dd9ecd4	0.106408745
132	0x3d65e416	0.056125723
133	0xbd92c4f7	-0.07166474
134	0x3e0281a8	0.12744772
135	0x3ca056b9	0.019572603
136	0x3dba99ec	0.091113895
137	0x3e101045	0.14068706
138	0xbd71c5c7	-0.059026506
139	0x3d9ff9de	0.0781133
140	0x3d7303c7	0.059329774
141	0xbdcb5623	-0.09928539
142	0x3df27172	0.11838044
143	0x3cb85e25	0.02250583
144	0xbdf07fab	-0.11743101
145	0xbba45415	-0.005014906
146	0xbd837654	-0.06419054
147	0x3a278021	0.0006389637
148	0xbdcf5833	-0.101242445
149	0x3e55b783	0.20870785
150	0x3d9982fd	0.07495687
151	0x3ce437b8	0.0278586
152	0x3e0c76c4	0.1371718
153	0x3df7bf39	0.1209702
154	0x3e0919d4	0.13388759
155	0x3d8766ca	0.06611402
156	0xbcacc107	-0.021088136
157	0x3e1d0245	0.15332897
158	0x3d7051c8	0.058671743
159	0x3dcbdb8e	0.09953986
160	0x3e3efd6f	0.18651365
161	0x3dff69a2	0.1247132
162	0xbae9d20e	-0.001783909
163	0xbd8fcbe7	-0.07021313
164	0xbe19fde3	-0.15038256
165	0x3c1b36e7	0.009473539
166	0x3d4d6141	0.050141577
167	0x3d810726	0.063001916
168	0xbe3cc89c	-0.18435901
169	0xbe14f615	-0.14546998
170	0xbdb83772	-0.0899495
171	0xbddd0047	-0.107910685
172	0xbd239e17	-0.039945688
173	0x3de66b18	0.11250895
174	0x3d603b21	0.05474389
175	0xbe228751	-0.15871932
176	0xbce30282	-0.027711157
177	0x3cfea74c	0.031085633
178	0xbdc0a172	-0.09405793
179	0x3e05c3b2	0.13062933
180	0xbe2c73eb	-0.16841094
181	0xbe1b83af	-0.15186952
182	0xbe329204	-0.17438513
183	0x3e258361	0.16163398
184	0x3ac239be	0.0014818234
185	0x3e31c881	0.17361642
186	0xbd680d25	-0.05665316
187	0x3d8c3c94	0.06847492
188	0x3e4fe745	0.20303066
189	0x3d508fe0	0.05091846
190	0xbe079dfa	-0.13243857
191	0xbe304ddf	-0.17217205
192	0x3dfc5aea	0.12322028
193	0xbd5de0c0	-0.054169416
194	0xbe2e3851	-0.1701367
195	0xbcfcbaa0	-0.030850708
196	0x3e5f189f	0.21786736
197	0x3db5e4e3	0.08881547
198	0x3d14250f	0.036168154
199	0xbe216ac3	-0.15763383
200	0xbe42da8a	-0.19028679
201	0xbc874d77	-0.01651643
202	0x3ddd35cc	0.108012766
203	0x3e521bad	0.2051837
204	0x3e0b9a26	0.13633022
205	0x3e4f3ccc	0.20238036
206	0xbcb74a01	-0.022374155
207	0x3d3a89e6	0.045541666
208	0x3dd5ce14	0.10439697
209	0xbc0659ef	-0.008200153
210	0xbe39e41d	-0.18153425
211	0xbe2441e4	-0.1604076
212	0x3cfc17a6	0.030772995
213	0xbc15e53a	-0.00914889
214	0x3e5b9c99	0.21446456
215	0x3e24572b	0.16048877
216	0x3d5d9e82	0.054106243
217	0x3d865876	0.06559841
218	0xbe0f0e61	-0.13970329
219	0xbe4202f1	-0.18946435
220	0xbc1ab1cb	-0.009441803
221	0xbdcc1954	-0.099657685
222	0x3df880b6	0.12133925
223	0xbd979393	-0.074011944
224	0x3e2f49cb	0.17117994
225	0x3e56dd8e	0.20982954
226	0x3d9b0705	0.07569698
227	0xbd4cf441	-0.050037626
228	0x3e3b42bd	0.18287177
229	0xbe0d7368	-0.13813555
230	0xbd1055a9	-0.035237942
231	0x3e0a5d1f	0.13512085
232	0x3d0a9bf9	0.033840153
233	0x3c53ed09	0.012934932
234	0x3e557a35	0.208474
235	0x3e3355a4	0.17513138
236	0x3e3a91fe	0.18219754
237	0xbe0b2bb4	-0.1359089
238	0x3e37bcfe	0.17943189
239	0xbe28b57c	-0.16475481
240	0x3df510a9	0.11966068
241	0xbdd52db7	-0.1040911
242	0xbda21546	-0.07914214
243	0xbe2652bc	-0.16242498
244	0x3d29fadd	0.041499007
245	0x3c714b53	0.014727431
246	0x3d35e8e8	0.04441157
247	0xbcee47b1	-0.02908692
248	0x3cf2f7f6	0.029659253
249	0x3e2e78cd	0.1703827
250	0x3dee8a51	0.116474755
251	0x3dc7133f	0.09720468
252	0x3d8071f7	0.06271737
253	0xbd853853	-0.065048836
254	0xbd111682	-0.035421856
255	0xbe28e3c5	-0.16493137

sequential_6/conv2d_44/Conv2D f4 [7, 3, 3, 7]
0	0xbd968342	-0.07349254
1	0xbd1dd2d3	-0.038531136
2	0xbe48779d	-0.19576879
3	0x3df94d1a	0.12172909
4	0x3d98abd7	0.07454651
5	0x3e4f04c5	0.20216663
6	0xbd4dacc7	-0.0502136
7	0x3e0c433e	0.13697526
8	0xbd9d2145	-0.07672361
9	0xbb6e48b5	-0.0036359255
10	0x3e1107bc	0.14163107
11	0xbe08dfdd	-0.13366647
12	0xbe416ce8	-0.188892
13	0x3df4ea29	0.11958725
14	0xbe520710	-0.20510507
15	0x3e166def	0.14690374
16	0xbe37310b	-0.17889802
17	0x3e2a27fd	0.16616817
18	0x3e12da9c	0.14341205
19	0xbe297c96	-0.16551432
20	0xbe24b734	-0.16085511
21	0xbe4f70b5	-0.20257838
22	0xbe3a843c	-0.18214506
23	0x3d4c0eae	0.049818687
24	0x3d0bdbbf	0.034145113
25	0xbdc21178	-0.09475988
26	0x3e155491	0.14583041
27	0x3de8dcc9	0.113702364
28	0xbb96aa15	-0.004597912
29	0xbcbe6891	-0.02324322
30	0xbd5277aa	-0.05138365
31	0x3e2e35a4	0.1701265
32	0xbdf0e226	-0.117618844
33	0xba12d306	-0.0005600903
34	0xbb65c752	-0.003506143
35	0xbd45a40d	-0.048252154
36	0x3d823a53	0.06358781
37	0x3e46dcf9	0.19420232
38	0xbe55699b	-0.20841067
39	0xbd764ab6	-0.060129844
40	0xbd60463d	-0.054754484
41	0xbd810622	-0.06299998
42	0x3daa3157	0.08310192
43	0x3da263bc	0.07929179
44	0xbe455303	-0.19269948
45	0xbd8ec5f9	-0.06971354
46	0x3d5d3870	0.0540089
47	0x3e212392	0.15736225
48	0xbdd30ff3	-0.103057764
49	0x3da467be	0.080276
50	0xbd44b2c7	-0.048022058
51	0xbe23403b	-0.1594247
52	0xbe5ea71a	-0.21743432
53	0x3deaafc8	0.11459309
54	0x3e23f9e3	0.16013293
55	0x3e4d6839	0.20059289
56	0xbd3cefb1	-0.046127025
57	0xbcfb2518	-0.030657336
58	0xbe3d67b2	-0.18496588
59	0x3d4ecc58	0.050487846
60	0x3d839224	0.064243585
61	0x3e095c2d	0.13414069
62	0xbcca9954	-0.024731316
63	0x3d12a688	0.035803348
64	0xbd119a71	-0.035547677
65	0x3e27d66e	0.16390392
66	0x3db78906	0.08961682
67	0xbbff9f49	-0.0078009707
68	0xbc7021da	-0.014656508
69	0x3dc6167a	0.09672256
70	0x3c5a8627	0.0133376485
71	0xbe256764	-0.16152722
72	0xbdf112a2	-0.11771132
73	0x3d659f4a	0.056060113
74	0x3de7064a	0.112804964
75	0xbe31521c	-0.17316478
76	0xbd46732d	-0.048449684
77	0xbd3fd79a	-0.046836473
78	0xbd7e5d8b	-0.06210093
79	0x3db47d02	0.08812906
80	0x3e47cc3b	0.19511501
81	0xbe1c3527	-0.15254651
82	0x3dbb5acb	0.09148177
83	0x3e36045c	0.177751
84	0xbe4469e2	-0.19181016
85	0x3de0454b	0.109507166
86	0xbc82ee6b	-0.015982827
87	0xbe26e402	-0.16297916
88	0x3d9e8169	0.07739527
89	0xbc97a3dd	-0.018510753
90	0x3e3f8e15	0.18706544
91	0xbcc56fc8	-0.024101153
92	0xbd6dc258	-0.05804667
93	0xbe270a48	-0.16312516
94	0x3e39b733	0.18136291
95	0x3e41ae61	0.18914177
96	0x3c17db98	0.009268664
97	0x3d342c70	0.04398769
98	0x3e446c7e	0.19182011
99	0x3dafa40b	0.085762106
100	0x3dd548b5	0.104142584
101	0x3e0c288e	0.13687345
102	0xbded9151	-0.115999825
103	0x3e27209a	0.1632103
104	0xbe16c8ce	-0.14725038
105	0xbe106c53	-0.14103822
106	0x3e46963b	0.19393246
107	0xbceef772	-0.029170725
108	0x3df064b8	0.117379606
109	0xbe032aa6	-0.12809238
110	0x3e21ba35	0.15793689
111	0x3d668c6e	0.056286268
112	0xbbaeeb5b	-0.005338115
113	0xbd4c1cd2	-0.049832173
114	0x3e533c20	0.20628405
115	0x3e12655e	0.14296481
116	0xbd0ac2b5	-0.033877093
117	0x3dd99fb6	0.106261656
118	0xbe018c98	-0.12651289
119	0xbe0c0a29	-0.13675751
120	0xbcfe7882	-0.031063322
121	0xbe1239e8	-0.14279902
122	0xbda7d363	-0.08194616
123	0xbc9d88e3	-0.019230312
124	0x3df2e575	0.11860172
125	0x3d6de088	0.058075458
126	0x3d87b607	0.06626516
127	0x3e068a96	0.13138804
128	0x3e566ebe	0.20940682
129	0x3dae1c78	0.08501524
130	0xbd9b6c3d	-0.07589004
131	0xbe2157e2	-0.15756181
132	0xbd91b722	-0.07115008
133	0xbe3f839d	-0.1870255
134	0x3e600617	0.21877323
135	0xbdc7330f	-0.097265355
136	0x3b155ed6	0.0022792122
137	0xbca0acfc	-0.019613735
138	0x3decdc80	0.115654945
139	0x3d9319f0	0.071826816
140	0xbe506366	-0.20350417
141	0x3e5f6a2b	0.21817844
142	0xbc110d78	-0.008853309
143	0x3e051c91	0.12999178
144	0xbdb3851d	-0.08765624
145	0x3e5c231f	0.21497773
146	0x3e3f8b96	0.18705592
147	0x3e226ac2	0.15861037
148	0xbe433622	-0.19063619
149	0xbdb3cdc8	-0.08779484
150	0x3e3968b1	0.18106343
151	0xbe0fc537	-0.14040075
152	0x3d9f38d0	0.07774508
153	0x3d512897	0.0510641
154	0xbcd4d3db	-0.025979927
155	0xbd29330a	-0.04130844
156	0x3af337e0	0.0018556081
157	0x3dc8c9b0	0.09804094
158	0xbc19ed7b	-0.009394999
159	0xbdf90958	-0.12159985
160	0x3df96f08	0.12179381
161	0xbd48de6b	-0.04904024
162	0x3e187878	0.14889705
163	0xbe393110	-0.18085122
164	0x3ddc147a	0.10746093
165	0x3e0d1bb2	0.13780096
166	0xbd8fb0fd	-0.0701618
167	0x3e4e23e2	0.20130876
168	0x3dca9243	0.098911785
169	0x3e55270e	0.2081568
170	0x3cd273e1	0.025690021
171	0xbdee92dd	-0.11649106
172	0xbbdd9312	-0.006761917
173	0xbdd02805	-0.10163883
174	0x3dd12c37	0.102135114
175	0xbdb8eaed	-0.090291835
176	0xbddcf576	-0.107890055
177	0x3e36b50e	0.17842504
178	0x3d5c631e	0.053805463
179	0xbddc8975	-0.10768405
180	0xbdeabf82	-0.114623085
181	0x3c5948b8	0.013261966
182	0xbcd66876	-0.026172858
183	0xbe58f23b	-0.21186154
184	0xbe41a945	-0.18912227
185	0xbe271efc	-0.16320413
186	0xbe293a63	-0.16526179
187	0xbe3ac5da	-0.18239537
188	0x3e24fc30	0.16111827
189	0xbcb4b4b3	-0.02205882
190	0x3e31ffbc	0.17382711
191	0xbd9fbc67	-0.07799607
192	0x3e52a7a9	0.2057177
193	0x3df01f29	0.11724693
194	0x3e3971d8	0.18109834
195	0xbe12eccc	-0.14348143
196	0xbe27b57c	-0.16377825
197	0x3cdf2109	0.027237432
198	0xbe3257b9	-0.17416276
199	0xbd8457ac	-0.064620346
200	0x3d7e6fdb	0.062118392
201	0x3cda89dc	0.026677065
202	0x3e2a7087	0.16644488
203	0xbe5fab10	-0.21842599
204	0x389f1308	7.585256e-05
205	0x3e0af102	0.135685
206	0xbe03afc0	-0.12860012
207	0xbbc5b807	-0.0060339007
208	0x3d1b2e21	0.03788579
209	0xbe0de6fe	-0.13857648
210	0xbd556408	-0.05209735
211	0xbd3eb745	-0.0465615
212	0x3dd62a28	0.104572594
213	0xbc77aa7f	-0.015116333
214	0xbe381434	-0.17976457
215	0x3e4f040a	0.20216385
216	0xbd5c4d38	-0.05378458
217	0xbda32186	-0.079653785
218	0xbe154fc2	-0.14581206
219	0x3e318e08	0.17339337
220	0x3c2fe4aa	0.01073567
221	0x3e444f42	0.1917086
222	0xbe48ccc9	-0.1960937
223	0xbdbd5a7f	-0.092457764
224	0x3e031201	0.12799837
225	0x3dd04c28	0.10170776
226	0x3d315c44	0.043300882
227	0xbe07c7c7	-0.13259803
228	0xbe3967d3	-0.18106012
229	0x3e196120	0.14978456
230	0x3ddaba79	0.10680098
231	0xbe532acd	-0.20621796
232	0x3d2dc9f6	0.042428933
233	0x3e2a3839	0.1662301
234	0x3dffcca4	0.12490204
235	0x3bc45d2a	0.0059925513
236	0xbe4b307e	-0.19842717
237	0xbe029710	-0.12752938
238	0x3dfe4e2f	0.12417256
239	0x3e665e7a	0.22496977
240	0x3c1970dc	0.009365287
241	0xbe406775	-0.18789466
242	0x3e641011	0.22271754
243	0x3cf3e939	0.029774295
244	0x3e1a9885	0.15097244
245	0x3b7e992d	0.0038848624
246	0x3ad2ec6e	0.001609219
247	0x3e22eabe	0.1590986
248	0xbe0b2312	-0.13587597
249	0xbe2cc691	-0.16872622
250	0x3e1ec8bb	0.1550626
251	0xbcb7eec6	-0.022452723
252	0x3e33ac34	0.17546159
253	0xbd2d7b57	-0.042353954
254	0xbd7428ed	-0.059609342
255	0x3e4c27b7	0.19937025

sequential_6/conv2d_45/Conv2D f4 [7, 3, 3, 7]
0	0xbe0fd937	-0.14047705
1	0xbdc702b2	-0.09717311
2	0x3e4d8180	0.20068932
3	0x3e4b9330	0.19880366
4	0x3e27b735	0.16378482
5	0xbd84bce7	-0.06481343
6	0xbe0df76c	-0.13863915
7	0xbd6c8ddd	-0.05775248
8	0xbcbf3cf3	-0.023344493
9	0x3e268a9b	0.16263811
10	0x3c9467db	0.018115928
11	0x3d59ce8d	0.053175498
12	0xbe1d2beb	-0.15348785
13	0xbdc43991	-0.095812924
14	0xbbe9db65	-0.0071367496
15	0xbd19f617	-0.037588205
16	0xbe2138f2	-0.15744379
17	0xbe35c4f9	-0.1775092
18	0x3dd6b080	0.104828835
19	0xbe1414f5	-0.1446112
20	0xbe04fc1f	-0.12986802
21	0x3e52a483	0.20570569
22	0x3e265f82	0.16247371
23	0xbd60a13f	-0.054841276
24	0x3d9a0e14	0.075222164
25	0xbe25bfdc	-0.1618647
26	0x3e20743d	0.15669341
27	0x3dee12ab	0.116246544
28	0xbdc065d9	-0.09394426
29	0xbe5fcab9	-0.21854676
30	0x3d95f4e4	0.073221
31	0x3e569044	0.2095347
32	0xbd051512	-0.032490797
33	0xbd8c4025	-0.06848172
34	0x3e3346a1	0.17507412
35	0xbe55d183	-0.20880704
36	0x3e5ef1b6	0.21771893
37	0x3d9d5ed3	0.07684102
38	0x3e5495d8	0.20760286
39	0xbd130c48	-0.035900384
40	0xbe3bd9f8	-0.18344867
41	0x3d9dae4d	0.07699261
42	0xbe48c785	-0.1960736
43	0x3de77cc2	0.113030925
44	0xbe471a15	-0.19443543
45	0xbe45f01e	-0.19329879
46	0xbe57ee59	-0.21087016
47	0x3d8746fb	0.06605335
48	0x3d64ce71	0.05586094
49	0x3d89e1c6	0.06732516
50	0xbe4c6db8	-0.1996373
51	0xbdae605c	-0.08514473
52	0x3d67ea03	0.056619655
53	0x3d1b6dde	0.037946574
54	0x3e4a680b	0.19766252
55	0xbd8b9bdd	-0.06816838
56	0xbd49cdf3	-0.049268674
57	0xbe18f87e	-0.14938542
58	0x3d5a5727	0.05330577
59	0x3d9cb77c	0.07652184
60	0x3d8edc18	0.06975573
61	0x3e0bce60	0.13652945
62	0x3e5d3c62	0.21605065
63	0x3c80f3e0	0.015741289
64	0x3c6d1925	0.014471327
65	0xbe09b251	-0.13446929
66	0x3d68b4a2	0.05681289
67	0xbe21302e	-0.15741035
68	0xbe2d3b3c	-0.16917127
69	0xbd953d28	-0.07287055
70	0x3e575aff	0.21030806
71	0xbc8de805	-0.01732255
72	0xbd77ce2a	-0.060499348
73	0x3c659b00	0.014014006
74	0x3d458fc9	0.048232827
75	0x3e3857cb	0.1800224
76	0x3da1f4a7	0.07907992
77	0xbe15a78e	-0.14614698
78	0xbd502781	-0.050818924
79	0x3d9ec398	0.0775215
80	0xbe0e43aa	-0.13893
81	0xbe0e4f2e	-0.13897392
82	0x3cfa8709	0.030581968
83	0x3d298cac	0.04139392
84	0x3cb8d1d9	0.022561
85	0x3e06bcbc	0.13157934
86	0x3e3d1f9a	0.18469086
87	0xbe0abfeb	-0.13549773
88	0xbb13a5d2	-0.0022529257
89	0x3e3c5163	0.18390422
90	0x3e4cf2ff	0.2001457
91	0x3e158c45	0.1460429
92	0x3e531fd9	0.20617618
93	0x3de68529	0.11255867
94	0xbd03b01d	-0.032150377
95	0xbe13d649	-0.14437212
96	0x3e4ed4b9	0.20198335
97	0xbd3ef323	-0.046618592
98	0xbe1b7fee	-0.1518552
99	0xbe5fe580	-0.21864891
100	0xbc726da4	-0.014796648
101	0x3b9f1261	0.004854486
102	0x3d8fa4ee	0.0701388
103	0x3d04eefe	0.032454483
104	0xbdb6b288	-0.08920771
105	0x3e40bf85	0.18823059
106	0xbe3fa6fb	-0.18716042
107	0xbe211f5a	-0.15734616
108	0x3d864eb8	0.06557983
109	0xbe39d82b	-0.18148868
110	0xbe26a9b3	-0.16275673
111	0x3cce05a3	0.025149172
112	0x3e48481c	0.19558758
113	0x3cab5a11	0.02091697
114	0x3d80335a	0.062597945
115	0xbe55084d	-0.20803948
116	0xbe57e7fd	-0.2108459
117	0x3cf46c88	0.029836908
118	0x3e1fb9f1	0.15598275
119	0xbe0ee9f3	-0.13956432
120	0xbd021d16	-0.03176602
121	0x3c7df72e	0.015500827
122	0x3e0ea2ea	0.13929334
123	0xbde75386	-0.11295228
124	0xbdded01f	-0.1087954
125	0x3da8368f	0.08213531
126	0x3dc837f3	0.097762965
127	0x3d9a09c2	0.075213924
128	0xbcd7e070	-0.026352137
129	0x3e4de7a8	0.20107901
130	0xbe483d9c	-0.19554752
131	0xbd540092	-0.051758356
132	0x3d29a7e1	0.041419867
133	0x3c04ba4b	0.008101056
134	0x3dcb1117	0.09915369
135	0x3e393f95	0.18090661
136	0xbdd96ed1	-0.1061684
137	0xbe263c84	-0.16234022
138	0xbd2f5329	-0.042803917
139	0x3de39096	0.11111562
140	0x3e15fd43	0.14647393
141	0x3da7b33a	0.08188482
142	0x3e135e73	0.14391498
143	0x3cd970e2	0.026543085
144	0x3ce76da3	0.028250521
145	0x3e33dc5d	0.1756453
146	0x3a895753	0.0010478295
147	0x3d7874f4	0.06065841
148	0x3e15e5a5	0.14638384
149	0x3bc740be	0.006080716
150	0xbdbb711e	-0.09152435
151	0xbddb05df	-0.10694479
152	0xbdd044f9	-0.101694055
153	0x3def81c7	0.11694675
154	0xbb068e01	-0.0020531418
155	0xbcfcd446	-0.030862939
156	0x3e130246	0.14356336
157	0x3c8785e2	0.016543332
158	0xbdc7a8b7	-0.09748977
159	0x3de2a073	0.110657595
160	0xbde30584	-0.110850364
161	0xbe590f19	-0.21197166
162	0x3e013cee	0.12620899
163	0x3af651ad	0.0018792652
164	0xbe3b2d5d	-0.18279023
165	0xbdf76525	-0.12079839
166	0xbddbfb49	-0.10741288
167	0xbc872410	-0.016496688
168	0x3daeeef3	0.0854167
169	0x3decbb40	0.115591526
170	0x3d4f2711	0.050574366
171	0x3e41d299	0.18927993
172	0xbddfa444	-0.10920003
173	0x3d9aa7d9	0.07551546
174	0x3e57a299	0.2105812
175	0xbc039cbe	-0.008032976
176	0xbc510b9e	-0.012759117
177	0x3e1f9ce6	0.15587196
178	0xbe0e66a3	-0.1390634
179	0xbe027adf	-0.12742184
180	0xbdeed9ca	-0.11662634
181	0x3b29e2d4	0.0025922554
182	0xbcdf20ad	-0.02723726
183	0x3e105707	0.14095698
184	0xbdc1710f	-0.09445392
185	0xbe2b2f61	-0.16717292
186	0xbd5bdee0	-0.053679347
187	0x3d75b335	0.05998536
188	0xbe073cd8	-0.13206804
189	0xbd326b33	-0.043559264
190	0xbdae15ea	-0.085002735
191	0x3ccc4105	0.024933347
192	0x3e1a411d	0.15063901
193	0x3d300db7	0.04298183
194	0x3e4bf460	0.1991744
195	0x3cc98310	0.024598628
196	0x3e201d4e	0.15636179
197	0xbe45c8b8	-0.1931485
198	0xbe0485bf	-0.12941645
199	0x3c50261d	0.012704399
200	0xbdd650f2	-0.10464658
201	0xbd402526	-0.046910428
202	0xbd91df28	-0.07122642
203	0xbd8e88da	-0.06959696
204	0xbd5da119	-0.054108713
205	0xbe0f2a05	-0.13980873
206	0xbe02bd2a	-0.12767473
207	0xbdecbb66	-0.11559181
208	0xbe4d1561	-0.20027687
209	0xbd6032b3	-0.05473585
210	0x3dc38d3a	0.09548421
211	0xbe4e6c29	-0.20158447
212	0x3db584f9	0.08863253
213	0xbe121538	-0.14265907
214	0xbe0ee1db	-0.13953345
215	0x3cf7bd92	0.030241761
216	0x3c51bcd3	0.012801367
217	0xbcefda7d	-0.029278988
218	0x3e4c34e4	0.19942051
219	0xbdd9ecee	-0.10640894
220	0xbe3f5f8c	-0.18688792
221	0x3e5a01fe	0.21289822
222	0x3e14811e	0.1450238
223	0xbd037930	-0.032097995
224	0x3de6fbb3	0.112784766
225	0xbe45476b	-0.19265525
226	0x3de20606	0.11036305
227	0xbe58f036	-0.21185383
228	0xbcadbc1c	-0.021207862
229	0x3d942a00	0.07234573
230	0x3e396ba5	0.1810747
231	0xbd92e8cc	-0.07173309
232	0x3e169952	0.14706925
233	0x3d03a3bb	0.032138567
234	0xbd46873d	-0.048468817
235	0x3e096ec8	0.13421166
236	0x3e2fb4d3	0.17158823
237	0xbd9524bf	-0.072823994
238	0xbdd4675e	-0.10371278
239	0xbe26c469	-0.16285862
240	0xbd2efab5	-0.04271956
241	0xbd9d79d5	-0.07689253
242	0x3e148be3	0.14506488
243	0x3de2cb3b	0.110739194
244	0xbe3db1ad	-0.18524809
245	0xbdf6a2bf	-0.1204276
246	0xbb5dbdf5	-0.0033835147
247	0xbda7c8a8	-0.08192569
248	0xbe2bac3f	-0.16764925
249	0xbe59ac7e	-0.21257207
250	0x3e5327c3	0.20620637
251	0xbe3380c2	-0.17529586
252	0x3e0b4e50	0.13604093
253	0x3cd1b1e4	0.02559752
254	0xbd1d9334	-0.038470462
255	0x3d7a43b1	0.06109971

sequential_6/conv2d_46/Conv2D f4 [7, 3, 3, 7]
0	0xbe4d8096	-0.20068583
1	0xbdff6dc2	-0.124721065
2	0xbc9e1030	-0.019294828
3	0xbe0b1596	-0.13582453
4	0x3d969cda	0.07354136
5	0x3dc58f8a	0.096465185
6	0x3e24c3b8	0.16090286
7	0x3dcd8614	0.10035339
8	0xbde1473f	-0.10999917
9	0xbe275e20	-0.163445
10	0x3d18d877	0.037315812
11	0xbd725ca7	-0.05917039
12	0x3c8f8aee	0.017522302
13	0x3d9704b5	0.07373945
14	0xbe43c211	-0.19116999
15	0xbe27b3a7	-0.16377126
16	0x3d8aa97c	0.06770608
17	0xbe606a4d	-0.2191555
18	0x3dd53a1e	0.104114756
19	0x3e444102	0.19165424
20	0x3e25d691	0.16195132
21	0x3e019dda	0.12657872
22	0xbc1a7327	-0.0094268685
23	0x3d135923	0.03597368
24	0xbe0a3275	-0.1349581
25	0x3d6f068c	0.058355853
26	0xbe20a703	-0.1568871
27	0x3dd1418c	0.1021758
28	0xbe2662e6	-0.16248664
29	0x3e45849c	0.19288868
30	0xbdbdd0dc	-0.092683524
31	0x3d10088f	0.035164412
32	0x3e5412c3	0.20710282
33	0x3e3fb232	0.1872032
34	0xbc013e46	-0.007888382
35	0xbe009c2e	-0.12559578
36	0x3d9f1add	0.07768796
37	0xbdf990a1	-0.12185789
38	0x3bdf9ddc	0.006824238
39	0xbe483372	-0.19550875
40	0xbdab418c	-0.083621114
41	0xbcf299b0	-0.0296143
42	0xbd5f0233	-0.054445457
43	0xbe28ba16	-0.16477236
44	0x3e57b979	0.21066846
45	0xbcc7aae0	-0.024373472
46	0xbe02890f	-0.12747596
47	0xbe27ddce	-0.16393206
48	0x3d1f9763	0.038962733
49	0x3e133390	0.14375138
50	0xbc83d600	-0.016093254
51	0x3b339fa9	0.0027408397
52	0x3dfd4e13	0.12368407
53	0x3bfde883	0.007748665
54	0x3e43bd9b	0.19115297
55	0xbc8a7ed2	-0.016906176
56	0xbdf6e5d7	-0.12055557
57	0xbe449050	-0.19195676
58	0xbc8dbdf3	-0.017302489
59	0x3dfe3b47	0.1241365
60	0x3e358a67	0.17728578
61	0xbd8c9992	-0.06865229
62	0x3d8f9f95	0.0701286
63	0xbdf198ce	-0.11796723
64	0x3e4e7b2b	0.20164172
65	0xbd7a8be3	-0.061168563
66	0xbe091d27	-0.13390027
67	0x3e4b31e7	0.19843255
68	0x3e2ec27c	0.17066377
69	0xbd2d42e7	-0.04230013
70	0xbe49e434	-0.19715959
71	0xbe16fd30	-0.14745021
72	0x3e18cc62	0.14921716
73	0x3e371674	0.17879659
74	0xbe4ab9a4	-0.19797379
75	0x3cb97382	0.022638086
76	0xbdd99feb	-0.10626205
77	0xbe57e79b	-0.21084444
78	0xbd3d1b35	-0.046168525
79	0xbe264a20	-0.16239214
80	0xbe59dcfb	-0.21275704
81	0xbe33f9bb	-0.17575733
82	0xbe4a1cf4	-0.19737607
83	0xbe3279d9	-0.17429294
84	0xbd90fad4	-0.07079092
85	0x3e5d3742	0.2160311
86	0x398773d6	0.0002583551
87	0xbdcf1f43	-0.101133846
88	0xbe5979c2	-0.21237853
89	0xbe2216a7	-0.15828954
90	0x3d37f4b9	0.04491112
91	0x3d3f9185	0.046769638
92	0xbd26f003	-0.040756237
93	0xbd2293fa	-0.039691903
94	0xbd222b82	-0.039592274
95	0xbdd2ade1	-0.10287071
96	0x3dda439f	0.10657429
97	0x3dd612bc	0.10452792
98	0xbe170381	-0.1474743
99	0xbe4f88ae	-0.20266983
100	0xbb8e2777	-0.0043382007
101	0x3e4f6a3a	0.20255366
102	0xbe040375	-0.12891944
103	0x3e55f981	0.2089596
104	0x3d99dca4	0.07512787
105	0xbe5f6dee	-0.21819279
106	0x3c6e0e2e	0.014529748
107	0x3dade01d	0.08490012
108	0x3d0e8458	0.03479418
109	0x3e180c86	0.14848527
110	0xbd2954f3	-0.04134078
111	0xbe18d4ce	-0.14924929
112	0x3de7daec	0.11321053
113	0x3de6b18b	0.112643324
114	0xbe3807a4	-0.17971665
115	0xbe088609	-0.1333238
116	0xbe26ab9b	-0.162764
117	0x3da0965b	0.07841178
118	0xbdfd23cf	-0.123603456
119	0xbe17aab1	-0.14811207
120	0xbde2928e	-0.11063109
121	0x3dadda9e	0.084889635
122	0x3e4c6764	0.19961315
123	0xbd0118be	-0.031517737
124	0x3dcfedc7	0.10152774
125	0x3e17f259	0.14838542
126	0xbd0b272f	-0.033972915
127	0x3d784bad	0.060619045
128	0xbe26a905	-0.16275413
129	0x3e191054	0.14947635
130	0x3e2471dc	0.16059059
131	0x3e25c3a8	0.16187918
132	0xbe0b4e58	-0.13604105
133	0x3e2c002e	0.16796944
134	0xbe5026ee	-0.2032735
135	0xbdbdfcaa	-0.092767075
136	0x3e29dd0c	0.16588229
137	0x3dd5a0d7	0.104310684
138	0xbdd28c44	-0.1028066
139	0x3e50e739	0.20400704
140	0xbddc532d	-0.10758052
141	0xbe4d91b6	-0.20075116
142	0xbe21dcda	-0.15806904
143	0x3cdef425	0.027216027
144	0xbe46f9cd	-0.19431229
145	0x3d1d1696	0.038351618
146	0x3e1ac1fd	0.15113063
147	0xbe1baa72	-0.15201738
148	0x3c4e8723	0.012605461
149	0xbdbe907d	-0.09304903
150	0xbdee8501	-0.11646462
151	0xbe29a85c	-0.1656813
152	0x3e66c713	0.22536878
153	0xbc1036a6	-0.008802092
154	0xbca70080	-0.02038598
155	0xbdf3eb36	-0.11910097
156	0x3d88fc0e	0.066887006
157	0xbcbf4c20	-0.023351729
158	0x3e233c8d	0.15941067
159	0xbdfbd361	-0.12296177
160	0xbe13de27	-0.14440213
161	0xbd22f77c	-0.0397868
162	0xbe46670b	-0.19375245
163	0x3db70783	0.089369796
164	0x3d3e8fb0	0.04652375
165	0x3e57ad3a	0.21062174
166	0x3e2a38db	0.16623251
167	0x3e1e3dd7	0.15453278
168	0x3dc15850	0.094406724
169	0xbc8c5a53	-0.017132914
170	0x3bde97d6	0.0067930026
171	0x3e432f6d	0.1906106
172	0x3e37af6c	0.17938012
173	0x3e5c282e	0.21499702
174	0xbd4e9242	-0.05043245
175	0xbcceb573	-0.025233006
176	0xbe11a40f	-0.1422274
177	0xbb819282	-0.0039542327
178	0x3d39488e	0.04523521
179	0x3daf92f3	0.0857295
180	0x3d762faa	0.06010405
181	0xbdf3d312	-0.11905493
182	0x3d267774	0.040641263
183	0xbdabe16e	-0.08392607
184	0xbdfcd9d8	-0.12346238
185	0x3e593569	0.2121178
186	0x3c976033	0.018478489
187	0xbc8686f7	-0.016421778
188	0xbd1bc27e	-0.03802728
189	0xbd8b1057	-0.06790226
190	0x3d47e5c3	0.048803102
191	0xbdfd46d3	-0.12367024
192	0x3c6511d5	0.013981302
193	0xbda42e43	-0.08016636
194	0xbd8bd103	-0.06826975
195	0xbdff835d	-0.124762274
196	0xbe187ca6	-0.148913
197	0x3e27b8e7	0.16379128
198	0xbd0c0397	-0.03418311
199	0xbb93e98d	-0.0045139254
200	0xbe3bf7b7	-0.18356214
201	0xbe0db04b	-0.13836782
202	0xbdbf5df2	-0.093440905
203	0x3e0d2c78	0.13786495
204	0x3d5f8e2c	0.054578945
205	0x3e2004df	0.15626858
206	0xbe125f7c	-0.14294237
207	0xbe58fb9d	-0.21189733
208	0x3d5b1a0a	0.05349163
209	0xbe0fef1e	-0.1405606
210	0xbe0305f4	-0.1279524
211	0x3db00091	0.08593858
212	0x3d3abaf1	0.045588437
213	0xbe3f50da	-0.18683186
214	0xbdb3ac19	-0.087730594
215	0xbe1050f9	-0.14093389
216	0xbd8b6656	-0.068066284
217	0xbdf6ed42	-0.12056972
218	0x3df6fb30	0.12059629
219	0x3dff4edf	0.12466215
220	0xbe352ddb	-0.17693274
221	0x3e2422b7	0.16028868
222	0x3e3cac64	0.18425137
223	0xbe18e3b3	-0.1493061
224	0xbe006ce5	-0.1254154
225	0x3dcb338a	0.0992194
226	0xbe577002	-0.21038821
227	0x3e3f6966	0.1869255
228	0xbd8e3194	-0.0694305
229	0xbda7114a	-0.081575945
230	0xbe1f84b1	-0.15577962
231	0x3c4ca165	0.012489651
232	0xbdf6a583	-0.120432876
233	0x3dfae5f8	0.12250894
234	0x3ce0db33	0.027448272
235	0xbe39123a	-0.18073359
236	0x3dbeae2b	0.09310564
237	0xbdbf6ef6	-0.09347336
238	0xbe114d7d	-0.14189716
239	0xbe424b49	-0.18974032
240	0xbd0334d5	-0.032032806
241	0x3dcc3956	0.099718735
242	0xbdfcdadb	-0.12346431
243	0xbba19f82	-0.004932345
244	0x3da8be91	0.08239473
245	0x3e35a43a	0.17738429
246	0xbdebc5ea	-0.115123585
247	0xbdf985db	-0.12183734
248	0x3e1d44cd	0.15358277
249	0x3d99d644	0.07511571
250	0xbde873c0	-0.113502026
251	0x3e027e7f	0.12743567
252	0xbdc81c58	-0.09771031
253	0xbe572df4	-0.21013623
254	0xbe065f07	-0.13122188
255	0x3dce976a	0.10087474

sequential_6/conv2d_47/Conv2D f4 [7, 3, 3, 7]
0	0x3e52d8c5	0.20590504
1	0x3dbd0ae7	0.09230595
2	0xbe1213a7	-0.1426531
3	0xbc2ada7b	-0.010428066
4	0xbe08970b	-0.13338868
5	0x3e40253b	0.18764202
6	0xbe45e344	-0.19324976
7	0xbdec8262	-0.11548306
8	0x3bde93e3	0.006792532
9	0xbe305658	-0.17220438
10	0xbe3bf48b	-0.18355004
11	0x3e221aac	0.15830487
12	0xbca17bdd	-0.019712383
13	0x3cb2eff6	0.021842938
14	0xbde7fcce	-0.113275155
15	0xbe0168d4	-0.12637645
16	0xbe1bf809	-0.15231337
17	0x3d9f95ea	0.07792266
18	0x3d6a8ffb	0.057266217
19	0xbe630735	-0.22170718
20	0xbe46428b	-0.19361322
21	0x3e13c869	0.14431919
22	0xbd6528a3	-0.055946957
23	0x3e318760	0.17336798
24	0xbe1a48fc	-0.15066904
25	0x3e55e641	0.20888616
26	0xbe3ea23c	-0.18616575
27	0x3e09200c	0.13391131
28	0xbc5868b7	-0.01320856
29	0x3e220284	0.15821272
30	0xbd13df59	-0.036101673
31	0x3e4d3ca0	0.20042658
32	0xbc759c94	-0.014990944
33	0xbd1856d9	-0.0371922
34	0xbd86a0b4	-0.065736204
35	0xbe3a32ca	-0.18183437
36	0x3e3ee026	0.18640193
37	0xbc15096b	-0.009096484
38	0xbd26702b	-0.040634315
39	0xbc598962	-0.0132773835
40	0x3d9a061f	0.07520699
41	0x3e482f1b	0.1954922
42	0xbb0e3969	-0.00217017
43	0xbcef6b99	-0.029226111
44	0x3d1d4137	0.03839227
45	0x3e2f6aa0	0.17130518
46	0x3d8f6ef7	0.07003587
47	0xbde075cb	-0.10959967
48	0x3dd86d09	0.10567672
49	0x3d9fa2a1	0.07794691
50	0x3e31fa94	0.17380744
51	0xbc918a1e	-0.017766055
52	0xbe4de7b3	-0.20107917
53	0xbc711e94	-0.014716763
54	0xbe5a1100	-0.21295547
55	0xbe3d00a6	-0.18457279
56	0x3e0f3818	0.13986242
57	0xbe1b8554	-0.1518758
58	0xbcf07cac	-0.029356323
59	0x3daf3127	0.08554297
60	0xbe034df4	-0.12822706
61	0x3db3373f	0.08750772
62	0x3dd3c87a	0.10340972
63	0x3d0bde93	0.03414781
64	0x3de58e6f	0.11208808
65	0xbd90a044	-0.07061818
66	0xbda95567	-0.08268242
67	0x3e01e2d5	0.12684186
68	0x3e045e66	0.12926635
69	0x3d37be28	0.04485908
70	0xbe54dc76	-0.20787224
71	0xbd8ee3a5	-0.069770135
72	0xbcaa94c2	-0.020822886
73	0xbe51f1e3	-0.20502429
74	0x3dbd1120	0.09231782
75	0xbdc0f508	-0.09421736
76	0x3d8f062a	0.069835976
77	0xbb155b51	-0.0022790025
78	0x3bab668e	0.0052307313
79	0x3c46c438	0.012131743
80	0x3e1174ee	0.14204761
81	0x3d882449	0.06647546
82	0x3dc2489f	0.094865076
83	0xbce4ac56	-0.027914207
84	0x3e2a095b	0.16605131
85	0x3d6286d3	0.05530436
86	0xbdeef067	-0.11666947
87	0x3db23611	0.087017186
88	0xbdfd4205	-0.12366108
89	0x3e188d53	0.14897661
90	0xbe09c6b4	-0.13454705
91	0xbcd03fbb	-0.025421014
92	0x3dd594c7	0.10428768
93	0xbe058957	-0.13040672
94	0x3d9a789f	0.07542538
95	0x3c12cdb9	0.008960181
96	0xbdab394e	-0.083605394
97	0xbd9c8f23	-0.07644489
98	0x3ddde2be	0.10834263
99	0x3e1beb2a	0.15226427
100	0x3da09cdd	0.07842419
101	0x3be49824	0.0069761444
102	0xbdc2857e	-0.09498118
103	0x3e215547	0.15755187
104	0x3dcf6fba	0.10128732
105	0xbe21442d	-0.15748663
106	0xbcb7930c	-0.022408985
107	0xbe2d876a	-0.16946188
108	0x3e5e413d	0.21704574
109	0xbb8b3bfb	-0.0042490936
110	0xbe5d030a	-0.2158319
111	0xbe04f328	-0.12983382
112	0x3cee1e78	0.029067263
113	0xbdec6505	-0.115427054
114	0xbd5e539c	-0.054278955
115	0xbe580812	-0.21096829
116	0x3dada7c0	0.084792614
117	0x3d863ce6	0.06554584
118	0xbdf2b143	-0.11850216
119	0x3d3dba55	0.04632028
120	0x3e4902b5	0.19629939
121	0x3d4ca8fb	0.04996584
122	0xbd04d70d	-0.03243165
123	0xbe55ec23	-0.2089086
124	0x3d31257c	0.04324864
125	0x3df8869b	0.12135049
126	0xbd9d0314	-0.07666603
127	0x3d177107	0.036973026
128	0xbdaa1561	-0.08304859
129	0xbe0e7b2f	-0.13914178
130	0x3d88a8b3	0.06672802
131	0x3dc30ca0	0.095238924
132	0x3e13b5b6	0.14424786
133	0xbd207814	-0.039177015
134	0x3e335c7d	0.1751575
135	0x3d7bcbc6	0.06147363
136	0xbe4139af	-0.18869661
137	0x3c85e016	0.016342204
138	0xbe19f36f	-0.15034269
139	0x3e22d64a	0.15902057
140	0xbcb757c3	-0.022380715
141	0xbdc5499d	-0.09633181
142	0x3e4b6b20	0.19865084
143	0x3e3e3de1	0.18578292
144	0xbc2b0197	-0.010437391
145	0x3a9c5c88	0.0011929432
146	0xbe4bc9ec	-0.19901246
147	0x3e48fdeb	0.19628112
148	0xbe13402b	-0.14379947
149	0x3e40dcab	0.18834178
150	0xbe14fb50	-0.14548993
151	0xbe2f0614	-0.17092162
152	0x3e32c880	0.17459297
153	0x3c801d0c	0.01563885
154	0xbe580e42	-0.21099189
155	0x3e02a1f3	0.12757091
156	0xbdfc01bc	-0.12305018
157	0x3e25f689	0.16207327
158	0xbd071ec9	-0.032988343
159	0xbe2caa66	-0.16861877
160	0x3e1093c7	0.14118873
161	0x3e38a56b	0.18031852
162	0x3e2ac389	0.16676153
163	0x3de3c04c	0.11120662
164	0x3e5795d7	0.21053253
165	0x3e5c6a7c	0.21524996
166	0x3dc55c8b	0.09636792
167	0xbd86d61b	-0.06583806
168	0x3e0171cc	0.12641066
169	0xbc33e73f	-0.010980426
170	0x3e0bf1a3	0.13666396
171	0x3de7500f	0.11294567
172	0x3e5af76c	0.21383446
173	0xbe5b3799	-0.21407928
174	0xbd982c89	-0.074303694
175	0xbdad8a66	-0.08473663
176	0xbe0e35e2	-0.13887742
177	0x3e02081c	0.12698406
178	0xbd4daa9a	-0.050211526
179	0x3e51a608	0.20473492
180	0x3daee86e	0.08540426
181	0xbe2a8b0f	-0.16654609
182	0xbe54441d	-0.20729108
183	0x3e1b471c	0.15163845
184	0xbe372630	-0.17885661
185	0xbe1f4c1e	-0.1555638
186	0x3d86acdd	0.0657594
187	0x3d9bd21f	0.07608437
188	0x3dd9ec70	0.106408
189	0x3c8f3b26	0.017484259
190	0xbe2fee03	-0.17180638
191	0xbc46e94a	-0.012140581
192	0x3df0611f	0.117372744
193	0xbe3a8f5e	-0.18218753
194	0x3df86b19	0.12129802
195	0x3d8d319f	0.0689423
196	0xbdd9bc29	-0.10631592
197	0xbd453984	-0.048150554
198	0xbdc8333e	-0.09775399
199	0x3e2d0d4e	0.16899607
200	0x3c2a1892	0.010381835
201	0xbdc29d68	-0.09502679
202	0xbd929bc9	-0.0715862
203	0xbcc891d7	-0.024483604
204	0xbdec7c9f	-0.11547207
205	0xbe253d2c	-0.16136616
206	0x3e3f9ad2	0.18711403
207	0x3cce6c7f	0.02519822
208	0xbd96751b	-0.07346555
209	0x3dcad3db	0.099036895
210	0x3def99cc	0.11699256
211	0x3cdadc40	0.026716352
212	0x3e0b37eb	0.1359555
213	0xbe37ce96	-0.179499
214	0xbcd5db7f	-0.02610564
215	0xbdc9424d	-0.09827099
216	0xbe30f534	-0.17281038
217	0xbe465f75	-0.19372351
218	0xbdfe2665	-0.12409667
219	0xbe53f6f0	-0.20699668
220	0x3e2ae997	0.1669067
221	0x3e2db857	0.16964851
222	0x3d7687fa	0.06018827
223	0x3e5b0fe9	0.21392788
224	0xbdf47a23	-0.11937358
225	0xbe355107	-0.1770669
226	0xbdcaa98e	-0.09895621
227	0xbe10c1ab	-0.14136378
228	0x3dfd6c33	0.12374153
229	0x3c139de3	0.009009811
230	0x3e41fb38	0.18943489
231	0xbdb29861	-0.0872047
232	0x3e624151	0.22095229
233	0xbe27bbb9	-0.16380204
234	0x3e2337e8	0.15939295
235	0xbe3cabbf	-0.18424891
236	0xbdb56ecd	-0.08859024
237	0xbd47b2d2	-0.04875452
238	0xbe4ebe4e	-0.20189783
239	0x3e2f7d6f	0.17137693
240	0x3cbeec6d	0.023306096
241	0xbc9698b9	-0.01838337
242	0x3e0c30ea	0.13690534
243	0xbde809d5	-0.1133
244	0x3e3cf14a	0.1845142
245	0xbe53b818	-0.20675695
246	0xbd5f9a45	-0.054590482
247	0xbdb15f7d	-0.08660791
248	0x3cc1d211	0.023659738
249	0x3dd33351	0.10312522
250	0xbd06d26e	-0.032915525
251	0x3e450a80	0.19242287
252	0xbdadf75e	-0.08494447
253	0x3d3f4000	0.046691895
254	0xba141fb9	-0.0005650479
255	0x3c7ad8f9	0.015310519

sequential_6/conv2d_48/Conv2D f4 [7, 3, 3, 7]
0	0x3e2045df	0.15651654
1	0x3e36d264	0.17853695
2	0x3d05d3e9	0.032672796
3	0x3e493bd1	0.19651724
4	0xbe0ed6d9	-0.13949145
5	0x3de95fe9	0.113952465
6	0x3e2e2395	0.17005761
7	0x3e31f736	0.1737946
8	0x3dbd6e7f	0.09249591
9	0xbbf2ca6e	-0.0074093854
10	0x3e114fa3	0.14190535
11	0xbe1d7f38	-0.15380561
12	0xbe2abcd2	-0.16673592
13	0xbc9997ed	-0.018749202
14	0x3d818a8a	0.06325252
15	0x3e433b4e	0.19065592
16	0x3ce29a6a	0.027661521
17	0x3e11cbbb	0.14237873
18	0x3db91d04	0.090387374
19	0x3e08ac5a	0.13346997
20	0x3e183f59	0.14867915
21	0xbd81ff26	-0.06347494
22	0xbd8d5a17	-0.06901949
23	0x3c3024b5	0.010750939
24	0xbe1d42e2	-0.15357545
25	0xbd9cb8d4	-0.07652441
26	0x3e5eaac7	0.21744834
27	0x3d0b486c	0.034004614
28	0xbdcc1ce1	-0.09966446
29	0xbe480bd6	-0.19535765
30	0xbd8c1d08	-0.06841475
31	0x3e474afe	0.19462201
32	0xbde43908	-0.1114369
33	0x3d337d23	0.04382051
34	0xbe4c0313	-0.19923048
35	0x3dde7d90	0.10863793
36	0xbe58167d	-0.21102329
37	0xbe433ad3	-0.19065408
38	0xbdae079a	-0.08497544
39	0xbd8307e8	-0.06397992
40	0x3d0c3638	0.034231395
41	0x3e39e666	0.18154296
42	0x3db356d6	0.08756797
43	0x3dddf4a7	0.10837679
44	0xbe2b9fde	-0.16760203
45	0xbdeb3ac9	-0.11485822
46	0x3db8062e	0.08985554
47	0x3e0bbd11	0.13646342
48	0xbe09c09f	-0.13452385
49	0x3e30ccb9	0.17265595
50	0x3ddc09f4	0.10744086
51	0x3e59ded7	0.21276413
52	0x3d1bec2e	0.038067035
53	0xbe39ef30	-0.18157649
54	0xbe025383	-0.1272717
55	0x3dcdb1b6	0.10043661
56	0xbe0ec939	-0.13943948
57	0xbd38203f	-0.044952627
58	0xbdbb4650	-0.091442704
59	0x3d8b10cd	0.06790314
60	0xbe62903c	-0.22125334
61	0x3e45f0d6	0.19330153
62	0x3e2b0fcb	0.16705243
63	0xbdf4531e	-0.11929916
64	0xbd352a30	-0.044229686
65	0xbd018a2b	-0.031625908
66	0x3e1bc118	0.15210378
67	0xbce23304	-0.027612217
68	0x3e2dbe81	0.16967203
69	0xbda43a5a	-0.08018942
70	0x3d628a6b	0.055307787
71	0x3d4006b0	0.046881378
72	0xbe4a29e8	-0.19742548
73	0x3ca97f0c	0.020690463
74	0xbcaa1b16	-0.020764869
75	0x3e113049	0.14178576
76	0x3e27650a	0.16347137
77	0x3e30f3d6	0.17280516
78	0xbd44141f	-0.04787075
79	0x3d9febaf	0.07808625
80	0xbe649920	-0.22324038
81	0x3d3926ea	0.045203127
82	0x3d9050aa	0.070466354
83	0xbe2bae8a	-0.167658
84	0xbe23ed55	-0.16008504
85	0x3b1f4188	0.0024300534
86	0x3dd72331	0.10504759
87	0xbe28efb5	-0.16497691
88	0x3e1ac86d	0.15115519
89	0xbe1e3c51	-0.15452696
90	0x3e1fa0be	0.15588662
91	0xbd23264a	-0.039831437
92	0xbe53d387	-0.2068616
93	0xbd97257f	-0.07380199
94	0xbe3cf763	-0.18453746
95	0x3d9b1e8b	0.07574185
96	0xbbe6ede0	-0.0070474
97	0x3e209655	0.15682347
98	0x3d800305	0.06250576
99	0xbdb5cc2d	-0.08876834
100	0xb981f32f	-0.00024785983
101	0x3d240005	0.04003908
102	0xbdf17a2b	-0.1179088
103	0x3e4b108c	0.19830531
104	0xbe15b175	-0.14618476
105	0x3e0edeb8	0.13952148
106	0x3e2f52a1	0.17121364
107	0xbe57b546	-0.21065244
108	0x3e063ec8	0.13109887
109	0xbc50e6c6	-0.012750333
110	0xbe2992b5	-0.1655987
111	0xbdba681b	-0.09101888
112	0xbe5c4e51	-0.2151425
113	0xbe530ca6	-0.20610294
114	0xbe3ec7dc	-0.18630928
115	0xbc1d9ec4	-0.009620372
116	0xbdd45db7	-0.10369437
117	0x3e1a7177	0.15082346
118	0x3e1a4ee9	0.15069164
119	0x3e2d383d	0.16915984
120	0x3e52bdeb	0.2058026
121	0xbd9276c2	-0.071515575
122	0xbd139d1e	-0.03603851
123	0x3e326df0	0.1742475
124	0xbde07b71	-0.109610446
125	0x3d27be84	0.040953174
126	0xbd43a5e0	-0.047765613
127	0x3dabe948	0.08394104
128	0x3de8937b	0.11356255
129	0xbe372fc3	-0.17889313
130	0xbd12ff63	-0.035888087
131	0xbe306f52	-0.17229965
132	0xbd076235	-0.033052642
133	0x3e1eea3a	0.15519038
134	0xbe2bb529	-0.16768326
135	0x3e146cbb	0.14494602
136	0xbe092c7b	-0.13395874
137	0x3e58e968	0.21182787
138	0x3e4936a4	0.1964975
139	0xbd9a7400	-0.075416565
140	0x3e317b3c	0.17332166
141	0x3becf8f6	0.007231827
142	0x3d8d474b	0.06898364
143	0xbd7a76a9	-0.06114832
144	0xbdc8f46e	-0.09812246
145	0xbb72927f	-0.0037013588
146	0xbab482e1	-0.0013771915
147	0xbdf80f6a	-0.12112315
148	0xbda6a82e	-0.081375465
149	0xbde8048b	-0.113289915
150	0x3df88da1	0.121363886
151	0x3e36009f	0.17773674
152	0x3cc8ea7b	0.024525872
153	0xbe585307	-0.21125422
154	0x3e5f6ce0	0.21818876
155	0xbda18083	-0.0788584
156	0xbdb6b4a9	-0.08921177
157	0xbe3578fc	-0.17721933
158	0xbe19e706	-0.15029535
159	0xbe2998bc	-0.1656217
160	0x3e4e2d65	0.20134504
161	0xbd46c556	-0.048528038
162	0x3d822f5c	0.06356689
163	0x3e3aa50d	0.18227024
164	0xbe2e3ee1	-0.17016174
165	0x3d338369	0.043826494
166	0xbe0e31af	-0.1388614
167	0x3beab624	0.007162826
168	0x3e33a828	0.17544615
169	0x3d35c165	0.04437389
170	0x3dae03d6	0.084968254
171	0xbe1345f0	-0.14382148
172	0xbe1d3663	-0.15352778
173	0x3e5d823c	0.21631712
174	0xbe1bc73b	-0.15212719
175	0x3e28d718	0.16488302
176	0x3e29a587	0.1656705
177	0x3e3cf443	0.18452553
178	0x3b45eda1	0.0030201452
179	0xbd98a796	-0.074538395
180	0x3cb1e1f6	0.021714192
181	0x3d43e81c	0.04782878
182	0xbe3cae9f	-0.18425988
183	0xbe2c05b6	-0.16799054
184	0x3e49a294	0.19690925
185	0xbd513363	-0.051074397
186	0xbd9450e6	-0.07241993
187	0xbe137d17	-0.14403187
188	0x3d6cbf6a	0.057799734
189	0x3d8f5bdc	0.06999943
190	0xbe3d2a27	-0.18473111
191	0xbc2c4ee5	-0.010516857
192	0x3e44829f	0.19190453
193	0xbdd40903	-0.10353281
194	0x3dc589bb	0.096454106
195	0x3c8a5501	0.016886236
196	0xbdf7f7f8	-0.12107843
197	0xbe578d03	-0.21049885
198	0xbcf2ad7a	-0.029623736
199	0x3e3701b9	0.17871751
200	0xbba9f613	-0.005186805
201	0xbd97efbc	-0.074187726
202	0xbe564812	-0.2092593
203	0xbc03dac6	-0.008047765
204	0xbe234a34	-0.15946275
205	0x3e232b67	0.15934525
206	0xbe443fea	-0.19165006
207	0xbe339da6	-0.17540607
208	0xbe4bec2f	-0.19914316
209	0xbe41745c	-0.18892044
210	0xbe2b0a1e	-0.16703078
211	0xbcfe2012	-0.031021152
212	0xbe2c80eb	-0.16846053
213	0x3e147f1c	0.14501613
214	0x3d63d340	0.055621386
215	0x3dbe8851	0.09303344
216	0x3d273b43	0.040828
217	0x3ddcc31b	0.10779401
218	0x3e055bab	0.1302325
219	0xbdfc38d0	-0.123155236
220	0xbc35e807	-0.011102683
221	0x3de96982	0.11397077
222	0xbe505a8b	-0.2034704
223	0x3df6d679	0.12052626
224	0x3b27990d	0.0025573403
225	0xbd663625	-0.05620398
226	0x3e6015ee	0.21883366
227	0x3d760960	0.060067534
228	0xbdeaa3b9	-0.11457009
229	0xbd36d1fa	-0.044633843
230	0x3d0328b1	0.03202123
231	0x3d52aaae	0.051432304
232	0xbda3b5ef	-0.079936855
233	0x3d9c6e9d	0.07638285
234	0xbe4f9160	-0.202703
235	0x3e4b8580	0.19875145
236	0xbd94b976	-0.07261936
237	0x3d9b5864	0.075852185
238	0x3dd0b432	0.101906195
239	0xbd17c04d	-0.037048627
240	0xbddf1d63	-0.10894277
241	0x3c3ae0e0	0.011406153
242	0x3e4e0371	0.201185
243	0x3e60d750	0.21957135
244	0x3bd1e148	0.0064050294
245	0x3d1fd596	0.03902205
246	0x3cb42a3d	0.021992797
247	0xbe519460	-0.20466757
248	0x3e22f2ba	0.15912905
249	0xbc5d0e56	-0.0134921875
250	0xbe0d31c0	-0.1378851
251	0x3e478037	0.19482504
252	0x3c97c220	0.018525183
253	0xbe176b72	-0.14787081
254	0x3dcf0160	0.10107684
255	0x3e5bd3fd	0.21467586
