saved_model/quantized_models/layers7/trial1/paramcount651603.tflite (tflite, 671144 bytes, 32 tensors)

sequential_5/dense_11/MatMul f4 [7, 64]
000000 98 98 85 bd 9a e2 bc bc 0f ba d0 3d 1b ca 8c be
       -0.065232456 -0.02305727 0.10191738 -0.27497944
000010 d3 d8 28 be 19 47 b9 bd 3e cc c0 3d 48 4f 9f 3d
       -0.16488962 -0.09046764 0.09413956 0.077787936
000020 76 98 22 3d 0d d0 ea bd e4 f0 ca bd 9f 31 36 be
       0.03969618 -0.11465464 -0.099092275 -0.17792366
000030 89 03 27 bd f8 31 bc 3d c0 00 81 be 66 0c 00 3d
       -0.040774856 0.09189218 -0.25195885 0.031261824
000040 9e 0d db bd 80 0b 9a 3d 05 7b 84 be 03 99 97 bd
       -0.10695957 0.07521725 -0.25875106 -0.074022315
000050 ef 0f 01 3e 1f 31 52 3e e8 39 9b bd 9f 54 55 be
       0.12603734 0.2052655 -0.07579404 -0.20833062
000060 2e 3c 1e bd f7 af 90 be f7 8c 7e 3d 2a 6e 63 3e
       -0.03863161 -0.2825925 0.062146153 0.22209993
000070 bb 83 33 be c8 b9 52 3e f5 bb 3b 3c 19 28 9a be
       -0.1753072 0.20578682 0.011458387 -0.30108717
000080 78 e1 1d 3c 9d 20 27 be c1 d4 91 be e5 59 8a 3e
       0.0096362755 -0.16321035 -0.2848263 0.2702171
000090 10 8d cf 3a 3e e2 bb 3d b6 da 19 bc df 83 13 3e
       0.0015834887 0.09174012 -0.009390524 0.14405774
0000a0 4a a4 28 3e 30 cd 70 3e 48 42 89 3e f3 ad bd 3d
       0.16468921 0.23515773 0.2680838 0.09261694
0000b0 c3 aa 86 3e c9 b5 f4 bd 5b 80 a4 bc 92 09 13 3e
       0.26302156 -0.11948735 -0.020080736 0.1435912
0000c0 7b 16 f1 bd 87 86 06 3e da 6e b2 3d 7a 23 fc bd
       -0.11771866 0.13137256 0.087125495 -0.12311454
0000d0 17 c8 27 bd 05 69 86 3e 54 6a 7c 3c 08 84 16 be
       -0.040962305 0.26252 0.01540621 -0.14698803
0000e0 b1 41 7b 3e 95 53 15 bd 08 43 76 be 96 45 52 bd
       0.24536778 -0.036456663 -0.24049008 -0.051335894
0000f0 70 aa ce 3d 0b a6 0f 3e 89 47 59 bd 2d 90 6f be
       0.10091102 0.14028184 -0.053046737 -0.23394842
000100 a6 c7 a3 3d 70 6c 41 bd 26 91 d0 3d 51 a4 1a be
       0.07997064 -0.047222555 0.10183935 -0.15101744
000110 1f 2e 3a be ed d6 80 bd de 91 5c 3e 70 29 51 be
       -0.18181656 -0.06290994 0.21540019 -0.20425963
000120 d4 6e 4a 3a 68 33 9d bd 5b 5b 35 3e d7 b9 46 3e
       0.0007722203 -0.076758206 0.1771063 0.1940683
000130 3c ae 40 be f2 ac 95 3c c4 fa 34 3e b9 96 10 be
       -0.18816465 0.018270943 0.17673784 -0.14119996
000140 d8 ed 0a be 67 5c d8 bd 5b 83 6e bd 0d e1 9c 3d
       -0.13567293 -0.10564499 -0.05823074 0.076601125
000150 00 6b be bc 51 fc 22 3e dd 18 e3 3d d5 90 ea 3d
       -0.023244381 0.15916564 0.11088727 0.11453406
000160 a9 74 9b 3d e1 d7 75 3d da 57 ad bc 31 d7 00 3e
       0.075906105 0.06002033 -0.021160055 0.12582089
000170 0f 0b 71 be c3 44 62 be c1 2d 9a bd 0a a3 e4 3b
       -0.23539375 -0.22096543 -0.07528258 0.0069774436
000180 18 7f 7e 3e 90 14 14 be de d9 c3 3d 6c f2 8f 3d
       0.2485317 -0.14460969 0.09563039 0.0702866
000190 7e f9 62 be a7 5e 87 3e 3b f2 74 3e 0e 01 5e 3d
       -0.22165486 0.26439402 0.23920529 0.054200225
0001a0 80 48 0f 3e 4f bd 6b be 34 56 93 be b9 d0 84 3e
       0.139925 -0.23021434 -0.28776705 0.25940493
0001b0 3d 7c ce 3d ef 7a 32 3e 5b ed 8a bc 90 b1 b5 3d
       0.1008229 0.17429708 -0.016958883 0.08871758
0001c0 e5 3d f9 3d 25 d1 f8 3d f1 d7 e4 3d 90 0c 83 be
       0.121700086 0.12149266 0.11174 -0.25595522
0001d0 66 6c 82 be b5 3c fa bd c9 57 9c 3d 38 d3 8f be
       -0.25473326 -0.1221861 0.07633931 -0.28090835
0001e0 d7 44 b4 3c 80 b6 8c be 31 35 b9 bd 08 b8 12 be
       0.022005482 -0.27482986 -0.090433486 -0.14328015
0001f0 9c 0a 78 3e 95 ce 38 3d a8 2d ec 3d 45 7a 45 be
       0.24222797 0.045118887 0.11532146 -0.19284923
000200 bb e8 fb bd d5 c0 88 be 33 6f 90 bd 0d 1c 83 3d
       -0.12300249 -0.2670962 -0.070524596 0.06401835
000210 81 8f bd 3d 6f 00 1b 3e 5f d3 e9 3d 70 ad ef bb
       0.09255887 0.15136884 0.11417269 -0.0073143765
000220 1a 6f 1f 3e 66 ca 34 bd 74 01 5e be d6 c0 75 be
       0.15569726 -0.044138335 -0.21680242 -0.23999342
000230 ce db 39 be 72 87 58 bd d6 fe be bd 96 39 47 bc
       -0.18150255 -0.052863546 -0.0932595 -0.012159726
000240 66 a7 c6 bd e4 3b e3 bd 47 36 49 3d 2c 20 34 be
       -0.096998975 -0.110954076 0.04912403 -0.17590398
000250 9f 6c 71 3e 7f b1 92 be 8d 7c 89 be 82 6e 7b bd
       0.23576592 -0.28651044 -0.26852837 -0.061384685
000260 67 07 71 be 2f 70 fb bc bd 2b f0 bd ea c9 89 3e
       -0.2353798 -0.030693142 -0.117270924 0.2691186
000270 4c 8e db bd b4 e4 08 3e ce 24 dd bd 63 2c 5b be
       -0.107205 0.13368493 -0.107980356 -0.21403651
000280 c6 c5 0c bd c3 db fe bc 01 43 83 3d 07 81 84 bd
       -0.0343683 -0.03111065 0.06409264 -0.064699225
000290 33 b2 09 be 90 60 46 be 5d 81 f7 bd d7 9e 52 3e
       -0.13446884 -0.19372773 -0.12085221 0.20568405
0002a0 c7 d8 3a 3d 6b 2e 66 3e cf 59 b9 3c fb 0f 37 3e
       0.04561689 0.22478645 0.022625832 0.1787719
0002b0 3c 38 c4 3d e3 e3 71 be b8 16 63 3c 8d 02 ca bd
       0.09581038 -0.23622088 0.013860397 -0.09863768
0002c0 be 9e b1 3d ef c4 52 be 44 b8 78 bb 90 d1 2e bd
       0.08672856 -0.20582937 -0.0037951628 -0.042680323
0002d0 12 c4 a5 3d 16 aa d5 bd 6f e8 d0 bd af fc d9 3b
       0.08094038 -0.10432832 -0.10200583 0.0066524367
0002e0 fb 94 75 be 8e c5 1d bd 28 f7 9a be f8 6e 85 3e
       -0.23982613 -0.03851848 -0.3026669 0.26061225
0002f0 3c 29 16 bd db 68 d3 bd 72 be f5 3d be 23 f9 3d
       -0.036660418 -0.10322734 0.11999215 0.121650204
000300 c0 fe 1e 3d 33 7b 5a be 3e ba ba 3d 33 d2 90 3d
       0.038817167 -0.2133606 0.09117554 0.07071342
000310 7d e6 f9 bc a4 90 80 3e f8 ed 41 bc 00 ac 90 3c
       -0.030505413 0.25110352 -0.011836521 0.017660141
000320 32 2d 0d be 29 e4 7e 3e fa df 7a be 59 85 6d 3e
       -0.13786772 0.24891724 -0.24499503 0.231954
000330 11 21 ed bd 8f 4e 79 be 32 4f 17 be 4b 14 85 3e
       -0.115785725 -0.24346374 -0.14776304 0.25992045
000340 32 00 5b be f1 de 7e 3d 00 c0 23 3c fd 09 65 be
       -0.21386793 0.062224332 0.009994507 -0.22367091
000350 2f 03 12 3e 91 89 7b be 4c bf b4 bd 2b 12 18 3e
       0.14259027 -0.24564196 -0.088255495 0.1485068
000360 d1 4a 84 3e 3f 0d 67 3d c3 64 cb 3d 10 c3 26 be
       0.2583833 0.056409117 0.09931328 -0.16285348
000370 23 c0 70 3e b6 b8 13 3e be 64 65 be b4 eb 13 bd
       0.23510794 0.1442593 -0.22401711 -0.036113456
000380 8a 52 d3 bd cc 7d 1d 3e e2 92 98 bd 32 6b 66 3e
       -0.103184775 0.15380019 -0.07449891 0.2250183
000390 0c bd 5e 3b 00 dd e5 bc 57 26 8a 3d 45 4a 23 be
       0.0033987192 -0.028059483 0.06745594 -0.159463
0003a0 0d 56 b1 bc de b6 8a be 2b d6 4b 3e d5 23 7f 3d
       -0.021647478 -0.27092642 0.19905917 0.06229003
0003b0 e9 ee 1d 3d ec e9 16 3d 0c dc 78 3e c3 32 34 3d
       0.03855792 0.03684418 0.24302691 0.043993723
0003c0 e5 f5 04 be ab 60 87 bd 53 57 57 3e f4 e9 28 be
       -0.12984426 -0.06610235 0.21029405 -0.16495496
0003d0 73 59 69 be fc 52 f3 bb 21 73 70 3e 9c 7b 80 3e
       -0.22788028 -0.007425664 0.23481418 0.25094306
0003e0 0d c5 41 3e be 9b 22 3e 66 73 39 be 43 20 d1 bd
       0.18922825 0.15879723 -0.18110427 -0.102112316
0003f0 f9 90 16 3e 3c 10 3c 3e 69 3f e2 bd 39 7d 27 3c
       0.1470374 0.18365568 -0.11047251 0.0102227265

sequential_5/conv2d_35/BiasAdd/ReadVariableOp f4 [6]
000000 34 b3 22 3b 49 89 1a bc 8a ff 93 3b 8c 39 8e bb
       0.0024826052 -0.009432145 0.0045165466 -0.004340356
000010 60 62 3f bb 8b 08 0b 3c
       -0.0029202923 0.0084859235

sequential_5/conv2d_36/BiasAdd/ReadVariableOp f4 [6]
000000 5a f1 4d ba ce f3 0c 3b af 81 c3 3b 20 81 20 3c
       -0.00078560936 0.0021507624 0.005966387 0.009796411
000010 8e 7e 26 bc 0c 0f 76 3b
       -0.010162009 0.003754559

sequential_5/conv2d_37/BiasAdd/ReadVariableOp f4 [6]
000000 8d ad 31 bb 56 5a 70 bb 26 42 83 3b aa 41 ee 3a
       -0.00271115 -0.0036674938 0.0040056882 0.0018177528
000010 f8 67 05 bc da df ec 3b
       -0.008142464 0.0072288336

sequential_5/conv2d_38/BiasAdd/ReadVariableOp f4 [6]
000000 89 d2 04 bc 5b 85 1e bb d0 e3 4e 3b 01 5a f4 bb
       -0.008106836 -0.0024188373 0.0031568892 -0.0074570184
000010 f9 a2 60 bb 9e e2 82 3b
       -0.0034276827 0.0039943

sequential_5/conv2d_39/BiasAdd/ReadVariableOp f4 [6]
000000 bf 54 5d bb 06 4f 42 bb 95 d1 f2 bb 34 c4 d7 b9
       -0.0033772436 -0.0029649152 -0.007410238 -0.00041154178
000010 09 40 11 3b aa fd cf 3b
       0.0022163412 0.006347378

sequential_5/conv2d_40/BiasAdd/ReadVariableOp f4 [6]
000000 04 25 7c 3b a0 d3 f6 bb bd e7 00 3c 32 b4 c1 39
       0.0038474211 -0.007532552 0.007867751 0.00036946085
000010 44 d9 f3 bb f6 a1 17 ba
       -0.0074416716 -0.0005784327

sequential_5/conv2d_41/BiasAdd/ReadVariableOp f4 [6]
000000 ca ec a1 bb b2 62 8e bb b7 1a ce 3b e4 19 54 3a
       -0.0049415575 -0.0043452615 0.0062898058 0.0008091016
000010 84 9c 45 bb 72 9c 15 bc
       -0.0030153105 -0.009131538

sequential_5/conv2d_35/Conv2D f4 [6, 3, 3, 1]
000000 78 e2 10 bb 64 c2 5d bd f4 92 be bd a3 eb 0f 3d
       -0.0022107642 -0.054140463 -0.09305373 0.03513683
000010 86 57 46 be 50 7b ba bd 4f 1b 68 3e 15 8f 5d be
       -0.19369325 -0.09105551 0.22666667 -0.21636613
000020 ed 0b ea 3d 75 9e 51 3e 5b fb 43 be aa b9 99 3e
       0.11428056 0.20470603 -0.19138853 0.30024463
000030 3a 2a 73 3e 4b fe 94 3e 1e e1 39 3d b2 20 8d 3e
       0.23746577 0.2910026 0.045380704 0.27564007
000040 a6 b7 50 bc 77 ac 3c 3e 41 68 00 3e 72 26 65 3e
       -0.012739098 0.18425165 0.1253977 0.22377947
000050 35 ac 28 3e dc 46 1d be c0 47 3a be b9 ce 11 3e
       0.16471942 -0.15359062 -0.18191433 0.14239015
000060 bd 20 13 3e 1e f7 8c 3e 96 f1 82 be d7 bb 94 bc
       0.14367957 0.27532285 -0.2557494 -0.018155975
000070 b5 10 7b 3e 02 e8 de 3d e3 af 0f bc f7 07 df bb
       0.24518092 0.10884096 -0.008769962 -0.0068063694
000080 15 11 ee 3d 7b 8e a7 3d ce 16 fc 3d 59 77 92 3d
       0.11624352 0.08181473 0.12309037 0.0715167
000090 58 9e 8d be 7d b5 61 3e fc d6 f5 3d 93 bc 92 3e
       -0.2765987 0.22041889 0.12003896 0.28659496
0000a0 e4 42 02 be 05 73 8f be 65 c8 45 be 0a be 8f bd
       -0.12720829 -0.2801744 -0.19314726 -0.07018669
0000b0 41 7c 26 be c8 53 b8 bc 8a 3e 88 be 3d f0 04 bd
       -0.16258337 -0.022500888 -0.26610214 -0.03245567
0000c0 9e 08 66 3e f9 e1 35 be 57 7e 9c 3e 6d 36 70 3d
       0.22464225 -0.17761983 0.3056514 0.058645654
0000d0 dd 5a aa 3d 73 26 92 3e
       0.08318112 0.2854496

sequential_5/conv2d_36/Conv2D f4 [6, 3, 3, 6]
000000 cf b9 0c 3e a2 2c 1d 3e ca 01 df 3c f9 9e 2c bd
       0.13742755 0.15349057 0.027222533 -0.042143796
000010 4e 04 2b be 0a 06 08 3d d4 09 52 3e be 0b 09 3d
       -0.16700861 0.033208884 0.20511562 0.033458464
000020 b7 37 20 3e 57 37 37 3e 14 49 4d 3e 9a ac 3b 3e
       0.15646254 0.17892204 0.20047408 0.18327561
000030 13 97 e0 3d 66 e8 2d 3e e2 70 95 3b 24 ea 55 be
       0.10966315 0.16983184 0.004560576 -0.20890099
000040 61 a0 53 3e e8 7e 15 bd 6d af d2 bd 19 b0 14 be
       0.20666648 -0.03649798 -0.10287366 -0.14520301
000050 43 b7 f0 bd fe c8 bd 3d ef 90 b4 bc 59 d2 4b 3e
       -0.117537044 0.09266852 -0.022041766 0.1990446
000060 cf c1 2b 3e ce d9 b4 bd dc 50 1a bd 84 81 6b 3c
       0.16773151 -0.088306054 -0.03767477 0.014374141
000070 0f a7 39 3d b8 6a b0 3d b4 1b 4b 3e 60 92 60 be
       0.045325335 0.08614105 0.19834787 -0.21930838
000080 50 89 cd bd 7e ba 35 3e 93 0b 9f 3d 61 18 d2 3d
       -0.10035956 0.17746922 0.077658795 0.10258556
000090 7d 85 5d 3e d4 3f d1 bd ec 6e eb bd 27 02 6c bd
       0.21632953 -0.102172524 -0.11495766 -0.05761924
0000a0 e5 7e 66 bd c2 9c 55 be 47 05 78 be 86 8f f6 bd
       -0.05627336 -0.2086058 -0.24220763 -0.12039094
0000b0 8e ad 7a 3d 25 5c 11 be 2e aa cb 3d cf c3 0d be
       0.06120067 -0.14195307 0.099445686 -0.13844226
0000c0 42 81 5b 3e 15 6f 43 3d 94 9e d3 3d 95 16 72 bd
       0.21436027 0.047713358 0.10332981 -0.059103567
0000d0 2f 18 56 3d f9 5c af 3d 6f d0 b2 bd b6 7c ec bd
       0.052269157 0.08562655 -0.08731162 -0.11547224
0000e0 ad 5c b9 3d a3 dd df 3c 68 ba c0 bd e7 ac 3b be
       0.090508796 0.027327364 -0.09410554 -0.18327676
0000f0 a9 f7 31 be f9 61 91 bc 13 6d 57 3d db 53 97 3d
       -0.17379631 -0.017746912 0.052594256 0.07389041
000100 67 cb 9a bd 79 ba 6e be cb fc be 3d 93 d7 59 be
       -0.07558327 -0.23313321 0.0932556 -0.21273641
000110 d9 c9 66 be 66 8c 3b 3e 97 64 c9 bc 3f 02 bf bd
       -0.22537936 0.18315277 -0.024584098 -0.093266
000120 d5 64 3d 3d b5 f0 2a be 95 69 b8 bd 79 73 1e 3e
       0.04623874 -0.16693385 -0.09004513 0.15473737
000130 e4 7e 31 3e 00 02 b4 bd e8 46 8a bd 50 f5 ab 3c
       0.17333561 -0.08789444 -0.067518055 0.020990998
000140 4b 5e 14 be 58 5c 04 be 8b 91 eb bd c1 6f e0 bd
       -0.14489095 -0.12925851 -0.115023695 -0.10958815
000150 2a d3 5b 3e 10 5a 5f be 1d 0b 5c 3e 5e 4b 57 bd
       0.21467271 -0.218117 0.21488614 -0.05256211
000160 a8 69 16 3c d0 12 8d bb e5 67 79 3c af 17 3d 3e
       0.009180464 -0.004305221 0.015222524 0.18466066
000170 c8 84 6e 3e 4e 4b f2 bd 76 4c ed bd b9 dc 73 3d
       0.2329284 -0.118307695 -0.115868494 0.05953667
000180 39 d9 76 3c 56 a3 56 3e 65 33 f3 3d 28 2b 11 be
       0.015066438 0.20960745 0.11875037 -0.14176619
000190 32 6d 47 3e 9e 16 51 bd 5b 1f db bd 3d c9 52 3e
       0.19475248 -0.05104696 -0.1069934 0.20584579
0001a0 8b e9 6e 3e b9 a0 6b be db 60 13 3e 27 6e 33 3e
       0.23331277 -0.2301053 0.14392416 0.17522489
0001b0 7d 03 8a bb 96 af ed 3c 79 2b 3f 3e e3 67 57 3e
       -0.0042118416 0.02901439 0.18668927 0.21035723
0001c0 3b 8d b7 3c 53 dc 4b bd 2f 2d 65 3d 7e db ce 3b
       0.022406211 -0.049770664 0.055951294 0.0063127866
0001d0 e0 00 47 be 96 17 de bd 07 10 d6 3d cd 23 50 be
       -0.19433928 -0.108443424 0.10452276 -0.20326157
0001e0 c1 b1 1c 3e 9e f6 2a 3d 28 10 29 3e 72 c4 1f 3e
       0.15302183 0.0417391 0.1651007 0.15602282
0001f0 32 b5 16 3e b7 b7 5b be 70 91 00 be 16 62 64 bd
       0.14717558 -0.214568 -0.1255548 -0.055757605
000200 79 ed 67 bc 27 25 e3 bd f4 2b 63 3e b1 90 b4 bd
       -0.014155739 -0.110910706 0.22184736 -0.0881666
000210 1c 17 51 3e ca 1e 3d be d4 38 51 3d 48 fa 56 bd
       0.20418972 -0.18468776 0.051079586 -0.05248478
000220 bd b1 bd 3d c4 4b 66 be fb 4e 5b be ab ee d1 bd
       0.092624165 -0.2248984 -0.21416847 -0.102506004
000230 3a de 1b 3e 27 9f 70 be 07 54 7a 3d 3b 75 4e be
       0.15221491 -0.23498212 0.06111529 -0.20161907
000240 41 7f 20 3e 7a 9b 28 3d f8 a5 09 3d 28 e6 2a bd
       0.15673544 0.0411639 0.033605546 -0.0417234
000250 b9 44 36 bd 27 56 ee 3c 91 f8 11 be 3b 57 9f 3d
       -0.044499133 0.029093815 -0.14254977 0.0778031
000260 e8 75 10 be b6 16 36 bd d1 c6 4c bc 4b 11 6b bd
       -0.14107478 -0.044455253 -0.012498573 -0.05738954
000270 84 46 43 be 92 01 f6 3d 58 4b 14 3e 30 08 28 bd
       -0.19069868 0.12012018 0.14481866 -0.041023433
000280 9f 78 98 3d 26 b8 68 3e 65 61 e7 3d 72 43 ab 3d
       0.07444882 0.22726497 0.112978734 0.083624735
000290 c0 13 08 3e 80 f3 2b 3e 77 aa d2 3d 52 60 4f 3e
       0.13288784 0.16792107 0.1028642 0.20251587
0002a0 88 97 a5 bc 11 a2 b7 bb 5f c6 4d 3e 97 d9 b5 bc
       -0.020213857 -0.0056040366 0.20095204 -0.022198481
0002b0 16 ac dd 3d 9c d2 50 bd c4 82 18 3e 18 35 1b be
       0.108238384 -0.050982103 0.14893633 -0.15156972
0002c0 36 f2 ce 3d 25 e9 c2 3c 55 eb 9d bd 29 96 2f be
       0.10104792 0.023792813 -0.07710902 -0.17147125
0002d0 81 c1 0d 3e 57 46 51 be aa 78 73 be 82 76 51 be
       0.13843347 -0.20436989 -0.23776498 -0.20455363
0002e0 39 ed 36 3e 03 9f 21 be 0d ee a0 3d 43 45 27 be
       0.17863931 -0.15783314 0.078579046 -0.16335015
0002f0 0a e3 20 be 81 85 6e bd 99 07 89 bd 5f 18 b3 bd
       -0.15711609 -0.058232788 -0.06690902 -0.08744883
000300 e4 a7 58 be 11 e3 3a be 26 e7 0f 3e 1e 93 05 be
       -0.21157795 -0.18250681 0.1405302 -0.13044402
000310 58 44 3b be 68 41 f7 3d b3 c0 b3 3d 13 60 ae 3d
       -0.1828779 0.12073022 0.08776989 0.085144185
000320 8a c6 fb 3d 4b 3e 36 be 86 d3 35 3d 65 e3 13 3e
       0.12293728 -0.177972 0.044391178 0.14442213
000330 b9 a2 59 be 29 94 5c be c4 cc 22 3e 5a f8 bc bc
       -0.2125348 -0.21540894 0.15898424 -0.023067642
000340 58 f3 3e 3e 37 e1 af 3d ad 14 52 bd 58 93 e1 bd
       0.18647516 0.08587878 -0.05128925 -0.11014432
000350 22 ce 45 be d4 4a bf 3c 1a 34 d8 3d 6b a0 61 be
       -0.19316915 0.02335111 0.105568126 -0.22033851
000360 f4 98 f2 bc 46 0a 29 bd 3c db 35 bc 4e a6 de 3d
       -0.02961395 -0.041269563 -0.011099633 0.10871564
000370 33 6e c0 3d b7 26 f8 3d 9a 5a 06 3e df a5 55 be
       0.09396019 0.12116759 0.13120499 -0.20864056
000380 e2 ae b7 bd 49 a3 3a be a9 bb 85 bd bd 2a 49 be
       -0.08968903 -0.18226351 -0.06529934 -0.1964521
000390 de 08 60 3c 4c 4b b9 3d 8a 6e b4 bd e9 49 b0 bd
       0.013673989 0.09047565 -0.08810146 -0.08607847
0003a0 a8 17 3e be c3 d9 69 bd f5 c5 2b be 60 c9 af 3c
       -0.18563712 -0.05709244 -0.16774733 0.021458328
0003b0 a5 89 4b 3e e8 07 d9 bd 21 74 92 bd 97 86 63 3d
       0.19876726 -0.10597211 -0.07151056 0.055548277
0003c0 51 48 a9 3d a9 e3 0e be 6d 3a 83 3d 3e 0f a6 bc
       0.082657464 -0.13954033 0.06407628 -0.02027094
0003d0 8a ad a3 3d 2c b7 98 bd 24 ea 63 bd 3e 5a 65 be
       0.07992084 -0.07456812 -0.055643216 -0.22397706
0003e0 c2 7b e8 3c 75 ac dd 3d a9 f5 1f 3e c0 3c 83 bc
       0.028379325 0.10823909 0.15621056 -0.016020179
0003f0 4d 31 19 be 0e 63 b6 bc 1a ab 24 be 27 40 56 be
       -0.14960213 -0.02226403 -0.16080895 -0.2092291

sequential_5/conv2d_37/Conv2D f4 [6, 3, 3, 6]
000000 e8 f0 28 3e a9 0b 6b be 69 27 37 3e ea 88 0b 3e
       0.16498148 -0.22953667 0.17886128 0.13626447
000010 3e 25 43 be 76 62 af bc 6c ad 58 3e 08 a2 4c 3e
       -0.19057176 -0.021409255 0.21159905 0.19983685
000020 7c 09 05 3e 6e 83 4b 3e 2d 43 28 be f2 a6 c8 bd
       0.12991899 0.19874355 -0.16431876 -0.09797467
000030 37 b6 3a 3e 81 92 19 be e7 bd fd bd 6a dd 22 bd
       0.18233572 -0.14997293 -0.123897366 -0.03976194
000040 15 4f 03 3e 1f d5 57 be 53 6f 27 3e 77 75 61 3e
       0.12823136 -0.21077393 0.1635106 0.22017466
000050 07 45 d4 bd 2e 1d 5c be c5 cb 77 3e 82 23 5a 3d
       -0.103647284 -0.21495506 0.24198826 0.05325652
000060 13 64 33 3e eb a8 27 be aa c9 74 be 71 51 3c bd
       0.17518644 -0.16373031 -0.23905054 -0.045976106
000070 1e 64 09 be 80 33 3a 3e 7e 9c 37 bc 7e 2f 08 3e
       -0.13417098 0.18183708 -0.011206744 0.13299367
000080 ae 58 3d 3e 01 23 91 3d 65 52 23 3c e3 de ea 3d
       0.1849086 0.070867546 0.009968375 0.114682935
000090 42 f4 a4 bc 09 a9 0f be 88 99 a6 bd 86 1c da 3d
       -0.020136002 -0.14029326 -0.081347525 0.10649972
0000a0 f9 46 c7 3d 2f 86 ea bd 2b 22 b4 bc d1 ec b0 bd
       0.09730334 -0.11451375 -0.021988949 -0.08638919
0000b0 ba 1b 4a bd e9 4d b5 bd 2c 90 72 3e 42 23 80 3d
       -0.04934285 -0.08852751 0.2368781 0.06256725
0000c0 50 21 66 3e 8c 62 06 3c b8 fc b1 bb d3 4e 42 be
       0.22473645 0.008202206 -0.0054317378 -0.18975382
0000d0 cf 07 fc bd 5f 34 11 be 06 21 61 3e 14 b8 d4 3d
       -0.12306177 -0.14180134 0.21985254 0.103866726
0000e0 c2 61 b1 3d 2d 74 2e be bb 4c 6c 3d 50 58 71 be
       0.08661224 -0.17036505 0.057690363 -0.23568845
0000f0 8c 02 47 be 62 70 b7 3c 79 90 3f be ed b9 56 be
       -0.19434565 0.022392455 -0.18707456 -0.20969363
000100 26 4e 57 3d 1f a5 1e bd b3 1b 03 3d 00 c3 fd bd
       0.052564763 -0.03873169 0.032008838 -0.12390709
000110 82 45 f2 bd 2f c9 db 3d c8 48 1d 3e 3c ad 04 be
       -0.11829664 0.10731732 0.15359795 -0.12956709
000120 90 de 12 be a7 71 6f be 10 7e 6f bc da 98 cc bb
       -0.14342713 -0.23383199 -0.014617458 -0.0062438073
000130 24 bc 07 be db d2 49 3e bf 29 ca bd cd 01 fa bd
       -0.13255364 0.19709341 -0.09871244 -0.12207375
000140 32 26 62 3e 85 d0 60 be 44 21 ab 3d fb b2 b2 3b
       0.22084883 -0.21954544 0.08355954 0.005453465
000150 cd 19 65 bc 94 65 98 bd 2a f7 95 3d cc 52 45 be
       -0.013983202 -0.074412495 0.073225334 -0.19269866
000160 49 1d 49 3e e4 8f e5 3d 18 f6 a8 3d 88 cf 14 3e
       0.19640078 0.112090856 0.08250064 0.14532292
000170 e1 ef 76 3d 30 6f 39 3d ad 68 41 3e 26 e6 23 bd
       0.06028736 0.045272052 0.18887587 -0.04001441
000180 ab 83 4e be 64 8c 21 3e ee 4a da 3a 11 77 2a 3d
       -0.20167415 0.15776211 0.0016654411 0.041617457
000190 1b bb c6 3b c4 84 9a 3d f3 53 70 3d 9a c3 5c 3e
       0.006064785 0.07544854 0.05867381 0.21558991
0001a0 b6 53 e7 bc 24 a9 3a be 6e 1b 5f be 3f 8b 38 3d
       -0.028238159 -0.18228585 -0.21787807 0.04505467
0001b0 48 11 5f be a8 48 51 3e ab e4 ca 3d cd 9d 1a bd
       -0.21783936 0.20437872 0.09906896 -0.037748147
0001c0 6b 06 41 3e ba 80 de bd 0e 57 c3 bd 09 82 89 3d
       0.18850105 -0.108643964 -0.09538089 0.06714255
0001d0 c8 56 98 bb a1 9b b6 3d a0 a7 ab bb 13 44 10 be
       -0.004649017 0.089164026 -0.0052384883 -0.14088468
0001e0 92 1a 6d 3e 03 72 ed 3c 2b 29 45 3e 97 94 3e 3e
       0.23154667 0.02898503 0.19253986 0.1861137
0001f0 94 bf 77 bc f0 52 96 3c 93 2d ea bd 38 98 29 3c
       -0.015121359 0.018350095 -0.11434474 0.010351233
000200 f3 3d 65 be 1b d4 18 3e fd a9 04 be 6a 79 4b 3e
       -0.22386913 0.14924662 -0.1295547 0.19870535
000210 7c 98 0f 3e 30 b9 b0 3d be f9 41 3d 85 5a 35 3e
       0.14023012 0.08629072 0.047357313 0.17710312
000220 f9 74 08 3d 74 73 3d 3d c2 55 fa bb 2a 03 83 3d
       0.03331468 0.046252683 -0.0076396177 0.06397088
000230 58 15 28 3e 92 b5 34 be 59 cb 0b be 52 11 f1 3d
       0.16414392 -0.17647389 -0.1365179 0.11770882
000240 14 7b 07 be 2c 92 5a 3e a5 46 d7 3d f5 ed 40 3e
       -0.13230544 0.21344823 0.10511521 0.18840773
000250 52 0d 84 bc bb d4 09 be 76 b4 a3 bd 5e 10 e0 3c
       -0.016119633 -0.13460056 -0.079934046 0.027351554
000260 e3 70 73 3e 40 1e a9 bd 2b 09 42 be 8e f6 8f 3d
       0.23773532 -0.08257723 -0.1894881 0.070294484
000270 87 24 c0 3d 8e 0f 4f bd 42 4e 58 3e 18 eb 67 bb
       0.09381967 -0.050551943 0.21123603 -0.003538793
000280 82 86 19 be b4 e6 d8 3a 7a 22 66 bc 3f 9a ec 3d
       -0.14992717 0.0016548247 -0.014046306 0.115528576
000290 b5 bf 79 bd bb eb cf bd de 8d ec bd e5 52 6c bd
       -0.06097384 -0.10152384 -0.115504965 -0.057696242
0002a0 aa 66 d0 3d 10 e6 62 bd 3a 57 6c be d6 e2 d6 3c
       0.101758316 -0.055395186 -0.2308015 0.02623121
0002b0 dd 43 4c be 6a 77 2f be ca e7 38 be 73 69 38 be
       -0.19947763 -0.17135397 -0.1805717 -0.18008976
0002c0 a1 4b 9a 3d 5b 6a 10 be 68 76 65 be f0 91 25 3e
       0.07533956 -0.14103071 -0.2240845 0.16168952
0002d0 fa 01 f1 bd a0 5d ee 3d ff 0c 24 bd 57 c5 f1 bd
       -0.11767955 0.11638951 -0.040051457 -0.11805218
0002e0 60 eb 4e 3d a4 8f 60 3c 33 cd 1a 3e c3 83 34 bd
       0.05051744 0.013706122 0.1511734 -0.04407097
0002f0 20 11 67 3e de 79 3e 3e b9 da 07 3e d8 74 60 3e
       0.22565126 0.18601176 0.1326703 0.21919572
000300 6d 15 f9 bd a4 31 75 3d 51 01 8b bc cd d9 48 be
       -0.1216229 0.059861794 -0.016968401 -0.19614334
000310 13 b2 2e bd 69 18 33 be 6b 46 e0 3d 55 ba 2f be
       -0.042650294 -0.1748978 0.10950931 -0.17160924
000320 d6 1c 61 3e 43 b1 aa bd 3c 91 14 3e 52 56 40 be
       0.21983656 -0.08334591 0.14508528 -0.18782929
000330 bc 47 2c 3e a3 6c 46 be 49 89 56 be 17 6b 6d be
       0.1682424 -0.19377379 -0.20950808 -0.23185383
000340 e4 d1 af bd 89 1d 48 be 7f 5f 53 be f8 d3 14 3d
       -0.08584955 -0.19542517 -0.20641898 0.03633496
000350 1e 35 4c be 3e d3 45 3e 37 16 2d 3e 5a 79 cf bb
       -0.19942138 0.19318864 0.16903006 -0.006331605
000360 08 9a 30 3e 1d 08 66 be 9d c6 c8 3c bb 26 34 3e
       0.17246258 -0.22464032 0.024508769 0.175929
000370 f5 6a 90 3c 4c 3d a9 3b 3a c8 28 be f0 6c d2 bd
       0.017629126 0.005164778 -0.1648263 -0.102746844
000380 ba b2 3e be 35 03 ba bd c5 20 2e 3e 3f c4 d4 3d
       -0.18622866 -0.09082643 0.17004688 0.103889935
000390 e0 9f 5c be 28 e0 d1 bd 06 97 a9 bd 5e ba 48 3c
       -0.21545362 -0.102478325 -0.082807586 0.012251465
0003a0 6b b7 5f 3c 42 3a 7e 3c bf 43 7f bd 46 12 2b be
       0.01365457 0.015516819 -0.062320467 -0.1670619
0003b0 50 7c d3 3c a3 ad 5f be fb 61 61 3e fa b4 e7 3c
       0.025816113 -0.21843581 0.22010033 0.028284539
0003c0 68 fb 46 3e 32 fa 55 be e9 10 33 be 98 5b 30 be
       0.19431841 -0.20896223 -0.1748692 -0.1722244
0003d0 47 25 9e 3d 22 42 d7 bd 10 a9 1d be d2 e1 e5 3d
       0.07721954 -0.10510661 -0.15396523 0.112247124
0003e0 57 69 e2 bd 21 7c 40 3d aa 14 cc 3d 52 fa bc bd
       -0.11055248 0.04699338 0.09964879 -0.09227432
0003f0 bc bf 3e 3e 7d 6a ff 3c 2d d7 93 bd 37 ab b0 bc
       0.18627828 0.031178707 -0.07218776 -0.021566017

sequential_5/conv2d_38/Conv2D f4 [6, 3, 3, 6]
000000 79 0f f2 bd db e5 1a bd c5 01 a1 bd 19 c2 ca bd
       -0.118193574 -0.037816864 -0.07861666 -0.099003024
000010 33 06 89 bb 95 fd 36 be 57 94 5d bd 10 a0 18 be
       -0.004181647 -0.17870171 -0.054096546 -0.14904809
000020 cf 16 82 3c 5f 3c 0a bd b6 af b3 bd 24 47 24 be
       0.015880017 -0.03374898 -0.087737486 -0.16042763
000030 11 6a ba bd cc 8b b5 3d 42 c7 63 3d 70 24 37 bd
       -0.09102262 0.08864555 0.05560995 -0.044712484
000040 f5 e3 38 3e 0c 7c a3 bd 62 a3 33 bd 2a ff e8 bd
       0.18055709 -0.079826444 -0.043856986 -0.11376794
000050 1f 21 63 bd 23 8b e3 3c d1 49 1e 3e 93 c8 6e bd
       -0.05545151 0.027776306 0.15457846 -0.05829675
000060 bf 8b 5f 3e ec 51 4a 3e d6 96 29 3e a2 35 61 3e
       0.21830653 0.19757813 0.16561446 0.21993116
000070 46 39 30 3e 73 3f 01 3e e8 12 5e be b9 49 19 bb
       0.17209348 0.1262186 -0.216869 -0.002338989
000080 cc d5 2c 3b 56 5e 5e 3d cc 52 c3 bd 62 37 b0 ba
       0.002637255 0.054289185 -0.095372766 -0.001344424
000090 17 47 5c 3e 9b ef 3f bd e5 c6 76 bd 6d 6d 24 be
       0.21511494 -0.046859365 -0.060248274 -0.16057368
0000a0 99 5d c1 3c 35 86 ad bd 43 9f 2c be 69 ee 5b 3d
       0.023604201 -0.084728636 -0.16857629 0.053694163
0000b0 81 1b d9 bd de 50 59 be 17 63 48 be 20 47 0c bd
       -0.10600949 -0.21222255 -0.1956905 -0.034247518
0000c0 82 a5 4a bd 3e 60 7a 3c aa 78 6d be 72 96 47 3e
       -0.049474247 0.015281735 -0.23190561 0.19490984
0000d0 cf 79 6d 3d f8 fa 31 3e 25 01 33 be 63 6e b8 3d
       0.057977494 0.17380893 -0.17480905 0.090054296
0000e0 6c 42 25 3e 61 fe 49 3e 88 f7 71 bd a5 98 01 3e
       0.16138619 0.19725944 -0.059073955 0.12655886
0000f0 95 f1 1d 3e 5c 0f 92 3d 21 34 27 bc 49 c6 50 be
       0.15424187 0.07131836 -0.0102053 -0.2038814
000100 d0 45 b1 bd 14 90 5a be 27 80 33 bd 5d cf 59 3e
       -0.08655894 -0.21344024 -0.043823387 0.21270509
000110 f7 b4 7c bd 58 12 8f 3c e9 18 0b bd 34 af 66 3e
       -0.06169602 0.017464802 -0.033959303 0.22527772
000120 a2 75 d8 39 fe 5a 20 be a2 d3 44 be f8 39 5f be
       0.00041286374 -0.15659711 -0.19221357 -0.21799457
000130 d3 f9 69 be 52 19 31 3d 4d 15 76 3d 0d 3e 84 bc
       -0.22849207 0.043237038 0.060078908 -0.01614287
000140 28 c3 1e 3e 80 74 24 3d 43 4a 4d 3e d9 04 68 be
       0.15504134 0.040150166 0.2004786 -0.22658099
000150 ee 74 5c be 0d 79 b3 3d 03 53 a4 3d 75 d3 ca bb
       -0.2152898 0.08763323 0.08023646 -0.0061897584
000160 04 7d b6 bd 4c 2c 5a 3e e5 4e e8 3d 41 11 f7 bc
       -0.089105636 0.2130596 0.11343173 -0.030159594
000170 b3 2a b9 bd f6 ec 40 be 15 cd 3a bd bf e1 a7 3d
       -0.09041347 -0.18840393 -0.045605738 0.081973545
000180 b3 10 41 be c3 b3 77 3d c4 75 14 bc 33 b5 22 be
       -0.18854026 0.06047417 -0.009061281 -0.15889435
000190 16 9d 1c be 7f 9b 11 3d 1a 6c 08 3e 09 02 1d bd
       -0.15294299 0.035548683 0.13322487 -0.03833202
0001a0 0c 42 65 be 13 61 04 3e ec 30 a6 3d c2 6d 1a be
       -0.22388476 0.12927656 0.081148 -0.15080932
0001b0 c2 59 4a be 62 3f da bd 0b 88 34 bd f4 dc f2 3d
       -0.19760802 -0.106566206 -0.044075053 0.1185855
0001c0 9c 64 e8 bb 25 0c 28 bd 5e e7 c4 3d 0e 60 54 3c
       -0.0070920717 -0.041027207 0.09614442 0.012962354
0001d0 64 c6 51 bd 69 e3 09 be 1e 3e 6a be 8b 10 df bd
       -0.05121459 -0.13465656 -0.22875258 -0.10891827
0001e0 01 8b 70 be 09 57 bf 3c 7b dd eb 3d 3f 10 9e 3d
       -0.23490526 0.023356931 0.115168534 0.077179424
0001f0 2e 31 14 3e a0 7a 11 bd ab a9 3e be 08 4c 1c 3e
       0.14471886 -0.035517335 -0.1861941 0.15263379
000200 42 0d 3a bd a6 a9 dd 3c 0c 7d 47 be 4f 5e 56 bd
       -0.0454228 0.027058434 -0.19481295 -0.052336033
000210 3e da 69 be 06 85 48 be 1e 9b b7 bd 1c e5 b8 bd
       -0.22837159 -0.19581994 -0.08965133 -0.09028074
000220 ae 5e 2f be 1e 3d 8c 3d d0 6b 65 3e 5a e2 b0 3d
       -0.17125961 0.06847595 0.22404408 0.08636923
000230 5d 94 4a 3e 2d 98 ba bd 8d 77 21 bc 98 ec 35 be
       0.19783159 -0.091110565 -0.009855163 -0.17766035
000240 bd 6b ca 3d ad c9 4a 3e f3 af 6c 3e f3 2f 86 bd
       0.09883831 0.19803496 0.23113994 -0.06552114
000250 a1 d8 3a be 41 ca 24 be 48 89 34 be f2 99 ac bd
       -0.182467 -0.16092779 -0.17630494 -0.084278
000260 ff 54 ed bd d0 ab e7 3d b9 b1 09 be fd 8b 15 3e
       -0.11588477 0.113120675 -0.13446702 0.14604183
000270 c7 e2 16 3e 6b f7 9c bd d2 f5 fc bd 20 21 1e 3e
       0.14734946 -0.07664379 -0.12351574 0.15442324
000280 b7 74 12 3e 5f 46 22 3e 7a c4 0a 3e 54 93 af 3d
       0.14302336 0.15847157 0.13551512 0.085730225
000290 d8 24 00 be e0 2b 29 3e 04 ba 3e be 0d 6e fe 3d
       -0.12514055 0.16520643 -0.18625647 0.12423334
0002a0 11 ce 66 be f7 68 1e be 66 72 fe 3d e1 be 8c bd
       -0.22539546 -0.15469728 0.124241635 -0.06872345
0002b0 e6 8a 61 bc 68 98 c4 3d bb f0 b5 bd 7d 88 10 3e
       -0.013766026 0.09599382 -0.08883806 0.14114566
0002c0 54 85 71 3d 59 54 5d 3e a1 1c b3 3c b4 6d 67 3d
       0.058965042 0.21614207 0.021864237 0.056501105
0002d0 7d ba 1f 3e a7 9b 8c bc e9 15 4f 3e a4 c0 22 3e
       0.15598483 -0.017164065 0.20223202 0.15893799
0002e0 0e 29 9d bd bf 89 fc bd 2a ef 05 3d 05 52 62 3e
       -0.07673846 -0.123309605 0.032698788 0.221016
0002f0 42 da 03 3e e8 a1 18 3e e7 02 72 be da 62 ad bd
       0.12876227 0.14905512 -0.2363392 -0.0846612
000300 15 90 8e bd 4a 6e b6 bd 0a aa 70 bd 1f ab 93 bc
       -0.06961075 -0.08907755 -0.058755912 -0.018025933
000310 ef 49 59 3d 72 28 fc bd 54 7d 3a 3e 68 1b de 3d
       0.053049024 -0.12312402 0.18211871 0.10845071
000320 59 79 7a bc 6a c1 dd bb 97 03 67 3e e3 f7 63 be
       -0.015287721 -0.0067674415 0.22559963 -0.2226253
000330 60 82 02 3d 3e cb 0b bd 06 87 3d be 31 2a a9 3d
       0.031862617 -0.034129374 -0.18508539 0.082600005
000340 aa e2 b8 3c 57 4b 44 3e a0 61 1d 3e 92 87 2d 3e
       0.02256902 0.19169365 0.15369272 0.16946247
000350 9c bc 7b bd 09 e7 01 3d f4 db 40 3e fc 67 27 be
       -0.06145917 0.031714473 0.18833905 -0.1634826
000360 ce f1 25 3e 7a af 91 bd f4 07 19 3e 9f 56 83 bc
       0.16205522 -0.071135476 0.1494444 -0.016032515
000370 62 a4 e3 bd 41 e6 0e be 06 1c ec bd a3 25 31 be
       -0.11115338 -0.13955022 -0.115287825 -0.17299514
000380 a9 81 64 3e de 37 00 be 3e 55 f1 bc e8 14 e6 3d
       0.22315086 -0.12521312 -0.029459592 0.11234456
000390 2d c4 d3 bd f4 5a fe 3d c4 94 39 be 88 a2 19 3b
       -0.10340152 0.12419692 -0.18123156 0.0023442823
0003a0 28 aa ca 3d 3b 37 ab 3d e7 25 d7 bd de 8b f0 3d
       0.09895736 0.08360144 -0.10505276 0.117454275
0003b0 30 89 16 3e 1c 1b 62 3e 30 41 72 3e c1 c8 58 3e
       0.1470077 0.22080654 0.2365768 0.21170332
0003c0 77 c0 9f 3d 44 a6 0f be 3b ea 4f be ff d4 3e bd
       0.07800382 -0.14028269 -0.20304196 -0.046589848
0003d0 2a 15 5e 3e af 46 19 3e 43 cd 47 3e 3e 39 cf 3d
       0.21687761 0.1496837 0.19511895 0.1011834
0003e0 de 82 ac bd e9 e0 b5 3d 87 6a 49 be c2 39 13 3e
       -0.084233984 0.08880789 -0.19669543 0.14377502
0003f0 27 4d 0e 3e ff ac 68 3e d1 2e e3 3d cf b1 ae 3d
       0.13896619 0.22722243 0.11092914 0.08530008

sequential_5/conv2d_39/Conv2D f4 [6, 3, 3, 6]
000000 33 17 44 3e 3c 45 58 3e 44 be 06 3d 70 af d3 bd
       0.19149475 0.21120161 0.032896295 -0.103361964
000010 48 bd aa 3c 2d 68 c7 bd aa 97 0c bc 7f 14 8e 3d
       0.02084221 -0.09736667 -0.008581081 0.06937503
000020 ae 9c 2f 3e 02 ba 6a be 2c d2 91 bd aa 5f 83 3c
       0.17149612 -0.22922519 -0.07120165 0.016036827
000030 59 84 15 3e 0b 3f af bd 01 0c 27 3e 67 63 4d be
       0.14601268 -0.08556946 0.16313173 -0.2005745
000040 82 f8 66 be a3 ab 6d bc 94 ae 63 3e 4d e7 76 be
       -0.22555736 -0.014506253 0.22234565 -0.24111672
000050 4c ef c7 3d 1a 80 54 3e 63 62 09 be d2 f5 33 3e
       0.09762439 0.20751992 -0.13416438 0.17574242
000060 6e 10 65 3d 88 3d 0e be 89 93 8d 3d 57 2f ac 3c
       0.05592387 -0.1389066 0.06912906 0.021018667
000070 11 c3 6f be 6a e1 51 3e 8a 74 82 bd a5 b2 19 be
       -0.23414256 0.20496145 -0.06369884 -0.15009554
000080 70 2f bd bd 12 d9 12 3e 34 e8 9d bd 7a 26 3e be
       -0.092375636 0.14340618 -0.07710305 -0.18569365
000090 00 f5 fe 3d 81 31 d0 39 92 fc ba bd 31 63 3f be
       0.12449074 0.00039709735 -0.09130205 -0.18690182
0000a0 cf f8 69 be a5 bd 1a bd 54 3b 9b bd 03 93 69 be
       -0.22848819 -0.037778515 -0.07579675 -0.22809987
0000b0 9b af 0c 3e 40 e4 2a bc dd 36 f9 3b 84 2f c1 3d
       0.13738863 -0.010430396 0.007605417 0.09432891
0000c0 7b 4a 33 be f4 81 60 be 8d 5e a8 bc 2a d2 fc bd
       -0.17508881 -0.21924573 -0.020552898 -0.12344773
0000d0 95 0d ee bc 99 ef 1e 3e 09 1b b8 3d 0e f3 55 bc
       -0.02905921 0.15521087 0.089895315 -0.013058437
0000e0 13 22 11 3e 24 3c 75 3e dd e7 1d be cd f3 bf bd
       0.14173155 0.23948723 -0.1542048 -0.09372673
0000f0 bf 11 09 be 5a 86 37 be c0 70 6b 3e 87 cd 64 bc
       -0.13385676 -0.17922345 0.2299223 -0.013965017
000100 ef 1e ac bd 64 da d5 bc 46 bd 02 be fc 13 22 3e
       -0.084043376 -0.026105113 -0.12767515 0.15827936
000110 f9 7a 32 be 9a 33 77 bd 38 b1 22 bd 04 fc 8e 3d
       -0.17429723 -0.060351945 -0.03971979 0.06981662
000120 62 23 84 bd fe 51 99 3c 8f 6c ed 3d 10 cb 4e 3e
       -0.06452061 0.018715855 0.115929715 0.2019465
000130 f3 5e 23 be 5d f4 35 bd 90 6d a8 bd c1 b8 57 bd
       -0.15954189 -0.044422496 -0.082240224 -0.05266643
000140 90 51 2b 3e 6b 80 3b be ac 5e 44 3c ab a4 54 3e
       0.16730332 -0.18310706 0.011985462 0.20765941
000150 14 a9 bc 3c b4 81 3c 3e ae 28 22 3e 73 fa be bd
       0.023029841 0.18408853 0.1583583 -0.09325113
000160 ed 91 6c 3e 03 e3 a7 bc 85 0e 74 bc a7 7d b6 3d
       0.23102541 -0.02049399 -0.01489604 0.08910685
000170 c0 65 19 3e 2e a5 5d be e6 13 93 bd ea fd 6b bc
       0.14980221 -0.21645042 -0.0718153 -0.0144038
000180 e3 70 07 bd 72 fe 03 bd 6d fc 28 be a4 73 83 3d
       -0.03306664 -0.03222508 -0.16502543 0.06418541
000190 82 4f 0b 3e 86 74 ed 3d a2 32 02 be 22 b2 17 be
       0.13604549 0.11594491 -0.12714627 -0.14814046
0001a0 d7 35 64 be 45 dd 2e be b7 8d 44 3e 78 1e 4e 3c
       -0.22286163 -0.17076595 0.19194685 0.0125805065
0001b0 d1 c4 44 3e e9 8e 5b be e6 f9 2e 3b f5 b6 21 3e
       0.19215705 -0.21441235 0.0026699244 0.15792449
0001c0 bf 6b af 3d f7 55 bd bd e4 da 11 bb 42 f1 93 bd
       0.08565473 -0.09244912 -0.0022255713 -0.07223751
0001d0 c3 12 9d 3d 8e d5 c1 3d ba b9 32 bd 4b e6 59 3c
       0.07669594 0.094645604 -0.043634154 0.013299535
0001e0 a3 67 3d 3e 8a c2 18 be 78 3d 5e 3e 0a 75 e6 3b
       0.18496566 -0.14917961 0.21703136 0.007032995
0001f0 f4 a4 a5 3d 49 d1 1b 3b 6f 53 08 3e c9 12 e2 3c
       0.08088103 0.0023775867 0.13313077 0.027596848
000200 cb f4 10 3e c6 8b 7a bd 75 ab 12 3d 6a 05 03 3e
       0.14155881 -0.061168455 0.035808045 0.12795034
000210 66 e6 48 bd db 08 30 3e f6 1d fb bc 0d c7 2b 3e
       -0.04904785 0.17190878 -0.030653935 0.1677515
000220 67 37 33 be 54 2b 95 bd fd 22 af bc 8c 7d 0a be
       -0.17501603 -0.07283655 -0.021378988 -0.13524455
000230 17 95 f2 3d 3d cb 23 bd 6c 7c 55 be 94 59 f6 bd
       0.11844843 -0.039988745 -0.20848244 -0.120288044
000240 33 ec 34 be 96 53 da bd ec 69 71 bd 48 7c 6e be
       -0.17668228 -0.10660474 -0.058938906 -0.23289597
000250 99 e6 cf 3c 87 f2 82 bd fc e5 5e 3e 56 40 6d bd
       0.025378512 -0.06393915 0.2176742 -0.057922684
000260 ce f1 26 be ad c4 c6 bc 59 ab 17 3e 70 bc 9b 3d
       -0.16303179 -0.024263704 0.14811458 0.07604301
000270 9d ba d6 bd ad 37 d5 3d 79 f3 67 be d4 17 36 3c
       -0.104848124 0.1041101 -0.22651471 0.0111140795
000280 22 58 2a be 95 1e 52 be 01 54 74 3e 92 34 c1 3d
       -0.16635182 -0.20519479 0.2386017 0.09433855
000290 0e 4b e7 3b ab 4b 6a 3d 5c ec 4d bd 0a 19 1d be
       0.0070585078 0.05720107 -0.050274238 -0.15341583
0002a0 9e 5c 03 be 3e 10 25 3e 3c f0 01 be aa 71 01 3d
       -0.128283 0.16119477 -0.12689298 0.03160254
0002b0 9a 23 bf bd f5 b6 d4 3d 67 cf 05 be 30 e4 0a 3e
       -0.09332962 0.10386459 -0.13067399 0.13563609
0002c0 e2 1b 66 be 93 44 2a 3d 94 f8 88 bd db 9c 12 be
       -0.22471574 0.041569304 -0.066880375 -0.14317648
0002d0 50 30 4b ba b4 37 00 3e c5 7b e7 3d c0 00 08 3e
       -0.00077510346 0.12521249 0.11302904 0.13281536
0002e0 80 88 45 be e1 aa 09 be 74 f2 a2 bd 38 ce 2b 3e
       -0.19290352 -0.13444091 -0.079564005 0.16777885
0002f0 c1 d3 72 3d 04 41 62 3d 2d e8 54 3e d0 fa 9c 3d
       0.059283976 0.055237785 0.20791693 0.07665026
000300 6d 53 40 3d 76 22 5f 3e d7 93 03 be d4 f3 1a be
       0.04695456 0.2179049 -0.12849365 -0.15132076
000310 70 6a 60 be de a8 72 3e fd b1 e1 39 e1 f2 a8 3d
       -0.21915603 0.2369723 0.00043047956 0.082494505
000320 70 b1 21 3e bf 44 40 3e bc e0 c5 3d bb 74 fb bd
       0.15790343 0.18776225 0.09662005 -0.12278124
000330 b9 2e 42 be 84 17 1a be c8 0a 4d bd 07 fb 72 3e
       -0.18963136 -0.15048033 -0.05005911 0.23728572
000340 2f 08 46 bd 66 2b dd bd e4 0e 38 be 43 ab 02 3e
       -0.04834765 -0.10799293 -0.1797443 0.12760644
000350 4a 28 d0 bd c8 79 43 be e3 35 39 3d 53 36 90 bd
       -0.101639345 -0.19089425 0.045217406 -0.070416115
000360 85 4e ae 3d f2 24 30 3e e9 b1 95 3d be 7c 4d be
       0.0851107 0.17201594 0.07309324 -0.20067117
000370 ee 86 ae bd 68 d1 12 be fe 81 8d 3b 60 95 ad bc
       -0.085218295 -0.14337695 0.004318475 -0.021189392
000380 03 00 3b 3e 50 90 56 be 55 4b 62 3e f8 78 0f bd
       0.18261723 -0.20953488 0.2209905 -0.035027474
000390 39 06 31 be 76 70 0d bc 6b 7d 66 3e 74 f0 51 bb
       -0.1728753 -0.00863277 0.2250878 -0.003203419
0003a0 2c a1 a7 3d 69 1d 5a 3e 7b 2d 50 bd b7 46 69 bb
       0.08185038 0.21300282 -0.050824624 -0.0035595128
0003b0 53 97 95 3d 20 fb 7f 3d bf 22 1b be d2 0a 32 3e
       0.073042534 0.06249535 -0.15149973 0.1738694
0003c0 54 4e 00 3e d6 8b f8 3c d4 b3 6b 3d fe 31 4d 3e
       0.1252988 0.030340116 0.057544544 0.20038602
0003d0 11 00 80 3d 81 8b 53 bd 04 e8 39 be 55 01 d0 bd
       0.06250013 -0.051646713 -0.18154913 -0.10156504
0003e0 c1 cb 06 bc c1 7c 0e 3e 9f 5b bd bc 1a 2a 3f 3e
       -0.00822729 0.13914777 -0.023114977 0.18668404
0003f0 0d 19 4c 3e 4a 41 22 3d ca 50 59 be c6 d2 03 be
       0.19931431 0.039613046 -0.21222225 -0.12873372

sequential_5/conv2d_40/Conv2D f4 [6, 3, 3, 6]
000000 bf a4 0c be 2d 22 2d 3e 96 e4 f8 3d 72 75 29 3e
       -0.1373472 0.16907568 0.12152974 0.16548708
000010 ee 17 41 bd 68 30 2e bc 9d 10 1a bd 20 97 30 bc
       -0.04714196 -0.010631658 -0.0376135 -0.0107782185
000020 89 fa 64 be ea c5 a9 bc 7e b4 aa bd ff a2 4d 3e
       -0.22361197 -0.020724256 -0.083352074 0.2008171
000030 ba c5 5c 3d 7f 62 93 3d 3b 90 23 be 7c c9 16 be
       0.053899504 0.07196521 -0.15972988 -0.14725298
000040 59 c8 10 3c 11 0c bf 3d 74 d9 f7 3d c5 b1 67 be
       0.008836829 0.09328473 0.12102023 -0.22626407
000050 f2 6c ac bc c4 e3 54 be 85 04 45 be ee 4d 5f be
       -0.021048043 -0.2079001 -0.19240005 -0.21807072
000060 71 53 a1 3c 34 5a dc bd 5b b7 6e 3e 50 7e e4 bd
       0.019693108 -0.107593924 0.23312132 -0.11156905
000070 b4 89 ea bd 4a e1 64 bd 4d 75 92 bc 16 d1 62 3e
       -0.11452046 -0.055878915 -0.017878199 0.22150072
000080 7c 0f ac bd ae 5a 23 3e 3f e5 66 be 87 1d 73 be
       -0.08401391 0.1595256 -0.22548388 -0.23741733
000090 bd 19 9b bc 7a 22 5e be c8 74 55 be 4a 88 21 3d
       -0.018933171 -0.2169284 -0.2084533 0.039436616
0000a0 b1 0c 55 be 7c 9e 51 3e 26 3c 55 3e 8d c8 05 3c
       -0.20805623 0.20470613 0.20823726 0.008165491
0000b0 87 96 ab 3d 6f e8 9b bc e1 9d 75 bd c7 66 3c 3e
       0.0837832 -0.019031731 -0.05996502 0.18398581
0000c0 f3 0b ea 3b ec 53 48 3e 98 9f 2f bb f6 ea ac bd
       0.0071425377 0.19563264 -0.0026798006 -0.08443253
0000d0 50 2a 1f be a8 20 cb bc f9 d6 06 3e 7b 18 29 bd
       -0.15543485 -0.024795845 0.13167943 -0.041283112
0000e0 1b 57 20 be 0e 2a 2c 3c 25 98 e8 bc 78 1b f1 bd
       -0.15658228 0.0105080735 -0.02839286 -0.117728174
0000f0 de 6c 3b bd 7d 92 c7 bc 9b 94 41 be 9a fe 55 3e
       -0.04575812 -0.024361843 -0.18904345 0.20897904
000100 b7 71 78 3d 08 06 25 be 84 03 3d be 88 7a 1f 3e
       0.060655322 -0.16115582 -0.18458372 0.15574086
000110 38 ee de bd 05 33 4a 3e c1 a6 21 3e 53 ac 52 3e
       -0.1088528 0.19746025 0.15786268 0.20573549
000120 c4 43 1f 3c c4 c3 03 bc e2 57 75 3c 87 9e ad bd
       0.009720746 -0.00804228 0.014974566 -0.08477502
000130 41 a6 e6 bd ab b5 e6 3c 0b 4a 1c 3e 98 f6 4c be
       -0.11262179 0.028162798 0.1526262 -0.20015943
000140 55 9a db 3d f1 6e 43 be e9 26 1a 3d 0e 20 74 be
       0.10722796 -0.1908529 0.037634764 -0.23840353
000150 40 3f 17 3e ef 31 0d be 39 06 70 3e c1 53 2d 3e
       0.14770222 -0.1378858 0.23439874 0.16926481
000160 a7 8c 5b be 3b 23 3e be 2c d6 57 3d ed a8 24 3e
       -0.21440373 -0.18568127 0.052694485 0.16080065
000170 77 32 d5 bd 7d 2c 42 be 6f de 08 3e 1b 29 64 be
       -0.10410016 -0.18962283 0.13366102 -0.22281305
000180 81 c9 15 be 8c 5c c8 3d df 50 50 3e 2c 7c 68 be
       -0.14627649 0.09783277 0.2034335 -0.22703618
000190 ec 37 62 3e e3 8e 4d be 38 5b 62 be 5c cd 11 3e
       0.22091645 -0.20074038 -0.2210511 0.14238495
0001a0 72 10 3b bc 26 39 25 bd 3f c3 cb ba 5e cd 00 3e
       -0.011417495 -0.040337704 -0.0015545859 0.12578341
0001b0 3e c6 61 3d d8 f2 21 3d cf 4e c2 ba 88 d8 01 3d
       0.0551207 0.039538234 -0.0014824512 0.03170064
0001c0 2b 18 af bd 3a 4a 53 3e 2a 0a ad bc 90 da 7d 3d
       -0.085495315 0.20633784 -0.02112301 0.061976016
0001d0 44 0e 58 bd 37 c4 c8 bd b0 67 21 3e c0 b5 2b bc
       -0.05274798 -0.0980305 0.1576221 -0.010480344
0001e0 4a da 53 3d 1e 6e 9a bd 11 4a 75 3e 3c 76 47 3e
       0.05172185 -0.075405344 0.23954035 0.19478697
0001f0 8f 84 48 3e 2e 0e c9 bd 12 16 0c be 03 66 03 be
       0.19581817 -0.09817158 -0.13680294 -0.12831883
000200 52 a7 46 be 14 10 60 be 72 0c 00 be 18 ed 3f 3e
       -0.19399765 -0.21881133 -0.12504748 0.18742788
000210 14 aa 3c be 8f 34 53 be ca 8c 28 3e ea 57 d6 3c
       -0.18424255 -0.20625518 0.16459957 0.026164968
000220 4a 9d c0 bc 2a bf 50 3e 6b aa 1c 3e 0c f7 34 3e
       -0.023512501 0.20385423 0.15299384 0.17672366
000230 71 09 ee bd 04 35 e7 3d 12 f6 af bd 72 d1 39 be
       -0.116228946 0.11289409 -0.08591856 -0.18146303
000240 0e 80 f8 3d d5 8e 38 3d f5 8b 21 be 22 41 8e 3d
       0.121337995 0.04505809 -0.15776046 0.06946017
000250 68 38 15 3e 72 3f 1b bd bf 4d 0f bd 8b 47 f0 3d
       0.14572299 -0.037902303 -0.034986254 0.11732396
000260 50 c3 04 3e 62 f0 59 3e 78 db 4d be b0 c4 42 3d
       0.12965131 0.21283105 -0.20103252 0.047550857
000270 bf e0 ab bd cd 83 3f 3e 25 b8 23 be ea ed f2 3b
       -0.08392476 0.18702622 -0.15988214 0.0074136155
000280 14 3f 4d 3e d9 b6 25 3e b4 21 ee 3d ca 71 49 3e
       0.20043594 0.16183032 0.11627522 0.19672313
000290 22 0d f6 bc 20 e9 51 3e b8 21 55 be 9c e6 2c bd
       -0.03003556 0.20499086 -0.20813644 -0.042212114
0002a0 61 c6 07 bd c5 31 2f 3d fc 45 dc bd 32 2f 3b 3e
       -0.033148173 0.042772073 -0.10755536 0.18279722
0002b0 ea e5 43 3e 97 d4 63 be a6 7c 66 bd a9 0f 5e be
       0.19130674 -0.22249065 -0.056271218 -0.21685661
0002c0 21 b0 01 3d 9b 74 da bd 78 e5 55 3d 70 16 2f be
       0.03166211 -0.10666772 0.05222079 -0.17098403
0002d0 66 95 5e 3e 47 3b b7 3d 28 46 8a 3d 31 6b 07 3e
       0.21736678 0.08946853 0.067516625 0.13224484
0002e0 a2 ac dc bc 9a 57 84 bc 8d 55 30 be 2c 9e 1a be
       -0.026937786 -0.016155053 -0.17220135 -0.150994
0002f0 b2 7d 22 be 85 a3 33 3e ab ed 0e be 70 b4 1e 3e
       -0.15868261 0.17542847 -0.1395785 0.15498519
000300 27 c0 38 3e 19 95 1d 3e 41 e7 38 3e 47 a6 42 3e
       0.1804205 0.15388907 0.18056966 0.19008742
000310 f5 2d ff bd b0 6d 3e 3c f6 df 34 bd a5 8c 74 3e
       -0.124599375 0.011622831 -0.0441589 0.23881777
000320 01 32 ea bc 88 d8 25 3d b8 8d 78 bd ca 1c 31 3e
       -0.028588297 0.040489703 -0.06068203 0.17296138
000330 bc 9a 64 bd 4d a4 59 3d 25 7f de 3d 72 aa 25 be
       -0.05581163 0.053135205 0.10864095 -0.16178301
000340 5a 58 13 3e 0b 77 3d be b2 7b 29 3e f0 02 4a be
       0.14389172 -0.18502443 0.16551092 -0.19727683
000350 a7 f3 e5 3d 32 e5 2e 3e 66 13 4d bd 6a 78 40 3e
       0.112281136 0.17079619 -0.050067328 0.18795934
000360 d8 26 73 3d 3a c5 1d be 72 bd 07 3e 2b 4d cb bb
       0.059363216 -0.15407267 0.13255861 -0.0062042675
000370 88 10 5e be 39 ed f3 3d 44 e4 89 3d d7 4f 30 be
       -0.21685994 0.11910481 0.06732991 -0.17217956
000380 15 fa 29 bd 4a c5 a9 bd 56 b1 14 3e 40 75 da bd
       -0.041498262 -0.08289583 0.14520773 -0.10666895
000390 7b 41 22 3e 92 d0 33 3e 60 e4 5a be 3f 69 42 3e
       0.15845291 0.17560032 -0.2137618 0.1898546
0003a0 0b 68 5a 3c 81 e7 52 be cb 4b 4e 3e fe c0 90 bd
       0.01333047 -0.20596124 0.201461 -0.0706806
0003b0 49 5c 48 3d 6e a9 3b bd 40 c7 0f 3e b5 ad 4e be
       0.048916135 -0.045815878 0.14040852 -0.20183451
0003c0 12 05 57 be da 70 4b 3e 68 48 5d 3e a0 94 81 3d
       -0.20998028 0.19867268 0.21609652 0.06327176
0003d0 07 ae 54 3c bd 21 64 3e 05 03 b6 bd 95 a9 29 be
       0.0129809445 0.22278495 -0.08887295 -0.16568597
0003e0 10 13 27 be 7b e6 dd bd 4b 93 29 3d 9a c0 0f 3e
       -0.16315866 -0.10834976 0.041400235 0.14038315
0003f0 e7 86 4b be f4 7d f7 3d 3f dc 11 3e 76 73 1d be
       -0.1987568 0.120845705 0.14244173 -0.15376076
