saved_model/quantized_models/layers5/trial3/paramcount650919.tflite (tflite, 665712 bytes, 24 tensors)

sequential_5/dense_11/MatMul f4 [7, 64]
000000 84 26 0c 3e 25 6c f6 3c 7d cc 81 3e 5b 20 89 3e
       0.13686568 0.030080864 0.25351325 0.26782498
000010 82 19 84 3e c2 96 64 bd c7 9c 39 3b 20 58 39 3e
       0.2580071 -0.055807836 0.0028322206 0.18100023
000020 4e 31 1d be ef d8 09 3d 99 db 83 be 32 ea 7e bd
       -0.1535084 0.03365415 -0.25753477 -0.062235065
000030 b7 30 49 3e f9 b2 7e 3e ce 10 86 3e 2a ed 8d 3e
       0.1964749 0.2487296 0.26184696 0.27720004
000040 c2 b6 1e 3e 67 00 4b be 3c a5 4a 3e 38 3b b1 3d
       0.15499404 -0.19824372 0.19789594 0.08653873
000050 80 7b 3c 3e 65 f6 d2 bd 78 3e 67 bd 16 c2 60 be
       0.18406487 -0.10300902 -0.05645606 -0.21949038
000060 ff 8a 0f bd ee 5c 88 3e c2 8f 81 3e 15 9d 3e 3e
       -0.035044666 0.266334 0.2530499 0.1861461
000070 0d c6 21 3e 38 98 8e be c3 06 02 be f5 0c 3e be
       0.15798207 -0.2785051 -0.12697892 -0.1855963
000080 15 49 07 be 57 05 00 be 3e e9 f6 3d 50 7b f1 3d
       -0.13211472 -0.12502037 0.12056206 0.11791098
000090 59 01 9b be da 66 78 bd 27 98 b5 bd da e9 89 be
       -0.30274466 -0.060644962 -0.088669114 -0.26936227
0000a0 03 50 47 be 8e 8b e5 3d 4c 48 3e be 5f 0c 4a bd
       -0.19464116 0.112082586 -0.18582267 -0.049328204
0000b0 c2 e3 82 be 6a 3a 9b be a9 6b 7a be e4 b4 7d bd
       -0.2556439 -0.30318004 -0.24455132 -0.06194009
0000c0 33 5a 54 3d 08 4e 37 be 1f 3f 0d be 81 05 28 be
       0.051843833 -0.1790086 -0.1379361 -0.1640835
0000d0 03 6a 38 be f1 ed 7b 3e 96 23 20 be 88 b9 0a bd
       -0.1800919 0.24602486 -0.15638575 -0.033868343
0000e0 83 06 21 bd 74 d8 4e bd e2 e5 78 3e eb ce 09 3d
       -0.03931285 -0.050499395 0.24306443 0.033644598
0000f0 14 a8 19 3e 42 22 79 3e ac 67 0f be 4a 9f 5a 3c
       0.15005523 0.24329475 -0.14004391 0.013343642
000100 7d b6 24 be ff f7 3a be 77 cb 81 bd 02 a6 ad 3d
       -0.16085239 -0.18258666 -0.06337636 0.08478929
000110 f0 e7 e2 3b 6b 02 d9 3d 77 d6 0d 3e 7a 3c 96 be
       0.0069246218 0.10596164 0.13851343 -0.29343015
000120 4f b4 8c 3e d4 70 80 3e 54 87 6c 3e fb 4b 4f 3e
       0.27481315 0.2508608 0.23098499 0.20243828
000130 d1 1b 0a be ed ec 73 be 2f 0c 24 be 5e e8 04 be
       -0.13487174 -0.23820849 -0.16020273 -0.12979266
000140 20 db 8e be 09 ae 4c 3e ed cd 38 3e a7 e1 63 be
       -0.27901554 0.19988264 0.18047304 -0.22254048
000150 55 f9 0e be 4e d4 82 be af ac 03 3e 4b 87 82 be
       -0.139623 -0.255526 0.12858842 -0.25493845
000160 e8 6a ad 3d d2 8e 39 3d bc 53 53 3c 12 16 01 3d
       0.084676564 0.04530222 0.012898382 0.03151519
000170 59 1e 5c be 2e d8 15 be 39 b5 9e 3d 06 cc ac 3c
       -0.21495952 -0.14633247 0.07749409 0.02109338
000180 cf 3d 0b bd d4 4a 31 3e 45 4c fb 3d 15 b2 10 be
       -0.033994492 0.17313701 0.12270407 -0.14130433
000190 42 78 60 be 06 0b 91 3d c4 db 89 3e 0c 8b 6f 3e
       -0.21920875 0.07082181 0.2692548 0.23392886
0001a0 1a 4f df bc 6b 0c 2f 3d 80 b1 30 3e 28 20 fa 3c
       -0.027259398 0.042736452 0.17255211 0.030532911
0001b0 2c b8 36 be d1 58 04 3c e7 e9 36 3e 9d e8 35 bc
       -0.17843693 0.008077816 0.17862664 -0.011102823
0001c0 00 d0 8d 3e 1b ab 6d 3e b7 ea 11 bd 92 b3 95 be
       0.27697754 0.23209803 -0.035624232 -0.29238564
0001d0 b6 35 56 3e cb 61 5d 3c cb fb 82 3e cb 52 84 be
       0.20918927 0.013512085 0.25582728 -0.25844416
0001e0 3f 04 6e 3a c7 e3 a5 bd c2 6a 7a 3e 79 03 1e bc
       0.0009079612 -0.08100086 0.24454787 -0.009644383
0001f0 0c 45 3f 3d 5e 3c f1 bd c0 5d 5a be 98 e9 b1 bd
       0.046696708 -0.11779092 -0.21324825 -0.086871326
000200 d6 9f 65 be 9e 4f b4 3d ad 74 21 3d f0 94 48 3d
       -0.22424254 0.08804248 0.03941791 0.048970163
000210 6d 7a 50 be ca b4 2e be dc 2f 9d 3d 5c 1b e4 bc
       -0.20359202 -0.17061153 0.07675144 -0.027845077
000220 20 26 2d 3e d6 4e 39 3e 16 2b 30 3d 82 2f 34 3e
       0.16909075 0.1809648 0.04300984 0.17596248
000230 3d 6c 2e be af 2d 0c bd d8 c9 8d bc 77 81 f4 bd
       -0.17033477 -0.034223255 -0.01730816 -0.11938756
000240 e9 f4 84 bd 40 67 39 3e 75 4a 69 3e 27 8a 43 be
       -0.064920254 0.18105793 0.2278231 -0.1909567
000250 4b 45 8b be 3b 1a 83 3e 33 5b 87 be 40 36 8b be
       -0.27201304 0.2560595 -0.26436767 -0.27189827
000260 79 14 59 be 28 3c 1f bc 0c 45 10 3e 50 49 23 3a
       -0.21199216 -0.009718932 0.1408884 0.0006228881
000270 2f e0 70 be ee a2 3a 3d f1 ee bb 3a fa 1e 65 3e
       -0.23523019 0.045565538 0.0014338178 0.22375098
000280 98 cc 36 be b5 46 6c be 6a cd 14 bd db 91 50 3e
       -0.17851484 -0.23073848 -0.03632871 0.2036814
000290 36 15 55 3e a7 b7 1c be 7e 4b 37 3e 05 04 4d bc
       0.20808873 -0.15304433 0.17899892 -0.012513165
0002a0 6c a9 76 3c b3 19 96 3d 81 3b 8f 3e 9b 71 52 be
       0.015055042 0.073291205 0.27975085 -0.2055115
0002b0 1d 50 80 be 60 8c 34 3e 24 03 62 3e ee c8 86 be
       -0.25061122 0.17631674 0.2207151 -0.26325172
0002c0 f5 45 d0 bd 34 8e 79 bd 6d 5a f0 3c 1c 62 82 be
       -0.10169593 -0.06092663 0.029339993 -0.25465477
0002d0 36 58 ee 3d 0b 76 40 be ca bb 84 3e 6b b6 b4 3c
       0.11637919 -0.1879503 0.25924522 0.02205964
0002e0 23 52 2e bd 67 2b 56 bd 63 23 41 3e 2c 42 6e 3c
       -0.0425588 -0.052287485 0.18861155 0.014542144
0002f0 16 ae a4 3d 28 46 8a bd 88 6a 60 3e 55 b0 cf 3d
       0.08041017 -0.067516625 0.21915638 0.101410545
000300 1f 69 75 3e bb fe 3d 3e c9 46 58 3e 07 9f 87 3e
       0.23965882 0.18554203 0.21120752 0.26488516
000310 5f 96 2b 3e 19 d4 84 3d ac a5 08 bd 97 29 bb bc
       0.16756581 0.06485767 -0.033361122 -0.02284698
000320 52 44 03 3d bf ae 7f bd 0c 34 5c 3e ca b2 14 be
       0.032047577 -0.06242251 0.2150423 -0.14521328
000330 5d 13 91 be c4 11 58 bd 93 8f b8 bd 87 9f 99 3e
       -0.28335086 -0.052751318 -0.090117596 0.30004522
000340 b8 2f 56 3e 13 15 94 3c 3d de 11 3e 55 e2 43 3e
       0.20916641 0.018076455 0.14244933 0.19129308
000350 d4 87 32 be d6 c3 90 be b1 96 8c 3e 4f e4 8c 3c
       -0.17434627 -0.2827441 0.27458718 0.01719871
000360 f5 ae 08 3d 78 b1 c9 bb f6 72 7b be 71 f8 44 be
       0.033369977 -0.006155189 -0.24555573 -0.19235398
000370 17 67 9c 3d 6e 4e 55 be c4 d2 32 be 45 80 f4 bb
       0.0763685 -0.208307 -0.17463213 -0.00746158
000380 30 34 80 3e d1 a1 47 be 7c 9c 73 be d0 ab 9a 3d
       0.25039816 -0.19495322 -0.23790163 0.07552302
000390 23 7f bf 3c b0 a8 72 3e 6d 94 4c 3e 17 dd 81 be
       0.023376053 0.23697162 0.19978495 -0.2536399
0003a0 5d 15 ad bd 7f 17 71 3e 66 0b 49 be 11 f5 30 3e
       -0.0845134 0.2354412 -0.19633254 0.17280985
0003b0 29 b1 6d bd 54 fc 5f bd 98 4a 7d 3e e8 bd 60 be
       -0.05803028 -0.054684 0.24735487 -0.21947443
0003c0 e0 d5 39 be a6 c8 19 bd b2 58 67 bd b4 6c d9 3d
       -0.18147993 -0.03754487 -0.05648107 0.106164366
0003d0 71 d0 2a 3e 67 ab 18 3e 55 41 74 3e ca e2 76 be
       0.16681077 0.14909135 0.23853047 -0.2410995
0003e0 3a be 6d 3e 47 fb 8d be 8e 8f a9 bd dd cd 2a 3e
       0.23217097 -0.27730772 -0.08279334 0.16680093
0003f0 21 a4 0d be bf b4 41 3d 30 21 c2 3c 4d ac 84 3d
       -0.13832141 0.047291514 0.023697466 0.06478176

sequential_5/conv2d_25/BiasAdd/ReadVariableOp f4 [6]
000000 0b a0 39 3c 61 2e 72 3b 46 a4 dc 3a 52 65 50 bc
       0.011329661 0.0036953914 0.0016833625 -0.012719469
000010 ae b6 d5 bb 1c 06 c3 bb
       -0.0065220213 -0.005951656

sequential_5/conv2d_26/BiasAdd/ReadVariableOp f4 [6]
000000 f4 db 9f bb ef cb 49 bc 05 1e ed 3b ee 17 aa 3b
       -0.0048785154 -0.012316688 0.0072362446 0.005190841
000010 5b b0 99 bb 7c d0 0b 3c
       -0.0046902127 0.008533593

sequential_5/conv2d_27/BiasAdd/ReadVariableOp f4 [6]
000000 00 19 47 bb 8a 2a 3c 3c 5c ac 5b 3b d1 96 e6 3a
       -0.0030379891 0.0114847515 0.0033519482 0.0017592554
000010 1a 5f 51 3a 8c 51 0c 3c
       0.00079868885 0.008564364

sequential_5/conv2d_28/BiasAdd/ReadVariableOp f4 [6]
000000 59 0d d4 39 72 05 49 bb 33 46 c8 bb cd 13 31 3c
       0.00040445736 -0.0030673412 -0.006111884 0.0108079435
000010 9b ec f7 3a 91 b7 60 3c
       0.0018915118 0.013715641

sequential_5/conv2d_29/BiasAdd/ReadVariableOp f4 [6]
000000 8d a3 56 ba bf 34 03 bc 58 1d 25 bc 5f 55 e8 bb
       -0.0008187823 -0.008008181 -0.010077797 -0.007090255
000010 da 86 02 bc 61 2a 2e 3c
       -0.007966721 0.010630221

sequential_5/conv2d_25/Conv2D f4 [6, 3, 3, 1]
000000 c9 63 0b bd 36 7d 9b bd 74 c0 7e 3e cd c1 35 be
       -0.03403071 -0.075922415 0.24878103 -0.1774971
000010 33 38 c3 bc c2 e2 60 be 23 d0 b0 bd 5c 08 13 bd
       -0.023830509 -0.21961501 -0.08633449 -0.035896644
000020 5b de f1 bd 66 8b 9c be 95 96 65 be 51 27 6d be
       -0.11809989 -0.30575103 -0.22420724 -0.2315953
000030 05 cc 80 be 94 6e 00 be 9d cf 60 3e 00 5e 4a 3e
       -0.25155655 -0.12542182 0.21954198 0.1976242
000040 d8 b1 50 be f8 7a 1e 3e ba 23 4b bd 4a dc 04 3e
       -0.20380342 0.15476596 -0.04959462 0.12974659
000050 0f 85 49 be b2 2b 39 bc f4 fd ff 3c 11 37 5e be
       -0.19679664 -0.011301922 0.031249024 -0.21700694
000060 c5 d2 5d 3e c6 41 22 bd 7a ea af 3d ea d4 09 be
       0.21662433 -0.039613508 0.08589645 -0.13460127
000070 8b 03 db 3d 2b 49 96 3e 49 f2 bc 3d c1 55 40 3e
       0.10694035 0.29352698 0.092259 0.18782713
000080 2f 0e 99 be 7b d8 84 3e 5d 75 4f 3d db 2a 00 bb
       -0.29893634 0.25946411 0.050649036 -0.0019556794
000090 b4 50 26 3e 03 b8 be 3c 80 e3 43 3d ba e8 40 be
       0.16241723 0.023281103 0.047824383 -0.18838778
0000a0 2a e5 98 3e 65 96 86 3d 3a ee 82 be 0a 1b 74 be
       0.29862338 0.06571654 -0.25572377 -0.2383844
0000b0 98 42 5f 3d 48 60 81 be ce b8 11 3e 30 bd 4f be
       0.054506868 -0.2526877 0.14230654 -0.20287013
0000c0 d8 80 a0 bd 6a bd e4 3d 38 65 05 3d ef 32 7c 3e
       -0.07837075 0.1116894 0.032567233 0.24628805
0000d0 fe fa 64 3e 51 5c db ba
       0.22361371 -0.0016735886

sequential_5/conv2d_26/Conv2D f4 [6, 3, 3, 6]
000000 08 a9 63 be 93 43 99 3d 6d 6f 0e be d4 9c ca 3d
       -0.22232449 0.07483592 -0.13909693 0.09893194
000010 95 2f 33 3e 6d 43 5e 3d a3 1a 54 bd d1 31 58 3e
       0.1749862 0.05426352 -0.051783215 0.21112753
000020 53 58 42 be 50 f8 7a 3c 48 81 ce bd b8 9b cf bd
       -0.18979006 0.015317991 -0.10083252 -0.10137123
000030 d4 ed db 3d ec 55 f1 3d c0 af 5e bd 79 15 98 3d
       0.107387215 0.117839664 -0.054366827 0.074259706
000040 72 2d f6 bd f4 3d 52 bd ef ea e6 bd 8a 8e 96 bd
       -0.12020387 -0.051328614 -0.11275279 -0.07351406
000050 1d f8 e5 3d 70 35 1a be c5 d4 15 3e d3 9a f1 bd
       0.112289645 -0.15059447 0.14631946 -0.117971085
000060 dd d1 36 be 5c a8 f5 3d 9f f2 48 3e c0 28 48 3e
       -0.17853494 0.119950026 0.19623803 0.19546795
000070 6d a5 4d bd e3 7a 11 be 49 8c ab bd 35 8a c8 3c
       -0.05020659 -0.14207034 -0.08376367 0.024479965
000080 bc c4 3d 3e eb 39 1b 3c 8c c1 35 3d fa 7e 2a 3b
       0.1853208 0.009474258 0.044374034 0.0026015625
000090 54 0b cf 3d 85 08 eb bd fd a1 b3 3d c9 ad 09 3d
       0.101095825 -0.11476234 0.08771131 0.033613
0000a0 b5 b5 3f 3e fb b5 de bd 75 33 85 bc b5 74 b6 3d
       0.1872166 -0.10874554 -0.016259888 0.08908979
0000b0 33 8c 75 bd 67 31 20 be fc 7e 64 be 8c 7e 60 be
       -0.059948158 -0.15643845 -0.22314066 -0.21923274
0000c0 4c 04 16 be 84 f2 35 3e 1e f8 2b 3d ae 8c 2f be
       -0.14650077 0.17768294 0.04198467 -0.17143509
0000d0 74 56 c3 3d d6 a0 6f 3e 85 9d 18 be 95 6e 69 3d
       0.09537974 0.23401198 -0.14903839 0.056990225
0000e0 bd d2 48 bd a4 90 1a be 15 c2 b9 bd fa 59 33 be
       -0.0490291 -0.15094239 -0.09070221 -0.17514792
0000f0 d6 ef ba bd 32 c9 61 3e 50 d5 19 be 81 42 9e 3b
       -0.09127776 0.22049406 -0.15022779 0.004829705
000100 a2 3b 5e 3d c8 27 55 3e 0a 4a f7 bd 17 a8 a2 bd
       0.05425609 0.20815957 -0.12074669 -0.07942217
000110 e1 ba 4a 3d 29 f1 31 be 2b 57 2d bd 89 0c 43 3e
       0.049494628 -0.17377152 -0.042319458 0.1904775
000120 df 0c 02 3e bb 02 87 bd c6 5b 14 3e 62 b4 5b be
       0.12700222 -0.06592318 0.14488134 -0.2145553
000130 16 9d 11 3e 00 11 01 bd 48 50 f6 bd c7 af b6 3c
       0.1422008 -0.031510353 -0.12027031 0.022300614
000140 fb ad ad bd 84 ba b8 bd 3b 3e 62 3e b5 cb 8f bd
       -0.0848045 -0.0901995 0.22094052 -0.07021276
000150 22 df 0d be e2 4a 2f be 47 7a b4 bd b0 29 3b 3e
       -0.1385465 -0.1711841 -0.08812385 0.18277621
000160 a7 49 71 3e 30 0f 3c be 17 ed 7e bb f8 75 d7 bd
       0.23563252 -0.18365169 -0.003889864 -0.10520548
000170 2e ab 4a 3e cd 06 1b 3e 3c f9 1e 3d 14 2d 17 3e
       0.19791862 0.15139313 0.038811907 0.1476329
000180 93 39 73 3e ed 1b 4e be ab bb 92 3d 60 e8 51 bd
       0.23752432 -0.2012784 0.07164701 -0.051247
000190 71 c2 66 3e 47 40 32 3e bb ab 9c 3d d7 8b a0 3d
       0.22535111 0.17407332 0.076499425 0.07839172
0001a0 7b 66 40 be e3 20 8b bc c4 6e 3f 3e 3a 70 41 3e
       -0.18789093 -0.016983455 0.18694597 0.18890467
0001b0 3a 6f c2 3d e9 81 c0 bd 3f f7 5a 3e 5e 62 91 3d
       0.09493871 -0.093997784 0.2138338 0.0709884
0001c0 97 3e 4b bd ca ec 4f 3e f3 36 70 be be 9f 12 bd
       -0.049620237 0.20305172 -0.23458461 -0.035796873
0001d0 77 7a b9 3c d5 3c 44 3e 44 a9 0d bd dd 9f 87 bd
       0.022641404 0.1916383 -0.034585252 -0.066222884
0001e0 56 0d f2 bd c5 c4 b3 bd 0a bf 43 bd 6f 1a b5 bc
       -0.1181895 -0.08777765 -0.04778961 -0.022107331
0001f0 32 0b 84 bd 42 69 2a 39 ec ca 3a bc 5b 6d 2c be
       -0.06447448 0.00016251675 -0.011400919 -0.16838591
000200 6f c5 f9 bd 82 17 d7 3d 05 e6 0c 3e 0a a3 82 3d
       -0.121958606 0.10502531 0.1375962 0.063787535
000210 27 98 21 3d f4 00 31 3e 26 c9 44 3e 44 78 76 3e
       0.039451744 0.1728552 0.19217357 0.24069315
000220 20 e6 ad 3d 72 55 88 3c d7 b9 cb 3c b6 d7 19 bd
       0.084911585 0.016642306 0.024868889 -0.037559234
000230 0c cb a8 3b af 4e 1a 3e b3 fb 1d 3e 66 70 37 be
       0.005151158 0.15069078 0.15428047 -0.1791397
000240 6c 1d c6 3c 01 0c b4 bd 6a 60 e6 3d 2d f5 34 be
       0.024183951 -0.08791352 0.11248858 -0.17671652
000250 bb 73 04 be 14 3a 20 be 8c 3b 01 be 0f 5a 0d be
       -0.12934773 -0.15647155 -0.12620372 -0.13803886
000260 17 c8 53 be b0 97 37 3e ba 5c 3e 3c a6 a8 6c 3e
       -0.20681797 0.17928958 0.011618787 0.2311121
000270 66 4a 3b 3e 2a 82 06 be d4 f6 5c 3e fb 84 51 be
       0.182901 -0.13135591 0.21578532 -0.20460884
000280 a9 0d 6b be 4d d4 70 3d 44 ea 82 bd 7f 34 50 be
       -0.2295443 0.058796216 -0.06392339 -0.20332526
000290 cc f0 bb 3d 40 47 0c 3e bd 66 da 3c 5c 02 3d bc
       0.09176788 0.13699055 0.026660318 -0.011536207
0002a0 a7 47 55 be 22 6c c1 bd f7 d1 2b 3d 92 36 1f 3c
       -0.20828114 -0.09444453 0.041948285 0.0097176
0002b0 52 02 83 bd 4e a1 0c 3c 0e 35 90 bd da 29 0c 3c
       -0.06396927 0.00858338 -0.070413694 0.0085549
0002c0 65 36 02 be 32 2a f5 3d 0b 7b 0e 3e 92 ad 51 3e
       -0.12716062 0.11970939 0.13914125 0.20476368
0002d0 50 9d 07 be 0a d3 19 be 02 bd e0 bd b7 3c 5c be
       -0.13243604 -0.15021911 -0.109735504 -0.21507536
0002e0 09 d9 5a 3e 57 34 b9 bd 20 7b 2d be b8 5a 8c 3d
       0.21371855 -0.09043186 -0.169415 0.06853241
0002f0 4a 84 68 be 51 14 89 3d 33 26 18 3e ab be 63 3e
       -0.22706714 0.06693328 0.14858322 0.22240703
000300 57 1c 57 3e 33 f6 7f bd 94 98 d7 3d b1 8a ea bc
       0.21006905 -0.062490653 0.10527149 -0.028630586
000310 cb 8f 41 be f9 83 70 be c9 0a 21 3d 97 55 5c be
       -0.18902509 -0.23487844 0.039316926 -0.21517025
000320 47 d0 61 3e e6 37 5f 3d 3e 62 30 be 07 ef 86 bd
       0.22052108 0.05449667 -0.17224976 -0.065885596
000330 d0 b9 21 be 00 12 8f 3d 3a 62 93 bd c2 b8 df 3d
       -0.15793538 0.06985855 -0.071964696 0.10923912
000340 06 ed ff 3d 79 35 64 3e 5a 9b 30 3e e7 e2 12 3e
       0.124963805 0.22286023 0.17246762 0.14344369
000350 8b ae 42 3e b5 19 30 3e f8 f5 32 be ab 6a 3e 3e
       0.19011895 0.17197306 -0.17476642 0.18595378
000360 ac 47 7e bd 08 a8 ad bc e0 9a 53 3e 25 21 18 be
       -0.06208007 -0.021198288 0.20664549 -0.14856394
000370 0a 2f 72 3c 60 8b 0f 3e d7 5c 4a be d8 f0 a6 3d
       0.014781723 0.14018011 -0.19761978 0.08151406
000380 1c 23 9f 3d 15 e2 26 be be b4 3a 3e 21 0d ef 3d
       0.077703685 -0.16297181 0.1823301 0.11672426
000390 54 03 2a 3e 0d dc 6c 3c 08 23 e9 3d 25 99 fd 3d
       0.16602832 0.014456761 0.11383635 0.123827256
0003a0 4b 17 7e bd 4d b4 64 be 60 ff 2a be 64 91 25 3e
       -0.062033933 -0.22334404 -0.1669898 0.16168743
0003b0 29 46 31 3e ed 83 59 bc b5 3b 49 be 6a 26 de 3c
       0.1731192 -0.013276082 -0.19651683 0.027117927
0003c0 0c 16 42 3e ce 31 dd 3d 95 72 54 3e 00 e8 39 3e
       0.18953723 0.10800515 0.20746835 0.18154907
0003d0 9a 45 61 bd af f5 23 be d9 ee 60 3e 2e 57 29 3d
       -0.054998018 -0.1601169 0.21966113 0.041342907
0003e0 a8 1a b2 3d 04 64 5a bc 1c 25 5f bc dd 9d 55 be
       0.086964905 -0.01332951 -0.013619687 -0.20861001
0003f0 f5 27 a6 bd 78 e7 85 bd 05 37 d3 3d 8b d3 4f be
       -0.0811309 -0.0653829 0.103132285 -0.20295541

sequential_5/conv2d_27/Conv2D f4 [6, 3, 3, 6]
000000 4c cd fb 3c 4b 58 63 be 5d 83 6a be 7d 13 c2 3d
       0.030737542 -0.2220165 -0.22901674 0.09476373
000010 0b f6 cc 3c 4c 1a 3e be 04 3b 40 be b4 db fb 3d
       0.025019666 -0.18564719 -0.18772513 0.122977644
000020 9f 3f 1d 3d a2 33 e1 bd 3d df 4b be 24 2b 11 be
       0.038390752 -0.10996176 -0.19909377 -0.14176613
000030 b7 9d fb 3d d8 23 77 3d 90 e9 66 3d 24 ae 41 be
       0.12285941 0.060336918 0.056375086 -0.18914086
000040 b3 32 5d be 9c 3b 96 3c f0 76 1e bc c8 c2 60 3c
       -0.21601371 0.01833897 -0.009671912 0.0137183145
000050 b3 ed 17 3d da 7b 56 3d dd c4 40 be 3b f1 6e 3d
       0.037091922 0.052364208 -0.18825097 0.058335524
000060 40 cd b9 3d 80 18 b4 3d 8f b5 cf 3d e1 6e ab 3d
       0.090723515 0.087937355 0.101420514 0.08370758
000070 6a a0 16 3c 65 02 4a be b2 27 e3 bd 1a ba 4a 3e
       0.009193519 -0.19727476 -0.11091556 0.19797555
000080 50 e9 8d bd 4d 2c 79 3d b0 b2 86 bd 28 d4 3d 3e
       -0.069292665 0.060833264 -0.06577051 0.18537962
000090 98 f9 57 be 83 68 61 3e 05 c7 2b be c5 92 73 3d
       -0.21091306 0.22012524 -0.16775139 0.059466142
0000a0 9c f2 b8 3d b3 63 2e 3e c0 f7 38 bd 93 77 26 3d
       0.09030649 0.1703022 -0.045158148 0.04064138
0000b0 b8 97 2d be ee f2 9b 3d 6e 03 1a be 44 83 1e be
       -0.16952407 0.076146945 -0.15040371 -0.15479761
0000c0 2a d7 1f 3e 81 d1 4a bd 67 0c 3f bc 32 c6 9c 3d
       0.15609422 -0.049516205 -0.011660672 0.0765499
0000d0 a6 cc 99 bb 6d 0c 55 3e 73 50 3e 3c 59 88 a0 bc
       -0.0046935854 0.20805521 0.01161586 -0.019596266
0000e0 b2 fc 47 3e 93 88 03 3e 3d 4f 3e be c7 1f 7c 3e
       0.1952999 0.12845068 -0.18584915 0.24621497
0000f0 b3 e9 19 3e bb ad 68 3e f0 78 3d 3d f1 ae 40 3b
       0.15030555 0.22722523 0.046257913 0.0029401148
000100 73 c0 67 be a2 73 ba 3d 3b 25 38 3c 05 df a5 bd
       -0.22632007 0.091040865 0.011239345 -0.08099178
000110 d4 5a 6a be 2b 54 65 3e 3b 97 67 3e 20 a1 5d be
       -0.2288621 0.22395389 0.22616284 -0.21643496
000120 7b b5 1a 3e 13 b9 52 3e 4a 97 5c be 68 66 73 be
       0.15108292 0.20578413 -0.21542087 -0.23769534
000130 fd de be bd ff 84 0e be e4 d2 96 3c 54 18 26 3e
       -0.093198754 -0.13917921 0.018411107 0.16220218
000140 af 8e 65 be d4 d2 30 3e cf 64 53 be 1b d4 88 bd
       -0.2241771 0.17267925 -0.20643924 -0.06681081
000150 7a 9a 67 be 97 34 e6 3d 27 31 82 3d c8 32 1b 3b
       -0.22617522 0.112404995 0.06357031 0.002368139
000160 76 d9 85 bd 28 81 2e 3e 05 00 05 be b4 ad 04 be
       -0.06535618 0.17041457 -0.12988289 -0.12956887
000170 dd 1e 46 be 8c 75 76 be 6b b1 b3 bd 98 02 46 be
       -0.19347711 -0.24068278 -0.08774074 -0.19336927
000180 ff bd 30 3e 39 c6 bf bd ad 7b 10 3e 6b c5 ad bd
       0.17259978 -0.0936398 0.14109679 -0.0848492
000190 43 f3 15 be 13 11 ea 3d 37 68 5b 3e ff 2c d5 bd
       -0.14643578 0.11429038 0.21426474 -0.10408973
0001a0 ce e9 09 3e f2 4d 03 3e 98 f7 63 3e bd a6 65 bb
       0.13468096 0.12822703 0.22262418 -0.003504201
0001b0 98 65 04 3e bf 90 e5 bd 46 d0 9d 3c 65 ea 98 bc
       0.1292938 -0.11209249 0.019264352 -0.018666456
0001c0 23 26 00 3e fc 7d e7 3d ea bc 53 be 15 47 d2 bd
       0.12514548 0.113033265 -0.20677534 -0.10267464
0001d0 4a c4 2c 3e 60 86 18 be 1d f5 d2 3d e8 bb ec 3d
       0.16871753 -0.1489501 0.10300658 0.11559278
0001e0 ec e2 dc bb 56 ea 58 be 96 60 d3 bd 58 51 fc bd
       -0.0067409184 -0.21183142 -0.10321157 -0.123202026
0001f0 d8 b8 a8 bd 87 f9 66 bd 96 b9 d3 bd 8b 47 43 3e
       -0.08238381 -0.05639031 -0.10338132 0.1907026
000200 54 49 66 3d 46 46 40 be 3f 94 11 3e a0 e9 44 be
       0.056222275 -0.18776807 0.14216708 -0.19229746
000210 e1 37 fb 3d 91 36 a0 bd 3d 20 6b be 7d 6a 00 bc
       0.122665174 -0.07822908 -0.22961517 -0.007837889
000220 c8 9c 3d 3e 97 02 63 be 3f 46 c4 3d 9f ee 6f bd
       0.18516839 -0.22168957 0.09583711 -0.058577176
000230 9e e6 bd bd 5d d0 1a 3e b3 7e 30 be 02 be 6a 3e
       -0.09272502 0.15118547 -0.17235832 0.22924045
000240 a3 99 2f 3e 31 46 b8 3d 49 22 69 be 4c 72 87 bd
       0.17148452 0.08997763 -0.22766985 -0.06613597
000250 31 66 0a bd ac e4 44 3e 10 9d 43 bd 04 17 42 be
       -0.033788864 0.19227856 -0.04775721 -0.18954092
000260 af 1f 7d bd 56 04 cf 3d f8 97 10 bd db d9 df bd
       -0.061797794 0.10108249 -0.03530118 -0.109302245
000270 cc 1e 05 3e e0 79 4a be 6f 0f 19 be d3 1d 6a 3d
       0.1300003 -0.19773054 -0.14947294 0.05715735
000280 f5 4b af bd c1 96 8d bc 50 ea d4 3b 89 70 4e 3e
       -0.085594095 -0.0172838 0.006497659 0.20160116
000290 ef ff b1 bd 23 35 14 3e 91 49 33 3b 43 bf ac bc
       -0.086913936 0.14473395 0.0027357081 -0.021087294
0002a0 d2 06 17 3e 62 02 c3 3d 3e d9 05 be 4c fc 69 3e
       0.14748695 0.09521939 -0.13071153 0.2285015
0002b0 aa 3a f1 3d e6 c9 c9 3d 81 1e fb 3d 80 ae 42 3e
       0.117787674 0.09852962 0.122616775 0.19011879
0002c0 57 e4 3a be c4 32 26 3c c0 17 c3 3c 8a 42 15 be
       -0.18251167 0.010143939 0.023815036 -0.14576164
0002d0 86 ca 88 bd a8 bc ef bd 38 16 2e 3e ba a0 0f 3e
       -0.06679253 -0.11705905 0.17000663 0.14026156
0002e0 8f 01 e7 3d 79 1e 6e 3e 4f 1e e6 bd 32 fe c5 3b
       0.11279594 0.23253812 -0.1123625 0.0060422653
0002f0 71 14 97 bd 9f cd e9 bd e4 78 76 bd ba ab 13 3e
       -0.07376946 -0.11416172 -0.060173884 0.14420977
000300 48 5c 1f 3e 3e 2d 10 3e 15 cf ac bd 23 ab 08 3e
       0.15562546 0.14079759 -0.08437935 0.13346533
000310 50 79 c2 3d 5c 47 67 3e 3e 43 26 3e dc ba 55 be
       0.09495795 0.22585815 0.16236588 -0.20872062
000320 ba 50 57 3e 74 9a da bd 18 fb 59 3e e9 50 e4 bd
       0.21026888 -0.10673991 0.21287191 -0.11148245
000330 07 86 d1 bc d2 ac 21 3e a7 1f 84 3c df f3 fa bd
       -0.025576605 0.15788582 0.016128374 -0.12253546
000340 5c 8f 29 3e d3 03 1b 3e 6f c7 27 3b fd a2 07 be
       0.16558594 0.15138178 0.002560105 -0.13245769
000350 bb 14 9f 3d aa 20 19 3d a4 91 ac 3d 8b b2 33 3e
       0.07767626 0.037384667 0.08426216 0.17548577
000360 cf d9 69 be 6c e2 10 bd 4f 00 36 be a1 ed 2a 3e
       -0.22836994 -0.035372183 -0.17773555 0.1669221
000370 3a 36 37 3e 19 e4 bb 3d ea 56 7d 3d 17 6d ee bd
       0.1789178 0.091743656 0.061850466 -0.11641901
000380 c8 c8 cf bc e8 88 85 3d 02 52 3c be 6f 41 48 3e
       -0.025364295 0.065202534 -0.18390658 0.19556211
000390 b5 df 03 3e 90 63 08 be 37 b4 ce bd 5c 2e 83 bd
       0.12878306 -0.1331923 -0.10092967 -0.06405327
0003a0 8d f5 17 3e 35 be 2e bd e4 3b 01 bd d2 43 0d be
       0.14839764 -0.042661864 -0.031551257 -0.13795403
0003b0 19 d7 ca bd 11 df f4 3c 8d 1f 3f 3d b6 54 7c bd
       -0.09904308 0.029891523 0.04666095 -0.061604224
0003c0 cb 3f 02 3e 34 c6 5f 3e 45 b9 53 be 39 d9 a6 bd
       0.12719648 0.21852952 -0.20676143 -0.08146901
0003d0 a0 3d 50 3e 30 2a ce bd 69 4e 51 3c 81 a2 0a be
       0.20336008 -0.100666404 0.012775042 -0.13538553
0003e0 3a e5 12 3e b4 08 34 be 1f 0f d8 3d 9a 29 40 3e
       0.14345255 -0.17581445 0.10549759 0.1876587
0003f0 6b 42 f7 bd ba a7 93 3d 9b bd 18 be d4 05 4a 3e
       -0.12073215 0.07209726 -0.14916079 0.19728786

sequential_5/conv2d_28/Conv2D f4 [6, 3, 3, 6]
000000 5e 5f f4 bd 15 8d 8e 3d 1c d7 85 bd 4b b2 14 bd
       -0.11932252 0.06960503 -0.065351695 -0.036302846
000010 5a ef 31 3e 6a b5 85 bb 20 39 64 be 88 2f b5 bd
       0.17376462 -0.004080464 -0.22287416 -0.088469565
000020 a5 b5 13 3e f3 c5 c8 bc f3 6d 89 3b 7a 21 5d 3d
       0.1442476 -0.024508452 0.004194015 0.053987004
000030 6e 14 57 3e 5c b3 5b 3e 4b 3c 88 3d e9 07 28 3e
       0.21003887 0.21455139 0.06652125 0.16409267
000040 dc 00 23 bc 3d 56 37 3c 00 a9 86 bd 94 0f 31 be
       -0.009948935 0.011189994 -0.06575203 -0.17291099
000050 1d b8 f4 bb aa 8e 39 be d0 37 2a 3d 44 63 e7 bb
       -0.007468237 -0.18120828 0.041557133 -0.007061394
000060 63 cb 03 3e 05 8b 34 3d e6 7d 23 3d fa 13 35 be
       0.12870555 0.04407789 0.039914988 -0.17683402
000070 0a 80 94 bd 3e be 0d 3d 34 e3 5e 3e e3 d4 3e 3e
       -0.07250984 0.034605257 0.21766359 0.18635897
000080 8e ee 4a be 67 e5 62 3d 4f d7 56 3e 06 f1 0b be
       -0.19817564 0.055394556 0.20980571 -0.13666162
000090 dc d6 f2 bd 68 60 96 bc d0 d2 d6 3c 98 48 c4 bc
       -0.118573874 -0.018356517 0.02622357 -0.023960397
0000a0 4c ae 01 bb 8e a5 5c bd 67 e3 27 3e fb 2d 65 3e
       -0.0019787727 -0.053868823 0.16395341 0.22380821
0000b0 23 28 37 be 0a f0 b3 3d fa 4e 6f be 28 27 c6 3d
       -0.17886405 0.08786018 -0.23369971 0.09675437
0000c0 50 5e e1 3d 03 09 13 3d bf 82 ad 3d 46 1f 54 be
       0.11004317 0.035897266 0.084722035 -0.20715055
0000d0 a1 73 29 3c d2 8f bc 3c b6 12 ce 3c 0a 8e 5b be
       0.0103425095 0.023017798 0.025155406 -0.21440902
0000e0 27 43 6e 3e 2f d2 29 be d7 60 1e be 70 5b fc 3c
       0.23267804 -0.16584085 -0.15466629 0.03080532
0000f0 72 10 c3 3d ae fa d8 3d bb dc 37 be 74 e1 a7 3d
       0.09524621 0.10594688 -0.17955296 0.08197299
000100 5d 58 34 be 1e dc 4c be fb 22 46 be e2 d5 10 3e
       -0.17611833 -0.20005843 -0.19349281 0.1414409
000110 2d 23 29 bd ee 86 dc bd 4f ce cd bd df 5c a9 3d
       -0.041293312 -0.10767923 -0.10049116 0.08269667
000120 e9 1b 87 3c de 3f 33 3e 9b 0b b1 bd 99 c9 2d be
       0.0164928 0.17504832 -0.08644792 -0.16971435
000130 98 ab 6f 3d c4 b1 40 bb ed 0e 57 3e 01 27 52 3e
       0.058513254 -0.0029402832 0.21001787 0.20522691
000140 61 ea a5 bd 0b f6 0d 3e 83 d6 25 be 15 2d 00 bd
       -0.08101345 0.13863389 -0.16195111 -0.031292994
000150 e9 ab ce bd 2f bf 8a bd cb 35 65 be fe ed d4 3d
       -0.10091383 -0.067747466 -0.22383802 0.10396956
000160 37 73 5f be 7f 0d 21 3d 39 88 23 be 4b 10 d1 bd
       -0.21821295 0.03931951 -0.15969934 -0.10208186
000170 55 23 68 3e e6 66 db bd 65 ee b1 3d 25 8f d4 3d
       0.22669728 -0.10712986 0.08688048 0.10378865
000180 bc b5 e6 bd 86 0a 03 be 05 22 0a 3e af 60 1b be
       -0.11265132 -0.12796983 0.1348954 -0.151736
000190 5c 71 3e bd 73 cd f8 bd 7c 23 7a bd 04 0c 0d be
       -0.046494827 -0.12148561 -0.061068997 -0.13774115
0001a0 54 83 69 3d 0e 9a 37 bd ae 5b 39 3e 03 16 88 3d
       0.05701001 -0.044824652 0.1810138 0.066448234
0001b0 ad 62 32 bd 68 31 0e 3d 9a ab 74 3c d6 40 35 3e
       -0.043551136 0.034715086 0.014933491 0.17700514
0001c0 29 ca f0 3d 92 aa 3c be a8 73 65 be 08 78 67 3e
       0.11757309 -0.18424442 -0.224074 0.22604382
0001d0 3b ac ab 3d 96 68 3b 3e df 71 b3 bc 07 11 01 3e
       0.0838246 0.18301615 -0.021904884 0.12604152
0001e0 48 8d 57 be df 17 e2 3d c2 30 80 bd 76 f3 56 bd
       -0.21049988 0.11039709 -0.062593 -0.052478276
0001f0 58 41 8f bc f2 d5 12 be e7 af 8b 3c 4c 40 83 bd
       -0.017487213 -0.14339426 0.01705165 -0.06408748
000200 4c 6f d3 bc 1e 0f 3e 3e 9d 5e 65 bd eb 12 57 be
       -0.025809906 0.18560454 -0.055998433 -0.2100331
000210 ed a3 a2 3d 73 1d 1d be 3a b8 16 be 2f cb 5c be
       0.079414226 -0.15343265 -0.14718714 -0.21561883
000220 66 9f f3 3d 56 e1 28 be 66 fa af bd 1d b9 61 3d
       0.11895637 -0.16492209 -0.085926816 0.05510818
000230 23 6e a9 bd 66 e4 39 3e 55 da 48 be d4 c5 ce 3d
       -0.0827296 0.18153533 -0.19614537 0.100963265
000240 42 ae b4 bd 96 cd ae bd 74 7c 64 3e 90 21 40 3d
       -0.088222995 -0.08535306 0.223131 0.046907008
000250 0c 26 4d 3e 09 13 18 bd 3c bf f2 3d e9 d5 48 bd
       0.20034045 -0.03712753 0.11852881 -0.049032126
000260 4a f3 c4 bd c3 aa 33 3e 7d ca 2d 3e a1 77 47 3e
       -0.09616716 0.17545609 0.16971774 0.19479229
000270 4f 04 3c 3e 6e c0 5a 3e fd 2b 5e bd 1d cb 56 be
       0.18361019 0.21362469 -0.05424117 -0.20975919
000280 8e 0a 7d 3d e9 35 5c be ab 9a b6 bd 6e bc 10 be
       0.061777644 -0.2150494 -0.08916219 -0.1413438
000290 b3 f2 3d 3d 43 06 59 3e d4 aa c6 bc a1 08 f0 3d
       0.046374034 0.21193795 -0.02425138 0.11720396
0002a0 45 e6 17 3e 1c de 87 bd ac ac 12 3d d9 85 81 bd
       0.14833935 -0.06634161 0.035809204 -0.063243575
0002b0 d1 c9 ec 3d af f5 c6 bd 5b 55 5c be cf 1b 4e 3e
       0.11561931 -0.09714829 -0.21516936 0.20127796
0002c0 97 83 0f 3d 8d fe 63 3e 77 b2 cd 3d 2d ab 9a bd
       0.035037603 0.22265072 0.10043805 -0.075521804
0002d0 2a c2 28 3e c7 ca 05 3d 04 10 1f 3e f4 23 f7 bd
       0.16480318 0.032664087 0.15533453 -0.120674044
0002e0 2a a5 fb bd 13 71 4a bd d6 35 04 be be 81 c5 3d
       -0.12287362 -0.049424242 -0.12911162 0.09643887
0002f0 68 f0 fc 3d e3 d9 5e 3d 69 82 e0 bc dd 7b 36 3e
       0.12350541 0.05440701 -0.027405934 0.17820688
000300 c6 fd 3a bd 0e 8b c9 3c af 9a 25 3e bb e4 f0 3d
       -0.045652173 0.02460244 0.16172288 0.11762377
000310 cb 4f c4 3c c3 33 c1 3d fb a0 32 3d ac 8a 8a 3d
       0.02396383 0.09433701 0.043610554 0.06764731
000320 51 68 14 be 08 eb 14 be 97 d0 9e 3d 46 94 31 bd
       -0.14492919 -0.14542782 0.07754629 -0.043354295
000330 24 5b 33 3d e6 40 23 3d af ef 4d 3e 63 dd dd 3d
       0.04378809 0.039856814 0.20110963 0.10833242
000340 4b 29 07 be e0 df 6d 3e ec 28 a1 bd 2f 2a 97 bd
       -0.13199346 0.23229933 -0.07869133 -0.07381093
000350 6e 1d 23 be f6 2f f7 3d cf fa 9b bd 45 53 67 be
       -0.15929195 0.12069695 -0.07616197 -0.22590359
000360 44 76 32 3e 1d 91 ac 3c 1c d8 1f be cc 66 67 be
       0.17427927 0.02106529 -0.15609783 -0.22597808
000370 bf a0 e5 3d 35 56 67 be 32 1e 07 be 60 d1 ac 3d
       0.112123005 -0.22591479 -0.13195112 0.084383726
000380 5c b1 03 3e 6d 04 12 be 62 e1 cd 3c 2f 1c 78 3e
       0.12860626 -0.14259501 0.025131885 0.24229501
000390 58 84 3b bc d7 04 11 3e 8e 7a 41 3e 11 e5 6a 3c
       -0.011445127 0.14162003 0.18894407 0.01433684
0003a0 8b 71 05 be e6 57 ba 3a 53 50 d3 3d 9b 10 7c bd
       -0.13031594 0.001421687 0.10318055 -0.061539274
0003b0 df a9 ff bc 3a 9e 2d be 3f cb 2f 3e 8b 64 54 3e
       -0.03120893 -0.1695489 0.17167376 0.20741479
0003c0 58 a5 97 bd db cb 14 bd ca 2b b4 bd a5 77 19 3e
       -0.07404584 -0.036327224 -0.087974146 0.14987047
0003d0 60 af c0 3d bf 77 5b 3d 99 48 71 bd 19 54 bf bd
       0.0940845 0.053580996 -0.058907125 -0.09342212
0003e0 4d 16 6b 3d ff ab 42 bc 1b 0d 5e 3d 3b 1d b4 3a
       0.057394315 -0.011881827 0.054211717 0.0013741622
0003f0 6d 2c 5c 3e b7 50 56 3e 65 83 03 3e d6 ed 45 3d
       0.21501322 0.20929228 0.12843092 0.04832252

sequential_5/conv2d_29/Conv2D f4 [6, 3, 3, 6]
000000 66 0c 21 3e 3e 3a 90 3c 62 6b 72 be a4 17 26 bc
       0.15727386 0.017605897 -0.23673776 -0.010137472
000010 e7 de 4c be 8c d1 c3 bc c9 95 cc 3d 52 2f 9f bd
       -0.20006905 -0.02390363 0.09989507 -0.077726975
000020 c0 a1 fb 3d 7b 28 e9 3d f9 3a cf 3d e5 53 18 be
       0.12286711 0.11384674 0.1011867 -0.14875753
000030 d7 5e 55 3e 43 41 1a be ea f2 21 be 8b 8a 2e bd
       0.2083696 -0.15063958 -0.1581532 -0.042612594
000040 da 2c 6a 3e c7 27 2a 3d 54 01 27 3e 58 39 21 be
       0.22868672 0.04154184 0.163091 -0.15744531
000050 54 00 6f be 87 8a 0b 3c 6a db 1f bd c4 cf 64 be
       -0.23339969 0.008516914 -0.03902761 -0.22344881
000060 0c 53 22 bd 25 80 63 bd 85 9f 52 be a3 81 82 3d
       -0.03962998 -0.05554213 -0.20568664 0.063723825
000070 30 e9 59 be 1f 41 d6 bd 59 13 5e 3e fb 71 5c 3e
       -0.2128036 -0.104616396 0.21687068 0.21527855
000080 f9 e3 65 3e 34 82 1a be 67 ab 53 3e cc 7e 27 bc
       0.22450246 -0.15088731 0.20670854 -0.010223102
000090 f5 ae 17 be 92 b9 a6 3d 71 57 3c 3e 66 f8 b9 3d
       -0.14812835 0.081408635 0.18392731 0.09080581
0000a0 6c 17 d9 bd 54 ae c7 bc 95 be 6e be ff c9 05 3d
       -0.106001705 -0.024375118 -0.23314889 0.03266334
0000b0 24 ea 70 be 83 ce 3d 3e c4 ef d5 bd ef b7 e4 3d
       -0.23526818 0.18535809 -0.10446122 0.11167895
0000c0 02 6f b8 3c fe d3 62 3e b6 90 80 3d 4d 35 65 3e
       0.02251387 0.22151181 0.062776014 0.22383614
0000d0 ac 09 2a 3e cb 2c d1 bc 8f f1 06 be ac ce 9a bd
       0.16605252 -0.025534054 -0.13178085 -0.07558951
0000e0 f3 a6 41 be e0 81 a8 bd ae 0b de bd b2 04 28 3e
       -0.18911342 -0.08227897 -0.108420715 0.16408041
0000f0 c6 0e 2c be 12 85 2e be d4 d1 d6 bc f6 5a 77 bd
       -0.1680251 -0.1704295 -0.0262231 -0.06038948
000100 0f e1 cd bd 55 79 0d be d7 e3 40 be 83 8b 7f 3c
       -0.10052692 -0.13815816 -0.18836914 0.015597227
000110 76 93 3d 3e e3 24 dc 3d a8 89 cd bd b9 48 4b bd
       0.18513283 0.10749223 -0.100360215 -0.0496299
000120 9f 4d 28 bd b5 23 15 3e 28 d1 08 3e 13 e4 73 3e
       -0.04108965 0.14564402 0.13361037 0.23817472
000130 e2 32 a9 bd 4b 79 df bd 09 01 01 3e cb db 80 3c
       -0.08261658 -0.10911807 0.12598051 0.015729805
000140 c3 24 3c be c1 5c 56 be 84 f4 ba bd d7 27 f1 bc
       -0.18373398 -0.2093382 -0.09128669 -0.029437942
000150 78 84 2b 3e 31 06 df 3c c2 7a 4c be 6e 04 31 3d
       0.16749752 0.027224632 -0.19968703 0.043217115
000160 96 7f 22 be 5c d1 c8 3d 52 fa cf 3d aa 26 96 3d
       -0.15868983 0.09805557 0.10155167 0.07331593
000170 2f 23 a6 bd af 1b 5c 3e 3e b9 3e bd 25 e6 16 bc
       -0.081121795 0.21494935 -0.04656338 -0.009210144
000180 f3 7b 0a be 52 93 44 3e 04 6d 06 be 6c 19 38 bd
       -0.13523845 0.19196823 -0.13127524 -0.04494612
000190 59 75 1b 3e c7 c7 03 3e b9 37 51 be 7b 5c 1c 3e
       0.15181483 0.12869178 -0.20431413 0.15269653
0001a0 68 79 5e be a6 35 4a ba c0 35 28 3e aa 3c 0c ba
       -0.21726 -0.0007713683 0.16426754 -0.0005349616
0001b0 1c 02 69 3e 50 5d 2b 3e 3b 9a 04 3e 0b ae 6d be
       0.22754711 0.16734815 0.12949459 -0.23210923
0001c0 c2 b0 7e bd 11 7b 56 3e b0 92 f5 bc 0e 38 b7 bd
       -0.062180288 0.20945384 -0.029977173 -0.089462385
0001d0 c2 0b fc 3a 31 ea de bd 0b d0 b4 3d a3 15 70 3e
       0.0019229578 -0.10884512 0.088287435 0.23445754
0001e0 ab 9c 02 3e 22 36 44 3e 95 d1 e3 3d 0c 8d 57 3d
       0.12755077 0.19161275 0.11123959 0.052624747
0001f0 8d 66 48 3e dc e3 2a be fd 98 f4 3d df 0f 44 3e
       0.1957037 -0.16688484 0.11943243 0.1914668
000200 44 bd 3e 3e 4a 1d 92 bc 52 ee 96 bd 6a 0a 5c 3e
       0.18626887 -0.017836232 -0.07369675 0.21488348
000210 90 4a 7c bd cb e9 79 3d f0 fb 44 be ef c8 84 bd
       -0.061594546 0.061013978 -0.19236732 -0.064836375
000220 f7 7c 4b 3d b3 78 ed 3c ab 4d 93 bd 07 17 0b be
       0.049679723 0.028988218 -0.07192548 -0.13583003
000230 3a 0b 58 3e dd 31 54 3e 06 26 81 bd 83 bf 98 bd
       0.21098033 0.20722146 -0.063060805 -0.07458403
000240 5e 3e 24 3d d0 97 7e 3e 02 8d 03 3e c9 2c 43 3e
       0.04009854 0.248626 0.12846759 0.19060053
000250 f8 af b3 3d d6 6b 72 3d f6 81 8c b9 df 3a 9e bd
       0.08773798 0.05918487 -0.0002679971 -0.077260725
000260 96 dc 6d be 93 f9 21 be eb 53 b4 3d a9 34 ae 3d
       -0.23228678 -0.15817861 0.088050686 0.08506138
000270 8a e2 63 3e 16 75 07 be ab 14 17 3e 8d 75 34 3e
       0.22254387 -0.13228258 0.14753978 0.17622967
000280 4e de 0f 3d f1 dd 28 3e b7 44 63 3d 52 c2 31 3d
       0.035124116 0.16490914 0.055485453 0.04339821
000290 ca 7c 85 3d 56 5a 83 bd b5 f9 17 be 6d 72 6c be
       0.06517942 -0.064137146 -0.1484135 -0.23090525
0002a0 ab ed e3 bb 67 43 2b 3d 9d db 7c bd ba 0b 5a 3e
       -0.0069558225 0.041812327 -0.061732877 0.21293536
0002b0 bc e1 09 3e c7 7f e1 bd d2 de 67 be c3 55 0c bd
       0.13465017 -0.110107 -0.22643593 -0.034261476
0002c0 33 8f 70 be 41 36 42 be 85 92 04 3e 6c fc ab 3c
       -0.23492126 -0.18966009 0.12946518 0.020994388
0002d0 7b 92 0a 3d 30 5b d5 3d 16 3b 32 3e 4b c9 47 bc
       0.0338311 0.10417783 0.17405352 -0.012193988
0002e0 09 b2 3a 3e 57 eb 57 3d 26 cc 77 3e fb db c9 3c
       0.18231978 0.052714672 0.2419897 0.024641028
0002f0 61 23 dc 3c 96 5a 54 be 18 54 3b 3e bd 21 b5 bc
       0.026872339 -0.20737681 0.18293798 -0.022110814
000300 d1 9e 19 be 8c 76 fe bc 47 81 13 be 95 12 7d 3d
       -0.1500199 -0.031062387 -0.14404784 0.0617853
000310 ca 55 10 be 33 f8 c2 bd cb 2e 10 be 83 04 bf bd
       -0.14095226 -0.095199965 -0.1408035 -0.093270324
000320 1c 1d 53 be 23 7d 5d be f9 8e 5e be fd 5e 01 be
       -0.20616573 -0.21629767 -0.21734227 -0.12633891
000330 5c f5 68 bd fa 1f c7 3d 95 26 bf 3d 88 8d 31 3e
       -0.056874618 0.09722896 0.09333531 0.17339146
000340 4c 61 52 be a8 7d 30 3e 74 1f f0 3c 83 b7 4c be
       -0.20544928 0.17235434 0.029311873 -0.19991879
000350 38 af 41 3e cb 75 c7 bd 74 57 d0 bc a0 bb 1d bd
       0.18914497 -0.09739264 -0.025432326 -0.03850901
000360 3b 14 f4 bb 4e 66 fa bd 9a 91 23 3d 63 6c 36 be
       -0.0074487007 -0.12226544 0.03993378 -0.17814784
000370 73 50 06 3e f1 0d 3d 3e 12 e9 b8 bd 1d 8a 06 3e
       0.13116626 0.1846235 -0.0902883 0.13138624
000380 ce 1b 4f be 26 eb 23 3e bb a8 47 be c6 42 6c be
       -0.2022545 0.16007671 -0.1949796 -0.23072347
000390 4b 8d 93 3d 78 a8 4b be d7 5e 84 bd 78 2a 45 be
       0.07204684 -0.19888484 -0.06463402 -0.19254482
0003a0 f9 76 04 bd da d3 53 3e 4c 57 94 bd 87 af 36 be
       -0.032340024 0.20686284 -0.07243213 -0.17840396
0003b0 8e 4a ca 3d 64 c1 63 3e fc c8 07 be 4d 16 3b 3e
       0.098775014 0.22241741 -0.13260263 0.18270226
0003c0 f5 21 6c 3e cc 5c 71 3e 3f 0d 34 be 2c 49 76 3e
       0.23059829 0.23570555 -0.17583178 0.2405135
0003d0 e8 78 37 3e 43 e7 09 be 24 16 3f be c4 1f 56 3d
       0.17917216 -0.13467126 -0.1866079 0.052276388
0003e0 73 5b ab bd 90 b3 2c bd ca 46 2a 3e a7 91 62 be
       -0.08367052 -0.04216343 0.16628566 -0.22125874
0003f0 1f d0 57 be 62 3d 5a 3e 1b 07 cc bd 5c d0 55 3d
       -0.21075486 0.21312478 -0.09962293 0.05220066

sequential_5/dense_11/BiasAdd/ReadVariableOp f4 [7]
000000 4c a7 75 bc 98 34 24 3b 16 76 8f 3b 37 f9 51 39
       -0.0149935 0.0025055762 0.0043780906 0.00020024633
000010 0d 93 d7 3a 58 ca 08 bb 2e ba 21 bb
       0.0016447023 -0.002087256 -0.0024677622

sequential_5/dense_10/BiasAdd/ReadVariableOp f4 [64]
000000 83 41 b7 bb b0 36 63 3a b1 3c 0c bc 09 2f ae ba
       -0.0055925264 0.0008667512 -0.008559392 -0.0013289164
000010 df 51 b2 ba 6a a7 45 bb 4c 09 c3 ba de 0f e2 ba
       -0.0013604722 -0.00301596 -0.001488009 -0.001724716
000020 02 e6 08 bc ea 94 2b 38 5a 95 af ba 4f 7c 84 bb
       -0.008355619 4.0908264e-05 -0.0013395951 -0.004043139
000030 c3 82 23 bb b0 e9 4d bb e5 e3 24 bb fa 1f 31 ba
       -0.0024949766 -0.0031419806 -0.002516025 -0.0006756779
000040 53 60 34 bb 9c 2a 9f b9 7e b9 08 bb 67 e5 a1 3a
       -0.0027523234 -0.0003035859 -0.0020862515 0.0012351692
000050 bf 3f e0 ba 64 b1 29 bb 9d a3 89 ba f4 53 08 bc
       -0.0017108842 -0.0025893087 -0.0010501031 -0.008320797
000060 d3 c8 25 bb c4 6d 65 bb f8 7e 4a ba 1e c3 a1 bb
       -0.0025296703 -0.0035008052 -0.00077246083 -0.00493659
000070 d9 93 cb bb 74 6c 32 ba 3e ae c0 b9 9b 9b 80 bb
       -0.006212693 -0.0006806322 -0.00036750914 -0.0039247996
000080 b1 c2 ad ba 5e 13 80 bb 52 37 f9 ba d3 89 9e ba
       -0.0013256875 -0.0039085587 -0.0019013679 -0.0012095518
000090 59 f6 1c b9 0a 7f 85 38 4c 03 6c bb 16 21 52 ba
       -0.00014969091 6.365597e-05 -0.0036012707 -0.00080157944
0000a0 bc fb 85 3b 55 06 ea 3a f0 ea b1 bb f0 17 0f bb
       0.004088847 0.001785467 -0.005429618 -0.0021834336
0000b0 4a 98 0b 3b ab c2 56 39 5d 76 83 3b 17 c3 13 bb
       0.0021300488 0.0002048115 0.0040119127 -0.0022546703
0000c0 fe 12 ea bb 2c ee f3 b9 ec 4b a6 bb c2 28 57 3a
       -0.0071433773 -0.00046526024 -0.0050749686 0.00082076725
0000d0 ca 26 e6 ba a8 2f 2d 3b f7 1f 08 ba d4 1a 93 ba
       -0.0017559167 0.002642611 -0.00051927514 -0.0011223205
0000e0 f8 e4 c1 3a 6c b3 2d bb 5f 75 ce 39 ef 59 b2 3b
       0.001479297 -0.002650465 0.0003937883 0.00544285
0000f0 70 60 f7 bb 79 2d 86 bb ca 83 c8 39 fe 4c 0a 3b
       -0.007549338 -0.004094776 0.00038245163 0.002110302

sequential_5/batch_normalization_25/FusedBatchNormV3 f4 [6]
000000 9f 9c a9 3c c8 07 2e 3c c5 e9 f1 3d 0b 7a a7 3d
       0.020704566 0.010621972 0.11812166 0.08177575
000010 82 53 93 3c b9 6f c5 3c
       0.017984156 0.024101125

sequential_5/batch_normalization_25/FusedBatchNormV31 f4 [6]
000000 fe e4 13 bf 0c 40 09 bf 62 36 5b bf ca 56 89 bf
       -0.5777129 -0.5361335 -0.85629857 -1.0729611
000010 8a d6 1e bf 40 b1 4f bf
       -0.6204611 -0.8112984

sequential_5/batch_normalization_26/FusedBatchNormV3 f4 [6]
000000 24 15 69 40 a2 81 8f 3f e9 4d a5 3f ef a1 c0 3f
       3.6419153 1.1211436 1.2914401 1.5049418
000010 b9 17 a8 3f f3 c2 21 40
       1.313224 2.5275238

sequential_5/batch_normalization_26/FusedBatchNormV31 f4 [6]
000000 96 97 73 bf ba ff 13 bf 86 cf 39 bf e2 3a 26 bf
       -0.95153177 -0.5781208 -0.7258228 -0.649336
000010 dc b4 25 bf c3 14 a9 bf
       -0.64729095 -1.3209461

sequential_5/batch_normalization_27/FusedBatchNormV3 f4 [6]
000000 cc b9 aa 3f 4f 2e b2 3f 28 60 0b 40 27 5b 20 3f
       1.3337951 1.3920382 2.177744 0.6263909
000010 f4 11 05 40 5c a0 0a 40
       2.0792208 2.1660376

sequential_5/batch_normalization_27/FusedBatchNormV31 f4 [6]
000000 6d 1a 5e bf 45 9b 3b bf eb 5c b9 bf 96 a2 e5 be
       -0.8675907 -0.732838 -1.4481481 -0.44850606
000010 55 3b 9d bf 6d cc 73 bf
       -1.2283732 -0.95233804

sequential_5/batch_normalization_28/FusedBatchNormV3 f4 [6]
000000 e6 a4 a3 3f 49 e0 19 40 56 04 b1 3f 0b f0 b5 3f
       1.2784698 2.4043143 1.3829448 1.421388
000010 66 e9 94 3f 90 b3 d4 3f
       1.1633728 1.6617298

sequential_5/batch_normalization_28/FusedBatchNormV31 f4 [6]
000000 1b 4d 1a bf ef 19 b2 bf b2 cb 14 bf 9c 4e 28 bf
       -0.60273904 -1.3914164 -0.58123314 -0.6574495
000010 f4 4f 54 bf 54 fb 6d bf
       -0.829345 -0.9296162

sequential_5/batch_normalization_29/FusedBatchNormV3 f4 [6]
000000 55 45 8c 3f 5c df 07 40 85 b3 36 3f bb df 34 40
       1.0958658 2.1230078 0.71367675 2.8261554
000010 ca 93 1f 40 f1 ab a7 3f
       2.4933953 1.3099347

sequential_5/batch_normalization_29/FusedBatchNormV31 f4 [6]
000000 18 8a 26 bf 00 ac 9d bf bc d4 02 bf 82 f5 94 bf
       -0.65054464 -1.2318115 -0.51105857 -1.1637423
000010 de 0e 9c bf 28 89 2a bf
       -1.2192037 -0.66615534

sequential_5/dense_10/MatMul i1 [64, 10140] scale=0.00034188482 zero_point=0
000000 08 18 37 dc ea 02 2c 1b d1 dc 1e a9 17 42 1c 0a
       0.0027350786 0.008205236 0.018803665 -0.012307853 -0.007521466 0.00068376964 0.015042932 0.00923089 -0.016068587 -0.012307853 0.010256545 -0.029743979 0.007863351 0.022564398 0.009572775 0.0034188482
000010 fb e2 2c 1f e4 3b 05 be de f2 fa 31 f9 cb 1f d1
       -0.0017094241 -0.010256545 0.015042932 0.0105984295 -0.009572775 0.020171205 0.0017094241 -0.022564398 -0.011624084 -0.0047863876 -0.002051309 0.016752357 -0.0023931938 -0.018119896 0.0105984295 -0.016068587
000020 17 0f 44 c6 66 3c 0d 02 2f f9 fd ee 09 ed e8 e3
       0.007863351 0.0051282723 0.023248168 -0.01982932 0.034872252 0.02051309 0.0044445028 0.00068376964 0.016068587 -0.0023931938 -0.0010256545 -0.0061539267 0.0030769634 -0.0064958115 -0.008205236 -0.00991466
000030 da d9 e9 3e 2f b9 e7 c6 f6 f6 e5 ec d1 2e d4 22
       -0.012991623 -0.013333508 -0.007863351 0.021196859 0.016068587 -0.024273822 -0.008547121 -0.01982932 -0.0034188482 -0.0034188482 -0.00923089 -0.0068376963 -0.016068587 0.015726702 -0.015042932 0.011624084
000040 2a 40 d8 08 2e ee 1f fb 1b f5 51 ef 9c d1 08 35
       0.014359162 0.021880629 -0.013675393 0.0027350786 0.015726702 -0.0061539267 0.0105984295 -0.0017094241 0.00923089 -0.003760733 0.02769267 -0.005812042 -0.034188483 -0.016068587 0.0027350786 0.018119896
000050 e4 02 24 25 f9 42 e4 ca 09 06 53 44 0f df 00 cd
       -0.009572775 0.00068376964 0.012307853 0.012649738 -0.0023931938 0.022564398 -0.009572775 -0.01846178 0.0030769634 0.002051309 0.02837644 0.023248168 0.0051282723 -0.011282199 0.0 -0.017436126
000060 05 1f 1e 17 4b f1 29 2f 00 fc 36 cd 14 d3 be 37
       0.0017094241 0.0105984295 0.010256545 0.007863351 0.025641361 -0.0051282723 0.014017277 0.016068587 0.0 -0.0013675393 0.01846178 -0.017436126 0.0068376963 -0.015384817 -0.022564398 0.018803665
000070 43 ea 51 e5 10 49 3a 14 56 be d9 ef 29 aa 49 e0
       0.022906283 -0.007521466 0.02769267 -0.00923089 0.005470157 0.024957592 0.01982932 0.0068376963 0.029402094 -0.022564398 -0.013333508 -0.005812042 0.014017277 -0.029402094 0.024957592 -0.010940314
000080 34 da 24 20 d6 cd d7 5f 03 30 f7 c9 f1 f5 c7 46
       0.017778011 -0.012991623 0.012307853 0.010940314 -0.014359162 -0.017436126 -0.014017277 0.03247906 0.0010256545 0.016410472 -0.0030769634 -0.018803665 -0.0051282723 -0.003760733 -0.019487435 0.023931937
000090 44 e1 35 4f ab fe ec 19 2d 34 da 3e ed cc 22 df
       0.023248168 -0.0105984295 0.018119896 0.0270089 -0.02906021 -0.00068376964 -0.0068376963 0.008547121 0.015384817 0.017778011 -0.012991623 0.021196859 -0.0064958115 -0.017778011 0.011624084 -0.011282199
0000a0 ff d8 d9 dd e1 f9 1d 03 e4 40 e5 20 5f 21 33 33
       -0.00034188482 -0.013675393 -0.013333508 -0.011965969 -0.0105984295 -0.0023931938 0.00991466 0.0010256545 -0.009572775 0.021880629 -0.00923089 0.010940314 0.03247906 0.011282199 0.017436126 0.017436126
0000b0 f8 38 1e 23 5f c6 c5 f2 64 e5 4f bb db 54 0b a7
       -0.0027350786 0.01914555 0.010256545 0.011965969 0.03247906 -0.01982932 -0.020171205 -0.0047863876 0.034188483 -0.00923089 0.0270089 -0.023590053 -0.012649738 0.028718324 0.003760733 -0.030427748
0000c0 41 de 9f 2d 19 b8 e4 08 0b e9 4b bb 14 b1 ba 45
       0.022222513 -0.011624084 -0.03316283 0.015384817 0.008547121 -0.024615707 -0.009572775 0.0027350786 0.003760733 -0.007863351 0.025641361 -0.023590053 0.0068376963 -0.0270089 -0.023931937 0.023590053
0000d0 fc df d3 cb c2 0a fd 1d 25 ff e9 2a cf f1 42 e5
       -0.0013675393 -0.011282199 -0.015384817 -0.018119896 -0.021196859 0.0034188482 -0.0010256545 0.00991466 0.012649738 -0.00034188482 -0.007863351 0.014359162 -0.016752357 -0.0051282723 0.022564398 -0.00923089
0000e0 4b 33 d5 02 fa fc 3d 10 d3 3b b6 f1 fd c8 3d 0b
       0.025641361 0.017436126 -0.014701047 0.00068376964 -0.002051309 -0.0013675393 0.020854974 0.005470157 -0.015384817 0.020171205 -0.025299476 -0.0051282723 -0.0010256545 -0.01914555 0.020854974 0.003760733
0000f0 1d b4 eb d9 ef c1 02 db df 3b 5e d0 e4 de c4 13
       0.00991466 -0.025983246 -0.007179581 -0.013333508 -0.005812042 -0.021538744 0.00068376964 -0.012649738 -0.011282199 0.020171205 0.032137174 -0.016410472 -0.009572775 -0.011624084 -0.02051309 0.0064958115
