saved_model/quantized_models/layers5/trial3/paramcount868295.tflite (tflite, 886256 bytes, 24 tensors)

sequential_7/dense_15/MatMul f4 [7, 64]
0	0xbd890973	-0.066912554
1	0x3d8d976b	0.06913646
2	0x3d1fb157	0.038987484
3	0xbe50e900	-0.20401382
4	0xbe49da6f	-0.19712232
5	0x3e289605	0.16463478
6	0x3e705dfb	0.2347335
7	0x3db9f21d	0.090793826
8	0x3dd933c1	0.106055744
9	0xbe3cd339	-0.1843995
10	0x3e35ea0e	0.17765066
11	0xbe988baf	-0.2979407
12	0xbe93d6cf	-0.28874823
13	0x3e815482	0.25259787
14	0x3e452902	0.19253924
15	0x3e090a37	0.13382803
16	0xbe222417	-0.1583408
17	0x3cdb2611	0.02675155
18	0xbe447742	-0.19186118
19	0x3e51b7fa	0.20480338
20	0x3e1f7ffe	0.15576169
21	0xbb853e95	-0.0040662983
22	0xbe8fad42	-0.28061873
23	0x3dd0a34a	0.10187395
24	0x3d950b3f	0.07277536
25	0xbe8fac7a	-0.28061277
26	0x3e02cf42	0.12774375
27	0x3dce0bf0	0.10060871
28	0xbdf486e0	-0.11939788
29	0xbe8abb7f	-0.27096173
30	0xbdbaa83b	-0.09114119
31	0xbd69fcb3	-0.05712576
32	0xbe36089f	-0.17776726
33	0xbe5844ca	-0.21119991
34	0x3d6d96b9	0.05800507
35	0xbe8baa58	-0.272784
36	0xbd8626a9	-0.065503426
37	0x3ba7fb1a	0.005126369
38	0x3dd735a2	0.105082765
39	0x3e5cdc40	0.21568394
40	0xbdaa7080	-0.08322239
41	0xbe969fce	-0.29418796
42	0xbe90be18	-0.2827003
43	0xbe815e5a	-0.25267297
44	0x3e8450b4	0.25842822
45	0x3e69edab	0.2284457
46	0xbdf1ac68	-0.11800462
47	0x3e62161e	0.2207875
48	0xbe83f6e5	-0.25774303
49	0x3d263520	0.040578008
50	0x3e28a45a	0.16468945
51	0x3c35b1d2	0.011089759
52	0x3db8eb0f	0.09029209
53	0xbe838f07	-0.2569506
54	0x3d277120	0.04087937
55	0xbdc9b72e	-0.09849392
56	0xbe0551d5	-0.13019498
57	0x3e1bb12f	0.15204309
58	0xbe32051b	-0.1738476
59	0xbe3c9c73	-0.18419056
60	0x3e8056e3	0.2506629
61	0xbe85f657	-0.26164505
62	0xbdbfa1a8	-0.09357005
63	0x3da537be	0.080672726
64	0xbc5ff6be	-0.013669668
65	0x3dbbbab9	0.09166474
66	0x3e79497e	0.24344441
67	0xbdd5dacf	-0.10442125
68	0xbe3353ff	-0.1751251
69	0x3d20e015	0.0392762
70	0xbd86c295	-0.06580082
71	0xbe46d54e	-0.19417307
72	0x3ceab78f	0.02865198
73	0xbe268a70	-0.16263747
74	0x3e8177ed	0.2528681
75	0xbdaa16a9	-0.08305103
76	0x3e014cae	0.12626907
77	0x3e92f24b	0.2870048
78	0x3e4cf2be	0.20014474
79	0xbe602c92	-0.21892002
80	0xbcf61875	-0.030040959
81	0xbe8e4e89	-0.27794293
82	0xbd402e57	-0.046919193
83	0xbe258c95	-0.16166909
84	0x3e84ae52	0.25914246
85	0x3e6afb22	0.22947362
86	0x3e46ee5e	0.19426867
87	0x3e5e2dba	0.21697131
88	0x3befca42	0.007317812
89	0xbb8a7afc	-0.0042260867
90	0xbe4428db	-0.1915621
91	0x3e4f7f69	0.20263447
92	0x3c176cd7	0.009242258
93	0xbe37e2f8	-0.17957675
94	0xbc89384c	-0.016750477
95	0xbe3a597c	-0.18198198
96	0xbe62552f	-0.22102807
97	0xbe78136f	-0.24226163
98	0x3d51647a	0.051121213
99	0xbd876c26	-0.066124246
100	0x3cad8b48	0.021184579
101	0xbd8f053f	-0.069834225
102	0xbe9165a8	-0.2839787
103	0xbdaee5b4	-0.08539906
104	0xbe2016a3	-0.15633635
105	0x3e141962	0.14462808
106	0x3e711ff0	0.2354734
107	0x3d516b6d	0.05112784
108	0x3dc01641	0.093792446
109	0xbe497d72	-0.1967676
110	0xbba0a8bb	-0.0049029267
111	0x3e7cf125	0.24701364
112	0xbe84f8fd	-0.25971213
113	0x3cf577f4	0.029964425
114	0x3b81b109	0.003957872
115	0x3e8776d4	0.26457846
116	0xbde55361	-0.11197544
117	0x3e34cc1d	0.17655988
118	0xbe640939	-0.22269143
119	0x3e95e936	0.29279488
120	0x3e82724a	0.2547782
121	0xbd5fbc4f	-0.054622944
122	0xbe6b9fa6	-0.2301012
123	0x3d07d09c	0.03315793
124	0xbd9aa04c	-0.075501055
125	0xbe0fae6f	-0.14031385
126	0x3e8b3f79	0.27196863
127	0xbe65f96f	-0.22458433
128	0xbb1a073c	-0.0023502847
129	0xbe64002b	-0.22265689
130	0xbe32c765	-0.17458875
131	0xbd9d95eb	-0.0769461
132	0xbe3a5f67	-0.18200456
133	0x3c22d6e4	0.009938929
134	0xbdc9c7e4	-0.09852579
135	0x3d91e3ba	0.071235135
136	0x3e341be9	0.17588772
137	0x3e5a71ab	0.21332423
138	0x3e54f4d8	0.20796525
139	0x3dd81b54	0.105520874
140	0x3d87b5cc	0.06626472
141	0x3e50b972	0.20383242
142	0xbe54b23f	-0.2077112
143	0xbe291963	-0.1651359
144	0xbd2270b8	-0.03965828
145	0xbe5b7e06	-0.21434793
146	0x3c134096	0.008987566
147	0x3e8694c8	0.26285386
148	0x3e4f3c2d	0.20237799
149	0x3e7b563a	0.24544612
150	0xbdb40bec	-0.087913364
151	0x3e928f6f	0.28625056
152	0x3e0d39b6	0.13791546
153	0x3e4916dd	0.19637628
154	0x3e48c97a	0.19608107
155	0xbc8dfcc9	-0.017332451
156	0x3e874dd5	0.2642657
157	0x3e5be41f	0.2147374
158	0xbbe45f00	-0.0069693327
159	0xbe8ef8ef	-0.27924296
160	0xbde56406	-0.112007186
161	0xbe24f107	-0.1610757
162	0xbe251302	-0.16120532
163	0x3ce641f2	0.028107617
164	0xbe080be2	-0.13285783
165	0x3e489ebf	0.19591807
166	0xbe57dc6a	-0.21080175
167	0xbe44a30d	-0.19202824
168	0x3e8721e0	0.26393032
169	0xbe7a3dd6	-0.24437651
170	0xbe087c43	-0.13328652
171	0x3e6a70df	0.2289462
172	0xbd6bcff1	-0.057571355
173	0x3d2fb593	0.042897772
174	0xbcb13966	-0.021633815
175	0xbe0f0f9e	-0.13970801
176	0xbe8f002c	-0.2792982
177	0xbe389016	-0.18023714
178	0x3dec888c	0.11549482
179	0xbe933589	-0.28751782
180	0x3e49da6d	0.19712229
181	0x3e425f6d	0.18981715
182	0x3d053f92	0.03253133
183	0x3e85b161	0.26111892
184	0xbe425768	-0.18978655
185	0x3e3bc173	0.18335514
186	0xbe887710	-0.26653337
187	0xbe75eed7	-0.24016891
188	0x3e0d9ebb	0.13830082
189	0x3dd046a0	0.10169721
190	0x3e08998f	0.13339828
191	0x3e4c3a47	0.19944106
192	0xbe8c423d	-0.27394286
193	0xbcfdda82	-0.030987982
194	0xbd8db075	-0.06918422
195	0x3e2be31a	0.16785851
196	0xbe4c9f55	-0.19982655
197	0x3e3c6627	0.18398343
198	0xbdeedbcc	-0.11663017
199	0x3ddd0804	0.107925445
200	0xbe6d8524	-0.2319532
201	0x3e506f45	0.20354946
202	0x3df99a1a	0.12187596
203	0xbd543b63	-0.051814448
204	0x3e4b8b45	0.19877346
205	0x3dadbb3b	0.08482977
206	0xbe2b63ba	-0.16737261
207	0xbe2819cd	-0.16416092
208	0xbe520f4f	-0.20513652
209	0x3e488445	0.19581707
210	0xbe619d50	-0.22032666
211	0xbd3748d7	-0.0447472
212	0x3bf9829a	0.007614446
213	0x3e16be3e	0.14721009
214	0x3db3e81c	0.08784506
215	0x3d2d9cea	0.042385973
216	0xbdf31c52	-0.11870636
217	0xbe83982f	-0.25702044
218	0x3e4d809c	0.20068592
219	0x3e4c2a1e	0.19937941
220	0xbe3e1705	-0.18563469
221	0xbd45ad6e	-0.0482611
222	0x3e067838	0.13131797
223	0xbd6e2620	-0.058141828
224	0xbb82c78e	-0.003991074
225	0x3ddb315a	0.107027724
226	0xbdf60c68	-0.12014085
227	0x3d983495	0.07431904
228	0x3ced24c1	0.02894819
229	0xbda5eb1a	-0.08101483
230	0x3e797255	0.2436002
231	0x3e88f234	0.26747286
232	0x3e4e5577	0.2014979
233	0xbe2533c8	-0.16133034
234	0x3e0b2dc7	0.13591681
235	0x3e62885b	0.22122328
236	0x3e69dff8	0.22839344
237	0xbe8b7fcb	-0.27245936
238	0xbc6b55cf	-0.01436372
239	0xbe818d60	-0.25303173
240	0x3e71b937	0.2360581
241	0xbd5a2b3e	-0.053263895
242	0x3c0583b5	0.008149077
243	0xbe14a44d	-0.14515801
244	0x3e1c2b70	0.15250945
245	0x3e6460de	0.22302577
246	0x3e1a9dc6	0.15099248
247	0x3e4684bb	0.1938657
248	0x3e2e6697	0.17031322
249	0x3e332910	0.17496133
250	0xbde8534c	-0.113440126
251	0xbbd79a7b	-0.006579695
252	0x3e854d50	0.26035547
253	0x3e53c83b	0.2068185
254	0xbe4b252e	-0.19838402
255	0xbe4acea1	-0.19805385

sequential_7/conv2d_35/BiasAdd/ReadVariableOp f4 [8]
0	0x3b144f1d	0.0022630163
1	0xbb31114d	-0.0027018369
2	0x3c4908d6	0.012270173
3	0xbb75f355	-0.003752907
4	0x3bcc7c21	0.0062403833
5	0x3b6f57d1	0.0036520849
6	0x3c50eadf	0.01275131
7	0x3aa51a0c	0.0012596264

sequential_7/conv2d_36/BiasAdd/ReadVariableOp f4 [8]
0	0x3c0c5665	0.00856552
1	0x3b79663a	0.0038055317
2	0xba42188d	-0.0007404171
3	0x3b878055	0.0041351714
4	0x3a37f711	0.0007017712
5	0x3af1c621	0.0018445888
6	0x3ac58c60	0.0015071742
7	0xbbcd4f27	-0.006265539

sequential_7/conv2d_37/BiasAdd/ReadVariableOp f4 [8]
0	0xbbdab537	-0.0066744345
1	0x3b2b5117	0.0026140863
2	0x3c12534d	0.008930993
3	0xbbe2203b	-0.006900815
4	0x3b0f8a69	0.0021902567
5	0x3aaedf4c	0.0013341694
6	0xbbe2cf35	-0.0069216737
7	0xbaf80fae	-0.0018925571

sequential_7/conv2d_38/BiasAdd/ReadVariableOp f4 [8]
0	0x3a8fa5c6	0.0010959439
1	0xbbb08ef3	-0.0053881346
2	0xbb21c085	-0.00246814
3	0xbb1168ef	-0.002218779
4	0xbb38b5f2	-0.002818462
5	0xbbc58647	-0.00602797
6	0x3c422fce	0.011852218
7	0xbc7c43b7	-0.015397004

sequential_7/conv2d_39/BiasAdd/ReadVariableOp f4 [8]
0	0xbb921a41	-0.004458696
1	0xbc25f05c	-0.010128107
2	0xbb3e57ff	-0.002904415
3	0xbb81e97a	-0.0039646
4	0xbb882d01	-0.0041557555
5	0xbb9a4e29	-0.0047090244
6	0xbbac99b6	-0.005267347
7	0x3a4355e7	0.000745146

sequential_7/conv2d_35/Conv2D f4 [8, 3, 3, 1]
0	0xbe3d48bd	-0.18484779
1	0x3e5cf01e	0.21575972
2	0xbe8b7900	-0.27240753
3	0xbe10ad46	-0.14128599
4	0xbe7ce3df	-0.24696301
5	0xbc254703	-0.010087731
6	0xbd8822cd	-0.06647263
7	0xbe32b150	-0.17450452
8	0x3dc7f3c1	0.09763289
9	0x3e0c1094	0.13678199
10	0x3dc8e6b6	0.098096296
11	0xbe5a1731	-0.2129791
12	0xbdc2e9d4	-0.095172554
13	0x3e744139	0.23853005
14	0x3e64bd56	0.22337851
15	0x3e7a73ee	0.24458286
16	0xbe7b1218	-0.24518621
17	0x3d22b886	0.039726757
18	0xbd5b2369	-0.053500567
19	0x3e3215f3	0.17391185
20	0x3e38c41b	0.18043558
21	0x3da31505	0.079629935
22	0xbdd6ebf7	-0.104942255
23	0x3d31baa2	0.043390878
24	0xbd193271	-0.03740162
25	0xbdad4333	-0.08460083
26	0x3ce56935	0.028004268
27	0x3d2a1867	0.04152718
28	0xbe8dde39	-0.27708605
29	0xbe6ab46f	-0.22920392
30	0xbe83d0b4	-0.25745165
31	0x3e63214d	0.22180672
32	0xbe247e54	-0.16063815
33	0xbe17c1c4	-0.1482001
34	0xbe5527ab	-0.20815913
35	0x3cd146c6	0.025546443
36	0xbdcd62df	-0.10028624
37	0xbe51b411	-0.20478846
38	0x3d9b4e7e	0.075833306
39	0x3d8a3f7e	0.067503914
40	0xbc515cce	-0.012778474
41	0xbc35e8ae	-0.011102838
42	0x3e5da9dd	0.21646829
43	0x3e8c87e8	0.27447438
44	0xbe301a54	-0.17197543
45	0xbd430612	-0.04761321
46	0x3df55c80	0.119805336
47	0x3d0ddb23	0.034632813
48	0x3e222a19	0.15836371
49	0x3e8aafbc	0.270872
50	0xbdc10408	-0.09424597
51	0xbe5794bc	-0.21052831
52	0x3e54a974	0.20767766
53	0xbe3d9d8a	-0.18517128
54	0x3d4c4b56	0.049876533
55	0xbd0c2074	-0.034210637
56	0x3e674f7d	0.22588916
57	0x3e2ff604	0.17183691
58	0xbe4652b5	-0.19367488
59	0x3e2eda3e	0.1707544
60	0x3e15938c	0.14607066
61	0xbd5ff3ae	-0.05467575
62	0x3d1ce884	0.03830768
63	0xbdee9b87	-0.11650758
64	0x3e400df6	0.18755326
65	0xbd9c6746	-0.07636885
66	0xbe38dfc6	-0.18054113
67	0xbdc9497e	-0.09828471
68	0x3dc4d45b	0.09610816
69	0xbe4b5be7	-0.19859277
70	0x3dad2ad3	0.08455434
71	0xbe012736	-0.12612614

sequential_7/conv2d_36/Conv2D f4 [8, 3, 3, 8]
0	0xbda6d98c	-0.081469625
1	0x3dc6a7ac	0.096999496
2	0xbdedf0fb	-0.11618229
3	0xbdc7cc6f	-0.097557895
4	0x3e3a13ba	0.18171588
5	0xbe046bca	-0.12931743
6	0xbdf09d14	-0.1174871
7	0x3dec242e	0.11530338
8	0xbda308a0	-0.079606295
9	0xbdf58c84	-0.11989692
10	0x3c68f52a	0.014218608
11	0xbde414d1	-0.11136783
12	0xbb56bba9	-0.0032765663
13	0x3c67c8d6	0.014147004
14	0xbda4fbfb	-0.08055874
15	0x3e3cb2fa	0.18427649
16	0x3d2eb3e3	0.042652022
17	0xbba2e526	-0.0049711643
18	0xbd4fe17e	-0.050752155
19	0xbdf29b21	-0.11845995
20	0x3dd1b240	0.102390766
21	0x3d5bcde0	0.053663135
22	0x3aab59d4	0.0013073036
23	0xbdd217ec	-0.10258469
24	0xbdd9a5e7	-0.106273465
25	0xbd92e273	-0.07172098
26	0x3e36f34e	0.17866251
27	0x3dea02c7	0.11426311
28	0xbe4dea0a	-0.2010881
29	0xbe0b36fc	-0.13595194
30	0x3e0a2e4e	0.13494226
31	0xbdd004f3	-0.10157194
32	0x3e06cdd0	0.13164449
33	0x3c6dee7d	0.014522192
34	0x3d73eae7	0.059550192
35	0x3e0062ad	0.12537642
36	0xb97a22a5	-0.00023854764
37	0xbe13b110	-0.14423013
38	0xbe0d6462	-0.13807824
39	0x3b27d877	0.00256112
40	0xbdb30935	-0.087419905
41	0xbd13c3ec	-0.036075518
42	0x3dfd8335	0.123785414
43	0xbdaddccb	-0.084893785
44	0x3e4d5adc	0.20054191
45	0x3e0f81f1	0.14014412
46	0xbcc142c8	-0.023591414
47	0x3e03d7f6	0.12875351
48	0xbd9565c6	-0.07294802
49	0xbe1efc50	-0.15525937
50	0x3d904f56	0.07046382
51	0xbd6fa243	-0.058504354
52	0xbd147554	-0.036244705
53	0xbe04ee6c	-0.12981576
54	0x3e0b9161	0.13629676
55	0xbd6dfe5f	-0.058103915
56	0x3e0562c0	0.13025951
57	0xbd7b4a62	-0.061350234
58	0xbced940c	-0.029001258
59	0x3d24bc29	0.040218506
60	0x3e154571	0.14577271
61	0xbe3171d0	-0.17328572
62	0x3d3f953f	0.04677319
63	0x3df84486	0.12122445
64	0xbd9dc33d	-0.07703254
65	0xbddfdf9d	-0.10931323
66	0xbe2eb19f	-0.17059945
67	0xbc54c8b9	-0.012987309
68	0xbd8f0011	-0.069824345
69	0xbe30fb47	-0.17283355
70	0x3b5ec229	0.003399024
71	0xbd9652d1	-0.07340015
72	0x3dcb6619	0.09931583
73	0x3d602a8d	0.05472808
74	0x3d9b8a46	0.07594733
75	0xbe40bd8f	-0.18822311
76	0xbdaf0016	-0.08544938
77	0x3d8bba93	0.068226956
78	0x3c5ecd10	0.013598695
79	0x3df562b3	0.11981716
80	0xbdb39746	-0.087690875
81	0xbd298418	-0.04138574
82	0xbe1574dc	-0.1459536
83	0x3e181410	0.14851403
84	0x3de5d774	0.11222735
85	0x3cd51f71	0.026015969
86	0x3e20ae70	0.15691543
87	0x3c143b55	0.009047349
88	0xbd777bb2	-0.0604207
89	0x3d704eee	0.058669023
90	0x3e2dd177	0.16974436
91	0x3e3dfd52	0.18553665
92	0xbe190dca	-0.14946666
93	0x3db35eac	0.087582916
94	0xbe1a8cd6	-0.15092787
95	0xbd9eb57d	-0.0774946
96	0xbe42f0f9	-0.19037236
97	0x3da4cd85	0.08047012
98	0x3e2be553	0.16786699
99	0x3df83c96	0.12120931
100	0xbd3c0f5d	-0.04591309
101	0xbd6c9632	-0.057760425
102	0xbe06ef31	-0.13177182
103	0xbdda0093	-0.10644641
104	0x3d9fc69f	0.07801556
105	0xbce361e9	-0.027756648
106	0x3c3c689b	0.011499549
107	0xbc52cf59	-0.012866818
108	0xbdd46eee	-0.10372721
109	0xbddd6504	-0.10810283
110	0xbe039188	-0.12848485
111	0x3cbc79a5	0.023007223
112	0xbddf4de3	-0.109035276
113	0x3e390152	0.1806691
114	0xbd4170ad	-0.047226597
115	0x3e3c495a	0.18387356
116	0x3a824a2f	0.0009940321
117	0xbe275d18	-0.16344106
118	0x3e2e71db	0.1703562
119	0x3d883429	0.06650574
120	0x3bfdee9b	0.0077493913
121	0xbe2fd3f2	-0.17170694
122	0x3e145c9d	0.14488454
123	0xbe3fa062	-0.18713525
124	0x3e0352f5	0.12824614
125	0x3cbd6c5a	0.023122955
126	0x3dde8afb	0.10866352
127	0xbe0bafaf	-0.13641237
128	0xbdbfa07b	-0.09356781
129	0x3d697c99	0.05700359
130	0x3dcab021	0.09896875
131	0x3c343851	0.010999755
132	0x3e1c3a3b	0.15256588
133	0xbc7c463e	-0.015397606
134	0x3b36b121	0.0027876573
135	0xbc91cbfb	-0.01779746
136	0xbdbbf13d	-0.09176872
137	0xbdda2a0e	-0.106525525
138	0xbe408dcd	-0.18804093
139	0xbe2fbf74	-0.17162877
140	0xbdf8ae8c	-0.12142667
141	0xbe02af29	-0.12762131
142	0x3d4deffb	0.05027769
143	0x3986a857	0.00025683895
144	0xbd0c25db	-0.03421579
145	0xbe031d2b	-0.12804095
146	0x3d373eac	0.044737503
147	0xbdfb97e9	-0.12284834
148	0x3d22c732	0.03974075
149	0x3d31ba50	0.043390572
150	0x3e34511c	0.17609066
151	0xbcf63858	-0.030056164
152	0xbe17c08a	-0.14819542
153	0x3e10bc6e	0.1413438
154	0x3d676416	0.056491934
155	0x3e1190fd	0.14215465
156	0x3dc0fd4d	0.09423313
157	0xbd94ad71	-0.07259644
158	0xbe3210c2	-0.17389205
159	0xbe01141f	-0.12605332
160	0xbdc884dc	-0.09790966
161	0x3df737a4	0.120711595
162	0x3d6bf0a4	0.05760254
163	0xbe15aee1	-0.14617492
164	0x3e0af3b1	0.13569523
165	0xbdd01129	-0.10159523
166	0x3d4ac9d4	0.049508885
167	0xbd7c8635	-0.061651427
168	0x3e0c2872	0.13687304
169	0x3d97ee63	0.074185155
170	0xb993eccf	-0.0002821446
171	0x3e16c22d	0.1472251
172	0x3e35947f	0.17732428
173	0xbc45e804	-0.012079243
174	0x3d43281a	0.047645666
175	0xbdb48929	-0.08815224
176	0xbd447f9b	-0.047973257
177	0x3cfbe54d	0.030748988
178	0xbe1f7dc6	-0.15575323
179	0x3e3bc725	0.18337686
180	0xbdcf1d39	-0.10112996
181	0x3c4876f3	0.012235391
182	0xbe00b9ab	-0.12570827
183	0x3d08f7c3	0.03343941
184	0x3d878bca	0.066184595
185	0x3ca731ef	0.020409552
186	0x3d31bb00	0.043391228
187	0xbe2c9e52	-0.1685727
188	0x3dc2326a	0.09482272
189	0xbd50e835	-0.0510027
190	0xbdc59e31	-0.09649313
191	0xbde6f34a	-0.112768725
192	0xbdb14b9a	-0.08656998
193	0xbe1b4110	-0.15161538
194	0xbe0ae15d	-0.13562532
195	0x3dca4a9d	0.098775126
196	0x3c91e320	0.017808497
197	0xbdede706	-0.1161633
198	0x3e54c9b0	0.20780063
199	0xbd6c8acb	-0.05774955
200	0xbde83956	-0.11339061
201	0xbdcb405c	-0.09924385
202	0xbe4a33a1	-0.19746257
203	0xbdb7d953	-0.08976998
204	0x3e1e91b8	0.15485275
205	0xbe328347	-0.17432891
206	0xbdf7c32f	-0.12097775
207	0xbd733071	-0.05937237
208	0x3e4a20fc	0.19739145
209	0xbd69e85c	-0.05710636
210	0x3cd818b8	0.026378974
211	0x3e311b31	0.17295529
212	0xbdf81984	-0.12114242
213	0x3d4e93eb	0.050434034
214	0x3d964038	0.073364675
215	0x3e32d502	0.17464069
216	0x3da31623	0.079632066
217	0xbd1793dc	-0.037006244
218	0x3e11adb6	0.14226422
219	0x3da5ad42	0.08089687
220	0xbda12993	-0.07869258
221	0xbe1ecac2	-0.15507033
222	0x3a529013	0.0008032333
223	0xbd3c6510	-0.04599482
224	0x3cdbe88f	0.026844291
225	0xbd8ace57	-0.067776375
226	0xbdb013dd	-0.085975386
227	0xbe209121	-0.15680362
228	0x3cc98378	0.024598822
229	0x3dbbf238	0.09177059
230	0x3e2c0529	0.16798843
231	0xbe11c8f6	-0.14236817
232	0x3e114915	0.14188035
233	0xbde7c0f9	-0.113161035
234	0xbd9d8f18	-0.076933086
235	0x3d770468	0.060306937
236	0xbcea970c	-0.028636478
237	0x3e24b583	0.16084866
238	0xbd9aa71e	-0.07551406
239	0xbe04379a	-0.12911835
240	0x3d5b0f64	0.053481475
241	0x3e4141ee	0.18872806
242	0x3cb13dba	0.021635879
243	0x3a18320c	0.00058057974
244	0xbcd4abe7	-0.025960876
245	0xbca4f3da	-0.020135809
246	0xbae0b012	-0.0017142317
247	0xbdae2ed5	-0.08505026
248	0xbb53702e	-0.003226291
249	0x3d0625e8	0.032750994
250	0xbe027bdb	-0.1274256
251	0xbe191a8b	-0.14951532
252	0xbe169f96	-0.14709315
253	0xbe2726a5	-0.16323335
254	0xbdf6b32c	-0.12045893
255	0xbc879b86	-0.016553652

sequential_7/conv2d_37/Conv2D f4 [8, 3, 3, 8]
0	0x3d8f8d8b	0.07009419
1	0xbd70e069	-0.058807764
2	0x3e4e6ea2	0.2015939
3	0xbd51f2e2	-0.05125702
4	0xbe1fb87a	-0.15597716
5	0xbe211db5	-0.15733989
6	0xbdbe26d7	-0.09284752
7	0xbcd51cb8	-0.02601467
8	0x3d0710d8	0.032975048
9	0xbe1ca773	-0.15298252
10	0x3e1e2fc8	0.15447915
11	0x3df7fece	0.12109147
12	0x3dadaa7c	0.08479783
13	0xbddb4c79	-0.107079454
14	0x3df45407	0.119300894
15	0x3d568705	0.05237486
16	0xbd8bd2f7	-0.06827348
17	0xbe0ad5a7	-0.13558064
18	0xbd88b905	-0.06675915
19	0x3d79d800	0.06099701
20	0x3d6ccb34	0.057810977
21	0x3e3a72c3	0.1820784
22	0xbb9c9945	-0.0047790133
23	0xbd0b90cd	-0.03407364
24	0xbda5bca3	-0.0809262
25	0x3cab2ac8	0.020894423
26	0x3d661ddb	0.056180816
27	0x3e0f6b21	0.1400571
28	0xbe18e394	-0.14930564
29	0x3dd9cdaa	0.106349304
30	0xbdc55d01	-0.0963688
31	0x3e3cb579	0.18428601
32	0xbae71545	-0.001763024
33	0xbe256d81	-0.16155054
34	0xbe35c6c1	-0.177516
35	0xbe4bdd42	-0.19908622
36	0xbd8c4eb5	-0.0685095
37	0x3e407ede	0.18798396
38	0xbd8c09a3	-0.068377756
39	0x3d9da441	0.076973446
40	0xbe4de49f	-0.20106743
41	0xbc8464b2	-0.016161297
42	0x3d94d0b1	0.07266367
43	0x3e174c47	0.14775191
44	0x3d3ef3c9	0.04661921
45	0xbd5a212a	-0.053254284
46	0xbd40f44b	-0.047107976
47	0xbe2ccd40	-0.16875172
48	0x3d51e845	0.0512469
49	0x3d260030	0.040527523
50	0x3ddc3c20	0.107536554
51	0xbe36f434	-0.17866594
52	0xbd6a5b5a	-0.057216026
53	0xbdcde651	-0.10053695
54	0x3e427af2	0.18992212
55	0xbd86ca04	-0.065815
56	0xbde30254	-0.110844284
57	0x3e11d536	0.1424149
58	0xbe18bd3a	-0.14915934
59	0xbdb20be5	-0.08693675
60	0xbde048ac	-0.10951361
61	0x3e4d3c07	0.2004243
62	0x3e3c7352	0.18403366
63	0x3b89e61d	0.00420834
64	0xbc8e83cb	-0.017396828
65	0x3e19a56b	0.15004508
66	0x3d62f55e	0.05540978
67	0xbda22dea	-0.07918914
68	0xbc5bdf92	-0.013420003
69	0xbc8ed147	-0.017433776
70	0xbc6102d0	-0.013733581
71	0x3e4258d2	0.18979195
72	0x3e3e83df	0.18604992
73	0x3e2edb23	0.17075782
74	0x3da9f846	0.082993075
75	0xbdfef2cd	-0.12448654
76	0xbe11f3f7	-0.14253221
77	0xbe4db109	-0.20087065
78	0x3c9993d7	0.018747253
79	0x3e0a41ca	0.13501659
80	0x3dda64f4	0.106637865
81	0xbd45a77f	-0.04825544
82	0xbd9bffc3	-0.07617142
83	0xbdd673da	-0.10471316
84	0xbdbefb08	-0.09325224
85	0xbd8bd9e9	-0.068286724
86	0x3e283020	0.16424608
87	0x3df3c36e	0.1190251
88	0xbca78ca3	-0.020452803
89	0x3dc1517b	0.09439369
90	0xbd46e07b	-0.048553925
91	0xbd159cf8	-0.03652665
92	0x3d5a8290	0.05334717
93	0xbd99c825	-0.07508878
94	0x3e438ab7	0.19095884
95	0x3e11eb66	0.14249954
96	0x3de655dd	0.11246846
97	0x3cdfccb5	0.027319292
98	0xbe07e13b	-0.13269512
99	0xbda46d2a	-0.08028634
100	0xbe0f6be7	-0.14006005
101	0x3e2b9359	0.16755427
102	0x3db8c9a8	0.09022838
103	0xbe12dcf1	-0.14342095
104	0xbd9f06a6	-0.0776494
105	0x3d6003bf	0.054691073
106	0x3d8dd034	0.06924477
107	0x3dff4ebf	0.124661915
108	0xbd4a98e9	-0.049462233
109	0x3d82d0f6	0.063875124
110	0x3d85b0f1	0.065278895
111	0xbdf01203	-0.117221855
112	0x3cc1bae1	0.023648681
113	0xbda47339	-0.080297895
114	0x3e2ce3fe	0.16883847
115	0xbe2e5052	-0.17022827
116	0xbd5d6b99	-0.05405769
117	0xbd329609	-0.043600116
118	0xbd84bbf6	-0.06481163
119	0x3c1ca0be	0.009559808
120	0xbda47e52	-0.08031906
121	0xbd265a69	-0.040613566
122	0x3debb75b	0.11509582
123	0x3c2d0433	0.010560083
124	0xbdde9b36	-0.10869448
125	0x3e448429	0.1919104
126	0xbd884cf5	-0.066553034
127	0xbe1c997b	-0.15292923
128	0x3d40deec	0.047087595
129	0xbccb9191	-0.024849685
130	0x3d4fcfff	0.05073547
131	0x3e3280ff	0.1743202
132	0xbe52998c	-0.20566386
133	0xbdef961e	-0.116985545
134	0x3dd33998	0.103137195
135	0xbc81db49	-0.015851634
136	0xbe35fa2e	-0.17771217
137	0xbc317f2c	-0.010833543
138	0xbdc35c75	-0.09539119
139	0x3ce8a60f	0.028399495
140	0x3e34bec9	0.17650904
141	0x3e267b71	0.16258027
142	0xbe37275e	-0.17886111
143	0x3e2e941d	0.17048688
144	0x3e5035e5	0.20333059
145	0x3d282439	0.04105017
146	0xbd30af4d	-0.04313593
147	0xbe34d4ad	-0.17659254
148	0x3d1df9c2	0.038568266
149	0x3d80d2c1	0.06290198
150	0xbe35de7e	-0.17760655
151	0x3ddad11b	0.10684415
152	0x3e4b5cfa	0.19859686
153	0xbd0e65a9	-0.03476492
154	0xbdfd70ea	-0.12375052
155	0x3e1a5c20	0.15074205
156	0xbe220429	-0.158219
157	0x3e385522	0.18001226
158	0xbdefc526	-0.11707525
159	0x3e1460a3	0.14489989
160	0x3db670ec	0.08908257
161	0x3e3cab96	0.1842483
162	0x3cf12666	0.029437255
163	0x3d51d3fa	0.051227547
164	0x3e13e5aa	0.14443079
165	0xbe3d244e	-0.1847088
166	0xbdc8dd24	-0.09807804
167	0x3e1e09f2	0.15433481
168	0x3b88bf2d	0.0041731806
169	0xbe00f073	-0.12591724
170	0x3d3f5746	0.04671409
171	0xbe1fab78	-0.15592754
172	0xbe1af023	-0.15130667
173	0xbe05153d	-0.12996383
174	0xbe3fb15f	-0.18720005
175	0xbd961f4f	-0.073301904
176	0xbd445bbe	-0.047939055
177	0xbe459b2f	-0.19297479
178	0xbd15a60d	-0.03653531
179	0x3d4dbee4	0.050230876
180	0xbdf7399b	-0.12071534
181	0x3b9cec8f	0.004788942
182	0xbd7eaf67	-0.062178995
183	0xbd4cbc2a	-0.049984135
184	0x3cd8ce99	0.026465701
185	0x3e43115f	0.19049595
186	0x3aed6459	0.0018111571
187	0xbc72a37c	-0.0148094855
188	0x3dbb4a04	0.09144977
189	0x3e38439a	0.17994538
190	0x3ce1fa6f	0.027585236
191	0x3cf7a1ac	0.030228458
192	0x39549cbc	0.00020276284
193	0x3d6d2c62	0.057903655
194	0x3d5313c4	0.05153252
195	0xbdf54e4b	-0.11977824
196	0xbcb69e2b	-0.022292217
197	0xbe07775c	-0.13229126
198	0x3d077a85	0.033075828
199	0xbd86585f	-0.06559824
200	0x3e2b9cdc	0.16759056
201	0x3b318725	0.002708861
202	0xbd76983d	-0.06020378
203	0xbe26d2fd	-0.16291423
204	0x3de19bb4	0.11016026
205	0x3e08ab43	0.13346581
206	0x3dd74d7c	0.10512826
207	0xbdd28774	-0.10279742
208	0xbe27ba68	-0.16379702
209	0x3da689b7	0.08131736
210	0x3cd75ee8	0.026290372
211	0x3e36b96e	0.17844173
212	0xbe4bf42b	-0.19917361
213	0xbc570db6	-0.013125828
214	0x3be6d251	0.0070441146
215	0x3b6fd0c0	0.003659293
216	0x3d234e81	0.03986979
217	0xbe4cc12b	-0.19995563
218	0x3d20a284	0.039217487
219	0xbd686525	-0.056737084
220	0xbd44bbdf	-0.04803073
221	0xbdeaa3be	-0.114570126
222	0xbe1de875	-0.15420707
223	0x3d4b7f0a	0.0496817
224	0xbdc1c7c3	-0.0946193
225	0x3e2ed563	0.17073588
226	0xbdf82a26	-0.12117414
227	0x3e4d6c3b	0.20060818
228	0xbd2f7b67	-0.042842295
229	0xbdddb4e8	-0.10825521
230	0xbe400097	-0.18750225
231	0x3ddcef0e	0.107877836
232	0x3e17b53a	0.14815226
233	0x3e0e5543	0.13899712
234	0xbe274d88	-0.1633817
235	0xbe178f1e	-0.14800689
236	0xbd785a0c	-0.06063275
237	0x3d83e689	0.064404555
238	0xbe40223f	-0.18763064
239	0xbe0e4823	-0.13894705
240	0xbe2d5037	-0.16925131
241	0x3ded9e92	0.116025105
242	0x3e07d6a0	0.13265467
243	0x3d729589	0.05922464
244	0xbe1e6c62	-0.15471032
245	0x3e517ddc	0.20458168
246	0xbe3c1054	-0.18365604
247	0xbd0c02b4	-0.034182265
248	0x3e47945a	0.19490185
249	0xbde4a6f9	-0.1116466
250	0xbe0b228f	-0.13587402
251	0x3d3d2ffb	0.046188336
252	0xbe429b75	-0.19004615
253	0x3e444d69	0.19170155
254	0xbdfd9d3c	-0.12383506
255	0xbe1be547	-0.15224181

sequential_7/conv2d_38/Conv2D f4 [8, 3, 3, 8]
0	0x3e421440	0.18953037
1	0x3de87d77	0.113520555
2	0xbe282b3b	-0.16422741
3	0xbc18ef47	-0.009334392
4	0x3d963cd3	0.0733582
5	0xbd41a857	-0.047279682
6	0x3dee450e	0.11634265
7	0xbd3b7a62	-0.04577101
8	0x3da36ef7	0.07980149
9	0xbe1d59a9	-0.15366234
10	0xbc9b9da5	-0.01899607
11	0xbdbfe405	-0.09369663
12	0x3d500a9c	0.050791368
13	0x3c68475c	0.01417717
14	0x3e3aabeb	0.18229644
15	0x3dbd9c29	0.09258301
16	0x3e08efa1	0.13372661
17	0xbcc62982	-0.024189714
18	0x3dcb41e9	0.09924681
19	0x3ca65b20	0.020307124
20	0x3d7e9bba	0.06216023
21	0xbdad2145	-0.08453611
22	0x3db60b72	0.08888902
23	0x3df2073e	0.118177876
24	0xbd83482b	-0.06410249
25	0xbd818731	-0.06324614
26	0x3de097d1	0.10966457
27	0xbe446e01	-0.19182588
28	0x3e502c7f	0.20329474
29	0xbe486b85	-0.19572265
30	0xbe48390d	-0.19553013
31	0xbe1334b3	-0.14375572
32	0xbcaf9adf	-0.021436153
33	0x3ddf3ae7	0.108999066
34	0xbdef2b9f	-0.11678242
35	0xbde1a0e3	-0.11017015
36	0xbe1a0521	-0.15041019
37	0x3e3d4387	0.18482791
38	0xbe308d80	-0.17241478
39	0x3dbb4999	0.09144897
40	0xbcbffd36	-0.02343617
41	0xbda96e56	-0.08272998
42	0xbde718b9	-0.11284012
43	0x3db977d3	0.09056058
44	0x3b2153fc	0.002461671
45	0xbe443431	-0.19160534
46	0x38954347	7.117405e-05
47	0xbc2c9d68	-0.010535575
48	0xbc9cdbc4	-0.019147761
49	0x3a20a8c3	0.0006128663
50	0x3da6f99f	0.0815308
51	0x3e0269d8	0.12735689
52	0xbe408a28	-0.18802702
53	0x3dc52bc6	0.0962749
54	0xb91d0edf	-0.00014978227
55	0xbd7b546d	-0.06135981
56	0x3e13efbd	0.14446922
57	0xbe2dc157	-0.16968285
58	0x3dc0e777	0.094191484
59	0x3dd0a948	0.10188538
60	0xbe466490	-0.19374299
61	0xbd916478	-0.07099241
62	0xbd847399	-0.06467361
63	0x3dc12bb2	0.09432162
64	0x3e31b43e	0.17353913
65	0xbd21ee90	-0.03953415
66	0xbe3d907e	-0.1851215
67	0x3d2f8ed0	0.042860806
68	0xbe288065	-0.16455229
69	0x3c0049e2	0.007830115
70	0xbe309942	-0.17245963
71	0x3e38205f	0.17981099
72	0xbcf1cc53	-0.029516375
73	0x3e3e0aa9	0.18558754
74	0x3cbbdc19	0.0229321
75	0x3c59dc87	0.013297207
76	0xbdb4fbed	-0.088371135
77	0xbe2bc2a3	-0.16773467
78	0xbd1897ce	-0.037254147
79	0x3e2787d1	0.16360404
80	0x3e4f2db2	0.20232275
81	0x3cb5b44c	0.022180699
82	0x3d1cf9a4	0.038324013
83	0xbe1272db	-0.14301626
84	0xbdc77cc3	-0.09740593
85	0x3d0e41bc	0.034730658
86	0x3d8ab86b	0.06773456
87	0x3e19abc7	0.15006934
88	0xbcfdcf63	-0.030982679
89	0x3e51ab68	0.20475543
90	0x3e32498f	0.17410873
91	0x3e323e63	0.17406611
92	0x3bcc1672	0.0062282616
93	0xbbc8cc7d	-0.0061278925
94	0x3d508fd7	0.050918426
95	0x3e0f0fa7	0.13970815
96	0x3caf61ed	0.021409
97	0x3e20345c	0.15644974
98	0x3e2f5a98	0.17124403
99	0x3da52b0f	0.080648534
100	0xbdc6c52c	-0.09705576
101	0xbd5b9590	-0.05360943
102	0xbda710a2	-0.08157469
103	0x3e2196d1	0.15780188
104	0xbd1ea317	-0.038729753
105	0xbe0f392e	-0.13986656
106	0xbe37b57e	-0.17940328
107	0xbde43644	-0.11143163
108	0x3ba75298	0.0051062815
109	0xbcb3b47e	-0.021936651
110	0xbdd01532	-0.10160293
111	0x3d96d213	0.07364287
112	0xbc2b7293	-0.010464328
113	0x3ce653ca	0.028116126
114	0xbdafbdfd	-0.08581159
115	0x3d71b040	0.059005976
116	0xbe2d3dc4	-0.16918093
117	0xbe487cd0	-0.19578862
118	0xbda7b9fe	-0.08189772
119	0xbdeda5c9	-0.11603887
120	0x3cef56ec	0.029216252
121	0x3e029c20	0.1275487
122	0xbd40c2d3	-0.0470608
123	0xbdbcc24d	-0.092167474
124	0xbcb9b5e6	-0.022669744
125	0xbc8a62b5	-0.01689277
126	0x3c8d1940	0.017223954
127	0xbdf5b623	-0.119976304
128	0xbb0edef2	-0.0021800366
129	0xbccc88c2	-0.024967555
130	0xbc319864	-0.010839555
131	0x3e1092c0	0.1411848
132	0x3e315415	0.17317231
133	0xbe280160	-0.16406775
134	0xbe4ae510	-0.19813943
135	0xbdc5df88	-0.09661776
136	0xbd46b9f3	-0.04851718
137	0x3e07e672	0.13271502
138	0x3e00f21a	0.12592354
139	0xbce2ed08	-0.027700916
140	0xbdc3fa10	-0.0956918
141	0xbb67f958	-0.0035396423
142	0x3cd7739d	0.026300246
143	0xbd180b94	-0.037120417
144	0xbe3f0735	-0.18655093
145	0xbe2354f2	-0.15950373
146	0x3cf12aa6	0.029439282
147	0x3d9f4126	0.07776098
148	0xbd8c856e	-0.06861387
149	0xbdbe5963	-0.09294393
150	0xbb8d259c	-0.004307462
151	0x3e127237	0.14301382
152	0x3df5c096	0.119996235
153	0x3cdd350a	0.02700283
154	0xbd4465d6	-0.04794868
155	0xbd9e79b5	-0.077380575
156	0x3d547f92	0.051879473
157	0x3e315c3d	0.17320342
158	0x3e11ab5b	0.14225523
159	0x3e119aad	0.1421916
160	0xbd6d5b58	-0.05794844
161	0x3e0bec6d	0.13664408
162	0x3d3a1aac	0.045435593
163	0x3d85e0cf	0.065370195
164	0x3d84e033	0.06488075
165	0xbe2296f4	-0.15877897
166	0x3d72ab45	0.059245367
167	0xbe01ed5e	-0.12688205
168	0x3b33f8ed	0.0027461604
169	0x3dab9949	0.08378846
170	0xbc8444d9	-0.01614611
171	0xbe43509e	-0.19073722
172	0x3cf930e4	0.03041882
173	0xbdbd7d72	-0.092524424
174	0xbdd8c696	-0.10584752
175	0xbe136842	-0.1439524
176	0xbe1d262f	-0.15346597
177	0xbe224094	-0.15844947
178	0xbd6f0f75	-0.05836435
179	0xbc15bce4	-0.009139273
180	0xbdbba818	-0.09162921
181	0xbdfbed01	-0.12301064
182	0x3d0c8f2d	0.03431623
183	0xbe386e12	-0.18010738
184	0xbe15745d	-0.1459517
185	0x3dc39ee4	0.0955179
186	0xbcce4d36	-0.025183301
187	0xbca652c6	-0.020303141
188	0xbd8dc75c	-0.069227904
189	0x3e1ee56c	0.15517205
190	0xbe1978f7	-0.1498755
191	0x3e41b04f	0.18914913
192	0xbdaaee4b	-0.08346232
193	0x3e344985	0.1760617
194	0xbd7e0ca2	-0.062023766
195	0xbe369b3e	-0.17832658
196	0x3e4329c8	0.19058907
197	0xbe10915f	-0.14117955
198	0xbe012da6	-0.1261507
199	0xbd883519	-0.066507526
200	0xbdb4ddbb	-0.08831354
201	0x3e1b1f34	0.15148622
202	0xbc8b8d5a	-0.017035175
203	0xbd0fc2f8	-0.035098046
204	0xbdc68067	-0.096924596
205	0x3e32cd12	0.1746104
206	0x3d827001	0.06369019
207	0x3e314519	0.17311515
208	0xbdf985c9	-0.121837206
209	0x3e3f719c	0.18695682
210	0xbbc37b3d	-0.005965619
211	0x3d9b1b6b	0.07573589
212	0x3d4a9a43	0.04946352
213	0xbd78c52f	-0.060734924
214	0xbd80f998	-0.06297606
215	0x3e2c8246	0.1684657
216	0x3c07db5c	0.008292045
217	0xbe025f63	-0.127317
218	0xbe232cc5	-0.15935047
219	0x3c5a71a1	0.013332755
220	0xbd44a8fd	-0.048012722
221	0xbe2af100	-0.16693497
222	0x3dd36c57	0.103233986
223	0xbdc5b991	-0.096545346
224	0x3db0802b	0.08618196
225	0xbe178e86	-0.14800462
226	0xbe387865	-0.18014677
227	0xbe2179e7	-0.15769158
228	0xbe468afb	-0.19388954
229	0x3da7983c	0.08183333
230	0xbdd13dc7	-0.10216861
231	0xbe43cc30	-0.1912086
232	0x3da9e183	0.08294966
233	0x3d493b9b	0.04912911
234	0xbd56c925	-0.05243792
235	0xbe3ab717	-0.18233906
236	0x3e4cb63a	0.19991389
237	0x3dab547e	0.08365725
238	0x3df5c3cb	0.12000235
239	0xbcece69e	-0.02891856
240	0xbdaa9b60	-0.08330417
241	0x3cb3005d	0.02185076
242	0xbd86b2f1	-0.06577099
243	0x3d9bbcb0	0.07604349
244	0xbe22769f	-0.15865563
245	0x3d7b781d	0.061393846
246	0x3e2f5c14	0.17124969
247	0xbc8312f6	-0.016000252
248	0xbdcf376e	-0.10117994
249	0x3dd27e86	0.10278039
250	0x3e1ad289	0.15119375
251	0xbc940f96	-0.018073838
252	0x3d63cbcf	0.05561429
253	0x3e2bbc0b	0.16770951
254	0xbdde742f	-0.10862004
255	0xbd06a2ca	-0.03287009

sequential_7/conv2d_39/Conv2D f4 [8, 3, 3, 8]
0	0xbdd644eb	-0.10462364
1	0xbdf25c05	-0.118339576
2	0xbe342666	-0.17592773
3	0x3e4c01e6	0.19922599
4	0xbe272ee4	-0.16326481
5	0x3d0fbb47	0.03509071
6	0xbe361f45	-0.17785366
7	0xbe14276a	-0.1446816
8	0xbe1fa29f	-0.15589379
9	0xbc2dc347	-0.01060564
10	0xbe0bee4f	-0.13665126
11	0xbd442ec9	-0.04789618
12	0xbc34f9f6	-0.011045923
13	0x3dfc1529	0.123087235
14	0xbe1e6312	-0.1546748
15	0x3e32adab	0.17449062
16	0xbdc37be6	-0.09545116
17	0xbd66f24d	-0.05638342
18	0x3de51c1f	0.11187004
19	0xbe003473	-0.12520008
20	0xbe1889eb	-0.14896362
21	0xbd0b2ab2	-0.033976264
22	0x3df5a663	0.119946264
23	0xbe22f191	-0.15912463
24	0x3c859899	0.016308116
25	0x3e088b5c	0.13334411
26	0xbe25ed14	-0.1620372
27	0xbd40246f	-0.046909746
28	0x3d985779	0.07438559
29	0x3e1845b1	0.14870335
30	0x3dfbf450	0.12302458
31	0x3d7fabb5	0.062419612
32	0xbd72fa58	-0.059320778
33	0x3d267e3b	0.040647727
34	0x3d5c4a98	0.053782076
35	0xbdbeec58	-0.09322423
36	0xbdaa4ec1	-0.08315802
37	0xbd4c1885	-0.04982807
38	0xbdc21cba	-0.094781354
39	0x3dd38fa1	0.103301294
40	0xbdaec94e	-0.085344896
41	0xbe20c753	-0.15701036
42	0xbd8a1c29	-0.067436524
43	0xbdfd2bdf	-0.12361883
44	0xbbcdc7c0	-0.0062799156
45	0xbdd4fceb	-0.10399803
46	0x3dd345d6	0.103160545
47	0x3e0e5777	0.13900553
48	0xbdf45e61	-0.11932064
49	0xbe246caf	-0.16057085
50	0x3db28ee2	0.08718659
51	0x3d4d00c8	0.050049573
52	0x3d7f8970	0.06238693
53	0xbe17629d	-0.14783712
54	0xbd2d6f9a	-0.04234276
55	0x3d478a4d	0.04871588
56	0x3d858f5e	0.06521486
57	0xbe28e1c0	-0.16492367
58	0xbe233947	-0.15939818
59	0x3e23d334	0.15998536
60	0x3d4859c8	0.048913747
61	0xbcab879d	-0.020938689
62	0x3e48658a	0.19569984
63	0xbdcbed8b	-0.09957417
64	0x3d76cf35	0.0602562
65	0x3c8cd9e8	0.01719375
66	0xbe3485d5	-0.17629178
67	0xbdef58e7	-0.11686879
68	0xbd7f0bfa	-0.06226728
69	0x3d68aad8	0.056803554
70	0x3e3c01c8	0.18360054
71	0x3ddf49f2	0.10902776
72	0xbcd3154b	-0.02576699
73	0x3d828774	0.06373492
74	0xbe2399a1	-0.15976574
75	0xbd633233	-0.055467796
76	0xbe29583c	-0.16537565
77	0xbe00bb3f	-0.12571429
78	0x3da1e98b	0.07905873
79	0x3dc05d8f	0.09392845
80	0x3e39b6d1	0.18136145
81	0xbd4f394c	-0.050591752
82	0x3cc9d86f	0.024639336
83	0x3d8f3075	0.06991664
84	0x3e210110	0.15723062
85	0x3d8ee582	0.06977369
86	0x3bf8416e	0.007576159
87	0xbd35cc6c	-0.044384405
88	0xbdef4130	-0.116823554
89	0x3e3d51db	0.18488257
90	0xbc822b31	-0.015889736
91	0xbdc2e737	-0.09516757
92	0xbde2cc31	-0.11074103
93	0x3d9cd77a	0.076582864
94	0xbdd706dc	-0.10499355
95	0xbe489c15	-0.1959079
96	0xbdf57bb7	-0.11986487
97	0xbddf2bb6	-0.10897009
98	0xbdcbe636	-0.099560186
99	0xbd3e6e35	-0.04649182
100	0x3dae5d70	0.085139155
101	0x3e00676b	0.12539451
102	0xbc84036c	-0.016114913
103	0x3e1b441c	0.151627
104	0x3e25dab2	0.16196707
105	0xbd32f620	-0.043691754
106	0xbdf0a7b7	-0.11750739
107	0xbe15c63b	-0.146264
108	0x3dccf0e0	0.10006881
109	0xbbeaa82e	-0.007161162
110	0xbe4d4be9	-0.20048489
111	0x3dc937de	0.09825109
112	0xbe234680	-0.15944862
113	0x3e4c615c	0.19959015
114	0x3db3073d	0.08741615
115	0x3dea45b6	0.114390776
116	0xbe2b206f	-0.16711591
117	0xbe467d32	-0.19383696
118	0xbe092211	-0.13391902
119	0x3bf1f90d	0.0073844255
120	0x3d8460f6	0.06463806
121	0xbdd3008c	-0.10302839
122	0x3e213ae5	0.15745123
123	0xbce7caa0	-0.028294861
124	0xbdf61208	-0.12015158
125	0xbd33cb91	-0.043895308
126	0x3c9e05f3	0.019289946
127	0x3dd4a797	0.10383528
128	0xbde04030	-0.10949743
129	0xbda29c36	-0.07939951
130	0x3cea11db	0.028572967
131	0x3e2b6a7d	0.16739841
132	0xbcaa9454	-0.020822681
133	0x3db9104b	0.09036311
134	0x3df9ed36	0.122034475
135	0x3e370308	0.1787225
136	0xbca50f72	-0.020148966
137	0xbd900491	-0.07032121
138	0xbe45c79c	-0.19314426
139	0xbcf0ae90	-0.029380113
140	0x3dbc3e6d	0.09191594
141	0x3d459ccf	0.048245247
142	0xbd9a25cc	-0.075267404
143	0xbdc39653	-0.095501564
144	0xbdbc7569	-0.09202082
145	0xbdcda466	-0.10041122
146	0xbe3b0086	-0.18261918
147	0xbd88af97	-0.06674116
148	0x3e48a4c5	0.19594105
149	0x3dc5ab10	0.09651768
150	0x3dbcb2ad	0.09213767
151	0x3e12e859	0.14346446
152	0x3d4be45a	0.04977832
153	0x3d856499	0.06513328
154	0x3e14b32c	0.14521474
155	0xbe20fdbe	-0.15721795
156	0xbe19431c	-0.14967006
157	0xbe49a834	-0.1969307
158	0xbd8e5395	-0.06949536
159	0x3e4305dc	0.19045204
160	0xbe218499	-0.15773238
161	0xbe16b7dc	-0.14718574
162	0x3e226792	0.15859821
163	0xbde5f013	-0.11227431
164	0x3d77d728	0.060507923
165	0x3e1913cf	0.14948963
166	0x3e001db7	0.12511335
167	0xbd435385	-0.047687072
168	0xbe33dd88	-0.17564976
169	0xbe35b44e	-0.17744562
170	0x3c1a154d	0.009404493
171	0xbd7e9e4b	-0.06216268
172	0x3e33621e	0.17517897
173	0x3e1a9c94	0.15098792
174	0x3e3e6fc2	0.1859732
175	0x3dec28e5	0.115312375
176	0x3c9be95f	0.019032178
177	0xbe2bb33b	-0.1676759
178	0xbe05541f	-0.13020371
179	0xbdd30002	-0.10302736
180	0xbe3c5902	-0.18393329
181	0xbda45e21	-0.08025766
182	0x3e4c3e49	0.19945635
183	0xbd7871dd	-0.060655463
184	0xbd8c6ff0	-0.06857288
185	0x3e4dcd68	0.20097888
186	0x3e0fa0d7	0.140262
187	0x3db51b21	0.08843065
188	0xbe485a79	-0.19565763
189	0x3b4b89a9	0.0031057394
190	0x3e2db856	0.1696485
191	0x3e3d06f5	0.18459685
192	0xbe341372	-0.17585543
193	0xbde0556b	-0.10953792
194	0x3dd17ce3	0.102288984
195	0xbc61c815	-0.013780613
196	0x3d5a8c2b	0.05335633
197	0xbd169ad1	-0.03676874
198	0xbe0fe218	-0.14051092
199	0xbd835871	-0.06413353
200	0x3cc5d1cb	0.024147889
201	0x3e159a24	0.14609581
202	0xbd59fd0a	-0.053219832
203	0xbdf8c012	-0.121460095
204	0x3e300f02	0.17193225
205	0x3d016058	0.03158602
206	0x3dc5b766	0.09654121
207	0x3d38196b	0.044946115
208	0x3d8f0c29	0.06984741
209	0x3d7cd34b	0.061724942
210	0xbe22f48f	-0.15913604
211	0xbd1c8b99	-0.03821907
212	0x3e0f4d94	0.13994437
213	0x3db4ff30	0.08837736
214	0xbda00341	-0.07813121
215	0x3e24d834	0.160981
216	0xbe07c054	-0.13256961
217	0xbd9113fe	-0.07083891
218	0xbd8a87d3	-0.06764188
219	0xbd85e981	-0.06538678
220	0xbd6b1012	-0.057388373
221	0x3e3cf36d	0.18452235
222	0x3c416736	0.011804393
223	0xbe4a33c4	-0.1974631
224	0xbe58f3f8	-0.21186817
225	0xbdb08864	-0.086197644
226	0xbc95a641	-0.018267753
227	0xbbaf35e4	-0.0053470004
228	0xbe539406	-0.20661935
229	0xbd9e6499	-0.07734031
230	0x3e1a4d91	0.15068652
231	0xbd3ad431	-0.045612518
232	0xbe4fb6d7	-0.20284592
233	0x3e2c8f00	0.16851425
234	0x3b88d4cb	0.0041757575
235	0x3e109300	0.14118576
236	0x3d8e995b	0.06962844
237	0xbd4a53e5	-0.049396414
238	0xbe50fd7b	-0.20409195
239	0xbe2a9edb	-0.16662161
240	0x3dff7252	0.12472977
241	0xbe265ce8	-0.16246378
242	0xbe09db3b	-0.13462536
243	0x3e4fb2d6	0.20283064
244	0x3e18a00a	0.149048
245	0xbc30c691	-0.010789529
246	0xbde7daa9	-0.11321003
247	0x3e40a991	0.18814684
248	0xbc67bddd	-0.014144388
249	0x3d04af08	0.032393485
250	0x3e17e346	0.14832792
251	0xbe0aa5ab	-0.1353976
252	0xbb8c025b	-0.0042727417
253	0x3e22e5d0	0.15907979
254	0x3d866024	0.06561306
255	0xbdac1c01	-0.08403779

sequential_7/dense_15/BiasAdd/ReadVariableOp f4 [7]
0	0xbc5e937a	-0.013584966
1	0x3b068c99	0.002053058
2	0x3a270b1e	0.0006372201
3	0x3af76371	0.001887424
4	0x3b3a7cf4	0.0028455826
5	0x3a785bef	0.00094741484
6	0xbb9287ad	-0.00447174

sequential_7/dense_14/BiasAdd/ReadVariableOp f4 [64]
0	0xbb0e5208	-0.0021716375
1	0xbbde32b9	-0.006780949
2	0xbb2a82a6	-0.0026017814
3	0xba13b808	-0.0005635028
4	0xbb00f793	-0.0019678816
5	0xbbc00118	-0.0058595054
6	0xba23c228	-0.0006246888
7	0xbb827ee9	-0.003982414
8	0xbab0d323	-0.0013490658
9	0x3b89218b	0.004184907
10	0x39df02d9	0.00042535996
11	0xb94c1db1	-0.00019466017
12	0x3ac5c12b	0.0015087476
13	0xb813e071	-3.525656e-05
14	0xbba56f0b	-0.0050486377
15	0xbbbe8e1c	-0.0058152806
16	0xbba6129f	-0.005068138
17	0xbb536a15	-0.0032259275
18	0xbb75691d	-0.0037446686
19	0xbb187631	-0.0023263807
20	0xbabee21c	-0.0014563235
21	0x3afc1be1	0.0019234383
22	0x3a7e460c	0.0009699769
23	0xbab40a5e	-0.0013736
24	0x3b4ec213	0.0031548783
25	0xbc1c63bf	-0.009545266
26	0xba738c72	-0.00092906423
27	0x3a068481	0.0005131439
28	0x3a4dcd49	0.0007850719
29	0xbb58f76e	-0.0033106464
30	0x38a2474f	7.738044e-05
31	0xbb4149af	-0.0029493382
32	0xbb7508f6	-0.0037389374
33	0xbbcd6068	-0.006267596
34	0xbacd125e	-0.0015645733
35	0xba99dc62	-0.0011738653
36	0x3a5f4e20	0.00085184164
37	0xba6ba1a4	-0.0008988625
38	0xbbb766bd	-0.005596964
39	0x3a71328e	0.00092009536
40	0xba6336c3	-0.0008667523
41	0xba5a76bd	-0.00083337334
42	0xbaf9daef	-0.001906244
43	0xbbafac42	-0.005361111
44	0xbade6099	-0.0016966044
45	0xba1069c7	-0.0005508926
46	0x3a091bbe	0.0005230269
47	0xbbf3ac49	-0.0074363095
48	0x39d59ef4	0.00040744955
49	0x39b08450	0.00033667916
50	0xbb2a92d0	-0.0026027448
51	0xbb814d5d	-0.00394599
52	0xbaf45c81	-0.0018643291
53	0xbaf612ca	-0.001877391
54	0xba0652ee	-0.0005124052
55	0xbb2214fd	-0.0024731748
56	0xbb84c438	-0.0040517114
57	0xbb4a0364	-0.0030824775
58	0x3a7ebc3a	0.0009717379
59	0xbb0be528	-0.0021346305
60	0xbb1c9384	-0.0023891637
61	0xbb3b6652	-0.0028594923
62	0xbb278bb1	-0.002556544
63	0xb9e44700	-0.00043540448

sequential_7/batch_normalization_35/FusedBatchNormV3 f4 [8]
0	0x3c81341d	0.01577192
1	0x3d7f89c6	0.06238725
2	0x3d8e3bb3	0.069449805
3	0x3c8875f3	0.016657805
4	0x3ddc8244	0.10767034
5	0x3ca04dcb	0.019568345
6	0x3c8733a2	0.016504113
7	0x3c22bc9b	0.009932662

sequential_7/batch_normalization_35/FusedBatchNormV31 f4 [8]
0	0xbf1416e6	-0.5784744
1	0xbf7af6ef	-0.9803304
2	0xbf4ff0dd	-0.81226903
3	0xbf163abb	-0.58683366
4	0xbf5f3700	-0.871933
5	0xbf51bda3	-0.8192999
6	0xbf4f86b1	-0.810649
7	0xbf1edc93	-0.6205532

sequential_7/batch_normalization_36/FusedBatchNormV3 f4 [8]
0	0x40497050	3.14748
1	0x405f0586	3.4847121
2	0x4038483b	2.8794086
3	0x402e512d	2.7237046
4	0x3f8139e5	1.0095793
5	0x3f969bac	1.1766257
6	0x3fbce8b3	1.4758514
7	0x3fb365b1	1.4015409

sequential_7/batch_normalization_36/FusedBatchNormV31 f4 [8]
0	0xbf9b39da	-1.212703
1	0xbf7de262	-0.9917356
2	0xbf9915a2	-1.1959727
3	0xbf96493f	-1.1741103
4	0xbeff8947	-0.49909422
5	0xbf53f27e	-0.8279189
6	0xbf72a7fa	-0.9478756
7	0xbf0b4cb0	-0.5441389

sequential_7/batch_normalization_37/FusedBatchNormV3 f4 [8]
0	0x3fe0dde6	1.7567718
1	0x3fdfce6a	1.7484868
2	0x3fe33e56	1.7753398
3	0x3fcc892e	1.5979364
4	0x3f6a3295	0.9148343
5	0x3fbee90c	1.491487
6	0x4043c43c	3.0588522
7	0x3fd8ab48	1.6927271

sequential_7/batch_normalization_37/FusedBatchNormV31 f4 [8]
0	0xbf1c34d4	-0.6101811
1	0xbf2a3e4b	-0.665013
2	0xbf438111	-0.76368815
3	0xbf90cd5e	-1.1312673
4	0xbf18dfc5	-0.59716445
5	0xbf1464d1	-0.57966334
6	0xbf737658	-0.95102453
7	0xbf3696fb	-0.7132413

sequential_7/batch_normalization_38/FusedBatchNormV3 f4 [8]
0	0x3ffc3206	1.9702766
1	0x3fb75acf	1.4324588
2	0x3fcc112f	1.5942744
3	0x4011a175	2.2754796
4	0x3fc3d344	1.5298848
5	0x3f443f50	0.7665911
6	0x3f8cf9a0	1.101368
7	0x403deddc	2.9676428

sequential_7/batch_normalization_38/FusedBatchNormV31 f4 [8]
0	0xbf38500e	-0.71997154
1	0xbf5db9a3	-0.86611384
2	0xbf6241b2	-0.88381493
3	0xbf8f6f91	-1.1205922
4	0xbf651c6c	-0.89496493
5	0xbf006142	-0.50148404
6	0xbef74cc9	-0.4830077
7	0xbfb46a65	-1.4094969

sequential_7/batch_normalization_39/FusedBatchNormV3 f4 [8]
0	0x3fd6781e	1.6755407
1	0x4014d303	2.3253791
2	0x3fa08be2	1.2542689
3	0x3fc03d54	1.5018716
4	0x3f6a829e	0.91605556
5	0x3fc655a3	1.5494884
6	0x3f9fc838	1.2482977
7	0x3feada21	1.8347818

sequential_7/batch_normalization_39/FusedBatchNormV31 f4 [8]
0	0xbf93ca0d	-1.1546036
1	0xbfaac537	-1.3341435
2	0xbf4e2e88	-0.8053975
3	0xbf5cb492	-0.8621303
4	0xbf43c6bb	-0.76475114
5	0xbf471e82	-0.77780926
6	0xbf421a27	-0.75821155
7	0xbf6383b2	-0.88872826

sequential_7/dense_14/MatMul i1 [64, 13520] scale=0.00030609945 zero_point=0
0	0xe5	-0.008264685
1	0xe0	-0.009795182
2	0xba	-0.02142696
3	0x39	0.017447669
4	0xfc	-0.0012243978
5	0x11	0.005203691
6	0x18	0.007346387
7	0xf3	-0.0039792927
8	0xdd	-0.01071348
9	0x37	0.01683547
10	0xe1	-0.009489083
11	0x08	0.0024487956
12	0x3b	0.018059868
13	0x01	0.00030609945
14	0xc1	-0.019284265
15	0xf6	-0.0030609944
16	0x1a	0.007958585
17	0x3e	0.018978165
18	0x29	0.012550077
19	0x36	0.01652937
20	0x34	0.01591717
21	0x29	0.012550077
22	0xea	-0.0067341877
23	0xcc	-0.01591717
24	0x3c	0.018365966
25	0xf2	-0.0042853924
26	0xec	-0.006121989
27	0xc8	-0.01714157
28	0xd4	-0.013468375
29	0x1f	0.009489083
30	0xe4	-0.008570785
31	0x47	0.02173306
32	0x0d	0.0039792927
33	0x45	0.021120861
34	0x17	0.0070402874
35	0x1b	0.008264685
36	0x0d	0.0039792927
37	0xab	-0.026018454
38	0x0c	0.0036731935
39	0xfd	-0.0009182984
40	0xc5	-0.018059868
41	0xfb	-0.0015304972
42	0x1a	0.007958585
43	0x10	0.004897591
44	0xd2	-0.014080575
45	0x02	0.0006121989
46	0xe6	-0.007958585
47	0xfd	-0.0009182984
48	0x3a	0.017753769
49	0xd0	-0.014692774
50	0x04	0.0012243978
51	0xec	-0.006121989
52	0x03	0.0009182984
53	0x36	0.01652937
54	0x11	0.005203691
55	0x1c	0.008570785
56	0xeb	-0.0064280885
57	0x08	0.0024487956
58	0xc4	-0.018365966
59	0x1c	0.008570785
60	0x0f	0.0045914915
61	0xd3	-0.013774475
62	0x2b	0.013162277
63	0x16	0.0067341877
64	0xe7	-0.007652486
65	0x20	0.009795182
66	0x27	0.011937878
67	0xd0	-0.014692774
68	0x15	0.0064280885
69	0x30	0.014692774
70	0xb8	-0.02203916
71	0xfd	-0.0009182984
72	0x30	0.014692774
73	0x16	0.0067341877
74	0xd6	-0.012856177
75	0x00	0.0
76	0xe5	-0.008264685
77	0x42	0.020202564
78	0xf4	-0.0036731935
79	0x16	0.0067341877
80	0x2f	0.014386674
81	0x4d	0.023569658
82	0xcf	-0.014998873
83	0xf2	-0.0042853924
84	0x27	0.011937878
85	0xd9	-0.011937878
86	0x01	0.00030609945
87	0xf8	-0.0024487956
88	0x20	0.009795182
89	0xef	-0.005203691
90	0xde	-0.010407382
91	0xe0	-0.009795182
92	0x4a	0.02265136
93	0xb8	-0.02203916
94	0xf7	-0.002754895
95	0xd9	-0.011937878
96	0x12	0.00550979
97	0xee	-0.00550979
98	0xe1	-0.009489083
99	0xee	-0.00550979
100	0xee	-0.00550979
101	0xbb	-0.021120861
102	0x0b	0.0033670939
103	0xd6	-0.012856177
104	0xd5	-0.013162277
105	0xcb	-0.01622327
106	0x2e	0.014080575
107	0xd0	-0.014692774
108	0xd7	-0.012550077
109	0xed	-0.0058158897
110	0x1f	0.009489083
111	0xd0	-0.014692774
112	0x08	0.0024487956
113	0xda	-0.011631779
114	0xc9	-0.01683547
115	0x08	0.0024487956
116	0x0a	0.0030609944
117	0x25	0.01132568
118	0x25	0.01132568
119	0x05	0.0015304972
120	0x01	0.00030609945
121	0x1d	0.008876884
122	0x1b	0.008264685
123	0xe5	-0.008264685
124	0x3e	0.018978165
125	0xe9	-0.0070402874
126	0xbc	-0.020814763
127	0xf9	-0.0021426962
128	0x21	0.010101282
129	0x1f	0.009489083
130	0x3d	0.018672066
131	0xf8	-0.0024487956
132	0x07	0.0021426962
133	0xd0	-0.014692774
134	0xb5	-0.02295746
135	0x2c	0.013468375
136	0xcd	-0.015611072
137	0x06	0.0018365968
138	0xde	-0.010407382
139	0xe8	-0.007346387
140	0xf6	-0.0030609944
141	0xca	-0.01652937
142	0xe1	-0.009489083
143	0xf7	-0.002754895
144	0xc4	-0.018365966
145	0xd0	-0.014692774
146	0xf9	-0.0021426962
147	0x0b	0.0033670939
148	0xf5	-0.0033670939
149	0xd0	-0.014692774
150	0x35	0.01622327
151	0xd9	-0.011937878
152	0xe1	-0.009489083
153	0xf3	-0.0039792927
154	0xae	-0.025100155
155	0xcd	-0.015611072
156	0x1a	0.007958585
157	0xf9	-0.0021426962
158	0x0a	0.0030609944
159	0x39	0.017447669
160	0x46	0.02142696
161	0x38	0.01714157
162	0xbe	-0.020202564
163	0x04	0.0012243978
164	0xe5	-0.008264685
165	0x07	0.0021426962
166	0xfb	-0.0015304972
167	0x23	0.01071348
168	0x2c	0.013468375
169	0x35	0.01622327
170	0xe4	-0.008570785
171	0x06	0.0018365968
172	0xe4	-0.008570785
173	0xe6	-0.007958585
174	0xed	-0.0058158897
175	0xfa	-0.0018365968
176	0xfc	-0.0012243978
177	0xbe	-0.020202564
178	0xe7	-0.007652486
179	0xdc	-0.01101958
180	0xff	-0.00030609945
181	0xb2	-0.023875756
182	0xd6	-0.012856177
183	0xf7	-0.002754895
184	0x2c	0.013468375
185	0x38	0.01714157
186	0x40	0.019590365
187	0xe7	-0.007652486
188	0xe3	-0.008876884
189	0x04	0.0012243978
190	0xd9	-0.011937878
191	0xe6	-0.007958585
192	0x30	0.014692774
193	0xef	-0.005203691
194	0xcf	-0.014998873
195	0x2b	0.013162277
196	0x0a	0.0030609944
197	0xf3	-0.0039792927
198	0xdf	-0.010101282
199	0xc4	-0.018365966
200	0xff	-0.00030609945
201	0xe3	-0.008876884
202	0x37	0.01683547
203	0xd5	-0.013162277
204	0xdb	-0.01132568
205	0xfd	-0.0009182984
206	0xe4	-0.008570785
207	0x14	0.006121989
208	0x33	0.015611072
209	0x2a	0.012856177
210	0xba	-0.02142696
211	0x03	0.0009182984
212	0x00	0.0
213	0xc5	-0.018059868
214	0x1e	0.009182983
215	0x07	0.0021426962
216	0x23	0.01071348
217	0x29	0.012550077
218	0x32	0.015304972
219	0xb9	-0.02173306
220	0x39	0.017447669
221	0xf4	-0.0036731935
222	0xb9	-0.02173306
223	0x34	0.01591717
224	0x36	0.01652937
225	0xf4	-0.0036731935
226	0x2d	0.013774475
227	0xf6	-0.0030609944
228	0xc1	-0.019284265
229	0x21	0.010101282
230	0xb3	-0.023569658
231	0xc9	-0.01683547
232	0xff	-0.00030609945
233	0xce	-0.015304972
234	0xde	-0.010407382
235	0xf4	-0.0036731935
236	0xdb	-0.01132568
237	0x2f	0.014386674
238	0xfd	-0.0009182984
239	0xe1	-0.009489083
240	0xd1	-0.014386674
241	0x09	0.002754895
242	0x19	0.007652486
243	0xbd	-0.020508664
244	0x28	0.012243978
245	0xf7	-0.002754895
246	0x1c	0.008570785
247	0x3f	0.019284265
248	0x44	0.020814763
249	0x1a	0.007958585
250	0x2a	0.012856177
251	0xf3	-0.0039792927
252	0x4f	0.024181856
253	0xcd	-0.015611072
254	0x22	0.010407382
255	0x31	0.014998873
