saved_model/quantized_models/layers5/trial3/paramcount433831.tflite (tflite, 446296 bytes, 24 tensors)

sequential_3/dense_7/MatMul f4 [7, 64]
-0.19475539 0.008154262 0.18664841 0.0058626537 0.18429625 0.14872035 -0.2991453 -0.04743898
-0.083910406 -0.05044586 0.16689007 -0.16923662 -0.16622426 0.18712732 -0.09177052 0.15584032
0.19978563 0.14712542 0.26626843 -0.017412111 0.1667348 -0.25492883 0.21630383 -0.16123132
0.13362671 0.10235829 -0.28321916 0.0011404448 -0.21539867 -0.2532511 0.10158009 -0.29818726
-0.21005656 0.14717573 0.16471438 0.11686534 -0.033200976 -0.15464298 -0.22281541 0.011692507
-0.19446117 -0.19533305 -0.033224642 -0.12708476 0.16138813 -0.2906974 0.061489984 0.07279052
0.18923454 -0.0064880904 0.10587291 0.09949348 0.24722236 -0.0439238 0.27891472 -0.26873276
0.15563428 -0.12006194 0.005177291 0.21053855 -0.2169646 -0.02194325 0.045994263 -0.017079374
0.25205323 0.006153209 -0.27332607 -0.02709522 0.010349486 0.28120917 -0.09553683 0.19288951
0.082965925 0.07568669 -0.2698968 0.16759387 -0.16227204 -0.07148184 -0.045717716 -0.1932907
0.1788575 -0.11905796 -0.14245208 -0.17991257 0.16280617 -0.28976396 0.12929192 0.1460544
-0.14348063 0.09265272 -0.2874838 0.17123523 0.15541264 -0.22135156 0.16258709 0.16535592
0.123218626 -0.24773242 0.24028991 -0.024941672 -0.23952945 -0.2325078 -0.287413 0.27155685
-0.08699021 0.09825619 0.13506497 0.0020664379 -0.122617096 0.13518813 0.0033570172 0.25821242
0.0030226274 0.018177709 0.073241055 0.194926 -0.10070291 0.1936458 -0.12694256 -0.1590272
0.12082086 -0.057342786 -0.12972021 -0.203461 0.06440662 0.035237946 0.27224502 0.06070812
-0.21349944 -0.27386552 0.10761761 0.09863284 0.101260364 0.050254874 -0.090674974 0.25249934
-0.21787414 -0.038631525 -0.03442515 -0.11392439 -0.010866736 0.0056440746 -0.20257829 -0.19596906
0.038775068 -0.1509012 0.013301665 0.247816 0.067913026 -0.10404271 0.049252313 0.1969512
0.27816746 0.15078673 0.15217324 0.03724358 -0.01628369 -0.23930067 -0.13705078 -0.011679149
0.2487892 -0.17493008 0.026929919 -0.03145654 -0.27098253 -0.05790423 -0.07268327 -0.06615956
-0.19031586 0.00795908 0.027304107 -0.07248674 -0.20028447 0.04588294 -0.013092287 0.11269701
-0.09422202 -0.107152335 0.1230961 0.05685871 -0.11543466 -0.12829886 0.20746417 -0.06829792
0.19689803 0.039811604 0.14617227 -0.17364213 -0.15297988 0.10387535 -0.077785105 -0.13783565
-0.25137255 0.13597324 0.045091398 -0.26182836 0.029363435 -0.017701589 0.22369067 0.10009275
-0.23376396 0.25158906 0.19854954 -0.11248198 0.21489778 0.058398955 -0.08603222 0.22842501
0.2633621 0.02917233 -0.17094533 0.21746555 0.086452916 -0.0021180226 0.016273426 0.13400432
0.2864482 0.17425069 -0.2815583 -0.10080218 -0.22796597 -0.115198985 0.13589464 -0.2710624
-0.19243763 -0.2786365 -0.06509484 0.14804912 -0.21526374 -0.20901132 0.1515681 -0.16965131
-0.20136723 0.25252807 0.061688613 0.06320553 0.005021937 -0.24758054 0.28477004 0.2252863
-0.25142452 -0.20518546 -0.23647596 -0.27094376 -0.25617236 -0.2661243 -0.056562316 -0.02731388
0.060504846 -0.07930113 -0.08025282 -0.29405096 -0.14262302 -0.261875 0.20122163 0.22447795
00000000: f56d 47be 7499 053c c320 3f3e 811b c03b
00000010: 28b8 3c3e 264a 183e 9329 99be 604f 42bd
00000020: 38d9 abbd 51a0 4ebd 3be5 2a3e 5d4c 2dbe
00000030: b136 2abe 4e9e 3f3e 2ff2 bbbd 9b94 1f3e
00000040: 9b94 4c3e 0ca8 163e 5654 883e d8a3 8ebc
00000050: 87bc 2a3e 0886 82be c07e 5d3e d319 25be
00000060: 71d5 083e 39a1 d13d 1a02 91be fa7a 953a
00000070: 7891 5cbe 21aa 81be 3909 d03d 00ac 98be
00000080: 1119 57be 3cb5 163e e3aa 283e 1857 ef3d
00000090: bffd 07bd bb5a 1ebe b929 64be ee91 3f3c
000000a0: d420 47be 6305 48be 9016 08bd 8222 02be
000000b0: ee42 253e 4ad6 94be ecdc 7b3d 3213 953d
000000c0: b3c6 413e 0c9a d4bb e5d3 d83d 3dc3 cb3d
000000d0: dc27 7d3e 71e9 33bd e9cd 8e3e 5797 89be
000000e0: 985e 1f3e 09e3 f5bd 44a6 a93b 6b97 573e
000000f0: f82b 5ebe 55c2 b3bc 7b64 3c3d 0bea 8bbc
00000100: 1f0d 813e dca0 c93b 65f1 8bbe cbf6 ddbc
00000110: e490 293c a6fa 8f3e d0a8 c3bd d484 453e
00000120: 0aea a93d a001 9b3d ea2f 8abe ba9d 2b3e
00000130: a42a 26be 1265 92bd 8042 3bbd ffed 45be
00000140: 6c26 373e a9d4 f3bd f5de 11be 003b 38be
00000150: a9b6 263e f15b 94be 1a65 043e 498f 153e
00000160: 96ec 12be b6c0 bd3d 1431 93be 4a58 2f3e
00000170: 7e24 1f3e fca9 62be 3b7d 263e 1053 293e
00000180: 0c5a fc3d 91ad 7dbe 8f0e 763e 7a52 ccbc
00000190: 3547 75be 8616 6ebe cc27 93be 8009 8b3e
000001a0: ec27 b2bd 8b3a c93d 794e 0a3e 136d 073b
000001b0: ac1e fbbd c26e 0a3e 6701 5c3b 6b34 843e
000001c0: 4617 463b 6be9 943c 68ff 953d ae9a 473e
000001d0: 543d cebd 164b 463e 3bfd 01be 07d8 22be
000001e0: ed70 f73d 45e0 6abd 60d5 04be 1558 50be
000001f0: 9ee7 833d aa55 103d b363 8b3e 14a9 783d
00000200: 999f 5abe 1a38 8cbe 9f66 dc3d 0400 ca3d
00000210: 9861 cf3d 0ed8 4d3d cdb3 b9bd 9847 813e
00000220: 661a 5fbe 173c 1ebd 6301 0dbd 3151 e9bd
00000230: 650a 32bc eef1 b83b af70 4fbe 1dac 48be
00000240: 9bd2 1e3d d885 1abe 3aef 593c 7ac3 7d3e
00000250: fc15 8b3d 5814 d5bd cbbc 493d 93ad 493e
00000260: f76b 8e3e d667 1a3e 4dd3 1b3e b98c 183d
00000270: 6065 85bc 3c0b 75be 0a57 0cbe e759 3fbc
00000280: 99c2 7e3e df20 33be 229c dc3c 93d8 00bd
00000290: 39be 8abe fc2c 6dbd f7da 94bd aa7e 87bd
000002a0: 29e2 42be cd66 023c ddac df3c ee73 94bd
000002b0: 5f17 4dbe c0ef 3b3d 0881 56bc b1cd e63d
000002c0: 79f7 c0bd af72 dbbd cf19 fc3d aee4 683d
000002d0: 0269 ecbd c760 03be 7d71 543e c8df 8bbd
000002e0: a39f 493e 7e11 233d 2fae 153e 3ecf 31be
000002f0: c2a6 1cbe 99bc d43d cc4d 9fbd ca24 0dbe
00000300: e7b3 80be 923c 0b3e c2b1 383d 5e0e 86be
00000310: 968b f03c ec02 91bc 2b0f 653e 6dfd cc3d
00000320: d25f 6fbe 48d0 803e 9250 4b3e f45c e6bd
00000330: 2a0e 5c3e be33 6f3d a931 b0bd 3fe8 693e
00000340: 66d7 863e cffa ee3c 4b0c 2fbe 4aaf 5e3e
00000350: 3a0e b13d 86ce 0abb d94f 853c 6e38 093e
00000360: 57a9 923e c66e 323e 6928 90be 6071 cebd
00000370: e96f 69be 72ed ebbd f727 0b3e b1c8 8abe
00000380: 5f0e 45be 71a9 8ebe 7250 85bd 309a 173e
00000390: 196e 5cbe 1007 56be ab34 1b3e 13b9 2dbe
000003a0: 3633 4ebe 5c4b 813e 33ad 7c3d e771 813d
000003b0: 108f a43b c185 7dbe 61cd 913e 74b1 663e
000003c0: b7ba 80be 231c 52be c126 72be 24b9 8abe
000003d0: 0629 83be 7241 88be e3ad 67bd 5cc1 dfbc
000003e0: eed3 773d a168 a2bd 975b a4bd d98d 96be
000003f0: c50b 12be 7b14 86be 0b0d 4e3e 8cdd 653e

sequential_3/conv2d_15/BiasAdd/ReadVariableOp f4 [4]
0.012011649 -0.002968038 -0.009739853 -0.0068651065
00000000: 82cc 443c 6a83 42bb e893 1fbc b0f4 e0bb

sequential_3/conv2d_16/BiasAdd/ReadVariableOp f4 [4]
-0.00014873523 -0.012017636 0.0045074015 0.008728887
00000000: cff5 1bb9 9ee5 44bc d3b2 933b 9b03 0f3c

sequential_3/conv2d_17/BiasAdd/ReadVariableOp f4 [4]
0.0013938189 -0.0022021895 0.0128552215 -0.012544561
00000000: cdb0 b63a 9c52 10bb b59e 523c b487 4dbc

sequential_3/conv2d_18/BiasAdd/ReadVariableOp f4 [4]
0.009399407 0.0021981031 0.009596964 -0.016821811
00000000: f8ff 193c 0d0e 103b 963c 1d3c e5cd 89bc

sequential_3/conv2d_19/BiasAdd/ReadVariableOp f4 [4]
0.0043464447 -0.005610711 0.002643266 0.01196313
00000000: 9f6c 8e3b 0eda b7bb a53a 2d3b 0101 443c

sequential_3/conv2d_15/Conv2D f4 [4, 3, 3, 1]
0.13476667 0.13536805 0.2236776 -0.31149882 0.31322312 0.08260818 0.26111946 -0.18890856
-0.3163461 0.028382989 -0.23993494 -0.003689757 0.21948496 -0.27903983 0.037893385 0.21833694
0.2175775 -0.18536885 -0.27855748 0.17504318 0.2162509 -0.24171178 0.26307243 -0.20003675
0.074389935 -0.31480092 -0.28222936 0.13795517 0.2245762 0.17541638 -0.25826132 -0.015863933
0.3251108 -0.014312906 -0.06292625 -0.15141451
00000000: 4600 0a3e ec9d 0a3e be0b 653e c67c 9fbe
00000010: c85e a03e 7a2e a93d 73b1 853e 3f71 41be
00000020: 1ef8 a1be 7183 e83c 81b1 75be dacf 71bb
00000030: aac0 603e 4fde 8ebe 1836 1b3d b893 5f3e
00000040: a3cc 5e3e 55d1 3dbe 169f 8ebe 853e 333e
00000050: e070 5d3e 4b83 77be 6eb1 863e 6fd6 4cbe
00000060: c059 983d 962d a1be 5e80 90be 1f44 0d3e
00000070: 4ef7 653e 5aa0 333e d43a 84be 14f5 81bc
00000080: ec74 a63e ae80 6abc 7adf 80bd 680c 1bbe

sequential_3/conv2d_16/Conv2D f4 [4, 3, 3, 4]
-0.117529295 -0.12301064 -0.056634035 -0.10330639 -0.21801025 -0.17048188 -0.07958772 -0.18928029
-0.055678412 0.21157466 0.15869318 0.269291 -0.2806035 -0.08647887 -0.053529214 0.18062995
-0.03161398 0.27506253 -0.16640186 -0.116771966 0.15165561 -0.13740262 0.22972736 0.27838793
-0.20621169 0.007654942 -0.20611346 -0.26930374 0.2756172 0.24801403 0.06362028 0.2119438
-0.1613104 0.25303885 0.2751454 0.28001982 0.1290594 -0.23611736 0.08007465 -0.16229251
-0.2593552 0.24146073 0.27782145 0.16124004 -0.15379971 -0.2938713 -0.08742402 0.091047145
0.03746258 0.1906443 0.111290865 -0.22616558 -0.061599787 -0.18815039 -0.14637242 -0.14875326
-0.19358754 -0.012882209 0.110219456 -0.043743204 0.13210632 -0.05026741 0.22677343 -0.038265374
-0.22526944 0.23007283 -0.028757716 -0.036522917 0.176485 0.19164298 0.09159329 0.2527015
-0.08018978 0.211454 0.2677113 0.080119 0.16555904 0.112780385 -0.23110731 -0.047203604
0.12260954 0.040786244 0.21979275 0.014505371 0.21424514 -0.08726966 -0.23240222 -0.27514753
0.15479945 0.21879558 0.21167862 -0.27321112 -0.26715544 0.2189839 0.06820187 0.26794133
0.030295268 -0.07215517 -0.29609528 -0.20269789 -0.009084248 0.25911617 0.13693906 -0.14914045
0.005491512 -0.11560983 0.030960504 -0.14300755 0.1485789 0.17199312 -0.15161622 0.18274178
0.19954586 0.026256599 -0.05971334 -0.03245865 -0.03938703 0.019254152 0.28068197 -0.27667785
0.27715632 0.008052609 -0.28946918 -0.068736345 0.027502358 -0.27374637 0.17262132 -0.10815082
0.26242685 0.06509515 0.2683874 -0.19734435 0.027727842 0.25361556 -0.10370513 0.11216227
0.16122326 -0.2619239 -0.105623044 0.2535803 0.1075175 -0.18727785 -0.05198793 -0.13961925
00000000: 33b3 f0bd 01ed fbbd 17f9 67bd 4d92 d3bd
00000010: 143e 5fbe cd92 2ebe e3fe a2bd b1d2 41be
00000020: 0c0f 64bd 07a7 583e 7780 223e 83e0 893e
00000030: 43ab 8fbe d51b b1bd 7341 5bbd 0ff7 383e
00000040: a97d 01bd ffd4 8c3e 4065 2abe 2426 efbd
00000050: 9c4b 1b3e 46b3 0cbe a63d 6b3e dd88 8e3e
00000060: 2829 53be 4fd6 fa3b 680f 53be 2ee2 89be
00000070: b31d 8d3e 64f7 7d3e 594b 823d cc07 593e
00000080: 8e2e 25be 4f8e 813e dcdf 8c3e c25e 8f3e
00000090: 2628 043e c0c8 71be 2efe a33d 0230 26be
000000a0: 34ca 84be 7b41 773e 9d3e 8e3e 1c1c 253e
000000b0: ac7d 1dbe 4d76 96be 5d0b b3bd ed76 ba3d
000000c0: 5d72 193d 4238 433e 77ec e33d f397 67be
000000d0: 0f50 7cbd 7faa 40be a7e2 15be c652 18be
000000e0: d03b 46be e70f 53bc bdba e13d 132c 33bd
000000f0: e146 073e 33e5 4dbd 4b37 683e 27bc 1cbd
00000100: 08ad 66be 3698 6b3e 4d95 ebbc 0e99 15bd
00000110: 7cb8 343e 0f3e 443e 4395 bb3d 1762 813e
00000120: 8a3a a4bd 6687 583e 7511 893e 6e15 a43d
00000130: 4f88 293e 67f9 e63d 65a7 6cbe 9158 41bd
00000140: b61a fb3d 7a0f 273d 5a11 613e f0a7 6d3c
00000150: 1463 5b3e 6fba b2bd d9fa 6dbe 23e0 8cbe
00000160: bf83 1e3e f30b 603e 48c2 583e 54e2 8bbe
00000170: 99c8 88be 513d 603e 6cad 8b3d 9b2f 893e
00000180: c82d f83c 17c6 93bd cd99 97be 0990 4fbe
00000190: 19d6 14bc e0aa 843e c139 0c3e 46b8 18be
000001a0: 24f2 b33b d9c4 ecbd e2a0 fd3c 9270 12be
000001b0: 1125 183e f71e 303e 4841 1bbe a920 3b3e
000001c0: c055 4c3e 1418 d73c fa95 74bd 5df3 04bd
000001d0: 4b54 21bd e2ba 9d3c 8cb5 8f3e b8a8 8dbe
000001e0: 6fe7 8d3e 17ef 033c 4e35 94be a4c5 8cbd
000001f0: a04c e13c 7c28 8cbe a5c3 303e 2d7e ddbd
00000200: d05c 863e 9b50 853d 136a 893e a314 4abe
00000210: 8025 e33c e6d9 813e 5b63 d4bd 55b5 e53d
00000220: b617 253e e41a 86be e550 d8bd 47d5 813e
00000230: 2332 dc3d c4c5 3fbe 4cf1 54bd 59f8 0ebe

sequential_3/conv2d_17/Conv2D f4 [4, 3, 3, 4]
-0.13645983 -0.15449941 0.06706891 -0.27580062 0.2449255 0.10829047 0.038387675 -0.04087235
0.106299035 -0.112225875 0.19655466 -0.12701376 -0.22864905 0.24083582 -0.27776495 -0.025997957
0.18135053 0.27286983 -0.21362232 0.1884934 0.22065854 -0.24157013 0.0700121 0.14275444
-0.12409366 -0.13062581 -0.2826417 -0.23264553 0.07267075 0.07505224 0.1330902 -0.18475358
0.11816558 0.1105133 -0.11443152 -0.14913495 -0.040123314 0.0009264301 0.1329205 0.27288073
0.16361809 0.08446318 0.27346495 -0.24405304 0.032842066 -0.20583285 0.18272553 0.2382206
-0.24903351 -0.038873024 0.13622749 -0.036931854 0.14154337 0.120715 -0.22224012 0.24121241
0.02020638 0.086662136 0.27314377 0.05253364 0.053914014 0.16369887 0.26888558 -0.18462346
-0.02884028 -0.2054018 -0.039521717 0.1796286 0.10627689 -0.019405583 -0.23234685 -0.12853912
0.28735775 -0.037507243 0.13249846 0.123720385 -0.28089017 0.14526507 0.14687033 0.011498561
-0.15690054 0.18637675 -0.02847993 0.06951077 -0.2403929 -0.15297991 -0.27265933 0.15710597
-0.22593425 0.08947493 0.1282222 -0.08926315 0.024186518 -0.2436459 0.23539038 0.030119592
-0.18822725 -0.028441306 -0.25679326 -0.19368325 -0.19441669 0.13678476 -0.15133128 0.029512554
-0.17440055 -0.18387385 -0.013960276 -0.08509617 0.16291946 -0.14434685 -0.21484724 0.24407658
-0.18439944 -0.19123718 -0.23298648 0.008514688 -0.16788535 0.18141025 -0.24769653 -0.19840166
-0.26896513 0.019679835 0.17877825 -0.011769995 -0.118681185 0.0981131 -0.14971569 0.19332577
0.2741853 0.16641219 0.12817314 -0.23797785 0.15787491 0.014405232 0.111955784 0.22025268
0.1161503 -0.037429154 -0.06960297 0.013826725 0.050882164 0.22724137 -0.19980732 0.07844619
00000000: 20bc 0bbe 1835 1ebe 6d5b 893d bd35 8dbe
00000010: c0cd 7a3e 65c7 dd3d 653c 1d3d c469 27bd
00000020: 4fb3 d93d aed6 e5bd a045 493e e50f 02be
00000030: fa22 6abe aa9d 763e 3537 8ebe abf9 d4bc
00000040: f4b3 393e 98b5 8b3e cfbf 5abe 6a04 413e
00000050: 50f4 613e 295e 77be 8162 8f3d 382e 123e
00000060: d124 febd c6c2 05be 6ab6 90be a13a 6ebe
00000070: 67d4 943d fdb4 993d cc48 083e 0b30 3dbe
00000080: cc00 f23d cc54 e23d 135b eabd d5b6 18be
00000090: 5858 24bd acdb 723a 501c 083e 06b7 8b3e
000000a0: 808b 273e 08fb ac3d 9903 8c3e 0ae9 79be
000000b0: 6785 063d d9c5 52be 671c 3b3e 1af0 733e
000000c0: a402 7fbe 5239 1fbd 387f 0b3e db45 17bd
000000d0: bff0 103e 6d39 f73d ea92 63be 6300 773e
000000e0: da87 a53c eb7b b13d 80d9 8b3e 842d 573d
000000f0: f1d4 5c3d ada0 273e 5fab 893e ef0d 3dbe
00000100: 7342 ecbc d954 52be 86e1 21bd 8ff0 373e
00000110: b3a7 d93d 75f8 9ebc 55ec 6dbe c29f 03be
00000120: 8e20 933e 32a1 19bd adad 073e 1d61 fd3d
00000130: d6d0 8fbe 5ec0 143e 2d65 163e 7664 3c3c
00000140: 89aa 20be 8cd9 3e3e be4e e9bc aa5b 8e3d
00000150: 8e29 76be c4a6 1cbe 019a 8bbe 63e0 203e
00000160: 4f5b 67be a23e b73d ae4c 033e 99cf b6bd
00000170: ce22 c63c 507e 79be 2d0a 713e 5dbd f63c
00000180: a5be 40be befd e8bc 687a 83be e754 46be
00000190: 2b15 47be 4e11 0c3e 96f6 1abe 50c4 f13c
000001a0: 0f96 32be 6d49 3cbe a4b9 64bc e746 aebd
000001b0: 5cd4 263e a9cf 13be ea00 5cbe 36ef 793e
000001c0: 35d3 3cbe aed3 43be 0294 6ebe 3181 0b3c
000001d0: 23ea 2bbe 9cc3 393e 29a4 7dbe ce29 4bbe
000001e0: ccb5 89be 9b37 a13c a511 373e f0d6 40bc
000001f0: 1f0f f3bd 85ef c83d 124f 19be 31f7 453e
00000200: 0462 8c3e f567 2a3e d23f 033e 77b0 73be
00000210: f6a9 213e ec03 6c3c 1349 e53d eb89 613e
00000220: 35e0 ed3d 504f 19bd 008c 8ebd 7d89 623c
00000230: d169 503d f6b1 683e 4a9a 4cbe 65a8 a03d

sequential_3/conv2d_18/Conv2D f4 [4, 3, 3, 4]
-0.15288106 -0.19551806 -0.03532513 -0.10344003 0.014551779 0.2747603 -0.23836751 0.1397202
-0.1965767 -0.1875939 0.085076675 0.28652284 -0.26505703 -0.14523086 -0.2814535 -0.20221487
-0.26445144 -0.16828108 0.025841432 0.24739935 0.21491309 -0.28458107 -0.26724946 -0.09420005
-0.2541835 -0.027765654 0.11614641 -0.24643672 0.09416602 0.07386774 0.0062629688 0.0093191415
0.135945 -0.11855766 -0.105370246 0.117014594 0.11760971 -0.06170953 -0.10345127 -0.15533558
0.20921664 0.07821243 -0.1184172 0.12871648 -0.26504385 -0.21985082 0.26167387 -0.16150399
0.16348588 -0.29153138 0.23116896 -0.29170895 0.08363788 0.11500373 0.28050545 0.13540272
-0.14086775 -0.1999508 -0.104710355 -0.08350494 0.21183142 -0.010624467 -0.0112737045 0.022999665
-0.25600874 -0.1707895 -0.1871391 0.06673236 0.2134071 0.028574266 -0.23446576 -0.04733022
-0.13609959 -0.22056007 0.026667565 0.20172112 -0.15925299 0.23693767 0.12007524 0.13395445
0.18324974 0.05897136 -0.23446429 0.22050546 -0.008506465 -0.27890477 -0.18545146 -0.252656
-0.1748008 -0.01901374 -0.12035837 -0.17171746 0.05501772 -0.17968982 0.280253 0.20810068
0.10729716 0.20787859 -0.20944183 0.2625364 -0.19027784 -0.036472943 0.22177419 -0.28729504
0.027068302 0.009411201 0.29414278 -0.11248214 0.22154468 0.11601296 -0.068855636 0.15780938
-0.03055678 0.12623417 -0.26955864 -0.17946932 -0.14986451 -0.114854984 0.21721321 -0.2666907
0.18730846 -0.14526755 -0.00806901 0.025287697 0.073341385 -0.2773529 -0.27507386 0.023629483
0.11402788 0.2230075 -0.20171817 0.06362469 -0.16289717 0.09840191 -0.10043029 0.17646141
0.13326229 -0.24304889 -0.12256261 0.15877426 0.06918724 0.08879059 0.21504065 0.1604783
00000000: da8c 1cbe e335 48be 15b1 10bd 5ed8 d3bd
00000010: 966a 6e3c 62ad 8c3e 9d16 74be d012 0f3e
00000020: 674b 49be 9e18 40be ae3c ae3d 1fb3 923e
00000030: 8eb5 87be 66b7 14be ac1a 90be 6a11 4fbe
00000040: 2e66 87be e051 2cbe 69b1 d33c 4156 7d3e
00000050: 2d12 5c3e 9cb4 91be ecd4 88be f5eb c0bd
00000060: 5724 82be cc74 e3bc 2bde ed3d e859 7cbe
00000070: 1dda c03d f847 973d 9739 cd3b 50af 183c
00000080: 2b35 0b3e 5cce f2bd 5bcc d7bd 59a5 ef3d
00000090: 5cdd f03d 22c3 7cbd 42de d3bd 4a10 1fbe
000000a0: e33c 563e d72d a03d b884 f2bd 41ce 033e
000000b0: d4b3 87be 9320 61be 1efa 853e 4d61 25be
000000c0: d868 273e 9a43 95be 8eb7 6c3e e05a 95be
000000d0: 564a ab3d 1387 eb3d 699e 8f3e 03a7 0a3e
000000e0: a33f 10be e7bf 4cbe 6272 d6bd a304 abbd
000000f0: 56ea 583e 3f12 2ebc 58b5 38bc cb69 bc3c
00000100: 9413 83be 71e3 2ebe 64a1 3fbe faaa 883d
00000110: 6487 5a3e 9414 ea3c cb17 70be 55dd 41bd
00000120: b15d 0bbe 80da 61be f075 da3c fb8f 4e3e
00000130: 3713 23be ca9f 723e 02ea f53d 5b2b 093e
00000140: d2a5 3b3e f48b 713d 6817 70be 2fcc 613e
00000150: b35e 0bbc 9bcc 8ebe fde6 3dbe 215c 81be
00000160: fbfe 32be b4c2 9bbc 737e f6bd b4d6 2fbe
00000170: 435a 613d 9c00 38be 527d 8f3e 5818 553e
00000180: 9dbe db3d 20de 543e eb77 56be 2c6b 863e
00000190: 32d8 42be a764 15bd c618 633e 5618 93be
000001a0: 58be dd3c 7031 1a3c e299 963e 095d e6bd
000001b0: 9cdc 623e 3498 ed3d 2f04 8dbd c898 213e
000001c0: 3652 fabc 8843 013e 9703 8abe cec6 37be
000001d0: 1576 19be 1739 ebbd 246d 5e3e af8b 88be
000001e0: cacd 3f3e 04c1 14be e233 04bc 2528 cf3c
000001f0: 0234 963d 3301 8ebe 7bd6 8cbe 9e92 c13c
00000200: 7387 e93d 145c 643e 358f 4ebe a94d 823d
00000210: 84ce 26be f186 c93d 65ae cdbd 4db2 343e
00000220: e975 083e cfe1 78be 1b02 fbbd b895 223e
00000230: 0ab2 8d3d d7d7 b53d 9e33 5c3e 6c54 243e

sequential_3/conv2d_19/Conv2D f4 [4, 3, 3, 4]
-0.110004954 0.1946535 -0.051107552 -0.271349 -0.26996663 -0.26931605 0.2356995 -0.17314172
0.13956894 -0.054624658 0.109304406 0.18571728 0.14899382 -0.075706005 0.27102473 -0.16304827
-0.28246483 0.079778396 -0.14566536 0.01950289 -0.071344286 0.2782985 -0.14157717 -0.1595622
-0.122694 0.11065822 -0.17448334 -0.10376125 -0.081630714 0.12771873 -0.24207589 0.24005042
0.27154043 -2.6534064e-05 -0.050059546 0.22492406 -0.1330734 0.059616875 0.05263494 -0.18322118
0.14431782 -0.24707118 0.1735028 -0.28813204 -0.18571147 0.047335204 -0.020072287 -0.02596553
0.25284737 -0.17182598 -0.060864154 0.16703968 0.20139174 0.09886362 0.2251332 -0.048633836
0.0035614525 0.04015638 0.104836755 0.08434133 0.05087841 0.19230631 0.041623965 0.10258463
0.28213528 0.12952723 -0.17929392 0.11183143 0.08036155 0.15496206 0.112846635 0.08827866
0.18573797 -0.050426036 0.1597571 0.08918236 -0.07153426 -0.10919647 -0.2098747 -0.27990085
-0.28421357 0.26630548 -0.007890578 -0.071122594 -0.04123778 -0.188362 0.11324416 0.07327652
0.20812316 0.16824976 0.17759947 -0.0824407 -0.2678552 0.13345213 0.036498442 -0.12532988
-0.008582364 0.19657941 0.023308555 -0.1469634 -0.05263292 0.25291488 0.101523854 0.27713874
-0.21842712 0.11376243 0.101450704 0.16922116 0.0010315386 -0.08814595 0.27853847 -0.28098163
0.17921354 -0.0056697973 -0.14429602 0.06793359 0.07687545 -0.24179344 0.20752387 0.150977
0.075689875 -0.062123135 -0.19987331 -0.22072233 -0.015985314 -0.19839504 -0.09567713 0.22917107
-0.25235674 -0.2276797 0.24359529 -0.019214869 -0.11798476 -0.018244382 -0.20362487 0.22870243
0.20384195 -0.09260226 -0.16272129 0.17489925 -0.14337792 0.26586244 0.12635866 0.14639555
00000000: 474a e1bd 3f53 473e 2756 51bd 42ee 8abe
00000010: 1139 8abe cbe3 89be 365b 713e 104c 31be
00000020: 29eb 0e3e 1bbe 5fbd fdda df3d ac2c 3e3e
00000030: d691 183e c00b 9bbd c1c3 8a3e 20f6 26be
00000040: 3b9f 90be db62 a33d 4d29 15be 86c4 9f3c
00000050: f41c 92bd 247d 8e3e 9bf9 10be 4664 23be
00000060: fe46 fbbd c7a0 e23d c3ab 32be c780 d4bd
00000070: 012e a7bd b3c8 023e bee2 77be c7cf 753e
00000080: 5907 8b3e 7895 deb7 3d0b 4dbd 7e52 663e
00000090: 6544 08be d330 743d bc97 573d 559e 3bbe
000000a0: 0dc8 133e 3a00 7dbe b8aa 313e 0b86 93be
000000b0: 262b 3ebe 8fe2 413d a36e a4bc aab5 d4bc
000000c0: 3675 813e 26f3 2fbe b14c 79bd 730c 2b3e
000000d0: a339 4e3e 0279 ca3d 5189 663e 4634 47bd
000000e0: 4267 693b 047b 243d a7b4 d63d 26bb ac3d
000000f0: e165 503d f2eb 443e e47d 2a3d e417 d23d
00000100: 0974 903e c9a2 043e d398 37be e007 e53d
00000110: 9994 a43d 60ae 1e3e 231c e73d 71cb b43d
00000120: 1832 3e3e 888b 4ebd 5d97 233e 3ea5 b63d
00000130: 8e80 92bd 66a2 dfbd 65e9 56be 2a4f 8fbe
00000140: 7184 91be 3159 883e 7c47 01bc b9a8 91bd
00000150: f2e8 28bd f8e1 40be 8eec e73d 0012 963d
00000160: 3d1e 553e aa49 2c3e a3dc 353e abd6 a8bd
00000170: 5124 89be ada7 083e 647f 153d 7a56 00be
00000180: 0b9d 0cbc 1d4c 493e 95f1 be3c 937d 16be
00000190: 9e95 57bd 0f7e 813e bdeb cf3d 21e5 8d3e
000001a0: 5cab 5fbe 47fc e83d 63c5 cf3d 5048 2d3e
000001b0: b134 873a dd85 b4bd 989c 8e3e d3dc 8fbe
000001c0: c183 373e b5c9 b9bb 56c2 13be c420 8b3d
000001d0: e070 9d3d b398 77be 2381 543e b799 1a3e
000001e0: 4b03 9b3d d474 7ebd 97ab 4cbe 0905 62be
000001f0: a2f3 82bc 1228 4bbe 5ff2 c3bd d2ab 6a3e
00000200: e734 81be de24 69be 0b71 793e 8068 9dbc
00000210: fea1 f1bd 3e75 95bc 0a83 50be f830 6a3e
00000220: f2bb 503e 41a6 bdbd 69a0 26be ca18 333e
00000230: a9d1 12be 1f1f 883e 2a64 013e b7e8 153e

sequential_3/dense_7/BiasAdd/ReadVariableOp f4 [7]
-0.022053314 -0.00045251858 0.002273891 0.0051644323 0.004962854 -0.008533556 -0.0074912943
00000000: 27a9 b4bc 0440 edb9 8f05 153b 663a a93b
00000010: 709f a23b 54d0 0bbc 8879 f5bb

sequential_3/dense_6/BiasAdd/ReadVariableOp f4 [64]
-0.0028884928 -0.00050073647 0.0026708618 -0.0012528793 -0.0041741305 -0.004663234 0.0058240774 0.0040017627
-0.003014096 -0.0025336205 -0.0011228857 -0.0022359998 0.0034979032 0.0048939805 -0.0047601988 -0.0007839802
-0.0012380581 0.00089000235 -0.00081714295 0.003944001 0.0011313269 -0.0026331358 -0.005725578 0.0027633293
-0.0013093669 0.00042969375 -0.0020249344 -0.006443295 -0.0057043894 -0.0018564832 0.00095610233 -0.008569266
-0.0058581643 -0.0044484874 -0.003059923 0.0028913924 -0.006137886 -0.0070012766 -0.0012167807 -0.001192448
0.00052000064 0.0020647708 -0.0041573676 0.005115567 -0.005272552 -0.005820248 -0.0011712301 0.0016835406
-0.0044615185 -0.0010854078 -0.00025495043 -0.0027385787 -0.002781692 -0.005574583 -0.0060044825 -0.004362139
-0.006329845 -0.00187233 0.0009549768 -0.0011330292 -0.0045852102 -0.00041563102 -0.0017849285 0.0024269298
00000000: de4c 3dbb db43 03ba a009 2f3b a737 a4ba
00000010: 25c7 88bb 0bce 98bb e7d7 be3b 3821 833b
00000020: 2488 45bb 190b 26bb cb2d 93ba da89 12bb
00000030: 143d 653b af5d a03b 71fb 9bbb 0584 4dba
00000040: 5646 a2ba 0c4f 693a 8935 56ba ae3c 813b
00000050: 0849 943a b090 2cbb a19d bbbb f918 353b
00000060: 109f abba 8548 e139 c3b4 04bb 4722 d3bb
00000070: e3eb babb 3d55 f3ba f1a2 7a3a 1b66 0cbc
00000080: d8f5 bfbb 9ec4 91bb fd88 48bb 847d 3d3b
00000090: 5220 c9bb f76a e5bb 637c 9fba ea4b 9cba
000000a0: a750 083a 1b51 073b 873a 88bb 7ca0 a73b
000000b0: 5fc5 acbb c7b7 bebb f683 99ba 40aa dc3a
000000c0: ee31 92bb 3e44 8eba deaa 85b9 ba79 33bb
000000d0: 0c4d 36bb feaa b6bb 40c1 c4bb 46f0 8ebb
000000e0: 976a cfbb f868 f5ba 6857 7a3a 2782 94ba
000000f0: 883f 96bb 0de9 d9b9 43f4 e9ba 200d 1f3b

sequential_3/batch_normalization_15/FusedBatchNormV3 f4 [4]
0.09334253 0.021456722 0.011104803 0.03201566
00000000: 5e2a bf3d 02c6 af3c ebf0 353c da22 033d

sequential_3/batch_normalization_15/FusedBatchNormV31 f4 [4]
-1.0065359 -0.7611499 -0.6481182 -0.72236484
00000000: 2bd6 80bf b8da 42bf 13eb 25bf e7ec 38bf

sequential_3/batch_normalization_16/FusedBatchNormV3 f4 [4]
0.7265597 1.5011467 1.2325354 1.035875
00000000: d1ff 393f 9325 c03f b8c3 9d3f 8d97 843f

sequential_3/batch_normalization_16/FusedBatchNormV31 f4 [4]
-0.5302026 -0.6355501 -0.5308361 -0.6313259
00000000: 5cbb 07bf 69b3 22bf e0e4 07bf 939e 21bf

sequential_3/batch_normalization_17/FusedBatchNormV3 f4 [4]
1.060256 1.0240198 2.3697972 1.9510876
00000000: 78b6 873f 1513 833f c2aa 1740 3dbd f93f

sequential_3/batch_normalization_17/FusedBatchNormV31 f4 [4]
-0.6711006 -0.52546006 -1.3253807 -0.6955172
00000000: 40cd 2bbf 8d84 06bf 13a6 a9bf 6a0d 32bf

sequential_3/batch_normalization_18/FusedBatchNormV3 f4 [4]
2.8213062 2.3787663 1.8980858 1.4050939
00000000: 4890 3440 b53d 1840 7af4 f23f 1eda b33f

sequential_3/batch_normalization_18/FusedBatchNormV31 f4 [4]
-1.2177343 -1.1534939 -0.9157282 -0.73579216
00000000: b8de 9bbf b0a5 93bf 2a6d 6abf e05c 3cbf

sequential_3/batch_normalization_19/FusedBatchNormV3 f4 [4]
1.6684053 1.3114927 1.1633124 1.4669383
00000000: 4e8e d53f fede a73f 6ce7 943f a2c4 bb3f

sequential_3/batch_normalization_19/FusedBatchNormV31 f4 [4]
-1.0624375 -0.67635185 -0.7810287 -0.74589664
00000000: f4fd 87bf 6525 2dbf 7ff1 47bf 15f3 3ebf

sequential_3/dense_6/MatMul i1 [64, 6760] scale=0.00040849618 zero_point=0
0.009395412 -0.004493458 -0.004901954 0.004493458 -0.015931351 0.0061274427 0.00081699237 -0.025735259
-0.011029397 -0.024918268 0.0077614277 0.026143756 -0.018382328 -0.0032679695 -0.00531045 0.004084962
-0.020016313 0.0 0.008986916 0.020833306 -0.017565336 0.026960747 0.026552252 -0.017973833
-0.02042481 0.030637214 0.02982022 0.00857842 0.012663382 -0.015114359 -0.01388887 0.030228717
0.0077614277 -0.002450977 0.004084962 0.00081699237 0.016339848 0.020016313 0.022467291 0.006944435
-0.030637214 -0.024918268 -0.031454206 0.022875786 0.009803908 -0.030228717 0.014705863 0.026143756
0.008986916 0.019199321 0.006944435 0.018790824 0.014297366 -0.0212418 0.004901954 -0.024918268
-0.026552252 0.018790824 0.020833306 -0.02450977 0.013480374 -0.011437893 -0.030637214 -0.020833306
-0.022875786 0.0036764657 0.019607816 0.022058794 -0.020833306 -0.0032679695 -0.0106209 0.018382328
0.023284283 -0.015522855 0.006535939 0.025735259 -0.004901954 0.0016339847 0.006535939 0.002450977
0.013071878 0.019199321 -0.017565336 0.011437893 -0.0106209 -0.028186237 -0.012663382 0.012254885
-0.028594732 0.002042481 0.010212405 0.025735259 -0.017973833 -0.03104571 0.015114359 -0.0077614277
-0.016748343 0.016339848 -0.018790824 -0.004493458 -0.008169924 -0.02777774 0.0077614277 0.00081699237
-0.00531045 0.028594732 0.02369278 0.0 -0.024918268 -0.015931351 0.0057189465 0.02369278
0.009395412 0.009395412 0.0032679695 0.009803908 0.013071878 -0.009803908 -0.01715684 0.010212405
0.025326764 0.016339848 0.0036764657 -0.0057189465 0.020016313 0.011437893 0.01184639 0.025326764
0.002450977 -0.027369244 0.018790824 -0.024918268 0.0016339847 -0.011437893 0.02450977 -0.012663382
0.009803908 0.009803908 0.010212405 0.01715684 0.0212418 0.015114359 -0.004901954 -0.0057189465
-0.016339848 -0.00531045 -0.017565336 -0.009395412 0.006944435 0.010212405 -0.0061274427 -0.016339848
-0.004493458 0.004084962 0.016748343 0.027369244 -0.0106209 0.0036764657 -0.008986916 -0.008986916
0.025735259 -0.002450977 -0.01715684 0.0032679695 -0.025326764 -0.009803908 -0.009803908 -0.009395412
-0.023284283 0.011029397 0.004493458 -0.008169924 -0.00040849618 -0.01388887 -0.028186237 0.0028594732
0.0016339847 0.0036764657 0.0061274427 -0.018790824 -0.0106209 -0.018790824 0.011029397 -0.022467291
0.01388887 0.00857842 -0.020833306 0.0061274427 -0.006944435 0.006535939 -0.018790824 0.013480374
0.021650298 -0.010212405 -0.02369278 0.025735259 0.015522855 0.0061274427 0.026552252 -0.009395412
-0.0061274427 -0.0077614277 -0.02042481 -0.027369244 -0.002450977 0.022467291 0.0077614277 0.017973833
-0.028594732 -0.011029397 0.0057189465 0.019607816 -0.022875786 0.004084962 -0.02450977 0.0106209
-0.017565336 0.019607816 0.0028594732 -0.004493458 0.016339848 -0.0012254885 0.02450977 0.00531045
0.025326764 0.026960747 -0.01184639 0.021650298 -0.015522855 0.01184639 -0.009395412 0.015114359
0.016748343 -0.0212418 -0.015522855 -0.0028594732 0.02982022 -0.015931351 0.035947666 0.018790824
0.020016313 -0.00531045 -0.013480374 -0.026143756 -0.009395412 0.02982022 0.012663382 0.021650298
-0.016339848 0.022058794 -0.028594732 0.025326764 -0.004493458 -0.022875786 -0.022875786 -0.00081699237
00000000: 17f5 f40b d90f 02c1 e5c3 1340 d3f8 f30a
00000010: cf00 1633 d542 41d4 ce4b 4915 1fdb de4a
00000020: 13fa 0a02 2831 3711 b5c3 b338 18b6 2440
00000030: 162f 112e 23cc 0cc3 bf2e 33c4 21e4 b5cd
00000040: c809 3036 cdf8 e62d 39da 103f f404 1006
00000050: 202f d51c e6bb e11e ba05 193f d4b4 25ed
00000060: d728 d2f5 ecbc 1302 f346 3a00 c3d9 0e3a
00000070: 1717 0818 20e8 d619 3e28 09f2 311c 1d3e
00000080: 06bd 2ec3 04e4 3ce1 1818 192a 3425 f4f2
00000090: d8f3 d5e9 1119 f1d8 f50a 2943 e609 eaea
000000a0: 3ffa d608 c2e8 e8e9 c71b 0bec ffde bb07
000000b0: 0409 0fd2 e6d2 1bc9 2215 cd0f ef10 d221
000000c0: 35e7 c63f 260f 41e9 f1ed cebd fa37 132c
000000d0: bae5 0e30 c80a c41a d530 07f5 28fd 3c0d
000000e0: 3e42 e335 da1d e925 29cc daf9 49d9 582e
000000f0: 31f3 dfc0 e949 1f35 d836 ba3e f5c8 c8fe
