saved_model/quantized_models/layers7/trial3/paramcount108763.tflite (tflite, 121816 bytes, 11 tensors)

sequential/dense_1/MatMul f4 [7, 64]
00000000: d706 d33d 0303 3abd 35fa 303e aca5 56be
00000010: b8f3 283e 15a7 603e 34f7 923d 5410 7f3d
00000020: 2c00 2d3e d31d 173e c485 a6bd 0eb8 dfbd
00000030: 7602 543e da8e 8abe bf57 5abd 44b0 693d
00000040: 2a78 4b3e 6325 1f3e d86e 933b 6495 bfbc
00000050: 6ae6 343e a219 93bd 7e93 5cbe 629c e3bd
00000060: e6e7 133d d4dd 91be cb33 d43d fe6b 0a3e
00000070: c806 2cbe 41fb b6bd 2db1 6a3e 5dac 69bc
00000080: 4070 82bd 25ec 8abe 26a6 3a3e 0728 1abe
00000090: 1c29 b63d 789c d03d 089a 083d 7c42 51be
000000a0: cb2f 77be 7c5f 00be 33b7 27be fd3a 3bbe
000000b0: 8a4e cdbc 4664 35bc fc40 ff3d f70f 073e
000000c0: d33b 62be 8f78 383e c1a7 8abe 08a3 503d
000000d0: 8b84 363e 6bb1 743e 8e79 783d 8abb 1c3c
000000e0: 4de2 60be 504e 5bbd a4fc a4be 632c 02be
000000f0: 4573 dabd 3461 28be 0302 1cbd 2fb3 0abe
00000100: dd0c 273e e966 b5bb d67a 87be a700 00be
00000110: 5848 54be c63d 7cbc a016 c5bc e6f2 c83d
00000120: 0fe7 86bd 032a a43d b78a 2b3e 66f9 e9bd
00000130: ad14 833e 427a fb3d e2df eaba 7ae9 8b3e
00000140: 51fb 8f3e 5fb5 7cbd 2cd5 683e 2783 543d
00000150: ce3c 44be 14f3 f43d 4505 d23d d953 993d
00000160: 0a52 8bbe d1c1 103e 03b6 7dbe 73a1 293e
00000170: 9f99 383e f322 2f3e a023 f7bd 77d6 8bbe
00000180: 7ca0 66be 46a3 963c 8723 72bd d470 bf3c
00000190: b706 e1bd 85e6 013e 5024 403e 84d3 8abe
000001a0: bf2b 42bd 2a42 e73d de40 1fbd dc6a 92be
000001b0: 8feb 913a d9fe 9a3c 0f7a 013e 925e 44be
000001c0: b682 74be 1989 98be a4a9 5d3e 6145 ad3b
000001d0: f231 553d cfc3 86bd 73f3 97bc ce0b 763e
000001e0: e94d 133e 9fc1 2e3e b956 c43d 4bbe c43d
000001f0: c5aa 6c3e 2389 4c3e 2f07 90bc f8f0 3a3e
00000200: 3757 d13d b69b 81be 4609 f7bd e174 30be
00000210: 3006 8bbd 59f1 803e 72a7 07be 0d0a 9bbc
00000220: daa2 cd3d 6c7f 7fbe 0ea7 493e e3f1 323d
00000230: 82e0 3cbe 42f1 7d3e a356 513e bf03 6dbe
00000240: 9226 45be d0ae ec3c afce 17be ea58 813e
00000250: 3a0b bcbb d476 0cbd e51d 83be ef26 98be
00000260: 58a3 823d cdb4 0dbe f901 0e3e 8c05 893e
00000270: 066d 8cbe e298 e13d faa9 3c3e a247 043e
00000280: 21c9 35be e327 1b3d 8f04 24be e455 8a3e
00000290: 42f4 92be dd01 ad3d 6dff 863e 60c8 61be
000002a0: 8e89 42be 8664 18be 44a7 893e a33a 11be
000002b0: e75a 3a3e 9d80 16be 1799 8abe dad0 3ebd
000002c0: c43d 37be 65c9 a03c 7cec 85be 97ff febd
000002d0: d6f1 953e 9480 433e f192 24be bb0a ae3d
000002e0: cf1c 6fbd 024c bc3c c670 3ebe 6101 913e
000002f0: e828 39be 8565 3c3e 50c5 933e 7c94 f83c
00000300: 5a26 c8bd d0b8 4bbe f417 a23d 41bc 0cbe
00000310: dc1b 34bd 98d0 553e 9c0b e73d c369 09be
00000320: 0d7e 6ebd caaf 07be b0ad 8b3e 1a89 85be
00000330: 5601 5bbe f939 20be 282f 0ebe 5dfc b4bc
00000340: cc36 30be ff16 813e edf4 81be 9782 2e3e
00000350: 8d02 283e b08a 573e 9c66 1cbe a387 613e
00000360: 953f 0dbe 7740 49be 92f9 40be e089 4c3e
00000370: ab5b 893e 5ea2 053e 32f4 ffbd 3b0a 8cbe
00000380: 3afe 86be 8140 80bd 1f94 813e 42d1 88be
00000390: 1a32 13be 790f 20be ee05 213d ce8b 91be
000003a0: 0ad9 82be 5da2 28bd 3cb3 8cbe 1e05 87be
000003b0: 5f38 8c3e eb9c 6a3e 9120 293d 9b5a 423e
000003c0: 5959 733e 5c89 9fbd c5e3 82be af56 fcbd
000003d0: 3ab7 dc3d ad68 093d bf62 0a3e ce4c 80be
000003e0: 7e37 173e a33b 803e 9b45 853e cf0d 6e3c
000003f0: d07c bfbb 2507 113e 3180 383e 879b 1e3e
0.10304039 -0.04541303 0.17282946 -0.20961636 0.16499221 0.21938737 0.071760565 0.06227143
0.16894597 0.14757471 -0.081309825 -0.109237775 0.20704064 -0.27062112 -0.053306337 0.057052866
0.19870058 0.15541606 0.0044992976 -0.023386665 0.17666021 -0.071826234 -0.21540639 -0.11113812
0.036109827 -0.28489554 0.10361441 0.13517758 -0.16799462 -0.08934642 0.2291915 -0.014262286
-0.06369066 -0.2713329 0.18227443 -0.15054332 0.0889456 0.10186094 0.03335002 -0.20435518
-0.24139325 -0.12536424 -0.16378479 -0.18284221 -0.025061864 -0.01107127 0.12463567 0.13189684
-0.22093134 0.1801474 -0.2708111 0.05093673 0.17823999 0.23895805 0.0606628 0.009566197
-0.21961327 -0.05354148 -0.32224 -0.12712245 -0.10666517 -0.1644333 -0.038087856 -0.13544916
0.163135 -0.0055359495 -0.26460904 -0.12500249 -0.20730722 -0.015395587 -0.02405864 0.09811954
-0.0658704 0.080158256 0.16752134 -0.11424522 0.25601712 0.12279178 -0.0017919505 0.27326566
0.28121427 -0.061696406 0.22737569 0.05188289 -0.1916382 0.11960426 0.10254911 0.07486696
-0.27211028 0.14136435 -0.24776463 0.16565494 0.18027352 0.17103176 -0.12067342 -0.2731206
-0.22522157 0.018388402 -0.059115913 0.02336923 -0.10987609 0.12685592 0.18763852 -0.271145
-0.047405 0.11291917 -0.03888022 -0.28597152 0.0011132824 0.018920349 0.12644218 -0.191767
-0.23877987 -0.29792097 0.21646744 0.0052878116 0.052049585 -0.06580316 -0.018548703 0.2402794
0.14385189 0.17066048 0.095868535 0.09606608 0.23112018 0.19974189 -0.01758155 0.18255985
0.10221713 -0.2531411 -0.12062316 -0.17232086 -0.067882895 0.25184134 -0.13247469 -0.018925691
0.10040827 -0.24950951 0.19692633 0.043687712 -0.18445018 0.24799064 0.20443206 -0.2314596
-0.19252995 0.02889195 -0.14824937 0.2526315 -0.005738643 -0.03429301 -0.25608745 -0.29717204
0.063788116 -0.13838501 0.1386794 0.26762044 -0.27426928 0.11015488 0.18424216 0.12917951
-0.17752506 0.037879836 -0.16017364 0.27018654 -0.2870198 0.08447621 0.2636675 -0.22049093
-0.18997785 -0.14882097 0.26885426 -0.14182524 0.18198739 -0.146975 -0.27069923 -0.046585895
-0.17894655 0.019627282 -0.26156986 -0.12451094 0.2928607 0.19092017 -0.16071679 0.084981404
-0.058377083 0.022985462 -0.18597707 0.28321365 -0.18082011 0.18398102 0.28861475 0.03034424
-0.0977294 -0.19894719 0.07914725 -0.13743688 -0.04397188 0.20880353 0.11281511 -0.13419251
-0.05822568 -0.13250652 0.2728095 -0.26081163 -0.21387228 -0.15647115 -0.13885176 -0.022092992
-0.17208403 0.25212857 -0.25382176 0.17042004 0.16407223 0.21048999 -0.15273517 0.22024398
-0.13793786 -0.19653498 -0.18845204 0.1997447 0.2682775 0.1305022 -0.124977484 -0.27351555
-0.26365834 -0.06262303 0.2530832 -0.2672215 -0.14374581 -0.15630902 0.039312296 -0.28426975
-0.25556213 -0.041170467 -0.27480495 -0.26371092 0.27386758 0.22911422 0.041290823 0.18979876
0.23764552 -0.07789871 -0.255644 -0.12321221 0.10777135 0.033547092 0.13514231 -0.25058597
0.14767262 0.250455 0.26029667 0.014529659 -0.005843736 0.14162882 0.18017651 0.15489016

sequential/conv2d/Conv2D f4 [1, 3, 3, 1]
00000000: e0b8 f7bd ccb2 aa3d 7c22 65bd a86b 893d
00000010: 5986 fabe f82a ebbe 9a97 183e cfbd b4be
00000020: 6e51 94be
-0.12095809 0.08334884 -0.05594109 0.06709987 -0.48930624 -0.4593122 0.14901581 -0.35301062
-0.28968376

sequential/conv2d_1/Conv2D f4 [1, 3, 3, 1]
00000000: 896a 183d 3959 7e3d 7ca2 eabd 659e a9be
00000010: dcf7 d63e e797 173e 7149 453d 72c2 d43e
00000020: 2f8a 063f
0.037210975 0.062096808 -0.11456773 -0.33128658 0.41985977 0.1480404 0.048165742 0.415546
0.525546

sequential/conv2d_2/Conv2D f4 [1, 3, 3, 1]
00000000: ee6b dd3e 9e95 0bbf 9fbc a23e bf0d 39bd
00000010: 8804 d33e de71 71bd ba7a 45ba ff1e 8b3e
00000020: 78ce 073f
0.43246406 -0.5452517 0.3178453 -0.045179125 0.41214395 -0.058946483 -0.00075332413 0.27172086
0.5304942

sequential/conv2d_3/Conv2D f4 [1, 3, 3, 1]
00000000: 048d 353e b2d8 72be 6814 9e3e 8753 b0bd
00000010: 521c 62bd 29ac 66be 6962 15be 00a0 b53e
00000020: 6f1d 4c3d
0.17729574 -0.23715475 0.30874944 -0.086096816 -0.05520279 -0.22526611 -0.14588322 0.35473633
0.049832758

sequential/conv2d_4/Conv2D f4 [1, 3, 3, 1]
00000000: aa29 193e 47c1 1d3d 06e6 64be 209e 00bf
00000010: 7a8c 443e 064f 2cbd 090a c1bd 0f85 2e3e
00000020: 1339 a73e
0.149573 0.0385144 -0.22353372 -0.5024128 0.19194213 -0.04206755 -0.09425742 0.17042945
0.32660732

sequential/conv2d_5/Conv2D f4 [1, 3, 3, 1]
00000000: 75b0 e4be 9186 cabe f62e 30be b651 94be
00000010: 350e b2be 5c9b f93e cf4b 87be 3a8b d5be
00000020: d304 f0bc
-0.44665876 -0.3955579 -0.17205414 -0.2896859 -0.34776464 0.48751342 -0.26425025 -0.41707784
-0.029299175

sequential/conv2d_6/Conv2D f4 [1, 3, 3, 1]
00000000: 4207 bc3e 0293 db3e 73c8 33be 540f 513e
00000010: f2b0 c1be fb09 07bf 8fdc 85be fab1 1f3e
00000020: 6720 a9be
0.36724287 0.42885596 -0.17556934 0.20416003 -0.3783031 -0.52749604 -0.26144835 0.15595236
-0.33032534

sequential/dense/BiasAdd/ReadVariableOp f4 [64]
00000000: e3ed ddbb 4781 93bb 05e6 efbb a974 c7bb
00000010: 0000 0000 2a95 f7bb 0000 0000 d8df 77bb
00000020: f863 50ba 7112 9eba 088a 89bb 56e0 f3ba
00000030: 7364 0539 7a55 db3a 695e a2bb 003a abb6
00000040: 005f d4bb c1e7 80ba a3d5 33bb 2bfb b6ba
00000050: 9e65 3dbb 81a7 f1ba 9b7e 80bb 3547 c0bb
00000060: 4ca4 f73a 0f97 253b 01fb 7abb faed d3ba
00000070: 58d8 97bb 4f46 88bb 62ed d8bb 679e acbb
00000080: 0728 36bb f9b9 893a 06a5 c5bb eabf 8a3b
00000090: 6779 14ba 6935 1dba 77c1 c9ba 0b10 83bb
000000a0: e162 333a 7cf7 a43b c444 99bb 0169 20bb
000000b0: 5c92 aab9 cea0 12ba adfe 88ba 397c 9ebb
000000c0: 3314 12bb 98a3 7bba 9240 64ba 64f3 4eba
000000d0: 6a09 ca3a d92c b2bb c3fd a4ba 632c aebb
000000e0: 5c5f 9a39 90ae a83a 22e7 abb9 dc17 423b
000000f0: 67b7 9bbb 6c06 053c b906 343b c40b 363b
-0.006772743 -0.004501495 -0.0073211216 -0.006086905 0.0 -0.0075556235 0.0 -0.003782263
-0.0007949467 -0.0012059939 -0.004197363 -0.0018606286 0.00012721289 0.0016733848 -0.004955102 -5.102949e-06
-0.0064810514 -0.0009834693 -0.002744057 -0.0013960352 -0.002889968 -0.0018436761 -0.0039213425 -0.0058678635
0.0018893569 0.002526704 -0.0038296583 -0.0016168945 -0.0046339445 -0.004158772 -0.006620095 -0.0052679065
-0.0027794854 0.0010507695 -0.006031635 0.0042343037 -0.00056638423 -0.00059970334 -0.001539274 -0.003999715
0.0006843042 0.0050343852 -0.004677387 -0.002447665 -0.00032533973 -0.000559342 -0.0010451876 -0.004836586
-0.0022289872 -0.00095992675 -0.00087071315 -0.00078945444 0.0015414183 -0.005437475 -0.0012587834 -0.00531535
0.00029444217 0.0012869406 -0.0003278787 0.0029616272 -0.004752088 0.008119207 0.0027469827 0.002777801

sequential/dense_1/BiasAdd/ReadVariableOp f4 [7]
00000000: d874 ecbc f8ee 683b eae7 9bbb f02b 103a
00000010: 9592 e33a c592 a53b 1e96 723a
-0.02886431 0.0035542827 -0.004757871 0.0005499711 0.001736241 0.0050528967 0.00092539366

sequential/dense/MatMul i1 [64, 1690] scale=0.0008005795 zero_point=0
00000000: 2ddb 31d9 0c39 2622 cf3f 0dc7 3539 ff28
00000010: 0b07 35c7 f249 f326 17d4 44c7 e208 3943
00000020: 0731 cdd5 ca3d d0e4 d3da f0ce 12eb c9e9
00000030: 03f3 f3c2 d9de dde0 37ca da15 e248 c4f2
00000040: 07eb 3f2c 48f4 120e 1ff9 e9cb e347 3224
00000050: e705 370e 4f1d 3ff4 31f2 182c efc5 262f
00000060: 243d 263e c930 43d1 37d2 1b1d 0013 c13a
00000070: fd47 deca 2ab4 12d0 13e2 e447 4525 e54d
00000080: f5e8 40be dd09 35cd 341b fff1 16f5 0ef6
00000090: c626 0316 45eb 4e3e e525 3f16 d7e3 d6e2
000000a0: d7c0 10df d7e3 1bdd 19eb 3ed3 2c27 0cd8
000000b0: 2f51 1c46 43c5 13c6 34f6 e138 d5e0 2b4b
000000c0: fff1 023c e720 42de 3c30 0a2a 0ae2 d745
000000d0: 28bf 48c4 0ff3 0331 e5eb e92d 2dcd b62d
000000e0: 3d50 d6d7 0d47 48fc dbc8 ebe4 17c7 4025
000000f0: c2c5 29d5 d310 22cc 013f 3640 2ade 50f2
0.036026075 -0.02962144 0.039228395 -0.0312226 0.009606954 0.045633033 0.03042202 0.027219703
-0.039228395 0.050436508 0.0104075335 -0.045633033 0.042430714 0.045633033 -0.0008005795 0.03202318
0.008806375 0.0056040566 0.042430714 -0.045633033 -0.011208113 0.058442302 -0.0104075335 0.03042202
0.018413328 -0.0352255 0.054439407 -0.045633033 -0.024017384 0.006404636 0.045633033 0.053638827
0.0056040566 0.039228395 -0.040829554 -0.03442492 -0.043231294 0.04883535 -0.038427815 -0.022416227
-0.036026075 -0.03042202 -0.012809272 -0.040028974 0.014410431 -0.01681217 -0.044031873 -0.018413328
0.0024017384 -0.0104075335 -0.0104075335 -0.049635928 -0.0312226 -0.027219703 -0.028020283 -0.025618544
0.044031873 -0.043231294 -0.03042202 0.01681217 -0.024017384 0.057641722 -0.04803477 -0.011208113
0.0056040566 -0.01681217 0.050436508 0.0352255 0.057641722 -0.009606954 0.014410431 0.011208113
0.024817964 -0.0056040566 -0.018413328 -0.042430714 -0.023216804 0.056841142 0.040028974 0.028820861
-0.020014487 0.0040028975 0.044031873 0.011208113 0.06324578 0.023216804 0.050436508 -0.009606954
0.039228395 -0.011208113 0.019213907 0.0352255 -0.013609852 -0.04723419 0.03042202 0.037627235
0.028820861 0.04883535 0.03042202 0.049635928 -0.044031873 0.038427815 0.053638827 -0.037627235
0.044031873 -0.036826655 0.021615647 0.023216804 0.0 0.01521101 -0.050436508 0.04643361
-0.0024017384 0.056841142 -0.027219703 -0.043231294 0.03362434 -0.06084404 0.014410431 -0.038427815
0.01521101 -0.024017384 -0.022416227 0.056841142 0.055239987 0.02962144 -0.021615647 0.06164462
-0.008806375 -0.019213907 0.051237088 -0.052838247 -0.028020283 0.0072052153 0.042430714 -0.040829554
0.041630134 0.021615647 -0.0008005795 -0.012008692 0.01761275 -0.008806375 0.011208113 -0.008005795
-0.04643361 0.03042202 0.0024017384 0.01761275 0.055239987 -0.01681217 0.0624452 0.049635928
-0.021615647 0.02962144 0.050436508 0.01761275 -0.03282376 -0.023216804 -0.03362434 -0.024017384
-0.03282376 -0.051237088 0.012809272 -0.026419124 -0.03282376 -0.023216804 0.021615647 -0.028020283
0.020014487 -0.01681217 0.049635928 -0.036026075 0.0352255 0.0312226 0.009606954 -0.03202318
0.037627235 0.06484694 0.022416227 0.056040566 0.053638827 -0.04723419 0.01521101 -0.04643361
0.041630134 -0.008005795 -0.024817964 0.044832453 -0.03442492 -0.025618544 0.03442492 0.06004346
-0.0008005795 -0.012008692 0.001601159 0.04803477 -0.020014487 0.025618544 0.052838247 -0.027219703
0.04803477 0.038427815 0.008005795 0.03362434 0.008005795 -0.024017384 -0.03282376 0.055239987
0.03202318 -0.052037667 0.057641722 -0.04803477 0.012008692 -0.0104075335 0.0024017384 0.039228395
-0.021615647 -0.01681217 -0.018413328 0.036026075 0.036026075 -0.040829554 -0.05924288 0.036026075
0.04883535 0.06404636 -0.03362434 -0.03282376 0.0104075335 0.056841142 0.057641722 -0.003202318
-0.02962144 -0.044832453 -0.01681217 -0.022416227 0.018413328 -0.045633033 0.051237088 0.02962144
-0.049635928 -0.04723419 0.03282376 -0.03442492 -0.036026075 0.012809272 0.027219703 -0.041630134
0.0008005795 0.050436508 0.043231294 0.051237088 0.03362434 -0.027219703 0.06404636 -0.011208113
