saved_model/quantized_models/layers7/trial3/paramcount542819.tflite (tflite, 560464 bytes, 32 tensors)

sequential_4/dense_9/MatMul f4 [7, 64]
00000000: b1b1 26be 2abc cc3c 5081 1ebd 30fd dc3d
00000010: da21 8cbe 322c d8bd 5579 bf3d 3322 87bd
00000020: 8e54 e0bc df7e 5cbe 88e3 773e 9f3c f1bd
00000030: cdfc 803e 8749 11be 6789 94be d9e2 813c
00000040: d24b 013d ab26 6ebe 3fa4 613d e63c 803e
00000050: 2279 b63d 49d2 493e 3bf1 95bd 593e 803d
00000060: c6e7 62be 88cc 55be 4fc5 bbbc 2b65 123e
00000070: c737 c4bd 6a5f 3c3e 20fa d53d ce2b 1abe
00000080: d919 e03d 8780 ca3c ba3e 35be 5ee4 f4bd
00000090: 5f5e 21be 1701 0b3e 3b9a bdbd 3240 9f3d
000000a0: b43b db3c fac9 05be 5fe7 833e 4a44 203d
000000b0: 722f 05be 72a7 ca3d f91a 09bd ef1b 4f3e
000000c0: 6561 3f3e c7f4 38be 4351 66bd 8364 38be
000000d0: 5210 63be b943 313e ef45 8b3e 2441 a83d
000000e0: 4c07 8bbe 4f60 38bd ac73 903d 42f3 8ebe
000000f0: f9ed 8ebe 3424 e9bd c455 8ebe a814 503e
00000100: 6be9 c7bd d7ba 013e cf83 54be 0523 abbd
00000110: d41c d2bd 7686 65bd 7a7f 69be 1023 4a3e
00000120: 89a2 483d a373 47bd c185 43bd 38ab 5abe
00000130: 32c6 773e 8822 fbbd c566 44bd 7a2f 743e
00000140: 7b9f a3bd 94cb 5d3c 45e7 91be 18ac 0c3e
00000150: b197 64bd ed0d a43d 8b43 25be fc50 88bc
00000160: b150 223e 25a6 98bc c0fb 3d3d 2c3b 6d3e
00000170: 174f c6bc 612e c1bc 5818 9abd 6fc0 b83c
00000180: b378 023e e6b8 183e 4816 8abe 8743 d33d
00000190: 5fd5 62be b0c5 22be 3e1d 683e fe42 09bd
000001a0: c5a3 25be febe 1d3e 03b6 0d3d d31b 443e
000001b0: f0ff f337 cd25 06bd 41a8 e73d 6316 6d3e
000001c0: 21f5 7c3e befa 023e 0cd9 563e 47ba 79be
000001d0: 0b6b 00be 8595 fb3d eed5 0d3d 4cbf 793e
000001e0: 808c 10be 95a6 373e 603a 4e3e a75f 313d
000001f0: 3ebf 893b 55dc 2bbc d21a d8bd b5cc 86be
00000200: 74bd 8e3e e860 c4bd e8f5 80bd f194 4dbe
00000210: 8c7a 8c3e c2ee 53be 23db 3f3e 910b 033e
00000220: c825 c33b be6d 5ebe 0c57 8e3e 3e74 423e
00000230: da02 6cbd 5f59 1f3e ce17 323e 2ab5 563e
00000240: 1022 2d3e a155 44bd 7b82 25be d92f 693c
00000250: 9a1c fdbd 0dc8 9f3d 34f0 d13d 6ce1 aa3c
00000260: 6534 203e 686d 37be 2f36 63be e997 9c3d
00000270: 6cad 1cbe a755 b0bd 972e 8b3e 6c08 39be
00000280: 7d04 e8bc 7615 71be 74c4 bd3d 6896 873d
00000290: 6185 94be eda4 173e e512 8d3e d9ac 533d
000002a0: 7459 c63d 1310 9cbd 4479 d03d ddb8 46be
000002b0: 5130 85be adaf dcbc 147d 06be 82d6 393e
000002c0: 71a9 ab3d 69ff 033e ce89 43be e049 37be
000002d0: 1f71 e43c 48e7 8b3e 26ba 4ebe 7f9d 7cbe
000002e0: c52b cbbc 59dc 3c3c 2166 853e dac1 15be
000002f0: 9129 ac3a 4b56 d0bd 2b5c eabd 223c 73be
00000300: e1a3 37be 1b11 1a3d 01cc fc3d 10fc bdbd
00000310: b193 a6bd 7c08 85be 6340 753d 7676 a3bd
00000320: 864d 033d 7422 81be ced6 ce3d fa5b 6e3d
00000330: 5459 74bd 483f 0f3e dc4c 75be e842 e9bc
00000340: 8a4e 833e d199 84be b1fe 42be 82a0 a9bb
00000350: 681b a4bd eead ce3c 309a 2fbc 6549 df3c
00000360: 296b 733e 3d00 0e3e 3265 79be 7f6a 8d3e
00000370: eb06 1c3e e7c8 2d3e b35b dd3d fa3c 02be
00000380: 76f8 053e 108e 89be 4cfc 61be 55a0 103e
00000390: 4b94 5b3e 79ad 8a3e 2dfd 4fbe ac89 1abe
000003a0: a082 3bbd 5c4a 07bd d992 b1bd ba6c 91bd
000003b0: a18c 88be 0722 8abe 0f50 0c3c 6739 5b3e
000003c0: b995 bb3c 69b9 5abe 18fe 0dbd b982 463e
000003d0: ea58 54be c0da 883d a808 3cbe 8de5 823e
000003e0: d21c 193e cefe 8cbd 541f 56be 9e4b 37be
000003f0: cc8b 76be 291e 903e 0946 983e a063 6dbd
-0.16278721 0.024992067 -0.03869754 0.10790479 -0.27369577 -0.105553046 0.09349314 -0.0659832
-0.027384069 -0.21532772 0.2420789 -0.11779141 0.25192872 -0.14188205 -0.2901108 0.01585524
0.03156645 -0.23256938 0.055088278 0.25046462 0.08909823 0.19709124 -0.07321402 0.06261892
-0.22158727 -0.20878804 -0.022921233 0.14296405 -0.09580951 0.18395773 0.10448098 -0.15055773
0.1094243 0.02471949 -0.1769971 -0.1195762 -0.15758656 0.13574634 -0.09257933 0.07775916
0.026761867 -0.13065329 0.2576246 0.039127626 -0.1300638 0.09895219 -0.03347299 0.202255
0.18689497 -0.18062125 -0.05622984 -0.18007092 -0.22174194 0.1731099 0.27201793 0.082155496
-0.27154005 -0.045013722 0.07053313 -0.27919966 -0.27915934 -0.11383858 -0.2779981 0.2032038
-0.09761318 0.1266893 -0.20753406 -0.08356289 -0.10259405 -0.056036435 -0.22802535 0.19739938
0.04898313 -0.048694264 -0.04773498 -0.21354377 0.241967 -0.12262446 -0.04794957 0.23846236
-0.07989403 0.013537306 -0.28496757 0.13737524 -0.055808727 0.08010469 -0.16139047 -0.016640179
0.15851094 -0.018633911 0.046382666 0.23167104 -0.024207635 -0.023581685 -0.075241745 0.022552697
0.12741356 0.14914283 -0.26970124 0.10315614 -0.22151707 -0.15895724 0.22667405 -0.033511154
-0.16175754 0.15404889 0.034597408 0.19151239 2.9087038e-05 -0.032750893 0.11311389 0.23153071
0.24702884 0.12790963 0.20981234 -0.24387465 -0.12540834 0.12284378 0.034627847 0.2438938
-0.14116096 0.1793464 0.20139456 0.04330411 0.004203706 -0.010489543 -0.105519906 -0.26328054
0.27878916 -0.09588796 -0.06296903 -0.20076348 0.27437246 -0.20696548 0.18735938 0.12797381
0.0059554316 -0.21721551 0.27800786 0.18989655 -0.057619907 0.15561436 0.17391893 0.20967546
0.16907525 -0.047933225 -0.16163056 0.014232599 -0.12358971 0.078018285 0.10250893 0.020859443
0.15644987 -0.17912829 -0.22188638 0.07646162 -0.1530053 -0.08610087 0.27183983 -0.18069619
-0.028322453 -0.23543343 0.09265986 0.066204846 -0.2900801 0.14809008 0.27553478 0.051678512
0.096850306 -0.076202534 0.101793796 -0.19406457 -0.26013425 -0.026939237 -0.13133651 0.18148234
0.08381928 0.128904 -0.19095537 -0.17899275 0.027885972 0.2732489 -0.20188197 -0.24669455
-0.024801144 0.011527144 0.2605448 -0.1462473 0.0013134946 -0.10172709 -0.11443361 -0.23753408
-0.17933609 0.03761397 0.12343598 -0.09276593 -0.08133639 -0.25983036 0.059875857 -0.07981579
0.032056354 -0.25221598 0.100995645 0.058193184 -0.059655502 0.13988984 -0.23955101 -0.028474286
0.25645858 -0.25898603 -0.1904247 -0.0051766047 -0.0801304 0.02522942 -0.0107179135 0.027256677
0.23771347 0.13867278 -0.24355009 0.27620313 0.15237014 0.1697117 0.10808506 -0.12718573
0.13083062 -0.26866198 -0.220689 0.14123662 0.21443288 0.27085474 -0.20311423 -0.1509158
-0.04577887 -0.0330299 -0.08670587 -0.07100816 -0.2666979 -0.26979086 0.008564009 0.21408616
0.022898542 -0.21359791 -0.03466615 0.19385804 -0.20737043 0.06682348 -0.18362677 0.25565758
0.149524 -0.06884538 -0.20910388 -0.1789994 -0.24076766 0.2814801 0.29740933 -0.057956338

sequential_4/conv2d_28/BiasAdd/ReadVariableOp f4 [5]
00000000: 1f39 9f3c d8fd f63a a704 923c e4bf 183c
00000010: 44b6 d0bc
0.019436417 0.0018843962 0.017824484 0.009323094 -0.025477536

sequential_4/conv2d_29/BiasAdd/ReadVariableOp f4 [5]
00000000: 63b3 44ba fa15 903b c24e 08bc a1f6 5fb9
00000010: a51a 6c3b
-0.00075035373 0.004397151 -0.008319559 -0.00021358814 0.0036026624

sequential_4/conv2d_30/BiasAdd/ReadVariableOp f4 [5]
00000000: 15ae 0e3a 163b 323c 21f2 01bc 40ff 49bc
00000010: 5c4c 733c
0.00054428104 0.010878345 -0.007931263 -0.012328923 0.014849748

sequential_4/conv2d_31/BiasAdd/ReadVariableOp f4 [5]
00000000: 8cef 53bc c4b2 cd3b bba6 b4ba e9ca 2fba
00000010: d9fa f8ba
-0.01293553 0.006277414 -0.00137826 -0.0006705956 -0.0018995657

sequential_4/conv2d_32/BiasAdd/ReadVariableOp f4 [5]
00000000: 9847 3abc f3b7 223c 3620 88bb 9d74 813b
00000010: c37a b83a
-0.011369608 0.009931552 -0.0041542305 0.003950669 0.0014074672

sequential_4/conv2d_33/BiasAdd/ReadVariableOp f4 [5]
00000000: a89c 283c ae7c da3a 7081 61bb 3743 8d3c
00000010: 8c63 68bc
0.010291256 0.0016669238 -0.0034409426 0.017243965 -0.01418389

sequential_4/conv2d_34/BiasAdd/ReadVariableOp f4 [5]
00000000: 58db 9a3c 202e 0e3b fbed ee3b 1454 b63b
00000010: 1c5e 103a
0.01890342 0.0021694973 0.007291553 0.005564222 0.00055071875

sequential_4/conv2d_28/Conv2D f4 [5, 3, 3, 1]
00000000: 83b4 bf3d 1044 7d3e 9660 c5bd aa80 b73c
00000010: acd6 a8be 355d 35be 9e25 193d 56ae 12be
00000020: 26a7 a0be 4bb4 823e a123 223d 2fd9 9ebe
00000030: 87e8 94be 01d3 21be e860 783e 3dda 30be
00000040: d273 5bbe 2580 2bbe 4f13 9abe 56c5 433e
00000050: 4bd6 203c 93af 053e 362d 97bd 11a6 2a3e
00000060: 25de e13c a74b b33d 16bd 5ebd f28f 203e
00000070: 3033 5bbd f986 933e 3ec5 68bd 120b babd
00000080: fd4a bd3c 9744 203e f0c7 4bbe 07b4 a03e
00000090: ac00 41be 425c 33bc cebc 4abc 337d 843e
000000a0: 79b8 d63d 0b77 59be e4d0 92be 88ff 08be
000000b0: 799c 413e
0.09360602 0.24732995 -0.09637563 0.022400219 -0.32976282 -0.17711337 0.03738939 -0.14324316
-0.31377524 0.25528178 0.03958476 -0.31025073 -0.29083654 -0.15803148 0.24255717 -0.17270751
-0.214309 -0.16748102 -0.30092856 0.19118246 0.009816716 0.13055257 -0.0738167 0.16664912
0.027571747 0.08754664 -0.054379545 0.15679911 -0.053515613 0.28813913 -0.05682873 -0.09084143
0.023107046 0.15651165 -0.19900489 0.3138735 -0.18847913 -0.010947289 -0.012374116 0.2587677
0.10484404 -0.21236818 -0.28674996 -0.13378727 0.18907346

sequential_4/conv2d_29/Conv2D f4 [5, 3, 3, 5]
00000000: 8913 efbd 937c 0d3c 7619 6cbb 5e3e 0a3e
00000010: e715 ab3d d5a6 ebbd 3fdd 24be d46f f53d
00000020: fee0 ce3d f3f3 55bd d560 273e 716b 4d3e
00000030: 6e0d 1a3d 7b49 debd 4473 f43c 42c9 bfbd
00000040: 772b c33c 428a ce3d a8fa e8bc fc79 d93d
00000050: 0a0a 6bbe fd32 243c 93ea 0fbe 307a f2bd
00000060: 0668 423d 0365 39be bf12 133e 1239 c0bc
00000070: 686e 793e f8c3 05be 5ecf 07be 56df 953d
00000080: 605d d1bc 5ca9 7ebd 9965 603d 10d6 4a3d
00000090: f068 393e 835b 40be 239c fa3c 684e 82bc
000000a0: d234 0b3d 5c74 f2bd ace4 403e ef95 2b3e
000000b0: 91b8 e83d 53d5 063e 746c d23d 0870 77bd
000000c0: e4ec 07be 1f05 82bd bb43 c4bc 10c0 4839
000000d0: 507d 91bd d348 64bc e734 01be d60f 5f3e
000000e0: 8937 46be 942e 633e 74df 0dbd dc06 273b
000000f0: dad5 67bd 5351 433e a5b8 263d 5008 d5bd
00000100: 5585 dd3d dcf8 313e 2b94 f23c 86ed 0e3e
00000110: 38be 4ebe e15f 753e 376a 9ebd d152 37be
00000120: a02e 743d f828 fc3d 3f6a 0ebe 8e45 60bd
00000130: 1fc7 ab3d e37f 5cbe c9fb 563e f682 b03d
00000140: 0f9a 503e 1a15 2dbe e1f0 27be f6df 50be
00000150: 9d4e ecbd 89b9 12be 0e6a 203c ae4d 433e
00000160: e4ea 803e e47e b3bd 9b6d ac3d 4638 223e
00000170: af9f 71bd c04a a43c a614 2dbe ea5a 3dbe
00000180: 7cb0 d63d c6cd 5f3e ffba 4c3c cb99 253e
00000190: 747c 50be 4720 18be da6a 3bbd 0354 333d
000001a0: 77a1 1abe 4b0e 5bbe 7f2f 03bd c98a 6d3e
000001b0: fe33 7fbe 78d7 15be bfea 7cbd f278 adbc
000001c0: 4432 b6bd 5824 99bd 01e7 e8bd 9600 3b3e
000001d0: 8ca0 a63d 6e17 32be e34d 103e eea4 83be
000001e0: a1df eb3d 236e 313e e1c3 32bc 8222 8b3c
000001f0: 0178 113e cbda aa3d 0bc6 003e d753 353e
00000200: aec8 0abe ee94 7a3e e26b 2f3e b18b 85be
00000210: ca4b 84be 2948 f9bd 9be9 d83d 30ae 0e3e
00000220: c0f3 aebd 0a3c 253e f73c 5f3e be0c 3dbe
00000230: 6317 1d3e d8d6 623e 1dc8 4d3e 26c4 48be
00000240: 45ea 37be e532 273e fdd0 15be 8adf 4c3e
00000250: b7a7 c2bc 6a4d 253e 0ad5 4f3c 1ba1 2b3e
00000260: 3aba 7e3e 475f 9d3d 247a 713d 69ac a53d
00000270: 3189 353d edb5 d0bc 6d23 51be 67d4 cebd
00000280: ef14 523e 5156 563d b649 23be a18d e4bd
00000290: 5355 943d ba29 07be 9735 3fbe b879 4bbe
000002a0: e6ca 43be 3105 e4bd a223 14be 7640 a93b
000002b0: a77b 52be 243d 20be e068 0c3e 222f 633e
000002c0: e815 493e ae0e 7cbe dc4e 04be 1a6c b33d
000002d0: 0236 61be cd55 51bd 7bef 0a3d 7d8f a1bd
000002e0: 3dc3 7ebe d640 693e 9451 e3bc a695 68bb
000002f0: 4fe4 59be 740c 0b3e 6196 113e ef1f 6f3e
00000300: 1c81 a53d 0789 35be 64d3 073d 5106 babd
00000310: cac4 223e 832d 65be 9e35 f4bc 0d59 22be
00000320: 4866 343e cd4d 793e 0215 b93d ef3e 823e
00000330: 097e 783e 3c5c 0cbe 534d d43d 4e21 3b3d
00000340: 52b1 e3bd e4c3 56be 4aa5 f43d 0799 e23d
00000350: faa7 27be 9f5d 903d 6bfe 28be 78fa 633e
00000360: 0323 a7bd f1ec 4e3e f348 793e ac78 24be
00000370: 4a8e 09be 19e9 1d3e 2f78 afbd 8426 e93a
00000380: 78bb a3bd
-0.11673648 0.008635658 -0.0036025918 0.13500354 0.08353787 -0.1150643 -0.16100024 0.1198422
0.101015076 -0.0522346 0.16345532 0.20060517 0.037610464 -0.10853859 0.02984012 -0.09364559
0.023824437 0.10084964 -0.028439835 0.1061897 -0.22953048 0.010021922 -0.14054327 -0.11839712
0.047462486 -0.18104939 0.1436262 -0.023464713 0.24358523 -0.13063037 -0.13262698 0.073179886
-0.02555722 -0.062173232 0.05478439 0.049520552 0.18106437 -0.18784909 0.03059203 -0.015906528
0.03398592 -0.118386 0.18837231 0.16756414 0.11363328 0.13167314 0.10274592 -0.060409576
-0.1327396 -0.06348633 -0.023958078 0.00019145035 -0.071039796 -0.013933378 -0.12617837 0.21783385
-0.19357122 0.22185737 -0.03463693 0.0025486266 -0.05660043 0.19073991 0.040703434 -0.10401976
0.10816447 0.17380089 0.029611668 0.13957796 -0.2018975 0.23962356 -0.077351026 -0.17902686
0.059614778 0.12312502 -0.13907717 -0.054753833 0.08387589 -0.2153316 0.20994486 0.08618729
0.20371269 -0.16902581 -0.16400482 -0.20397934 -0.11538432 -0.14328589 0.00979091 0.19072601
0.25179207 -0.08764437 0.08419343 0.15841779 -0.058990177 0.020055175 -0.16902408 -0.18491712
0.104828805 0.2185584 0.012495755 0.16171949 -0.20359975 -0.14856063 -0.0457562 0.04378129
-0.15100656 -0.21392171 -0.032027718 0.23197474 -0.24922177 -0.14632976 -0.06174731 -0.021175835
-0.08896306 -0.07477635 -0.113721855 0.18261942 0.08136091 -0.1739175 0.14092211 -0.2571177
0.11517263 0.1732717 -0.010910959 0.016984228 0.14205934 0.08342513 0.12575547 0.17707764
-0.13553116 0.24470875 0.17130998 -0.2608314 -0.25839072 -0.121719666 0.10591432 0.13933635
-0.085425854 0.16136184 0.218006 -0.18461892 0.15340953 0.22152269 0.20095868 -0.19606075
-0.1796046 0.16328008 -0.14630504 0.20007148 -0.023761613 0.16142812 0.01268507 0.16760676
0.24875727 0.07684188 0.058954373 0.08089525 0.04432029 -0.025477374 -0.2042367 -0.10099106
0.20515798 0.05232841 -0.15946087 -0.11159826 0.07242837 -0.13199511 -0.18672787 -0.19870651
-0.19120368 -0.11133803 -0.14466718 0.005165155 -0.20554982 -0.15648323 0.13711882 0.22185948
0.19637263 -0.24614975 -0.12920707 0.08760853 -0.21993259 -0.051107217 0.033919793 -0.07888696
-0.24879165 0.22778639 -0.02774886 -0.0035489588 -0.21278499 0.13578969 0.14217521 0.23352025
0.08081266 -0.17728053 0.033160582 -0.09083236 0.15895382 -0.22380643 -0.029810723 -0.15854283
0.17617142 0.24346085 0.0903721 0.2543864 0.24266829 -0.1370706 0.10366311 0.04568606
-0.111178055 -0.20973164 0.11945589 0.11064344 -0.16372672 0.07049107 -0.16503303 0.22263515
-0.08160975 0.20207573 0.24344234 -0.16061658 -0.13433185 0.15420951 -0.08567845 0.0017787968
-0.07994741

sequential_4/conv2d_30/Conv2D f4 [5, 3, 3, 5]
00000000: 90cc 83be d002 b5bd c287 78be 6819 34be
00000010: e8db 67be f208 703e 7a75 0e3e 4060 ca3d
00000020: 77da 8c3d a934 f83d a7a4 553e bdfb 003e
00000030: b8b5 a93c 4989 60be 02f8 acbd b179 f33c
00000040: 6ab9 82be 8d7c 753e e8fd 593e aa5d 5dbe
00000050: ef9b c43d 2a34 63be 33b7 87bc c0ec 073e
00000060: f9d1 253d 5290 7fbd fdd9 2a3d 49ea 45be
00000070: e7e3 69be 99b4 0dbe 263e 40bd 6c23 5d3d
00000080: 2f22 e1bc d4b5 7fbe 6ff5 103e 6c10 8abd
00000090: f999 05be db9b 46be bceb 363d f640 61bd
000000a0: 2423 793e f1b8 07bb 3ff0 773d 40c8 d2bd
000000b0: ce73 7bbd 7b90 72be c4a4 2e3d e52b ba3c
000000c0: bf02 0bbe 3c77 b23d 51ad 87be c34b f53d
000000d0: 8dfa c83d e8d3 273e 9f48 793e cdb1 7b3e
000000e0: ee37 58bd e292 773e 3ebb 79be 2945 153d
000000f0: 9116 093e 38d0 fd3d 8aba 8ebd 9bd2 943d
00000100: 8fd7 6f3e f4c0 453e 61d4 383e 8155 e0bd
00000110: ff48 083e 2dce 413e 147c 9ebd abbc 053c
00000120: 41ae e43b 4ccc 50bd 553e 0abe 5bf8 79be
00000130: f936 66bd 5571 813d b0e3 0fbd d21e e0bd
00000140: 1f33 80be 3e5a 153e bd93 5abe a43f 7b3e
00000150: b53f 80be edda dabd 3ee0 2cbe 8377 1a3e
00000160: d5d0 c5bd d121 0cbe 29b0 e3bd 7ea1 d53d
00000170: 0515 00be 14da 05be e73c 5f3e e95a 5b3e
00000180: 91a4 a63d 52a4 833b 3eac 013e ca28 80be
00000190: dee4 5fbe b49b 6a3e c0b5 483d f0a1 7fbd
000001a0: ede8 82be e028 c9bd 0572 55be 8a68 813d
000001b0: e8cc 0c3e fa02 d3bd d6c3 f8bc 5d59 7abe
000001c0: 8a7b 20bd 098f 613e 3a09 653e 7967 f43d
000001d0: 62a5 073e 707a 82be e2e3 05be cc8f 09be
000001e0: 7ab9 4fbe 3032 76be b375 7ebe 5f9c babd
000001f0: fcaf 7a3a 7655 a2bd e03b 8e3c f921 47be
00000200: dd51 953d f328 633e 6a8e 19bc 445c 6dbe
00000210: 18a3 dabd 2ec1 babd 07b8 9ebd d84c 72bd
00000220: 2585 4a3e 0ee7 7c3e 37f7 0e3e c10b 543e
00000230: dce6 6e3d 07b8 683d db07 02bd 0a4c 03be
00000240: 5129 8bbc fcbf e13c a6bc dcbd 44d8 23bd
00000250: 0d15 1fbe b3e0 efbd 2fba f83d cc04 8dbd
00000260: 4948 123e 3667 9c3d 788d 5ebe 7aed 343e
00000270: c493 c63d f945 ed3d ca8f 323d eb94 e9bd
00000280: 581a 91bd beb7 923d 14b5 d03d e688 813d
00000290: eba3 853e 6ea3 afbc 0881 293e fee9 a7bd
000002a0: eea6 7839 ed9a 263e 0f21 60be 451a 28be
000002b0: ae16 24be f127 b3bc 64a3 f6bd 2d77 01be
000002c0: e976 653e 2565 7fbd 596a 843e 992c 0d3e
000002d0: 2ac1 31be 8923 743e 31bf 643e 9e66 1c3e
000002e0: bfe1 18be abc2 dcbd 68f7 583e 7ac6 363e
000002f0: e464 523e bb15 2f3e 21da febb f433 f63d
00000300: 656c 35be bf5a 293e 5e25 80be 3b3a 463d
00000310: 95f5 743e 4f9d 3a3d 9894 c13d c785 6ebe
00000320: 4957 a6bd 2122 583e 54d3 2fbe 0171 60be
00000330: 5d3d 9d3c b7af 39be 7941 3e3c 77e0 debd
00000340: 95b8 063e 093f 8f3d 7eab 0fbe 2755 50be
00000350: 27e8 2b3e 5f53 81be 427f 353e d236 6a3e
00000360: 92c0 5c3e 970c 4a3e 7579 863e 3b57 373e
00000370: 15ef 32bd d8a5 903d 0372 44be 13e2 aa3d
00000380: 09fd 63be
-0.25742006 -0.08838427 -0.24270537 -0.17587817 -0.22642481 0.23440912 0.13912001 0.098816395
0.06877606 0.12119419 0.20863591 0.1259603 0.020716533 -0.2192737 -0.08445741 0.029721113
-0.25532085 0.23973294 0.21288264 -0.21617761 0.096000545 -0.22187868 -0.016566848 0.13273907
0.04048345 -0.062393494 0.041711796 -0.19327654 -0.22840844 -0.13838424 -0.04693427 0.05398886
-0.02748212 -0.24971706 0.14156125 -0.067414135 -0.13047017 -0.19395392 0.044658408 -0.054993592
0.24329811 -0.00207096 0.06053185 -0.10292101 -0.061389737 -0.23687927 0.0426376 0.022726009
-0.13575266 0.087141484 -0.26499417 0.11977341 0.09813414 0.1638943 0.24344109 0.24579544
-0.052787714 0.24177125 -0.24387833 0.03644291 0.13387515 0.1239323 -0.06969173 0.07266732
0.23422073 0.19311887 0.18049766 -0.109538086 0.13309096 0.18926306 -0.0773851 0.008162658
0.0069787805 -0.050976083 -0.1350034 -0.24411146 -0.05620477 0.063204445 -0.03512925 -0.109433785
-0.25039002 0.14585206 -0.2134542 0.24535996 -0.25048605 -0.10686288 -0.16882417 0.15084653
-0.09658972 -0.13684775 -0.11117584 0.10431193 -0.12508018 -0.13071471 0.21800576 0.21421398
0.08136857 0.0040173912 0.12663361 -0.2503112 -0.2186465 0.22910959 0.049001455 -0.062410295
-0.25568333 -0.098222494 -0.20844276 0.06318767 0.1375004 -0.10303302 -0.03036682 -0.24448152
-0.039180316 0.2202722 0.22366801 0.11933798 0.13246682 -0.25484037 -0.13075212 -0.1343376
-0.20285597 -0.24042583 -0.24849586 -0.09111857 0.0009562967 -0.07926457 0.017362535 -0.19446553
0.07291005 0.2218359 -0.009372333 -0.23179728 -0.10675639 -0.09118877 -0.07749944 -0.059155315
0.19777353 0.24697515 0.13961492 0.20707609 0.058325633 0.056816127 -0.031745773 -0.12821975
-0.016987475 0.027557366 -0.10778169 -0.04000117 -0.15535374 -0.1171278 0.12144887 -0.068856806
0.14285387 0.076368734 -0.21733654 0.17668715 0.09696153 0.11585612 0.04359416 -0.11405357
-0.07085103 0.07163952 0.10190788 0.063249394 0.26101622 -0.021440234 0.16553128 -0.08198927
0.00023713309 0.16270037 -0.21887611 -0.16416271 -0.16024277 -0.021869631 -0.12042883 -0.12643118
0.22408642 -0.06235232 0.25862387 0.13786544 -0.17358842 0.2384168 0.22338559 0.1527352
-0.14929865 -0.107793175 0.21188128 0.1784915 0.20546299 0.17098133 -0.007777468 0.12021628
-0.1771713 0.16538523 -0.2502851 0.048395377 0.23921807 0.045560177 0.0945217 -0.2329322
-0.08122117 0.21106769 -0.17170459 -0.21918108 0.0191943 -0.18133436 0.01161229 -0.10882657
0.1315635 0.06994445 -0.14030263 -0.20344983 0.16787778 -0.2525892 0.17724326 0.22872475
0.21557835 0.19731365 0.2626454 0.1790437 -0.043685038 0.07062882 -0.19184117 0.083439015
-0.22264494

sequential_4/conv2d_31/Conv2D f4 [5, 3, 3, 5]
00000000: 8258 303d 54ea bd3d 0e27 39be 5337 b63d
00000010: bcca a4bc 2f3f c3bd 6509 22bb 81eb 04be
00000020: 1fc2 0f3e 4d30 b93d 3592 be3c 91ba 82bc
00000030: 27cf 5a3e f86a 453e 7e37 d23c dd6e 6a3e
00000040: d4c0 2f3c eda9 15be df28 8c3a 7208 4bba
00000050: 1f55 3fbe 6b16 16bd fa1c 303e 07ef 4ebd
00000060: 595b 5f3e a36b fc3b da03 9a3d 14c7 2dbd
00000070: 4366 79be 9773 de3d fc02 39be 583a 863d
00000080: 371b 563e 9a4e d0bc 8b60 40bd a437 bcbd
00000090: 627f 143d a5b5 2d3e 851b 79be 9776 233d
000000a0: 76d3 fb3d 1266 803d ecd8 653e 5c64 1cbe
000000b0: 920a ebbd 61bf 553c fc61 b33d e252 0bbd
000000c0: 1c0d 68be ba3d 56bb 4f08 f43d 25a4 0fbe
000000d0: f63d 7c3d 2d65 373e 7813 29be b26b 053e
000000e0: 485b d8bd 896a bfbd 5891 09be ad60 5f3d
000000f0: e635 7d3e 3269 38bd d73a 74be 8155 353d
00000100: ac87 49be fd93 b3bd 7f98 283e 7128 44be
00000110: bf05 33be 18dc 7f3e c410 eb3d e4bd 31be
00000120: cee6 ab3d 5049 2bbe 04be 613e dcb0 2ebe
00000130: 59a8 6c3e c520 733e ec40 84bd 2ca4 14bc
00000140: 46b2 c73d 697c 763e 72d9 1dbe cdbe 353d
00000150: 2b82 dcbd 29b9 1b3e cc1d 9bbd 055f 9f3d
00000160: 8ca2 113e 870c 83be 90b6 973c 928c 253e
00000170: c9d0 3e3e ebf6 cdbd 5bf6 80be 9e29 4abe
00000180: 3ff7 03be 7b55 44bc 39c3 2c3e 935d 213e
00000190: f312 5d3e 7014 3dbe 9a2f 3ebe 52eb 43bd
000001a0: fb69 893c 6b3d 773e 49f7 2dbe 07ac 1d3d
000001b0: 9ca3 163e b846 923d 549a 593e 06e8 d13c
000001c0: 4124 77be bd88 48bd 34ad 41be faf9 773e
000001d0: 0748 0d3e 00c2 663e b52f 1abe 04ad a8bd
000001e0: 494b 6ebc 055b c93c 91fe 44be 7e70 0f3e
000001f0: eeea 6a3e 3760 663e 6cb4 1c3e 5524 c73d
00000200: 58f3 9d3d 756c 393e 450b 9fbd 1748 5b3d
00000210: ce84 73bd 3bd7 f53b 5c0f e03d 387f 31be
00000220: 9559 883d 1515 fa3b 5289 bd3d d087 31be
00000230: ce77 c43d 997a 18be a488 683d ef82 283d
00000240: 169e 0e3e 4f9c 58bd 0fb7 da3c c8b9 1c3e
00000250: 709e f63d 2200 633d 5c4e d5bd 4466 37bd
00000260: 120d 5abe 9723 863e 5236 33be a0a2 9aba
00000270: b5ee 83bd c100 dabd 9204 51be 31f0 933d
00000280: 5f69 33be 7d43 34be a6f6 eb3d 5496 943d
00000290: eeec 813b ff5b 32be 201f 683e 77e9 81be
000002a0: 7363 523e 23f1 6bbe 2137 54bd 678a 4fbe
000002b0: 82be 623e 258f d0bb f5e9 e9bd 1071 5b3e
000002c0: 4d52 0cbe ca92 c83d afa1 a6bd d2ca 293d
000002d0: 3143 363e b66d 70be 7b65 523d 89e5 7ebe
000002e0: 8803 563d cbf9 d4bc ba4e 62be 22b4 e63d
000002f0: 7706 50be 04f1 30be 3592 a4bd 9174 3d3e
00000300: 988e f9bd 8122 d4bd d154 443e 60f4 22be
00000310: bc00 42bd 4602 d9bc 075c 47be c71e 5c3e
00000320: f1e6 8c3d 395e e93d 76fe 6b3e f554 9f3d
00000330: 7c58 83bd 16d2 733e 69fe e73d 35bb 123e
00000340: 41bb 6a3e fe24 7abd 46eb 11be 2b23 383e
00000350: 4267 81be fa20 8dbd 5470 163d 62ae 32be
00000360: 2ff7 a3bd 5ce5 763e b8eb 573a ab37 3b3e
00000370: c7cd 443d 0995 b03d f9f6 003e e418 e53d
00000380: 0aa7 373e
0.043053158 0.0927321 -0.18081304 0.08897271 -0.020116203 -0.09533536 -0.0024724838 -0.12980463
0.14038895 0.09042416 0.023263076 -0.015958102 0.21368085 0.19279087 0.025661226 0.22893853
0.010727126 -0.14615603 0.0010693333 -0.0007745094 -0.18684815 -0.036642473 0.17198554 -0.050520923
0.2181219 0.007703261 0.07520266 -0.042426184 -0.24355416 0.10861891 -0.18067545 0.06554097
0.20908819 -0.025428105 -0.04696707 -0.091903 0.036254294 0.16963823 -0.24326904 0.039908018
0.12296192 0.06269468 0.2244603 -0.15272659 -0.114766255 0.013046117 0.087589234 -0.03401459
-0.22661251 -0.00326906 0.11915647 -0.1402746 0.061582528 0.17909689 -0.16511333 0.13029364
-0.105642855 -0.09346492 -0.1343435 0.054535557 0.24727592 -0.045022197 -0.2385057 0.044270996
-0.19680661 -0.08768461 0.16464423 -0.19156052 -0.1748266 0.24986303 0.11477807 -0.17357594
0.08393632 -0.16727185 0.22045141 -0.17059654 0.23111095 0.2374297 -0.06457695 -0.009072345
0.097508 0.24070896 -0.1541498 0.044371415 -0.10767015 0.15207352 -0.07574043 0.077817954
0.14222163 -0.25595495 0.01851967 0.16166905 0.18634333 -0.100568615 -0.25187954 -0.19742438
-0.12887286 -0.011983271 0.16871347 0.15758352 0.2158926 -0.18464828 -0.18572846 -0.04783184
0.016774168 0.24144523 -0.16988863 0.038494136 0.1471085 0.07142395 0.21250278 0.025623333
-0.24134924 -0.04895853 -0.18913728 0.24216452 0.13797008 0.22534943 -0.15057261 -0.08236125
-0.014544317 0.024579534 -0.19237734 0.14007756 0.22941181 0.2249764 0.153032 0.09723727
0.0771243 0.1810778 -0.07765821 0.053535547 -0.059452824 0.007502464 0.109404296 -0.17333686
0.066577114 0.0076319077 0.092547074 -0.17336965 0.095931634 -0.14890517 0.056770936 0.041140493
0.13927492 -0.052883442 0.026698617 0.15305245 0.12041938 0.05542005 -0.104153365 -0.044775262
-0.21294048 0.26199028 -0.1750119 -0.0011797734 -0.06442014 -0.10644675 -0.204119 0.07223547
-0.17520665 -0.1760387 0.11521654 0.07255235 0.003965012 -0.17417906 0.22668123 -0.25373432
0.2054575 -0.23041205 -0.051810388 -0.2026764 0.22142985 -0.0063647204 -0.11421577 0.21429849
-0.1370327 0.09793623 -0.081363074 0.04145319 0.17799069 -0.23479351 0.05136631 -0.24892248
0.05224946 -0.025998017 -0.22100344 0.11264826 -0.20314966 -0.1727944 -0.08035699 0.18501498
-0.12185401 -0.103581436 0.1917298 -0.15913534 -0.04736398 -0.026490342 -0.194687 0.21496116
0.06879986 0.11394925 0.23046288 0.07779876 -0.064133614 0.2381061 0.11327822 0.14329226
0.22922994 -0.061070435 -0.14249906 0.17982166 -0.25274092 -0.068910554 0.03672822 -0.17449334
-0.08006131 0.24110931 0.0008236724 0.18282954 0.048047807 0.08622176 0.12594213 0.11186388
0.17934814

sequential_4/conv2d_32/Conv2D f4 [5, 3, 3, 5]
00000000: 4eec 3cbd d11b 34be d12c 2c3d cdc0 71bd
00000010: 0c35 463d 5082 253e 686b 1dbe 11f4 323e
00000020: 8f32 46be c954 40be 911e 5d3d 9274 a63c
00000030: d7c2 1c3e 392d 813e d4aa 91bd e042 b03d
00000040: ad61 72be 762a 31be 59dc 2ebe 42da 6b3e
00000050: acaa 5c3e 89f9 3e3c dcb9 46be 333c e53c
00000060: 77f8 3e3d 1e42 2a3e d4a8 bebd b58e 57be
00000070: cd51 903d 3474 743e 3925 2b3e cc03 313e
00000080: b5b5 39be 7511 5bbe 8f3c 7bbe 80e6 6f3e
00000090: 4b10 123e a7ca 1b3e be17 1c3e 5814 a93d
000000a0: 0f31 b2bd a985 37be dc94 7b3e 3c19 7e3e
000000b0: df85 47be f7c7 53be d048 db3d a5fe 1cbe
000000c0: 6d19 193e 501a 7dbe 410e 7fbe 3a01 2b3e
000000d0: 52f7 0ebe a5a2 54be 780b da3d 6d79 3bbd
000000e0: 70c3 0e3d a1b1 6bbe efc6 463e 1cbf 043e
000000f0: e96b 6b3d e823 6d3e 681e 4fbe bfcb 813e
00000100: 4afd 2c3e 855b 58be 8fe7 a73a 7adb 1ebe
00000110: 3f3b 133e c4a3 78bd 0ea2 283d 8961 173e
00000120: b856 b23d 83d9 733c 830c 63bd 9a45 60be
00000130: ec5c a5bd eda6 d93d 707b 683d 5983 d63d
00000140: 5f97 a0bd 115d febd 2ea1 773e ac61 55be
00000150: ea40 ccbd b87a b3bc e9b5 a03d 0461 503e
00000160: 4e6c 713e aae1 1ebe 5b0f 3d3e b11f a7bd
00000170: cea3 0ebe a429 13be f2f1 c23d afb3 45be
00000180: 4057 633e 32b3 433e a49d 65be 552c abbd
00000190: 8374 d03d 185e 113e f278 a03d e661 29be
000001a0: ce05 31bc 3c58 d23c 757b 2e3e 8479 70bc
000001b0: 589c 32be 7868 0f3e 0864 e1bd 18cd febd
000001c0: 23dd 7f3d 4730 b03d 6a54 44bc 0633 813e
000001d0: 0dba 0e3e 8395 973d 1ccb 44be c307 75be
000001e0: a1bc 01be 101c 44be 79b3 a13d eaae ed3d
000001f0: ed52 95bd 56de 573e 9f32 0bbd 74e9 dc3d
00000200: 143b 823e 2bbe a6bd 6895 c0bd db6b 3b3e
00000210: b387 0abd 42d8 99bd 7751 a03d 7820 643d
00000220: 1656 45be b27b 413d ad17 6f3d 84f6 bfbd
00000230: 8c8d 7d3d 10e1 7d3e 03ce 07be 0703 183e
00000240: 37ee 09be 55d7 2abb 1c31 763d 4c7c 643e
00000250: d71a bb3d 3488 4a3d 571d 22bd 372d eb3d
00000260: 5fa5 b1bc 3f25 563e bcfc 59bc 1001 7c3e
00000270: 51d1 113e ed59 813d be82 46bd 0443 53be
00000280: cfe7 603d 9120 ef3c 7e6c 1f3d ad56 fa3d
00000290: e986 3c3e 2f11 1fbe f847 903d 1b87 2cbe
000002a0: 966e aabd 3c96 fe3d 3e33 333e 8041 fe3d
000002b0: 8aae 5fbe a4f6 163e c7a7 dbbd 4c92 f03d
000002c0: ccc8 76bd 554d 3cbe f181 103e b223 5abe
000002d0: e7e3 ccbd f0b0 80be 2805 833e b03f 8d3d
000002e0: d30a 133e 0c01 2bbe 05eb 4bbe 8538 efbd
000002f0: c0a5 293e 32e2 263d f359 c43b 3b85 5bbe
00000300: 39e2 a5bd 25f2 5a3e 4788 d93d a8a2 54be
00000310: 7bde 6f3c b959 723e 89e0 6dbe 58e7 23be
00000320: 470e 3e3e 4724 703e 7633 65bd 1c6a f13d
00000330: 8116 1c3e 7555 813e 9292 2a3e ad3d 4e3e
00000340: 14ac 4cbe 07bf 28bd 0c5b 0ebe adc6 4fbe
00000350: dbd8 3c3d 91ed 11be be52 fd39 33d3 8b3d
00000360: d3dc 9abd 18a3 e23d 394d 65bd 4314 3d3d
00000370: fc99 69be 1bc9 70bd 1261 63be 414d 7dbe
00000380: 0f7a 0bbe
-0.046123795 -0.17588736 0.042034928 -0.05902176 0.048390433 0.16162992 -0.15373003 0.17475916
-0.19355224 -0.18782343 0.05398423 0.020319257 0.153087 0.25229815 -0.07112661 0.086065054
-0.23670073 -0.17301354 -0.17076243 0.23032477 0.21549481 0.0116561735 -0.19406837 0.027982807
0.046623673 0.16626784 -0.09309545 -0.21050532 0.07046852 0.23872453 0.16713418 0.17286605
-0.18135722 -0.21393378 -0.2453482 0.23427773 0.14264028 0.15214024 0.15243432 0.082558334
-0.087007634 -0.17922081 0.24568504 0.24814314 -0.19484662 -0.2068175 0.10707247 -0.15331514
0.14951105 -0.24717069 -0.24907781 0.16699687 -0.13961533 -0.20765169 0.10646719 -0.045770098
0.034854352 -0.23016979 0.19411825 0.12963527 0.057475958 0.23158228 -0.20226443 0.25350758
0.16893497 -0.21128662 0.0012810099 -0.15513411 0.1437807 -0.060703054 0.041170172 0.147833
0.087079465 0.014883402 -0.055431854 -0.21901551 -0.08074364 0.10627542 0.056758344 0.10474271
-0.07841372 -0.12420095 0.24182579 -0.2083804 -0.09973319 -0.021909103 0.078471966 0.20349509
0.23576471 -0.15515772 0.18462889 -0.081603415 -0.13929674 -0.14371353 0.09518804 -0.19306825
0.22201252 0.19111326 -0.22423416 -0.08358065 0.10178473 0.1419605 0.078355685 -0.16541252
-0.010804607 0.025676839 0.17039283 -0.014677409 -0.17442453 0.14004695 -0.110054076 -0.12441462
0.06246675 0.08602958 -0.0119830165 0.2523424 0.1393816 0.07401564 -0.19218105 -0.23928742
-0.12669612 -0.1915133 0.0789556 0.11605628 -0.072912075 0.21080908 -0.033983823 0.10786715
0.25435698 -0.081417404 -0.09403497 0.18302862 -0.03382082 -0.07511951 0.07828038 0.055695027
-0.1927112 0.047237106 0.05837219 -0.09373191 0.061902568 0.24792886 -0.13262181 0.14844905
-0.13469778 -0.002606829 0.060105428 0.2231304 0.09135979 0.0494463 -0.039578762 0.114832334
-0.0216853 0.20912646 -0.0133048855 0.2460978 0.14240004 0.0631598 -0.04846453 -0.20631033
0.05490857 0.029190334 0.038921826 0.12223563 0.18410839 -0.15533899 0.07044977 -0.16848414
-0.08321874 0.12430999 0.17500016 0.12414837 -0.21843925 0.14742523 -0.1072536 0.11746654
-0.06025009 -0.18388875 0.14112069 -0.21302679 -0.100044064 -0.25134993 0.2558987 0.06896913
0.14359598 -0.16699618 -0.19913872 -0.11680702 0.16567135 0.04074306 0.005992168 -0.21437542
-0.08099789 0.21381433 0.10621696 -0.20765173 0.014640446 0.23667039 -0.23230185 -0.1600622
0.18560134 0.23451339 -0.05595728 0.11787817 0.1524296 0.2526051 0.16657475 0.20140715
-0.19987518 -0.041197803 -0.13901919 -0.20290633 0.046105247 -0.1425078 0.00048317568 0.068273924
-0.0756165 0.11066264 -0.05598185 0.0461619 -0.22812647 -0.05878554 -0.22204998 -0.24736501
-0.1362078

sequential_4/conv2d_33/Conv2D f4 [5, 3, 3, 5]
00000000: e96f 783d b776 0b3d 0b51 96bd b010 6e3e
00000010: f4ac 11be 4a19 093e 3513 6d3e 8ff7 91bd
00000020: 9d32 b33d 409c 6abc 5ff8 6bbd 0488 3cbe
00000030: c8ba c43d 1a55 a0bd ab0f c43b 49c4 82bd
00000040: b61e ae3d 8d85 6a3e e795 303e 81fa f63c
00000050: 1b35 003c 1c76 0cbe ffb9 0bbd 54f3 12bb
00000060: e6b5 65be 479b 1a3e c8ce 06be 5e47 473d
00000070: cc97 5dbd 0759 4cbe 963a 34be b439 f63d
00000080: 553a 1cbe e135 513e 05f0 78be 81d3 023e
00000090: 92d7 edbd 68d7 813e 08f0 83bd 5a28 79be
000000a0: f631 6c3e ff70 66bd 699f 5a3e bbbc 583e
000000b0: 3905 2e3e cbf6 63be 484e fd3c 88e3 29be
000000c0: be5d 033e dd08 bdbd c772 833d 5846 0fbd
000000d0: 5eca 67be f195 c3bd b785 923d ea79 6dbe
000000e0: a6c5 06be 2e05 4fbd 6a07 6f3d a0ad 14be
000000f0: 4e8d f7bd bf2c 2e3e a2e1 083d 85a6 7a3e
00000100: 42a4 7d3e 76f3 163e 2ed2 0c3d 70ee 12be
00000110: 58e8 d0bd f28b 1abd 230c 7e3d 1bb7 4dbe
00000120: 5afe c63d 03d1 293d fb0c 053e d03b df3d
00000130: a38e 3bbe a867 613e 9e45 ae3d 2774 773e
00000140: 7f47 a73d 12db 3dbd b809 333d d81d 35be
00000150: 9a71 16be 7fda a43d 1b88 2cbe 841b b8bd
00000160: fcf1 fbbb 0ca8 6cbe 20ad 5a3d 54b7 e33c
00000170: f4fd 193c 99a8 9fbd b06d 07be 7c07 673c
00000180: 243b 91bd dd1f b33d 77ec b6bc 01f6 573c
00000190: 3666 21bd 52c4 13be a0d1 033e a49c 313d
000001a0: 3af0 7dbd 1f7f f53c 1d26 b6bc bf66 7d3e
000001b0: ec48 5abe 9b78 58be b540 1c3e 36d5 973d
000001c0: da9e 56be a823 183d 6f6c 89bd 03f1 96bc
000001d0: 6746 18be 85a4 e7bd 4f92 ee3d 1031 26be
000001e0: 300d dd3c 22ef 5abe cfe6 d33c e0a0 2c3e
000001f0: 10ea afbc 6a11 24be 440b 60bd eb08 843e
00000200: 82f9 933c 8709 263e 6dc8 b9bd d671 303d
00000210: 54db cdbd 0284 343e a115 4dbe d614 db3d
00000220: 2609 633e 8e79 14be 5adb 003e 79cb a53c
00000230: 6c5e 15bd af4c 71be fcd0 633e ab76 e23d
00000240: 60ae 2ebe 6b21 76be 7e9b 7d3e 492d 24be
00000250: cc14 19be 8a49 57be 42c0 6f3e aadd 28be
00000260: a191 0cbe 0e2c 80bd 634e 2d3e 7ca8 33bc
00000270: d247 693d a887 c73d ed95 7cbe f212 39be
00000280: 48ef 88bd 41c1 123e 1183 393e 0dea 57be
00000290: 5051 f23d 428a 08be 5c5e acbd 6962 343e
000002a0: ad38 27be c139 073e 2735 1a3d 26e5 b6bc
000002b0: be31 2dbe 9312 33be 2567 60be d223 ee3c
000002c0: f4ea c23d 6c17 fa3d be08 a5ba 996a e6bd
000002d0: b1bd e83d 7053 3b3d 8330 2ebd 6b70 f3bd
000002e0: eede 15b9 0ad5 803d e26f c1bc b461 dd3d
000002f0: d5cd 49be 60c2 dd3d 3c18 6f3e e13f c83d
00000300: c8c7 ae3d b72b 79be 3ef0 f53d a339 9c3c
00000310: 5f97 843d 0aac a5bd 36b0 3b3e 7d9a 193e
00000320: 9f83 4e3c 6b9e 033c 508f 1abe 94b8 2b3d
00000330: b937 dabd 4f80 713e d093 1ebe 4a48 a33d
00000340: 8d6f 0b3e a483 0cbe e298 60be 9244 443e
00000350: 6bf8 763d 7707 c43d 26c2 acbd 533d 623e
00000360: 7707 6d3d 1b90 aa3c 2e1e 76be 2f68 bf3d
00000370: afac 6b3d f210 503e c4ab 84bb beea b9bd
00000380: 0b1d 733d
0.0606536 0.034048762 -0.073396765 0.23248553 -0.14226133 0.13388553 0.23151858 -0.07127296
0.08749888 -0.014319479 -0.057609912 -0.18411261 0.09605938 -0.07828732 0.005983313 -0.06385095
0.085019514 0.22902508 0.17244683 0.030148746 0.007825161 -0.1371693 -0.034112927 -0.0022422867
-0.2243267 0.15098296 -0.13164818 0.048652045 -0.054099843 -0.19955836 -0.17600474 0.12022725
-0.15256627 0.2043071 -0.2431031 0.12775995 -0.116133824 0.25359654 -0.06442267 -0.24331799
0.23065934 -0.056260105 0.21349873 0.21165745 0.1699418 -0.22262113 0.030921116 -0.16590703
0.12828729 -0.09230206 0.064183764 -0.034979194 -0.2263579 -0.095500834 0.0715441 -0.23191038
-0.13161334 -0.05054205 0.05835668 -0.14519358 -0.120874986 0.17009257 0.033418305 0.24477585
0.2476969 0.1474131 0.03438013 -0.14348769 -0.10200566 -0.03773112 0.062023293 -0.2008938
0.097164825 0.041459095 0.12993233 0.1090008 -0.1831613 0.22012198 0.08509372 0.24165402
0.08167934 -0.0463515 0.04371044 -0.17687166 -0.14691773 0.08049487 -0.16848795 -0.08989623
-0.007688759 -0.2311098 0.05338776 0.027797379 0.009398926 -0.07795829 -0.13225436 0.0141009055
-0.07091358 0.08746312 -0.022329552 0.0131812105 -0.039404117 -0.14430359 0.12872934 0.043362275
-0.061996676 0.029967843 -0.02223497 0.24746226 -0.2131688 -0.21139757 0.15259059 0.07413714
-0.20959035 0.03714338 -0.06710135 -0.01842547 -0.14870606 -0.113106765 0.11649 -0.16229653
0.026983827 -0.21380284 0.025866894 0.16858244 -0.021473914 -0.16022268 -0.054698244 0.25788054
0.01806331 0.16214572 -0.09071431 0.043077312 -0.10051599 0.17628482 -0.20027782 0.106973335
0.22171459 -0.14499494 0.12583676 0.020238625 -0.036467 -0.23564409 0.2224769 0.1105779
-0.17058706 -0.24036185 0.24766347 -0.160329 -0.1494934 -0.21024147 0.23413184 -0.16490808
-0.13727428 -0.06258403 0.16924433 -0.010965463 0.05695326 0.09742671 -0.24666567 -0.18073633
-0.06686264 0.14331533 0.18116404 -0.21085377 0.118319154 -0.13333991 -0.08416435 0.17615665
-0.16330214 0.13205625 0.037648346 -0.022326063 -0.16913506 -0.17487554 -0.21914347 0.029069815
0.0951747 0.122114986 -0.0012591106 -0.11250801 0.11364306 0.04573387 -0.042526733 -0.118866764
-0.00014292795 0.06290634 -0.02361292 0.10809651 -0.19707425 0.1082809 0.23349088 0.09777809
0.08534199 -0.24333082 0.12008713 0.019070452 0.06474184 -0.080894545 0.18328938 0.15000339
0.012604623 0.008033375 -0.15093732 0.041924074 -0.106551595 0.23584102 -0.15486073 0.079727724
0.13616772 -0.13722092 -0.2193332 0.19166782 0.060295504 0.09571736 -0.084354684 0.22093706
0.057868447 0.020820668 -0.2403495 0.09346043 0.05753773 0.20318964 -0.0040487964 -0.09077977
0.05935387

sequential_4/conv2d_34/Conv2D f4 [5, 3, 3, 5]
00000000: e52d 20be ed13 bcbd 38e4 23be 4613 44be
00000010: 6be5 3bbd 5a0d 80be f16c 253e de0f 283e
00000020: edab 5e3e 2d47 4ebe ef0d 07be 75f5 cfbd
00000030: 3b93 0cbe 86e2 a43d e8db 81be 59fd 203e
00000040: f603 343e fdf2 7b3e 9b89 75be 4239 6e3e
00000050: 7655 49be 14f1 47bd 2b30 313c 530b 393e
00000060: ffb5 cd3d 479c 763e 9a8d a0bc 6033 ecbd
00000070: 860c 69bd 4ee6 933d 2e8e a83d 5c4d 2d3e
00000080: 662b b43c 3e5a b33d 31e5 4abe 5e64 81be
00000090: 2e82 323e d750 973d c6db 85bd 3cc0 3b3e
000000a0: 3bd3 883b a6d1 1dbc 4298 203e 50cd b7bd
000000b0: 583c 693e 9b70 6ebd ded7 21be 5349 00bd
000000c0: bb88 a8bb 0572 f93d aaf5 0f3d c7f0 893c
000000d0: 6cd6 873d d77d e7bd 1fee 193e 0b1c 3e3e
000000e0: fe87 403e bb2b 133e 32ea 8a3d 1f8c 133e
000000f0: 85e9 7d3c 576e 30be ccad 24be a438 13be
00000100: 85f3 fbbd 3f8d 88be 5f86 28be e608 04be
00000110: 1ac4 16be ac90 2e3e 881c 71bc c719 5cbd
00000120: 443f 9abd d2f7 9b3c 7547 993d 5a6a 81bd
00000130: 1e1f 50bd ae5e d83d 29fe 52be 44c1 413e
00000140: 0ca3 c9bd 18bb 473e 7264 83be 8206 25be
00000150: ad0e 45be e0ac 2d3e 2edd b93d 34a4 30be
00000160: d5f2 9fbd 0e29 5b3e 36e6 36be 8c62 753e
00000170: 416e debc de6a 7fbe 53c4 46be a027 63be
00000180: c246 c43d 87f0 923d d179 09bd 7534 533e
00000190: 6cdb ebbd db92 12be 24ee 7ebe 26c1 b93d
000001a0: 97ca 48be 3d65 e5bd f551 88bd d0a6 a6bd
000001b0: 8fe2 82be 36de 5abe 1b48 6ebe 4342 66be
000001c0: 3801 36be d31f 763e 70e5 433d 857b 2f3d
000001d0: 5eff f93c d002 2a3e 4fdb 65bd 9e27 55be
000001e0: ad84 193e b883 b93d 6b4c 753e 196b bbbd
000001f0: 73f9 9fbd 295d 5b3d 7ab5 dd3d f615 f33c
00000200: f952 38be ed82 53bd 7d90 ea3d d822 0ebe
00000210: 91e2 cabd 0e0a 49bd a61f 35be f84e 64be
00000220: 332d 16be a263 33be def9 083d 991d e63d
00000230: 6041 d83d c6e6 8abc 572e 1c3e e611 9ebc
00000240: 33d9 323e 7b5c 073e e3e8 70be 28c0 7cbd
00000250: 5b62 4bbe aede 5b3e 8b34 e13d 119a 3c3d
00000260: 6dbd 21be 061c f3bd 1a8d 493e 8c24 7dbe
00000270: 9cdd 90bd 50cb cc3d b543 5dbe b19f 7d3e
00000280: 6215 10be 9086 04be 8eee 393e 3f3a 2c3e
00000290: 73a5 253e 4427 74bd 8e9a 603e fda2 323e
000002a0: c055 393c 8642 8cbc bebc 63be 7b8a 213c
000002b0: e711 74be 07b1 c7bd 124f 7ebe 9c1c 2e3e
000002c0: 7536 6ebe f355 45be 1367 2e3e c4c7 f73c
000002d0: 4842 e8bc 8ccf 5d3e 44ba af3d 8ecf adbc
000002e0: 4e9e 94bd 0a50 9d3a 482e 97bd eff0 2a3e
000002f0: 6ba0 603e 00b7 8f3d db9b 58bd 2db7 b13d
00000300: 2e37 3f3e d7ab 503e d688 403e de74 61be
00000310: aca1 4b3d 64aa 64be 8c58 a83d ed02 303e
00000320: 91cc 7bbe 874f 1ebe 5d47 9bbc 8788 4b3e
00000330: 21b4 393e 9122 323d 7d4a 65be 68a0 50be
00000340: 59ec 2e3e fe20 aebd ea2e 5ebe 17f0 0a3d
00000350: 1947 e73c 067e 96bd 3bfb 273e 4de9 eebd
00000360: 2593 67be 7676 2dbd f086 253e 2923 b33d
00000370: 1cfb 32be c793 ad3d de52 3cbe 31a5 efbd
00000380: c39f a03d
-0.15642507 -0.09183488 -0.16005027 -0.19147977 -0.045873087 -0.25010186 0.16154839 0.16412303
0.21745272 -0.20144339 -0.13188909 -0.10154239 -0.13728039 0.080510184 -0.25363088 0.15721644
0.17579636 0.24604411 -0.23978274 0.2326403 -0.19661507 -0.048813894 0.010814707 0.18070726
0.100444786 0.24083053 -0.01959877 -0.115332365 -0.05689671 0.072216615 0.082302436 0.16924042
0.02199335 0.08757447 -0.19813992 -0.25271887 0.17432472 0.07388466 -0.06536059 0.1833505
0.0041755713 -0.009632504 0.15683082 -0.08974707 0.22776926 -0.058212858 -0.15805003 -0.031319927
-0.0051432527 0.121799506 0.035146393 0.016838444 0.066326946 -0.11303299 0.15032242 0.18565385
0.18801877 0.1437215 0.067829505 0.1440892 0.01549757 -0.17229591 -0.16081923 -0.14377075
-0.12302307 -0.26670262 -0.16457509 -0.1289402 -0.14723244 0.17047375 -0.014716275 -0.05373552
-0.07531598 0.019039068 0.074843325 -0.06319113 -0.050810926 0.10564934 -0.20604767 0.18921381
-0.09845552 0.19504964 -0.2566257 -0.16115764 -0.1924388 0.16960478 0.0907539 -0.17250139
-0.078099884 0.2140238 -0.17861256 0.23963374 -0.027152183 -0.2494311 -0.19410829 -0.22183084
0.095838085 0.07174783 -0.03356344 0.2062548 -0.11516461 -0.14313833 -0.24895531 0.09070043
-0.19608532 -0.1120095 -0.06656257 -0.08137286 -0.25563475 -0.21373829 -0.23269694 -0.22486214
-0.17773902 0.24035577 0.04782623 0.042842407 0.030517276 0.16602635 -0.056117352 -0.20815894
0.14992018 0.090583265 0.23954932 -0.09151287 -0.078112505 0.05355564 0.108256295 0.029673558
-0.18000402 -0.051638532 0.1145334 -0.1388048 -0.09906495 -0.049081855 -0.17687854 -0.22295749
-0.1466568 -0.17518476 0.033441417 0.11236114 0.10559344 -0.016955744 0.15252052 -0.019295644
0.17465667 0.13218872 -0.23526339 -0.061706692 -0.19861738 0.21471664 0.1099635 0.046045367
-0.15794916 -0.118705794 0.19682732 -0.24720973 -0.07073519 0.09999716 -0.2160786 0.24767949
-0.14070657 -0.12941957 0.18157408 0.16819094 0.16176395 -0.05960776 0.21933958 0.17444988
0.011311948 -0.017121565 -0.22239968 0.0098596765 -0.23834954 -0.09750562 -0.2483485 0.17003101
-0.23262961 -0.19271068 0.17031507 0.030246623 -0.028351918 0.21661204 0.08580449 -0.021217134
-0.07256757 0.0012002003 -0.07381874 0.16693471 0.21936195 0.07017326 -0.05288301 0.08677516
0.18673393 0.20378052 0.18802199 -0.22017238 0.04971473 -0.22330624 0.08220014 0.17188616
-0.24589755 -0.15460025 -0.018954927 0.198763 0.1813512 0.043489996 -0.22391696 -0.2037369
0.17082347 -0.085023865 -0.21697584 0.033920374 0.028232144 -0.07348256 0.1640443 -0.11665592
-0.22614725 -0.0423493 0.16164756 0.08746941 -0.17478603 0.08475452 -0.18390986 -0.1170143
0.07842972

sequential_4/dense_9/BiasAdd/ReadVariableOp f4 [7]
00000000: 9187 e8bc 772d 363a 18ee 303a e0b2 e23a
00000010: 3cd2 b8b8 1e85 593b baac edba
-0.028384956 0.0006949524 0.0006749346 0.001729574 -8.812963e-05 0.0033190916 -0.0018133142

sequential_4/dense_8/BiasAdd/ReadVariableOp f4 [64]
00000000: 5fc7 1fbb 5ff0 91ba 50d2 f7ba 1633 f1ba
00000010: bd4a 81b9 2fac c4bb 7011 283a 04e0 c13a
00000020: 0cae 573a aa54 83bb e35e a3bb 2947 5f3b
00000030: a7bd 9fba e982 60bb 9589 7b39 8459 61ba
00000040: 1580 99bb de01 d4ba e32f a4ba dfb6 9abb
00000050: d6c5 66bb 6d4a 643b 17c3 363b f8e5 2c37
00000060: d296 50b9 07fd 8cb9 5841 02bb d57d b5bb
00000070: e699 c2b9 81cf d0bb e049 52bb 40e1 d6ba
00000080: 84b8 2dba 6e87 08bb c04a 4cbb 23be 663b
00000090: 59f1 5cba 0909 523a 2c5d 7b39 18d9 fd39
000000a0: fa9b 9eba df53 90bb 0f48 92bb 9e48 87bb
000000b0: e5bf 9dbb 4de7 a3bb 3b8c 3ebb 7512 16bb
000000c0: a7e4 84bb 6c65 663a 2243 70bb f551 9aba
000000d0: 05ec 36bb 2d14 ddbb f24f 32bb fc99 bfbb
000000e0: d90c 77ba e624 caba 6a18 4cbb 16dd 86bb
000000f0: d011 6f3b 8fa1 bcba 6ec3 c439 cbe6 69bb
-0.002438031 -0.0011134258 -0.0018907283 -0.0018402066 -0.00024660482 -0.006001971 0.000641129 0.0014791493
0.0008227534 -0.0040078955 -0.0049856766 0.0034069514 -0.0012187258 -0.0034257716 0.00023988479 -0.0008596408
-0.004684458 -0.0016174873 -0.0012526478 -0.004721507 -0.0035213134 0.00348344 0.0027887279 1.0305543e-05
-0.0001989261 -0.000268914 -0.0019875374 -0.005538682 -0.00037117227 -0.0063723926 -0.003208749 -0.0016394034
-0.0006626921 -0.0020832676 -0.0031172484 0.0035208545 -0.00084282976 0.00080122106 0.00023971935 0.00048417668
-0.0012100928 -0.0044045295 -0.0044641565 -0.0041285297 -0.0048141354 -0.0050019384 -0.0029075283 -0.0022899185
-0.004055578 0.0008788917 -0.0036661108 -0.0011773693 -0.0027911675 -0.00674679 -0.0027208296 -0.005847214
-0.00094242167 -0.0015422374 -0.0031142482 -0.004115711 0.0036479123 -0.001439141 0.0003752964 -0.0035690542

sequential_4/batch_normalization_28/FusedBatchNormV3 f4 [5]
00000000: 4091 223d 482a ab3c ca25 de3c eeb7 513c
00000010: 40c9 c53c
0.039689302 0.020894185 0.027117629 0.0128002 0.024143815

sequential_4/batch_normalization_28/FusedBatchNormV31 f4 [5]
00000000: 03cb 0fbf cc3e 00bf 920e 37bf 4bc4 3dbf
00000010: f982 1bbf
-0.56169146 -0.5009582 -0.7150661 -0.74127644 -0.60746723

sequential_4/batch_normalization_29/FusedBatchNormV3 f4 [5]
00000000: 0e9e 0d40 bde6 5240 5dd0 9f3f 4922 ff3f
00000010: 8813 643f
2.212772 3.2953331 1.2485462 1.9932338 0.890923

sequential_4/batch_normalization_29/FusedBatchNormV31 f4 [5]
00000000: a62b 24bf c4c2 1fbf 516e 2dbf 3fd2 19bf
00000010: fee9 d4be
-0.641291 -0.62406564 -0.67746454 -0.60086435 -0.41584772

sequential_4/batch_normalization_30/FusedBatchNormV3 f4 [5]
00000000: d63a 0f40 a926 723f dd82 0940 4c82 c53f
00000010: 3a1e 573f
2.237966 0.9459024 2.1486123 1.5430388 0.840305

sequential_4/batch_normalization_30/FusedBatchNormV31 f4 [5]
00000000: 46c9 76bf dba6 00bf 7e44 b0bf ceaa 17bf
00000010: 222e 23bf
-0.9640087 -0.502546 -1.3770902 -0.59245 -0.6374227

sequential_4/batch_normalization_31/FusedBatchNormV3 f4 [5]
00000000: ff25 3240 dc43 e53f 15d2 b73f 4008 d53f
00000010: 133b 1940
2.783569 1.7911334 1.4360987 1.6643143 2.3942306

sequential_4/batch_normalization_31/FusedBatchNormV31 f4 [5]
00000000: 8e0d 93bf 6a06 21bf db4d 10bf d9ca 7bbf
00000010: c7c6 6bbf
-1.1488512 -0.6290041 -0.563688 -0.98356396 -0.92100185

sequential_4/batch_normalization_32/FusedBatchNormV3 f4 [5]
00000000: 76f8 803f fbe1 a83f 1b51 8a3f aee6 963f
00000010: 1228 0840
1.0075824 1.3193964 1.0806001 1.1789148 2.1274457

sequential_4/batch_normalization_32/FusedBatchNormV31 f4 [5]
00000000: 1f2f 3fbf b247 65bf 09d1 e7be 69b1 43bf
00000010: 9aac 61bf
-0.74681276 -0.89562523 -0.4527667 -0.7644258 -0.88153994

sequential_4/batch_normalization_33/FusedBatchNormV3 f4 [5]
00000000: 145c 843f 3850 f83f 6049 0e40 0f5f ca3f
00000010: 7a0f b53f
1.03406 1.9399481 2.2232285 1.581026 1.4145348

sequential_4/batch_normalization_33/FusedBatchNormV31 f4 [5]
00000000: dcb1 4dbf 35a8 98bf 4954 68bf 0b4f 57bf
00000010: e3ad 08bf
-0.80349517 -1.1926333 -0.9075361 -0.84104985 -0.5339033

sequential_4/batch_normalization_34/FusedBatchNormV3 f4 [5]
00000000: 49cd d63f c8d8 803f a844 f63f a99e aa3f
00000010: d4f1 793f
1.6781398 1.0066156 1.9239702 1.3329669 0.97634625

sequential_4/batch_normalization_34/FusedBatchNormV31 f4 [5]
00000000: 3c8c 5abf c1e0 34bf 5bdb acbf 74cf 20bf
00000010: da34 50bf
-0.8537023 -0.7065545 -1.3504442 -0.6281655 -0.81330645

sequential_4/dense_8/MatMul i1 [64, 8450] scale=0.00037976747 zero_point=0
00000000: cee1 18b4 2500 3444 a1e8 bad6 ccf0 a0aa
00000010: f23f ccff 1ecf 0405 b0c1 e23d b1e6 0229
00000020: f11e fcbf c6d8 06bc 1a10 c7a6 a6d7 1ee0
00000030: 37d2 fc17 d63a e2f7 ca29 e4f5 ad02 e622
00000040: bac1 f728 c5f5 f0f3 dfb4 ca17 1815 ee02
00000050: efeb 1df4 fddf d602 ad0b 2af9 27f8 b3c8
00000060: 120f b1fd f2cf b4af 18c8 dbea c00c 0a1e
00000070: e2bc 201f 392b e33b b9ed f1e0 19ef 2fc9
00000080: 1f07 c400 49d8 c8d8 e341 191d 0d07 fad1
00000090: cf1e 11c8 e2d4 ef32 ede2 f60b 07be d195
000000a0: 119c d11d d9e0 c8e7 bfb9 0721 be0c bbac
000000b0: dae6 ede1 f001 dfee 23b2 ebfc 11d0 eeee
000000c0: d2d4 ca11 d3d1 e43f 0abd e7b4 d1cf ef11
000000d0: cb0f b9fa 3709 24e1 083a 1fe5 be22 43ed
000000e0: ecc9 fc3d cfed cae2 b5e7 f4c3 26de 250f
000000f0: fdd7 efb9 06b7 fcc8 af3a 29f2 0033 0b3c
-0.018988373 -0.011772792 0.009114419 -0.028862327 0.014051396 0.0 0.01974791 0.025824187
-0.03607791 -0.009114419 -0.026583724 -0.015950235 -0.01974791 -0.0060762796 -0.036457676 -0.032660004
-0.0053167446 0.023925351 -0.01974791 -0.00037976747 0.011393025 -0.018608605 0.0015190699 0.0018988374
-0.030381398 -0.023925351 -0.011393025 0.023165816 -0.030001631 -0.009873955 0.00075953495 0.015570466
-0.0056965123 0.011393025 -0.0015190699 -0.024684886 -0.022026513 -0.015190699 0.0022786048 -0.025824187
0.009873955 0.0060762796 -0.021646746 -0.034179073 -0.034179073 -0.015570466 0.011393025 -0.012152559
0.020887211 -0.017469304 -0.0015190699 0.008734652 -0.015950235 0.022026513 -0.011393025 -0.0034179073
-0.020507444 0.015570466 -0.010633489 -0.0041774423 -0.031520702 0.00075953495 -0.009873955 0.012912094
-0.026583724 -0.023925351 -0.0034179073 0.015190699 -0.02240628 -0.0041774423 -0.0060762796 -0.0049369773
-0.012532326 -0.028862327 -0.020507444 0.008734652 0.009114419 0.007975117 -0.0068358146 0.00075953495
-0.006456047 -0.007975117 0.011013256 -0.0045572096 -0.0011393024 -0.012532326 -0.015950235 0.00075953495
-0.031520702 0.0041774423 0.015950235 -0.0026583723 0.014810932 -0.0030381398 -0.029242095 -0.021266978
0.0068358146 0.0056965123 -0.030001631 -0.0011393024 -0.0053167446 -0.018608605 -0.028862327 -0.030761166
0.009114419 -0.021266978 -0.014051396 -0.008354885 -0.024305118 0.0045572096 0.0037976748 0.011393025
-0.011393025 -0.025824187 0.012152559 0.011772792 0.021646746 0.016330002 -0.011013256 0.02240628
-0.026963491 -0.007215582 -0.0056965123 -0.012152559 0.009494186 -0.006456047 0.017849071 -0.020887211
0.011772792 0.0026583723 -0.02278605 0.0 0.027723026 -0.015190699 -0.021266978 -0.015190699
-0.011013256 0.024684886 0.009494186 0.011013256 0.0049369773 0.0026583723 -0.0022786048 -0.017849071
-0.018608605 0.011393025 0.006456047 -0.021266978 -0.011393025 -0.01670977 -0.006456047 0.018988373
-0.007215582 -0.011393025 -0.0037976748 0.0041774423 0.0026583723 -0.025064653 -0.017849071 -0.04063512
0.006456047 -0.037976746 -0.017849071 0.011013256 -0.014810932 -0.012152559 -0.021266978 -0.009494186
-0.024684886 -0.026963491 0.0026583723 0.012532326 -0.025064653 0.0045572096 -0.026203956 -0.03190047
-0.014431164 -0.009873955 -0.007215582 -0.011772792 -0.0060762796 0.00037976747 -0.012532326 -0.0068358146
0.013291862 -0.029621864 -0.007975117 -0.0015190699 0.006456047 -0.018228838 -0.0068358146 -0.0068358146
-0.017469304 -0.01670977 -0.020507444 0.006456047 -0.017089536 -0.017849071 -0.010633489 0.023925351
0.0037976748 -0.02544442 -0.009494186 -0.028862327 -0.017849071 -0.018608605 -0.006456047 0.006456047
-0.020127676 0.0056965123 -0.026963491 -0.0022786048 0.020887211 0.0034179073 0.013671629 -0.011772792
0.0030381398 0.022026513 0.011772792 -0.010253722 -0.025064653 0.012912094 0.02544442 -0.007215582
-0.0075953496 -0.020887211 -0.0015190699 0.023165816 -0.018608605 -0.007215582 -0.020507444 -0.011393025
-0.02848256 -0.009494186 -0.0045572096 -0.023165816 0.014431164 -0.012912094 0.014051396 0.0056965123
-0.0011393024 -0.015570466 -0.006456047 -0.026963491 0.0022786048 -0.027723026 -0.0015190699 -0.021266978
-0.030761166 0.022026513 0.015570466 -0.0053167446 0.0 0.019368142 0.0041774423 0.02278605
