saved_model/quantized_models/layers7/trial3/paramcount651603.tflite (tflite, 671144 bytes, 32 tensors)

sequential_5/dense_11/MatMul f4 [7, 64]
-0.25972 0.12380977 0.25170174 0.14263025 -0.20137277 -0.20449063 -0.08977977 0.11680501
0.014531142 -0.08437127 -0.23300092 0.15154438 0.035119932 0.21492927 0.056264665 -0.054433163
-0.03567694 -0.28601998 0.051315453 -0.29745927 0.23063678 0.08932265 -0.098181605 0.0057079196
0.21464795 0.041453447 0.009207411 0.121662766 0.06332114 -0.13860604 -0.15064895 0.016605688
0.23431239 -0.29215547 0.04034975 0.26544005 -0.08687002 -0.04223483 0.10350157 0.12011595
0.25782636 0.05719667 -0.22070143 0.15871076 -0.013474127 0.015017093 -0.19081934 -0.22089632
-0.036765542 -0.09291938 -0.07597091 -0.17331672 -0.12379853 -0.046707116 -0.14264852 -0.026341893
0.21004122 -0.17097513 -0.2572623 -0.2802331 0.057401676 0.03894739 0.06403673 -0.13779673
-0.05581515 -0.18645443 -0.044134405 -0.24523105 -0.21176308 -0.2705027 0.02834983 0.14679249
-0.027974917 -0.08479569 0.0055079786 -0.024969049 -0.28846428 0.15901689 0.2777236 0.25906947
0.21472158 0.15270308 0.24831429 0.23357467 -0.1897582 0.25976735 -0.21985196 0.13996385
0.047850654 0.28487635 0.13988414 -0.2524958 -0.15976825 0.17387974 0.038426682 -0.06430897
-0.057135627 -0.0026083041 -0.20628886 0.16435358 0.15116939 -0.1071834 0.13960597 0.24788505
-0.05081917 -0.29103658 0.050525427 -0.17319101 0.18801649 -0.09406285 0.065428406 -0.0927514
-0.1563231 -0.05024302 0.033772025 0.0950406 -0.26782703 0.2366007 0.15774323 -0.17243975
0.21189843 -0.13769744 0.2312147 -0.18773298 -0.02678677 -0.03537857 0.0012900122 -0.015664656
-0.05008268 -0.09829138 0.0053419867 0.10970354 -0.102989055 -0.09643821 -0.23626718 -0.13124391
-0.17456353 -0.18392736 0.076932065 -0.14932801 0.17382747 -0.26288408 0.1425143 0.038698684
-0.018843532 -0.18402193 0.18349594 -0.100522734 0.1693122 -0.2815834 -0.28719613 0.18652129
0.11583408 -0.15456195 -0.16575049 -0.04919832 0.09134455 0.2850869 0.027575703 -0.048395216
-0.19613947 0.074101254 -0.19775411 -0.12041596 0.23761034 0.28376004 -0.21483597 -0.24956988
-0.22577348 -0.16304372 0.13887551 -0.053972848 0.023178704 0.21059503 0.07267949 0.034598395
0.028384304 -0.14994878 0.0031802494 0.13824587 0.24823985 -0.18016328 -0.19715828 -0.0003061304
0.14170139 0.28063732 -0.17043208 -0.17951086 -0.09123993 0.2757285 0.23302013 0.10952659
-0.13008109 -0.27912927 0.25131062 0.054554217 -0.2460631 0.17696476 -0.07168694 -0.027678771
0.051915385 0.2653402 -0.16224946 0.12338623 -0.12282554 0.09119739 0.024228266 -0.18915752
-0.16312659 0.020175926 0.25199774 0.20897062 0.11737097 0.2049874 -0.28288034 -0.102276556
-0.008679687 0.15481073 0.2768046 -0.21511403 -0.17530094 0.20821646 -0.034432378 -0.24524128
-0.18869908 0.0623755 0.0102619175 0.18720715 0.13403736 -0.27835467 -0.22828822 0.13564049
-0.12425423 -0.03317094 -0.23911095 0.19873652 -0.24502923 0.059200514 -0.190983 -0.10588392
0.23156203 -0.2765743 0.18733129 0.06806139 0.24010834 0.1565734 0.21815331 -0.12187782
0.001991021 -0.1935703 0.047556184 -0.049324404 0.06151114 0.04085081 -0.15421869 -0.13701195
00000000: 05fa 84be fa8f fd3d 0ddf 803e aa0d 123e
00000010: aa34 4ebe fe65 51be 75de b7bd 7737 ef3d
00000020: 0714 6e3c d8ca acbd cb97 6ebe 732e 1b3e
00000030: ebd9 0f3d 6b16 5c3e c775 663d 4ff5 5ebd
00000040: fc21 12bd 3671 92be 2730 523d 954c 98be
00000050: 0c2c 6c3e cbee b63d 7013 c9bd 8009 bb3b
00000060: accc 5b3e 17cb 293d aeda 163c 542a f93d
00000070: 84ae 813d beee 0dbe b843 1abe a708 883c
00000080: 96ef 6f3e 6795 95be c845 253d c2e7 873e
00000090: e9e8 b1bd 6efe 2cbd a2f8 d33d 5aff f53d
000000a0: d101 843e 0e47 6a3d 8eff 61be 1385 223e
000000b0: 96c2 5cbc 410a 763c 2566 43be a532 62be
000000c0: 7797 16bd 844c bebd a396 9bbd f079 31be
000000d0: 158a fdbd f64f 3fbd 7412 12be f4ca d7bc
000000e0: 0c15 573e 1b14 2fbe e2b7 83be b67a 8fbe
000000f0: 051e 6b3d 4c87 1f3d b025 833d 961a 0dbe
00000100: 6d9e 64bd e9ed 3ebe 47c6 34bd d91d 7bbe
00000110: 6cd8 58be 547f 8abe e73d e83c c550 163e
00000120: a72b e5bc 5da9 adbd 467c b43b e48b ccbc
00000130: 97b1 93be 53d5 223e ca31 8e3e c1a4 843e
00000140: f9df 5b3e 325e 1c3e 1a46 7e3e 332e 6f3e
00000150: f94f 42be 3a00 853e df20 61be af52 0f3e
00000160: 0cff 433d 50db 913e ca3d 0f3e 2147 81be
00000170: 4a9a 23be 880d 323e 4c65 1d3d 6cb4 83bd
00000180: 0c07 6abd 15f0 2abb 633d 53be 4e4c 283e
00000190: 26cc 1a3e f882 dbbd def4 0e3e 94d5 7d3e
000001a0: c327 50bd bf02 95be c0f3 4e3d fc58 31be
000001b0: 6587 403e 06a4 c0bd 54ff 853d 72f4 bdbd
000001c0: 2a13 20be a0cb 4dbd 8954 0a3d a5a4 c23d
000001d0: a020 89be 7447 723e 7187 213e 0c94 30be
000001e0: e7fb 583e 8f00 0dbe 8cc3 6c3e 133d 40be
000001f0: ee6f dbbc 1fe9 10bd a015 a93a 2a53 80bc
00000200: 7f23 4dbd fe4c c9bd d50b af3b 40ac e03d
00000210: edeb d2bd 6581 c5bd 06f0 71be ce64 06be
00000220: c8c0 32be 7457 3cbe 8f8e 9d3d 71e9 18be
00000230: d4ff 313e be98 86be 45ef 113e 8382 1e3d
00000240: c05d 9abc 3f70 3cbe 5ce6 3b3e ddde cdbd
00000250: 2d60 2d3e b32b 90be 5f0b 93be 70ff 3e3e
00000260: 6b3a ed3d 7d45 1ebe 7fba 29be 2d84 49bd
00000270: da12 bb3d e9f6 913e 71e6 e13c 103a 46bd
00000280: c9d8 48be 66c2 973d 0e80 4abe a59c f6bd
00000290: 2050 733e ff48 913e f6fd 5bbe 3f8f 7fbe
000002a0: 2a31 67be eff4 26be 6235 0e3e a212 5dbd
000002b0: 44e1 bd3c 39a6 573e fcd8 943d 0cb7 0d3d
000002c0: 3386 e83c 2c8c 19be bb6b 503b 5390 0d3e
000002d0: 9632 7e3e b97c 38be dce3 49be 2080 a0b9
000002e0: 2b1a 113e b2af 8f3e bf85 2ebe b2d1 37be
000002f0: 00dc babd 492c 8d3e d49c 6e3e 7a4f e03d
00000300: fa33 05be 08ea 8ebe c9ab 803e 3e74 5f3d
00000310: f7f7 7bbe 4036 353e 9ad0 92bd 97be e2bc
00000320: 3aa5 543d acda 873e b924 26be ebb1 fc3d
00000330: f58b fbbd b2c5 ba3d 5b7a c63c 82b2 41be
00000340: a80a 27be fc47 a53c d905 813e 65fc 553e
00000350: 3160 f03d 38e8 513e b1d5 90be 5f76 d1bd
00000360: 3f35 0ebc b486 1e3e 55b9 8d3e da46 5cbe
00000370: 1782 33be b236 553e f708 0dbd 8820 7bbe
00000380: 553a 41be 747d 7f3d 9a21 283c 3bb3 3f3e
00000390: 1741 093e 8184 8ebe 63c4 69be 57e5 0a3e
000003a0: 0079 febd 40de 07bd 80d9 74be 9681 4b3e
000003b0: f1e8 7abe 3d7c 723d 0c91 43be abd9 d8bd
000003c0: 991e 6d3e 269b 8dbe c6d3 3f3e c563 8b3d
000003d0: f6de 753e c754 203e 9563 5f3e 149b f9bd
000003e0: ca7b 023b 4b37 46be 46ca 423d 6308 4abd
000003f0: 1bf3 7b3d 2e53 273d 81eb 1dbe dc4c 0cbe

sequential_5/conv2d_35/BiasAdd/ReadVariableOp f4 [6]
0.006317393 0.0017539894 0.010883426 -0.006489686 0.0005139292 -0.011460327
00000000: 2202 cf3b 1ee6 e53a 6650 323c 6fa7 d4bb
00000010: 34b9 063a 18c4 3bbc

sequential_5/conv2d_36/BiasAdd/ReadVariableOp f4 [6]
0.0040841475 -0.0021734857 -0.003172228 0.0050750715 0.00045090748 -0.00017037141
00000000: 50d4 853b 0a71 0ebb 28e5 4fbb c94c a63b
00000010: c767 ec39 baa5 32b9

sequential_5/conv2d_37/BiasAdd/ReadVariableOp f4 [6]
0.0030263264 -0.009172995 6.1240346e-05 -0.0011070145 -0.0033717246 -0.009710434
00000000: 5555 463b 544a 16bc 296e 8038 3e19 91ba
00000010: 27f8 5cbb 8318 1fbc

sequential_5/conv2d_38/BiasAdd/ReadVariableOp f4 [6]
0.00157138 -0.014631033 0.0012842589 -0.006671879 0.0049597733 -0.0043321364
00000000: c3f6 cd3a 00b7 6fbc 9454 a83a c79f dabb
00000010: 9885 a23b 98f4 8dbb

sequential_5/conv2d_39/BiasAdd/ReadVariableOp f4 [6]
0.0016237448 -0.0020477653 0.0054312064 0.0056033502 0.002917912 -0.007912789
00000000: d6d3 d43a cd33 06bb 43f8 b13b 4f9c b73b
00000010: 713a 3f3b a4a4 01bc

sequential_5/conv2d_40/BiasAdd/ReadVariableOp f4 [6]
0.0039685196 0.006369558 -0.008478525 -0.010676362 -0.0012623366 0.0002631123
00000000: 5b0a 823b bab7 d03b 83e9 0abc e8eb 2ebc
00000010: fd74 a5ba 56f2 8939

sequential_5/conv2d_41/BiasAdd/ReadVariableOp f4 [6]
-0.005370087 0.0077874362 0.0028439113 -0.00085578166 0.0011559709 -0.009212828
00000000: 8ef7 afbb c02d ff3b ea60 3a3b 8956 60ba
00000010: f283 973a 67f1 16bc

sequential_5/conv2d_35/Conv2D f4 [6, 3, 3, 1]
-0.1300276 0.06887018 0.08224071 -0.047003027 -0.22295272 -0.14300898 -0.28443852 -0.2428129
0.27960366 -0.0922371 -0.009107084 -0.3024766 -0.11255319 -0.17346027 -0.20490998 -0.29119375
-0.059783313 0.20350395 -0.024558622 -0.30523032 0.19522981 0.30229542 -0.27815723 0.08317247
-0.066530086 0.21802315 -0.12044884 -0.2483985 0.24685377 -0.20557037 0.099797666 -0.20455629
0.0075615165 0.02701338 0.0604221 -0.28324118 -0.042306416 -0.14058389 -0.104314886 -0.040028967
-0.0628559 0.08596095 0.22196925 -0.21202329 0.0041005113 0.2674206 0.10359062 0.27017462
-0.21802633 0.28808463 0.21900335 0.19835289 -0.057377428 -0.26486337
00000000: f525 05be cf0b 8d3d d16d a83d 3f86 40bd
00000010: b84d 64be f270 12be eda1 91be f2a3 78be
00000020: 3628 8f3e cee6 bcbd e135 15bc 37de 9abe
00000030: 4982 e6bd 929f 31be ecd3 51be 5917 95be
00000040: 59df 74bd 5763 503e 2a2f c9bc 2647 9cbe
00000050: 53ea 473e 77c6 9a3e a06a 8ebe 5456 aa3d
00000060: ed40 88bd 7641 5f3e e2ad f6bd 2d5c 7ebe
00000070: 3cc7 7c3e 0a81 52be b862 cc3d 3477 51be
00000080: 99c6 f73b 2a4b dd3c 2a7d 773d fd04 91be
00000090: 7e49 2dbd 39f5 0fbe 0ba3 d5bd 6af5 23bd
000000a0: 98ba 80bd 4b0c b03d e84b 633e a21c 59be
000000b0: 955d 863b 5aeb 883e 5227 d43d 5454 8a3e
000000c0: 4b42 5fbe d47f 933e 6a42 603e 051d 4b3e
000000d0: 9804 6bbd 2c9c 87be

sequential_5/conv2d_36/Conv2D f4 [6, 3, 3, 6]
-0.13104728 0.11883289 0.22053128 -0.10393247 -0.014547651 0.07202244 0.06589423 0.12270227
-0.189707 -0.009395603 0.0066717016 0.066870295 0.036047637 0.040838275 0.13444999 0.22005677
-0.14962843 -0.18604815 -0.13137762 -0.04764122 -0.15064564 -0.10284442 0.083572984 0.022715988
-0.22986507 -0.049945243 0.15372843 0.09289629 0.20690075 -0.16495495 0.16735363 -0.034191493
0.054896567 0.14224371 0.18849158 0.047640935 -0.12237068 0.1715983 0.19587325 -0.04925869
-0.07349154 -0.2307323 0.1836937 0.06577046 -0.044456914 -0.06274975 -0.103377566 -0.15147361
0.05179091 -0.123648986 -0.14241906 0.000110144865 -0.13778712 0.21880423 -0.16649266 -0.12086819
-0.15404138 -0.17626128 -0.037048697 0.16405302 0.20271887 0.18358895 -0.05336435 -0.037960116
-0.13914417 0.12342357 -0.062245525 -0.025834916 0.13410696 0.09435369 -0.19608086 0.15568522
-0.15209912 0.107162416 -0.09008018 -0.12118757 0.16313767 -0.04695206 0.20118919 0.07317179
-0.23337403 -0.16305475 -0.08738079 0.14886221 -0.20714475 0.07427471 0.15632054 0.06907916
0.08446586 -0.06444905 -0.10858056 -0.15318209 0.13876283 -0.06236616 -0.04000804 0.17834045
-0.03750575 -0.119656086 0.10303203 -0.025789429 0.018233372 -0.1807739 -0.003066771 -0.22964299
0.1416115 0.15427245 0.0126085505 -0.18433748 0.17469932 -0.024435584 0.19022809 -0.14804572
-0.22891179 0.17864434 -0.06919294 -0.11964734 0.19962767 -0.04428991 0.17032063 -0.16644908
-0.18533069 0.07404527 0.15915927 0.020537741 -0.046300463 0.22319068 0.21900679 0.21561293
0.049347594 0.07459655 0.22712 0.123339556 -0.18006174 0.19866198 -0.17174877 0.04193591
0.07887952 0.17650324 0.06176856 0.17996117 -0.017447166 0.2152576 -0.13323617 0.1153154
0.1738389 -0.084411785 -0.04837258 0.16711624 -0.22597167 0.03426484 -0.15970413 0.051435623
-0.12309427 0.22852263 0.19896333 -0.23995316 -0.12485583 0.02560236 0.16949387 -0.18839264
0.105101794 -0.043247007 0.11718237 -0.16358162 0.11577244 -0.09494363 0.16307265 0.07701782
0.1324399 -0.057253376 0.07644351 -0.15704328 -0.021741897 -0.19863299 -0.048463643 0.22526136
-0.19248675 -0.009036382 0.121182576 -0.09529586 0.123397015 0.16290002 -0.19013636 0.1578304
0.042405307 -0.15039355 0.21083277 -0.026388494 -0.08635609 -0.17409343 -0.018386178 -0.047519553
0.2215884 0.0389051 0.12790626 -0.01167257 0.033829175 0.17531703 0.081598565 -0.06280687
0.1519948 -0.14282982 0.09491026 0.16038181 0.0017039457 0.06637632 0.13554206 0.21692768
-0.21952945 0.07634932 0.17880408 -0.039651424 0.16329882 -0.08351531 -0.09101137 -0.24514268
0.03916725 -0.08991935 -0.077959165 0.116198815 0.028147493 0.07364958 0.12254508 -0.048217967
0.09881445 -0.22832811 -0.21846265 0.007142244 0.23133792 0.2282736 0.0226291 0.026765091
-0.039025325 -0.16169107 -0.21814483 -0.16850628 -0.0096045695 -0.011352034 -0.18516609 0.046185587
-0.0024825356 0.19786619 0.12509044 0.07776068 -0.14074393 -0.1998584 0.18884052 0.09543864
-0.21187906 0.20159148 0.18164149 -0.0940493 0.16425131 -0.1775261 -0.20674644 -0.15289785
00000000: 4231 06be a95e f33d f4d2 613e 8cda d4bd
00000010: 4559 6ebc 8080 933d 8ef3 863d 544b fb3d
00000020: 8d42 42be 04f0 19bc 4a9e da3b 4bf3 883d
00000030: b0a6 133d 0946 273d 42ad 093e 9056 613e
00000040: 3238 19be 6883 3ebe db87 06be 7123 43bd
00000050: da42 1abe 18a0 d2bd 5028 ab3d e116 ba3c
00000060: c061 6bbe 6293 4cbd fc6a 1d3e 6940 be3d
00000070: cadd 533e f3e9 28be c05e 2b3e 610c 0cbd
00000080: 39db 603d 56a8 113e f003 413e 2423 433d
00000090: 7b9d fabd 77b7 2f3e ff92 483e 7bc3 49bd
000000a0: bc82 96bd 1745 6cbe 341a 3c3e aab2 863d
000000b0: 7418 36bd f182 80bd 9eb7 d3bd e61b 1bbe
000000c0: b522 543d ae3b fdbd 4dd6 11be 93fd e638
000000d0: 1118 0dbe 370e 603e 0d7d 2abe be89 f7bd
000000e0: 06bd 1dbe d67d 34be 60c0 17bd 84fd 273e
000000f0: 8995 4f3e befe 3b3e 9494 5abd 117c 1bbd
00000100: cf7b 0ebe 7fc5 fc3d 2af5 7ebd bfa3 d3bc
00000110: 5653 093e 823c c13d 6cc9 48be f26b 1f3e
00000120: dfbf 1bbe f877 db3d f57b b8bd 3031 f8bd
00000130: 900d 273e ce50 40bd 8a04 4e3e 17db 953d
00000140: 9af9 6ebe d3f7 26be b3f4 b2bd 566f 183e
00000150: c11d 54be 571d 983d 7e12 203e 6079 8d3d
00000160: 70fc ac3d ddfd 83bd 7c5f debd c4db 1cbe
00000170: d817 0e3e a973 7fbd 78df 23bd e19e 363e
00000180: a19f 19bd 400e f5bd 7502 d33d 5a44 d3bc
00000190: 275e 953c cb1c 39be e1fb 48bb 8827 6bbe
000001a0: 9b02 113e 99f9 1d3e 1894 4e3c f7c2 3cbe
000001b0: 61e4 323e 222d c8bc 27cb 423e 4c99 17be
000001c0: da67 6abe 8bee 363e 07b5 8dbd aa09 f5bd
000001d0: 326b 4c3e 5669 35bd 8868 2e3e a171 2abe
000001e0: 54c7 3dbe 0ca5 973d a6fa 223e c43e a83c
000001f0: 8ea5 3dbd 198c 643e 5143 603e a3c9 5c3e
00000200: b420 4a3d 13c6 983d 2592 683e 7399 fc3d
00000210: 1b62 38be 0c6e 4b3e e9de 2fbe fdc4 2b3d
00000220: 968b a13d 44bd 343e 0801 7d3d be47 383e
00000230: 5ced 8ebc 7d6c 5c3e 106f 08be 7b2a ec3d
00000240: d302 323e 16e0 acbd 5422 46bd 8520 2b3e
00000250: 1e65 67be 4a59 0c3d 7b89 23be 29ae 523d
00000260: d918 fcbd d601 6a3e 0bbd 4b3e 48b6 75be
00000270: 6ab4 ffbd 0abc d13c cd8f 2d3e 00ea 40be
00000280: 9c3f d73d c623 31bd 4ffd ef3d f181 27be
00000290: 1a1a ed3d ce71 c2bd 84fc 263e 85bb 9d3d
000002a0: 539e 073e 8482 6abd 6a8e 9c3d f4cf 20be
000002b0: 101c b2bc 7266 4bbe d081 46bd eaaa 663e
000002c0: 3f1b 45be 550d 14bc 922e f83d 7a2a c3bd
000002d0: 93b7 fc3d 43cf 263e 1bb3 42be 4b9e 213e
000002e0: 30b1 2d3d c400 1abe 8ce4 573e af2c d8bc
000002f0: 76db b0bd 8c45 32be 9c9e 96bc dda3 42bd
00000300: 12e8 623e f45a 1f3d dcf9 023e 4f3e 3fbc
00000310: 7690 0a3d 4f86 333e 261d a73d e3a0 80bd
00000320: 86a4 1b3e fb41 12be 4f60 c23d 213b 243e
00000330: ee56 df3a 4ff0 873d 8acb 0a3e 4a22 5e3e
00000340: 54cc 60be 085d 9c3d 6b18 373e 8869 22bd
00000350: ce37 273e 130a abbd 2b64 babd af06 7bbe
00000360: d76d 203d a327 b8bd 0ea9 9fbd a5f9 ed3d
00000370: 9295 e63c 97d5 963d eaf8 fa3d 3480 45bd
00000380: 3b5f ca3d d8ce 69be acb4 5fbe 7c09 ea3b
00000390: d9e3 6c3e 8ec0 693e aa60 b93c 7742 db3c
000003a0: 05d9 1fbd 5892 25be 5c61 5fbe e98c 2cbe
000003b0: 7c5c 1dbc e2fd 39bc 2e9c 3dbe 192d 3d3d
000003c0: 09b2 22bb 6f9d 4a3e b517 003e fe40 9f3d
000003d0: 2d1f 10be aea7 4cbe 695f 413e 5575 c33d
000003e0: d3f6 58be ff6d 4e3e 3a00 3a3e eb9c c0bd
000003f0: 7f31 283e 67c9 35be 57b5 53be 4191 1cbe

sequential_5/conv2d_37/Conv2D f4 [6, 3, 3, 6]
0.21878111 0.13884282 -0.0881068 0.038674176 -0.09673011 -0.0041936245 -0.05509089 -0.21301037
-0.15506315 -0.13666792 -0.13696565 0.027121732 -0.087179884 0.025382405 -0.025073858 -0.21384801
-0.101042196 -0.17194848 0.11809718 -0.113988705 -0.040921804 0.0037960415 -0.1916257 0.05546486
0.09858874 -0.13928537 -0.23468542 0.09918939 -0.08509199 0.23230822 -0.058796044 0.02055994
0.09551626 -0.023403553 0.12143345 -0.19707868 -0.04787598 0.20397927 0.12677956 0.18177405
-0.096921876 -0.007830981 -0.18267588 0.03909279 0.08671562 -0.20899567 0.031673826 0.12010469
-0.21086471 -0.12832326 -0.12889285 0.06928794 0.13991083 -0.018407196 0.025344653 -0.20964418
-0.119190626 0.14047843 -0.18861364 0.04900386 -0.17239805 0.10993131 -0.22970235 0.006860146
-0.023643818 -0.1914016 0.017275294 -0.20754361 0.17158163 0.07005403 -0.0019319985 0.00904901
-0.18666984 0.18188527 0.19281378 -0.09243684 -0.18424697 0.027565805 -0.14994551 -0.090597026
0.17378141 -0.22348107 -0.16164789 0.1309947 0.10417522 0.18818444 0.1739879 0.23329234
-0.028548963 -0.21578169 -0.0003513483 0.15813154 0.21481678 0.16258958 -0.019822422 -0.19668175
-0.17716059 0.082291245 0.18072818 0.12052511 0.10757999 -0.09690379 0.22223036 -0.15223587
0.093381554 -0.12591875 -0.11893358 -0.17800887 -0.090488456 0.07188461 0.10366283 -0.1991342
-0.1718098 0.2115037 -0.021075081 -0.15655659 0.2073035 0.010474783 -0.13609919 0.032539997
-0.111184455 -0.11418553 -0.21530674 -0.22044206 -0.2374184 0.22414239 0.06261008 0.1107472
0.034470584 -0.044084232 -0.20294401 0.10997889 -0.07170323 -0.1881368 0.01309216 -0.034979958
-0.11504131 -0.07676261 -0.11111652 -0.055794694 0.19395271 -0.14692573 -0.0177715 -0.17727715
0.21721227 0.16593537 0.21310544 -0.12488943 -0.1690114 0.0571244 -0.0865808 -0.09157995
0.050060038 -0.0026324578 -0.102908716 0.21762612 0.22783865 -0.07152265 -0.06180769 -0.15690614
0.034526113 -0.11566157 -0.1615055 -0.12904964 0.14546117 0.12141632 -0.21576738 0.085273415
-0.22336853 0.21760938 0.19163641 -0.10687359 0.23616828 0.17572223 0.005626484 0.17731994
0.11497127 0.024739312 0.05961397 0.12492549 0.012232514 -0.060915414 0.106356286 0.22569808
-0.1710122 0.12413389 0.06466397 -0.115294695 0.02015063 0.13179432 0.017685609 0.22945744
0.029306937 0.20859449 -0.09294981 -0.022015061 0.23506607 -0.117420256 -0.039689958 0.10724883
-0.0506786 0.21179377 -0.087941974 -0.11172486 0.2237047 -0.13695772 -0.10546119 0.11670198
-0.07954558 -0.10253738 -0.22112662 0.1700076 -0.18860249 -0.046806622 -0.10785631 -0.1513222
-0.20423687 0.23037776 0.10440618 0.22675444 -0.093242206 0.13921359 -0.13284004 -0.03010084
0.20748158 0.14296867 0.071009256 0.08778012 0.024454474 0.22585902 -0.091690466 -0.22989433
0.049673554 -0.14076069 -0.10017517 -0.09674651 0.07336739 -0.1067156 0.0058922456 0.13180585
0.019912919 0.09892321 0.18633473 0.010513312 -0.23027636 -0.09585394 -0.055439085 0.18997669
0.12062439 0.08947175 0.20853765 0.17233677 0.11545693 -0.13917704 0.053714342 0.10840798
00000000: 2808 603e d02c 0e3e 5771 b4bd d068 1e3d
00000010: 701a c6bd ac6a 89bb fca6 61bd 641f 5abe
00000020: e0c8 1ebe adf2 0bbe b940 0cbe 652e de3c
00000030: 5e8b b2bd c3ee cf3c b167 cdbc f9fa 5abe
00000040: 36ef cebd 4313 30be efdc f13d e972 e9bd
00000050: 9f9d 27bd 02c7 783b 8739 44be 1f2f 633d
00000060: e5e8 c93d d3a0 0ebe 6051 70be cf23 cb3d
00000070: b644 aebd 35e2 6d3e 1fd4 70bd 526d a83c
00000080: 079e c33d cfb8 bfbc 1ab2 f83d fece 49be
00000090: 9b19 44bd f1df 503e 80d2 013e fa22 3a3e
000000a0: fa7e c6bd 844d 00bc 630f 3bbe c31f 203d
000000b0: f597 b13d f602 56be 6abc 013d 73f9 f53d
000000c0: ebec 57be 2c67 03be 7dfc 03be d6e6 8d3d
000000d0: c944 0f3e b0ca 96bc 979f cf3c f7ac 56be
000000e0: 371a f4bd 94d9 0f3e ef23 41be 46b8 483d
000000f0: 1d89 30be ab23 e13d 1837 6bbe 13cb e03b
00000100: aeb0 c1bc c8fe 43be eb84 8d3c 5086 54be
00000110: 18b3 2f3e 7d78 8f3d 1d3b fdba 4d42 143c
00000120: 6126 3fbe 2240 3a3e fa70 453e 874f bdbd
00000130: 3dab 3cbe afd1 e13c 518b 19be ef8a b9bd
00000140: c1f3 313e 39d8 64be 0687 25be 7a23 063e
00000150: d159 d53d 6cb3 403e e229 323e 30e4 6e3e
00000160: 84df e9bc e0f5 5cbe 2c35 b8b9 3ced 213e
00000170: eef8 5b3e e27d 263e a262 a2bc f166 49be
00000180: 9669 35be 5088 a83d cf10 393e ded5 f63d
00000190: e652 dc3d 7f75 c6bd 5b90 633e b8e3 1bbe
000001a0: d43e bf3d d8f0 00be 7393 f3bd f547 36be
000001b0: 0352 b9bd 3d38 933d 2e4d d43d d6e9 4bbe
000001c0: e9ee 2fbe 6d94 583e a6a5 acbc 5f50 20be
000001d0: 5e47 543e 6d9e 2b3c 965d 0bbe a948 053d
000001e0: adb4 e3bd 1ada e9bd 5f79 5cbe 90bb 61be
000001f0: cf1d 73be 9585 653e b739 803d 6ecf e23d
00000200: 0731 0d3d ab91 34bd 8ed0 4fbe 9d3c e13d
00000210: 25d9 92bd efa6 40be 8080 563c 2547 0fbd
00000220: c79a ebbd b735 9dbd 0f91 e3bd fa88 64bd
00000230: 8a9b 463e b373 16be 8995 91bc 2488 35be
00000240: e56c 5e3e f6ea 293e 5038 5a3e 08c6 ffbd
00000250: 5311 2dbe 46fb 693d 4651 b1bd 458e bbbd
00000260: c10b 4d3d 5085 2cbb cec1 d2bd 62d9 5e3e
00000270: 894e 693e 787a 92bd 0f2a 7dbd 01ac 20be
00000280: 416b 0d3d f9df ecbd b361 25be 9725 04be
00000290: c6f3 143e 1fa9 f83d 20f2 5cbe d4a3 ae3d
000002a0: b8ba 64be fed4 5e3e 563c 443e 8ae0 dabd
000002b0: 19d6 713e 87f0 333e 5e5e b83b 5c93 353e
000002c0: 0f76 eb3d 19aa ca3c c72d 743d efd8 ff3d
000002d0: e26a 483c 7182 79bd 53d1 d93d 661d 673e
000002e0: d21d 2fbe e939 fe3d 8b6e 843d a01f ecbd
000002f0: ef12 a53c 17f5 063e 69e1 903c e4f6 6a3e
00000300: 1a15 f03c cb99 553e 785c bebd ee58 b4bc
00000310: 29b5 703e 087a f0bd f091 22bd 46a5 db3d
00000320: 5d94 4fbd 77e0 583e ec1a b4bd 01d0 e4bd
00000330: d812 653e a53e 0cbe 09fc d7bd 7301 ef3d
00000340: cbe8 a2bd 1eff d1bd 046f 62be 7916 2e3e
00000350: 0321 41be 4db8 3fbd c5e3 dcbd 35f4 1abe
00000360: 7823 51be 26e8 6b3e e8d2 d53d 5132 683e
00000370: c5f5 bebd 028e 0e3e 3807 08be 0996 f6bc
00000380: 0d76 543e 6166 123e 4d6d 913d 10c6 b33d
00000390: c054 c83c 9647 673e 36c8 bbbd 6b69 6bbe
000003a0: 7f76 4b3d 9223 10be a428 cdbd 0923 c6bd
000003b0: a441 963d b58d dabd bd13 c13b 1df8 063e
000003c0: 6b20 a33c 4098 ca3d 88ce 3e3e 0740 2c3c
000003d0: 91cd 6bbe 124f c4bd 1814 63bd 4089 423e
000003e0: ec09 f73d f73c b73d e58a 553e 0d79 303e
000003f0: af74 ec3d 6d84 0ebe 9203 5c3d 0105 de3d

sequential_5/conv2d_38/Conv2D f4 [6, 3, 3, 6]
0.14578426 -0.11066288 0.030760523 -0.14165667 -0.08834371 0.075141996 -0.15325367 0.026957223
0.23458289 0.069886774 0.18458329 -0.046146855 0.18487048 -0.030185089 -0.008336483 -0.0058006383
0.16721112 -0.003889608 0.062914714 0.05385518 0.20376305 -0.22073685 0.019987585 0.016014978
0.07924319 -0.12253561 0.04865184 -0.065550126 0.15885966 0.06519186 0.039937373 0.13989796
-0.16256385 0.15026735 -0.17302129 0.025585974 0.23502369 0.022068743 0.19359818 0.052646194
0.22919744 -0.18191865 0.079306155 0.03938579 0.03230979 0.015161236 0.04915072 -0.11407416
0.035060547 0.17221025 -0.18977004 -0.07057113 0.0687271 -0.19408686 -0.116921805 0.07243486
0.18978435 0.17015319 0.012433741 0.0055297418 -0.09065174 0.14602649 -0.06572994 -0.032699
0.02727801 -0.20813394 0.21349487 -0.09185188 -0.011060165 -0.13914528 -0.11054811 0.09714523
0.04711821 0.0076218564 0.14248955 -0.079863556 -0.17000498 0.13572836 0.09946377 -0.20772675
-0.07810894 0.09353073 0.19166246 -0.15035853 -0.20092069 0.07492396 0.12175256 -0.13254118
-0.07865517 -0.11074853 0.056728248 0.091667734 0.15924911 0.07397344 0.0029204104 -0.06947987
-0.15771073 -0.20614271 -0.0050214827 -0.16384642 0.14682259 -0.06002066 -0.13627054 0.16789901
0.099725045 0.15057266 0.19609232 0.03272883 0.15450008 -0.20155929 0.015421836 0.19425504
-0.21755612 0.15876912 0.11140096 -0.04656609 0.028713282 -0.07140317 0.20002721 -0.13184671
-0.15136191 -0.053184755 -0.067756325 -0.03367335 0.17213146 0.1553077 -0.021357695 -0.14810708
-0.13891828 -0.03290743 0.18415624 0.112706654 0.1429624 -0.17644863 -0.19622183 0.22964358
-0.07043255 0.19965905 -0.13488287 0.056306586 -0.040798992 -0.07820394 -0.005527909 -0.12847613
-0.014609586 0.033270724 -0.16552232 -0.035088915 -0.16898829 -0.015491287 -0.21154214 0.15614352
0.16401963 -0.14580485 -0.2440299 0.1396954 0.1397144 0.093479395 -0.20209098 -0.21332987
-0.16783349 0.096224986 -0.06968576 0.06463185 0.048034534 -0.04805897 0.19102798 0.0744499
0.104606315 -0.18136865 -0.17212236 -0.22231275 -0.21228121 -0.118062474 0.222843 -0.20514908
-0.075126715 0.07365786 -0.11135028 0.16910909 0.112097844 -0.20620216 -0.2072958 0.058735434
-0.16923259 -0.020858949 0.21899702 -0.12987925 -0.027509173 0.19488741 0.19329236 0.05308033
-0.21369244 0.077814244 0.23516239 -0.17936102 -0.060702484 -0.029833041 -0.024912959 -0.17117184
0.13576977 -0.032080498 -0.042759858 -0.17624183 0.08795191 0.03378927 0.15701915 0.12946883
-0.15759328 -0.1313175 0.15522856 -0.10596625 0.13961391 0.029628305 -0.19510527 0.16567832
-0.10429512 -0.120759405 0.055737056 0.14479655 0.14469293 -0.19030686 0.15880467 -0.12212286
-0.121077836 0.20135532 -0.16480409 -0.21060443 -0.16364768 0.14827248 0.1420915 0.21932445
0.20331995 -0.06025747 0.027234139 0.029819237 -0.18781668 -0.08839772 -0.16000158 -0.16956285
0.034638487 0.23303452 -0.2243117 -0.0006743177 -0.09756173 -0.22797307 0.18965593 -0.09719516
0.056938257 0.18384333 -0.049290124 -0.032617137 0.100484595 -0.10955436 0.16269778 -0.046128374
00000000: 7848 153e 38a3 e2bd 7efd fb3c 720e 11be
00000010: 8ced b4bd 0ce4 993d 88ee 1cbe 65d5 dc3c
00000020: 7f36 703e cc20 8f3d 6703 3d3e 7c04 3dbd
00000030: b04e 3d3e b846 f7bc be95 08bc 4813 bebb
00000040: 6439 2b3e cbe8 7ebb 6ed9 803d 4097 5c3d
00000050: 43a7 503e d708 62be 01bd a33c d831 833c
00000060: 414a a23d f3f3 fabd 2747 473d 253f 86bd
00000070: 1bac 223e 4f83 853d 5f95 233d 6941 0f3e
00000080: 2377 26be afdf 193e 7e2c 31be ad99 d13c
00000090: 0daa 703e 82c9 b43c 9a3e 463e 89a3 573d
000000a0: bcb2 6a3e e248 3abe 446b a23d fe52 213d
000000b0: 4557 043d d566 783c 4452 493d b79f e9bd
000000c0: a69b 0f3d e257 303e 1453 42be 9987 90bd
000000d0: cbc0 8c3d b5be 46be b374 efbd ba58 943d
000000e0: d456 423e a33c 2e3e e4b6 4b3c d632 b53b
000000f0: 9fa7 b9bd f887 153e 6b9d 86bd 63ef 05bd
00000100: 2276 df3c 1021 55be 669e 5a3e d71c bcbd
00000110: b235 35bc 1a7c 0ebe 0c67 e2bd 14f4 c63d
00000120: 06ff 403d c4c0 f93b c8e8 113e 818f a3bd
00000130: c915 2ebe 60fc 0a3e a9b3 cb3d 52b6 54be
00000140: 94f7 9fbd 0a8d bf3d 2a43 443e 96f7 19be
00000150: 27be 4dbe bc71 993d 6859 f93d e0b8 07be
00000160: f615 a1bd 20d0 e2bd e15b 683d 4bbc bb3d
00000170: 3312 233e 637f 973d 5b64 3f3b 764b 8ebd
00000180: ec7e 21be 1317 53be 408b a4bb 5bc7 27be
00000190: a958 163e 39d8 75bd 818a 0bbe b8ed 2b3e
000001a0: a53c cc3d b82f 1a3e 6dcc 483e aa0e 063d
000001b0: 4535 1e3e 8f65 4ebe deab 7c3c cbea 463e
000001c0: 08c7 5ebe 5f94 223e 3026 e43d 16bc 3ebd
000001d0: 1e38 eb3c d33b 92bd efd3 4c3e d302 07be
000001e0: 9efe 1abe 42d8 59bd d4c3 8abd 11ed 09bd
000001f0: 3b43 303e fb08 1f3e 55f6 aebc 62a9 17be
00000200: 9840 0ebe f1c9 06bd 7493 3c3e bfd2 e63d
00000210: bc64 123e f3ae 34be 60ee 48be b027 6b3e
00000220: f13e 90bd 6c73 4c3e bc1e 0abe bca1 663d
00000230: d81c 27bd 6329 a0bd 7623 b5bb 3f8f 03be
00000240: 0c5d 6fbc e246 083d af7e 29be 65b9 0fbd
00000250: 440b 2dbe 2bcf 7dbc 819e 58be 16e4 1f3e
00000260: c3f4 273e de4d 15be f9e2 79be 500c 0f3e
00000270: 4b11 0f3e 2072 bf3d f0f0 4ebe 2573 5abe
00000280: 8bdc 2bbe 9b11 c53d 68b7 8ebd b45d 843d
00000290: dcbf 443d 7cd9 44bd d79c 433e 3079 983d
000002a0: d63b d63d b4b8 39be d840 30be f4a5 63be
000002b0: 3f60 59be bdca f1bd f530 643e 9a12 52be
000002c0: 09dc 99bd efd9 963d 9e0b e4bd ef2a 2d3e
000002d0: 8e93 e53d a926 53be 5a45 54be 9194 703d
000002e0: 4f4b 2dbe 63e0 aabc c140 603e 11ff 04be
000002f0: eb5a e1bc 9190 473e 6fee 453e c36a 593d
00000300: 31d2 5abe 135d 9f3d 69ce 703e 6aaa 37be
00000310: 2ba3 78bd 6c64 f4bc 4316 ccbc ac47 2fbe
00000320: 3b07 0b3e d766 03bd f624 2fbd bd78 34be
00000330: 2220 b43d 9e66 0a3d a1c9 203e 7a93 043e
00000340: 2260 21be 1878 06be 3cf4 1e3e d504 d9bd
00000350: f3f6 0e3e 0fb7 f23c adc9 47be 94a7 293e
00000360: ae98 d5bd b550 f7bd 8a4c 643d 8c45 143e
00000370: 622a 143e cddf 42be b19d 223e 8d1b fabd
00000380: a8f7 f7bd 1730 4e3e 67c2 28be b0a8 57be
00000390: 4293 27be bed4 173e 6f80 113e 9796 603e
000003a0: 1b33 503e 89d0 76bd 211a df3c 7947 f43c
000003b0: 0453 40be dd09 b5bd 74d7 23be e2a1 2dbe
000003c0: 16e1 0d3d 9aa0 6e3e f7b1 65be b2c4 30ba
000003d0: 72ce c7bd c671 69be 2a35 423e 420e c7bd
000003e0: 1738 693d 6d41 3c3e 71e4 49bd 8c99 05bd
000003f0: deca cd3d 095e e0bd 3f9a 263e 1bf1 3cbd

sequential_5/conv2d_39/Conv2D f4 [6, 3, 3, 6]
-0.011310445 0.15683483 0.101744525 -0.19644961 0.23487811 -0.0057395 0.20684923 0.011409244
-0.03822992 -0.18229786 -0.14633842 -0.1004046 -0.23808925 -0.19106495 -0.1958364 -0.11870322
-0.081998944 0.07067068 0.07898487 -0.20815009 0.124333896 -0.088091314 0.1303702 -0.14047673
-0.1658522 0.08949061 0.20158869 -0.03702944 -0.16093531 -0.08119034 0.21933985 0.04538088
-0.20393115 -0.037961345 0.17122756 0.15774757 0.0066915685 -0.19841813 0.17921725 0.015682453
-0.17881888 -0.06626441 0.12392345 0.18470521 -0.22672307 -0.079198435 -0.0745657 -0.15768018
0.12376121 -0.06871168 0.12899715 -0.09705895 -0.07908757 0.10101127 0.0028452638 -0.049921144
0.02134658 -0.14709559 0.10961897 0.029042365 -0.116853505 0.24036394 0.21624315 0.10373351
0.030273175 -0.09673509 -0.08258888 0.13413164 -0.1133824 0.11704806 -0.14692572 -0.10091643
-0.12738512 -0.018380618 -0.1518926 0.019836826 0.16095807 -0.02186824 0.024561482 -0.0310691
0.09503665 -0.10353139 -0.12500487 0.07856585 -0.07894325 -0.11255433 -0.06819679 -0.23195516
-0.20857027 -0.16085094 0.10557727 0.13216741 -0.23130548 0.10949507 -0.11194066 0.20874338
-0.18540265 -0.09190017 -0.04103835 -0.0060527916 -0.04521978 -0.03425865 0.036940355 0.0149508985
-0.20588616 0.1426977 -0.007878797 0.10610014 -0.04684411 -0.22937052 0.18772052 0.22746564
0.1812906 0.023688458 0.084625125 -0.071702026 0.003803247 -0.16080704 -0.120381385 0.06058323
-0.12072123 0.20278706 0.09400627 -0.14614148 0.0911049 0.16043544 -0.110190354 0.029281372
-0.22081609 -0.13480355 -0.07355319 -0.23421854 0.19837283 -8.036318e-05 0.179476 -0.08636641
-0.09529743 0.13359495 -0.13634643 0.16073819 0.1594751 0.23059563 -0.22770073 0.022157315
0.1816547 -0.08861374 -0.1821842 0.10583063 0.07062351 -0.11694599 0.1915316 0.18910505
0.22131814 0.20990105 0.20388484 0.10056798 -0.20868494 0.093263395 0.023959287 -0.09343218
-0.008410964 0.019144814 0.23000902 -0.02522308 -0.16579874 0.084162325 -0.0820353 -0.22563079
0.13896722 0.0009815958 0.18749304 -0.12979798 -0.21529512 -0.03442265 0.22598314 -0.22192565
0.16902478 -0.17473511 0.09629985 0.061948784 -0.23194204 -0.1597855 0.0014847323 0.050698712
0.03839056 0.22454606 -0.028676614 0.027699292 0.02041005 0.0171613 -0.05811662 -0.00453969
-0.05698948 0.11642239 -0.019893669 0.073914796 -0.21868503 -0.04982114 -0.09142561 0.0021123511
0.025910642 0.111323275 -0.08635366 -0.11436678 0.026643928 0.037091907 -0.14911617 -0.21921103
-0.1511271 -0.0027991915 0.14347602 -0.027774168 -0.13516332 -0.044846684 0.14646053 0.21776603
0.08021022 -0.091575965 0.09608234 0.025710462 -0.205022 -0.10760523 0.02165543 -0.02457061
-0.15279451 -0.1263481 -0.20040113 -0.14879952 0.18852514 -0.14830935 0.14842625 0.17076282
0.050592616 -0.23932411 0.09208042 -0.23081519 -0.10307708 -0.21631075 -0.0824745 -0.11692728
-0.022488292 0.066657536 0.057088133 0.10902932 -0.19945697 0.017553736 0.09365602 0.13553113
0.10460037 -0.0778974 0.08945069 -0.22689871 0.14605246 -0.19603692 -0.19943905 -0.20021245
00000000: 724f 39bc 4f99 203e 6f5f d03d 162a 49be
00000010: e383 703e 6a12 bcbb 49d0 533e d6ed 3a3c
00000020: fa96 1cbd 4aac 3abe bdd9 15be eda0 cdbd
00000030: abcd 73be 88a6 43be 5689 48be ac1a f3bd
00000040: 10ef a7bd cabb 903d d2c2 a13d 4c25 55be
00000050: c5a2 fe3d 3869 b4bd c47f 053e 22d9 0fbe
00000060: 29d5 29be da46 b73d 446d 4e3e 2fac 17bd
00000070: 3acc 24be 1f47 a6bd a09a 603e 4de1 393d
00000080: 54d3 50be 5b7d 1bbd 4756 2f3e 9488 213e
00000090: f244 db3b 1f2e 4bbe ba84 373e 7d78 803c
000000a0: 4c1c 37be a3b5 87bd 94cb fd3d 5d23 3d3e
000000b0: 182a 68be ca32 a2bd e7b5 98bd ea76 21be
000000c0: 8476 fd3d b6b8 8cbd d417 043e d8c6 c6bd
000000d0: aaf8 a1bd ffde ce3d 9b77 3a3b 1d7a 4cbd
000000e0: 06df ae3c 3aa0 16be e97f e03d 41ea ed3c
000000f0: e450 efbd f721 763e d86e 5d3e 3c72 d43d
00000100: 73ff f73c 0c1d c6bd 5c24 a9bd ce59 093e
00000110: 0835 e8bd e5b6 ef3d b273 16be 46ad cebd
00000120: 3f71 02be f392 96bc bc89 1bbe d780 a23c
00000130: 31d2 243e 0625 b3bc 2935 c93c a084 febc
00000140: 93a2 c23d 4408 d4bd 4701 00be 22e7 a03d
00000150: 00ad a1bd e282 e6bd c2aa 8bbd a785 6dbe
00000160: 7293 55be 1cb6 24be e538 d83d e556 073e
00000170: 58db 6cbe f43e e03d 2541 e5bd d3c0 553e
00000180: 31da 3dbe 2836 bcbd d417 28bd 7f56 c6bb
00000190: 6038 39bd cc52 0cbd c54e 173d 9df4 743c
000001a0: d2d3 52be 591f 123e 1216 01bc 084b d93d
000001b0: 9cdf 3fbd 1be0 6abe cf39 403e c1ec 683e
000001c0: 3ea4 393e 4c0e c23c f04f ad3d 83d8 92bd
000001d0: e53f 793b 9aaa 24be 848a f6bd 1f26 783d
000001e0: b13c f7bd 69a7 4f3e 5c86 c03d 1da6 15be
000001f0: 3595 ba3d 3049 243e 7bab e1bd 7ddf ef3c
00000200: 9d1d 62be f109 0abe 0ea3 96bd fcd6 6fbe
00000210: 3f22 4b3e a788 a8b8 8ec8 373e dfe0 b0bd
00000220: 4d2b c3bd 1dcd 083e 669e 0bbe 8d98 243e
00000230: 714d 233e 4321 6c3e 612a 69be 4283 b53c
00000240: b103 3a3e 1f7b b5bd 7f8e 3abe bbbd d83d
00000250: 0fa3 903d 6181 efbd dc20 443e c1a4 413e
00000260: 39a1 623e 4df0 563e 30c7 503e 96f6 cd3d
00000270: 81b1 55be e100 bf3d 4446 c43c 5f59 bfbd
00000280: 24ce 09bc 96d5 9c3c 7c87 6b3e a2a0 cebc
00000290: 25c7 29be 4c5d ac3d 2002 a8bd c20b 67be
000002a0: 6c4d 0e3e e4a8 803a 2dfe 3f3e c3e9 04be
000002b0: 5376 5cbe c4fe 0cbd 2068 673e 7a40 63be
000002c0: d514 2d3e c3ed 32be db38 c53d 02be 7d3d
000002d0: 3782 6dbe cf9e 23be 599b c23a 74a9 4f3d
000002e0: 6b3f 1d3d 67ef 653e 38eb eabc a0e9 e23c
000002f0: fa32 a73c db95 8c3c b10b 6ebd aec1 94bb
00000300: cd6d 69bd dd6e ee3d 0cf8 a2bc a460 973d
00000310: f8ee 5fbe 4011 4cbd 5a3d bbbd 5f6f 0a3b
00000320: 8e42 d43c 75fd e33d 30da b0bd 2139 eabd
00000330: 5e44 da3c afed 173d e9b1 18be db78 60be
00000340: 10c1 1abe a472 37bb 61eb 123e a786 e3bc
00000350: 4168 0abe 28b1 37bd c0f9 153e 0ffe 5e3e
00000360: 4145 a43d 2e8c bbbd d1c6 c43d bf9e d23c
00000370: 4af1 51be 2160 dcbd ba66 b13c 4e48 c9bc
00000380: 2a76 1cbe 6561 01be f435 4dbe e75e 18be
00000390: bc0c 413e 68de 17be 0dfd 173e 73dc 2e3e
000003a0: 343a 4f3d 6111 75be a994 bc3d d15a 6cbe
000003b0: 131a d3bd 9180 5dbe 64e8 a8bd 9277 efbd
000003c0: 5e39 b8bc bf83 883d 3fd5 693d c44a df3d
000003d0: 733e 4cbe dacc 8f3c bace bf3d acc8 0a3e
000003e0: b838 d63d ac88 9fbd ec31 b73d 2358 68be
000003f0: c78e 153e e7bd 48be c039 4cbe 7e04 4dbe

sequential_5/conv2d_40/Conv2D f4 [6, 3, 3, 6]
0.23640467 0.18811744 -0.12001268 0.06723468 -0.063028544 -0.13488573 0.12442415 -0.094062455
0.10262654 0.1437164 -0.094068706 0.16390271 0.18182836 -0.14081196 -0.23089677 -0.23942839
0.1642913 -0.2053322 0.056144994 0.2438642 0.16866373 -0.23734419 0.14511637 -0.037378047
-0.14781116 -0.22654599 0.19119602 0.069142684 -0.03876077 -0.10291099 -0.05956951 -0.01681138
0.21247932 0.14617567 0.21774077 -0.08750518 0.007749066 0.22774349 -0.058419935 -0.011496392
-0.2167753 -0.19839628 -0.013238444 -0.21135874 -0.043917246 -0.017546874 -0.1172039 0.120379984
0.03203542 0.12944688 0.10966919 -0.023020532 0.09388256 0.16412279 0.22763659 -0.20057724
-0.06845546 0.041557346 0.01507914 -0.15946877 0.023174128 0.065796934 0.16912314 -0.08798455
0.091740124 0.19974129 0.09975474 0.20173953 0.08381826 -0.009693261 -0.1870266 -0.17190602
-0.2168689 0.081421405 0.17487535 0.049061116 -0.007974164 -0.07233517 0.015536275 0.06549224
-0.19020829 0.032821745 0.14020826 0.01899932 -0.062149677 0.11404251 0.2099226 0.0062232534
-0.14548132 0.21434805 -0.008547056 -0.22262906 -0.037909288 0.1203081 0.057185113 -0.0129510155
-0.22787675 -0.19473433 -0.11305079 0.14749056 -0.03923848 -0.04891874 0.1632124 0.16802883
0.07574335 0.11655843 0.050849665 0.21922977 -0.10233442 0.14481902 -0.0634139 0.054335814
-0.071557365 0.2089704 0.22707203 0.01882428 -0.07442983 0.053904764 -0.064660884 0.14263223
-0.18834786 -0.18816896 -0.15154889 0.074065745 0.0053490587 0.0017619707 -0.09150445 0.13271369
-0.21545592 0.22386155 0.108434334 -0.1997321 -0.116399236 -0.1708682 0.11413521 0.09251618
-0.15770984 -0.07569932 -0.17083769 0.10607633 -0.1002297 0.10783561 -0.022956867 -0.024573328
-0.10087211 0.13358982 0.15744326 -0.16042627 -0.16290462 0.0017636536 0.07087688 -0.08847047
0.01778202 -0.025379822 0.09924703 -0.024191529 0.12697846 0.048672523 -0.028312149 0.09825082
0.048461724 -0.21288791 0.15426335 0.22924145 -0.0479365 0.120999165 -0.15080081 0.0689749
0.11955387 0.012117625 -0.05694069 0.15032713 -0.088909715 0.16502698 0.16327396 0.14024417
0.030992148 0.14662687 0.16126272 -0.1092319 0.17599998 -0.07549297 -2.0019012e-05 -0.12337125
0.1539043 0.17120379 -0.018428372 0.11706153 -0.07972624 -0.19615403 -0.03425344 -0.0050704605
-0.04147676 0.18994698 0.2344671 0.18964729 -0.0027334455 -0.16279913 -0.12302512 0.08075638
0.07526304 -0.021088377 0.21009147 -0.19596376 0.1281795 -0.010332906 0.104764536 0.071668126
0.036012325 0.21986009 -0.032327365 0.08822493 0.098814666 0.15632589 0.18373445 0.22597383
-0.07391963 -0.08499682 0.14341663 -0.1904559 0.15636908 -0.11045374 0.16123487 0.13694546
0.022750061 0.14939353 0.22374856 -0.13563418 -0.021855503 -0.16518305 0.15101686 0.17283912
-0.022186292 0.09421668 -0.08244733 -0.010998985 0.06112315 -0.11105593 -0.018530097 0.23174043
0.08237874 -0.0624281 -0.20371239 0.22470078 -0.20463316 -0.16613585 -0.007712014 0.14995031
-0.10715797 -0.16858979 -0.07431084 0.12222146 -0.032968614 0.07324827 0.039654177 0.1874526
00000000: 1114 723e dca1 403e 35c9 f5bd 56b2 893d
00000010: 1c15 81bd 7c1f 0abe 17d2 fe3d d1a3 c0bd
00000020: dd2d d23d 642a 133e 18a7 c0bd 1dd6 273e
00000030: 3731 3a3e 0331 10be 3470 6cbe b72c 75be
00000040: fb3b 283e 9b42 52be 4bf8 653d 89b7 793e
00000050: 2fb6 2c3e 5b0a 73be 6399 143e b919 19bd
00000060: cf5b 17be acfb 67be e4c8 433e ae9a 8d3d
00000070: 9dc3 1ebd ffc2 d2bd 29ff 73bd 05b8 89bc
00000080: 2e94 593e 13af 153e 70f7 5e3e ea35 b3bd
00000090: e1eb fd3b 9735 693e be49 6fbd 5d5b 3cbc
000000a0: 58fa 5dbe 6528 4bbe 0fe6 58bc 6d6e 58be
000000b0: 92e2 33bd 76be 8fbc 9908 f0bd c889 f63d
000000c0: 9337 033d b98d 043e 3e9a e03d 8e95 bcbc
000000d0: 8045 c03d ce0f 283e 9119 693e 1f64 4dbe
000000e0: 6032 8cbd 0938 2a3d 7f0e 773c c84b 23be
000000f0: abd7 bd3c 8bc0 863d 9e2e 2d3e 3e31 b4bd
00000100: 3fe2 bb3d fb88 4c3e 374c cc3d cf94 4e3e
00000110: e8a8 ab3d 7cd0 1ebc e783 3fbe 2208 30be
00000120: e212 5ebe 44c0 a63d 8612 333e 4ff4 483d
00000130: 11a6 02bc 7624 94bd dc8b 7e3c cc20 863d
00000140: f6c5 42be 1870 063d c192 0f3e 76a4 9b3c
00000150: a990 7ebd 1f8f e93d f3f5 563e 6fec cb3b
00000160: 0ef9 14be 0e7e 5b3e f308 0cbc dff8 63be
00000170: c546 1bbd 1864 f63d f03a 6a3d 7f30 54bc
00000180: 8658 69be 7068 47be 2c87 e7bd c407 173e
00000190: 87b8 20bd 045f 48bd 2721 273e c00f 2c3e
000001a0: 541f 9b3d 30b6 ee3d bd47 503d c57d 603e
000001b0: b594 d1bd 704b 143e 26df 81bd 3b8f 5e3d
000001c0: ab8c 92bd 56fc 553e 9285 683e 6035 9a3c
000001d0: ab6e 98bd 3ecb 5c3d ed6c 84bd 2f0e 123e
000001e0: 43de 40be 5daf 40be a22f 1bbe c8af 973d
000001f0: 2847 af3b edf1 e63a af66 bbbd 19e6 073e
00000200: 7aa0 5cbe f63b 653e d212 de3d 9286 4cbe
00000210: b962 eebd 13f8 2ebe b9bf e93d 1f79 bd3d
00000220: b07e 21be 3f08 9bbd 13f0 2ebe 8c3e d93d
00000230: 3b45 cdbd ebd8 dc3d 0a10 bcbc 014e c9bc
00000240: 0996 cebd c5cb 083e ce38 213e c946 24be
00000250: 78d0 26be 652a e73a e627 913d 0130 b5bd
00000260: 99ab 913c 58e9 cfbc 0742 cb3d 502d c6bc
00000270: a406 023e d75c 473d e1ee e7bc ba37 c93d
00000280: cd7f 463d 4aff 59be 36f7 1d3e 45be 6a3e
00000290: 1059 44bd 69ce f73d 876b 1abe b642 8d3d
000002a0: a9d8 f43d 0189 463c a43a 69bd 5bef 193e
000002b0: 4c16 b6bd d5fc 283e 4a31 273e 2b9c 0f3e
000002c0: 3fe3 fd3c 5b25 163e 0e22 253e f9b4 dfbd
000002d0: 5739 343e 0f9c 9abd 80ee a7b7 11aa fcbd
000002e0: 1799 1d3e 0c50 2f3e 19f7 96bc f5bd ef3d
000002f0: 8347 a3bd 9adc 48be 564d 0cbd 1b26 a6bb
00000300: 89e3 29bd 7681 423e 2518 703e e632 423e
00000310: 9b23 33bb d1b4 26be 98f4 fbbd 9a63 a53d
00000320: 8223 9a3d 88c1 acbc 3822 573e b9aa 48be
00000330: 7d41 033e 594b 29bc ca8e d63d bdc6 923d
00000340: a981 133d 0123 613e b369 04bd 46af b43d
00000350: 585f ca3d e513 203e e224 3c3e af65 673e
00000360: 2d63 97bd d012 aebd cfdb 123e df06 43be
00000370: 371f 203e 9235 e2bd c11a 253e 6e3b 0c3e
00000380: 565e ba3c 9efa 183e 581e 653e b0e3 0abe
00000390: 500a b3bc bf25 29be 2aa4 1a3e bdfc 303e
000003a0: 07c0 b5bc adf4 c03d 25da a8bd 1635 34bc
000003b0: 455c 7a3d 4b71 e3bd 6ecc 97bc 5d4d 6d3e
000003c0: 2fb6 a83d 9bb4 7fbd fb99 50be f617 663e
000003d0: 5b8b 51be 841f 2abe 10b5 fcbb 938c 193e
000003e0: a375 dbbd cda2 2cbe 4830 98bd 3f4f fa3d
000003f0: 190a 07bd 3003 963d 6b6c 223d 93f3 3f3e

sequential_5/conv2d_41/Conv2D f4 [6, 3, 3, 6]
-0.04493767 -0.051586486 -0.16107833 0.21998173 -0.16194893 0.21387953 0.18971218 0.11050513
-0.21652046 0.21434207 0.023766527 -0.17581132 0.031316284 0.12305178 0.23140049 0.22061382
-0.13620147 -0.16874065 0.034355458 -0.002703914 -0.14074561 0.13596539 -0.19745933 -0.06280121
-0.05430317 0.13513923 0.022024678 -0.028402923 0.08122088 0.103632584 0.20825192 -0.14510004
0.052005626 0.11618238 0.098358385 -0.011430403 -0.03312072 -0.020591173 -0.027581174 -0.022337342
-0.16045433 -0.12487178 0.03555088 0.11025623 -0.23199642 -0.2186656 -0.030493518 -0.09899653
-0.14649856 -0.047487617 -0.08244032 -0.082461044 0.1246214 0.094521336 -0.23688172 0.07260029
-0.12036798 -0.06397976 -0.09661511 0.10283837 0.2285281 0.023380771 0.22578622 0.004092837
-0.019421957 0.007462556 -0.1112654 0.22893105 -0.07191783 0.13357963 -0.20453991 0.039984856
-0.14590588 0.111908875 0.0783652 0.13768168 -0.12968428 -0.018028984 -0.025716618 0.11004833
0.23204292 0.0017533014 -0.074565575 -0.19292776 0.16860653 -0.0026817822 0.12613237 0.085720025
0.1879846 -0.008287497 -0.2408039 -0.11508471 0.10150596 -0.14037204 0.1833299 -0.07686978
-0.013253599 0.07895977 -0.02861813 0.0043811626 0.041532177 0.12542589 0.1964098 -0.19897912
-0.010039706 0.050813932 0.056440905 -0.10119373 -0.14055435 0.07228557 0.13662994 -0.12731262
0.14027886 0.057226155 0.22165392 0.19035587 0.16749524 -0.060393933 -0.19058712 -0.025600983
0.21727698 0.09365994 0.11379584 -0.08434813 0.14501026 -0.23315461 -0.16613743 0.06781107
-0.2020785 0.0933597 -0.17058213 -0.12741028 0.13700856 0.1677898 0.18717377 -0.06963892
-0.036827195 0.087893076 -0.1397505 -0.077954024 -0.10382312 0.18543595 -0.22082143 0.030554067
-0.10990704 0.019388562 0.059329133 0.017532982 0.18768552 -0.20862992 -0.17366217 0.026085936
-0.13064298 0.18575877 0.053680625 -0.16587439 -0.08415699 0.02604104 -0.23319517 0.055105668
0.09535818 -0.057518687 0.14559953 -0.038864948 0.15572976 -0.10633712 -0.22334029 -0.21870697
0.009080164 0.12510565 -0.20238493 0.202128 0.11886296 0.14353731 -0.016556215 0.14651933
0.13174844 -0.16984949 0.15197255 -0.120256685 0.18846913 -0.16810256 0.2318193 -0.14160179
-0.028373245 -0.22429758 0.13125822 -0.22556376 -0.16895019 0.13216119 0.09775272 -0.19427292
0.0075232354 -0.046284273 0.04125708 0.021853637 -0.0036997586 -0.024807524 -0.1309228 0.17139034
0.167452 -0.06727398 -0.14781156 0.2326087 0.051780473 -0.12138057 0.069234006 -0.19767249
0.027237562 -0.21329394 0.19060013 -0.15961829 0.060386337 0.11295682 0.2319287 -0.105303295
0.22399084 -0.004752744 0.15027733 0.10182136 -0.15817328 0.026082247 -0.22380298 -0.17940654
0.23287831 -0.18057238 0.19386916 0.033724844 0.20031933 0.10092384 0.20409127 0.22984679
-0.16878268 0.10974395 -0.23806152 0.1983161 -0.05187746 0.13232046 0.22080997 0.20229691
0.0028851666 -0.14672291 -0.01434884 -0.04944182 0.22351418 0.011364117 0.0835676 0.03627285
-0.05147719 -0.19872619 0.16176589 -0.21014538 -0.14356701 -0.044600468 0.229349 0.15365064
00000000: 9010 38bd 5a4c 53bd b8f1 24be e442 613e
00000010: f1d5 25be 3c03 5b3e e943 423e 8350 e23d
00000020: 8ab7 5dbe 7d7c 5b3e 05b2 c23c e207 34be
00000030: 8145 003d 9202 fc3d 40f4 6c3e 97e8 613e
00000040: 6678 0bbe 59ca 2cbe 4fb8 0c3d 2634 31bb
00000050: 9e1f 10be 833a 0b3e c732 4abe ec9d 80bd
00000060: 006d 5ebd f061 0a3e 196d b43c 3fad e8bc
00000070: 2257 a63d 523d d43d fe3f 553e 1b95 14be
00000080: da03 553d 07f1 ed3d 1f70 c93d 9646 3bbc
00000090: 98a9 07bd d2ae a8bc eaf1 e1bc cdfc b6bc
000000a0: 244e 24be c7bc ffbd cd9d 113d 05ce e13d
000000b0: 7890 6dbe e0e9 5fbe 8bcd f9bc b1be cabd
000000c0: b803 16be 6082 42bd 78d6 a8bd 56e1 a8bd
000000d0: 8139 ff3d 6794 c13d 1f91 72be 76af 943d
000000e0: 7d83 f6bd d207 83bd 25de c5bd ec9c d23d
000000f0: 4503 6a3e 0889 bf3c 8134 673e 351d 863b
00000100: cc1a 9fbc 7588 f43b 1ddf e3bd e76c 6a3e
00000110: a849 93bd 19c9 083e e972 51be 29c7 233d
00000120: 5a68 15be 7b30 e53d ef7d a03d 6dfc 0c3e
00000130: f5cb 04be 85b1 93bc a8ab d2bc 0561 e13d
00000140: a99c 6d3e 08cf e53a d6b5 98bd db8e 45be
00000150: 31a7 2c3e d7c0 2fbb d828 013e fb8d af3d
00000160: 097f 403e 48c8 07bc 4c95 76be 88b1 ebbd
00000170: 5be2 cf3d b0bd 0fbe d5ba 3b3e e76d 9dbd
00000180: a025 59bc a9b5 a13d 9270 eabc db8f 8f3b
00000190: a51d 2a3d a56f 003e a71f 493e 2fc1 4bbe
000001a0: 947d 24bc 4522 503d 942e 673d a93e cfbd
000001b0: 7bed 0fbe 750a 943d b8e8 0b3e 3d5e 02be
000001c0: 43a5 0f3e f965 6a3d 3ff9 623e a6ec 423e
000001d0: df83 2b3e a15f 77bd 4529 43be 27b9 d1bc
000001e0: db7d 5e3e c8d0 bf3d cb0d e93d b6be acbd
000001f0: 927d 143e 15c0 6ebe ee1f 2abe 88e0 8a3d
00000200: abed 4ebe 5f33 bf3d 15ad 2ebe d777 02be
00000210: f94b 0c3e 17d1 2b3e 7baa 3f3e da9e 8ebd
00000220: 1dd8 16bd 4901 b43d c11a 0fbe 5ca6 9fbd
00000230: 37a1 d4bd ece2 3d3e 031f 62be 864c fa3c
00000240: f116 e1bd c3d4 9e3c 1b03 733d 54a1 8f3c
00000250: a230 403e 15a3 55be 7fd4 31be 2cb2 d53c
00000260: 46c7 05be 8c37 3e3e 37e0 5b3d fada 29be
00000270: 805a acbd 0554 d53c b7ca 6ebe 7bb6 613d
00000280: 264b c33d b798 6bbd 0b18 153e da30 1fbd
00000290: 9f77 1f3e 47c7 d9bd 51b3 64be b8f4 5fbe
000002a0: f8c4 143c b21b 003e ff3d 4fbe a4fa 4e3e
000002b0: 6c6e f33d 72fb 123e e6a0 87bc 2a09 163e
000002c0: 10e9 063e 06ed 2dbe b19e 1b3e 2349 f6bd
000002d0: 0dfe 403e 1423 2cbe 0a62 6d3e 0f00 11be
000002e0: 026f e8bc 44ae 65be 8e68 063e 30fa 66be
000002f0: 4701 2dbe 4355 073e 9432 c83d 7bef 46be
00000300: 7985 f63b 9494 3dbd 2ffd 283d 6606 b33c
00000310: a677 72bb 2639 cbbc a010 06be f380 2f3e
00000320: 8978 2b3e f1c6 89bd ea5b 17be fa30 6e3e
00000330: c317 543d 6096 f8bd 8fca 8d3d a86a 4abe
00000340: 4f21 df3c ba69 5abe ae2c 433e fa72 23be
00000350: aa57 773d e855 e73d b87e 6d3e 41a9 d7bd
00000360: db5d 653e e8bc 9bbb 4de2 193e b887 d03d
00000370: 2df8 21be 70aa d53c 9c2c 65be 59b6 37be
00000380: a777 6e3e f7e7 38be a385 463e 1023 0a3d
00000390: 8320 4d3e 29b1 ce3d 4dfd 503e f55c 6b3e
000003a0: 5ed5 2cbe 70c1 e03d 66c6 73be 6013 4b3e
000003b0: 767d 54bd 047f 073e 021c 623e ec26 4f3e
000003c0: 1015 3d3b 883e 16be 6617 6bbc 8183 4abd
000003d0: e7e0 643e 9030 3a3c 7d25 ab3d d792 143d
000003e0: bfd9 52bd e17e 4bbe f5a5 253e 5a30 57be
000003f0: 3b03 13be fbae 36bd 77da 6a3e 9856 1d3e

sequential_5/dense_11/BiasAdd/ReadVariableOp f4 [7]
-0.01722611 0.001972764 -0.0017856358 0.0032014265 0.0041065095 -0.0039509605 -0.01108831
00000000: c51d 8dbc 7d49 013b ff0b eaba 06cf 513b
00000010: e68f 863b 0f77 81bb beab 35bc

sequential_5/dense_10/BiasAdd/ReadVariableOp f4 [64]
-0.0030855585 -0.003727224 0.001532992 -0.002287846 -0.002630229 0.00032699326 -0.0053314376 0.00049409
-0.0025312442 0.0027806943 -0.0018153731 0.0012198614 -0.0015321063 -0.0012409515 -0.004910565 -0.0006291557
-0.00095067464 -0.0011533042 -0.006595072 -0.0029628146 -0.0006775636 -0.006321076 -0.00030890794 -0.0014257443
-0.0014651424 7.041903e-05 -0.00032009432 -0.0010521577 -0.0022899273 0.00053576357 0.0014232696 -0.0048048166
-0.003217731 0.0012548005 -0.00010152703 0.0019155582 0.002746292 -0.0018235063 -0.00278962 -4.6102654e-05
-0.0021433143 0.0014099516 -0.0017364634 -0.003827278 -0.0009886965 -0.0033799324 -0.0072283586 -0.0014046266
0.003704941 -0.005784005 -0.00059472944 -0.0007810125 -0.0012958114 -0.0012029784 -0.001411577 -0.0016367728
-0.008502606 -0.008945961 -0.004480781 0.00079571945 -0.0019286107 -0.00031746778 -0.0020902264 0.0013778888
00000000: 1537 4abb 7144 74bb adee c83a b0ef 15bb
00000010: ec5f 2cbb 4b70 ab39 57b3 aebb d285 013a
00000020: 3be3 25bb 4f3c 363b d0f1 edba c2e3 9f3a
00000030: f5d0 c8ba 6ca7 a2ba cee8 a0bb eded 24ba
00000040: b236 79ba 782a 97ba 791b d8bb c82b 42bb
00000050: 869e 31ba 0721 cfbb ecf4 a1b9 0ae0 baba
00000060: 050a c0ba eead 9338 55d2 a7b9 8ee8 89ba
00000070: 9b12 16bb 7c72 0c3a 018d ba3a b971 9dbb
00000080: 91e0 52bb 1e78 a43a e9ea d4b8 7813 fb3a
00000090: 22fb 333b b802 efba 0fd2 36bb 595e 41b8
000000a0: d976 0cbb 20ce b83a 0b9a e3ba 12d3 7abb
000000b0: 2697 81ba db81 5dbb dedb ecbb 731b b8ba
000000c0: 98ce 723b c087 bdbb 9ee7 1bba ddbc 4cba
000000d0: 37d8 a9ba 42ad 9dba aa04 b9ba fb88 d6ba
000000e0: 844e 0bbc 1492 12bc 84d3 92bb d497 503a
000000f0: 70c9 fcba ce71 a6b9 2efc 08bb 479a b43a

sequential_5/batch_normalization_35/FusedBatchNormV3 f4 [6]
0.012390443 0.012231537 0.015841935 0.0288719 0.016274579 0.060277812
00000000: 4901 4b3c c966 483c f2c6 813c c384 ec3c
00000010: 4452 853c dee5 763d

sequential_5/batch_normalization_35/FusedBatchNormV31 f4 [6]
-0.5692175 -0.5893358 -0.6465833 -0.7101972 -0.5657184 -0.9751344
00000000: 3db8 11bf b6de 16bf 7c86 25bf 7ccf 35bf
00000010: ecd2 10bf 68a2 79bf

sequential_5/batch_normalization_36/FusedBatchNormV3 f4 [6]
1.6322923 2.4771686 0.9171377 1.1587791 2.3988512 2.4222622
00000000: f4ee d03f ee89 1e40 89c9 6a3f e052 943f
00000010: c786 1940 5806 1b40

sequential_5/batch_normalization_36/FusedBatchNormV31 f4 [6]
-0.59828424 -1.0663164 -0.69301015 -0.5377625 -1.3070925 -1.3160712
00000000: 2829 19bf 0e7d 88bf 1d69 31bf ceaa 09bf
00000010: cf4e a7bf 0575 a8bf

sequential_5/batch_normalization_37/FusedBatchNormV3 f4 [6]
2.3292816 0.8763758 1.2642711 0.85898864 1.5474452 2.325291
00000000: f312 1540 2a5a 603f a3d3 a13f aee6 5b3f
00000010: af12 c63f 91d1 1440

sequential_5/batch_normalization_37/FusedBatchNormV31 f4 [6]
-1.2005543 -0.7392634 -0.8322088 -0.65689665 -0.9579495 -1.133123
00000000: c3ab 99bf 5e40 3dbf a30b 55bf 612a 28bf
00000010: 2e3c 75bf 2d0a 91bf

sequential_5/batch_normalization_38/FusedBatchNormV3 f4 [6]
1.2391093 1.8977634 1.96055 1.4428526 1.4402217 1.4450103
00000000: 229b 9e3f e9e9 f23f 4df3 fa3f 65af b83f
00000010: 2f59 b83f 19f6 b83f

sequential_5/batch_normalization_38/FusedBatchNormV31 f4 [6]
-0.78156877 -0.8123378 -0.964831 -0.9767472 -0.86890423 -1.0430788
00000000: e414 48bf 5ff5 4fbf 2aff 76bf 1b0c 7abf
00000010: 8270 5ebf 9b83 85bf

sequential_5/batch_normalization_39/FusedBatchNormV3 f4 [6]
1.8796719 2.867222 2.044377 2.2989876 1.2445529 1.361071
00000000: 1799 f03f 9180 3740 13d7 0240 9d22 1340
00000010: 824d 9f3f 9337 ae3f

sequential_5/batch_normalization_39/FusedBatchNormV31 f4 [6]
-0.87600106 -0.93486965 -1.0944823 -0.87223095 -0.98809755 -0.8593791
00000000: 9b41 60bf 9e53 6fbf ff17 8cbf 874a 5fbf
00000010: f6f3 7cbf 4500 5cbf

sequential_5/batch_normalization_40/FusedBatchNormV3 f4 [6]
2.22839 1.3786243 2.4339685 1.07869 2.4486425 1.1212022
00000000: f19d 0e40 c376 b03f 24c6 1b40 8412 8a3f
00000010: 8fb6 1c40 8e83 8f3f

sequential_5/batch_normalization_40/FusedBatchNormV31 f4 [6]
-1.0223734 -0.8505404 -1.1428229 -0.78019005 -0.9945548 -0.9110932
00000000: 22dd 82bf 04bd 59bf 0548 92bf 89ba 47bf
00000010: 259b 7ebf 673d 69bf

sequential_5/batch_normalization_41/FusedBatchNormV3 f4 [6]
1.2747945 1.4427217 1.7113439 1.5045978 1.0603412 1.5683856
00000000: 772c a33f 1bab b83f 510d db3f a996 c03f
00000010: 43b9 873f dcc0 c83f

sequential_5/batch_normalization_41/FusedBatchNormV31 f4 [6]
-0.90285796 -0.7968532 -0.8711403 -0.9805202 -0.8312993 -1.0934712
00000000: b321 67bf 92fe 4bbf 0d03 5fbf 5f03 7bbf
00000010: 08d0 54bf ddf6 8bbf
