saved_model/quantized_models/layers7/trial3/paramcount217115.tflite (tflite, 231072 bytes, 32 tensors)

sequential_1/dense_3/MatMul f4 [7, 64]
-0.090759255 0.21015038 0.25828624 -0.21925268 -0.1308405 0.025931392 -0.20131375 0.16374809
-0.29745966 -0.07880325 0.25997558 -0.27860072 0.0060325945 -0.27732164 0.08237133 0.25544748
0.15118544 0.2359078 0.2752106 -0.15017612 0.17578867 -0.16986738 -0.2695388 -0.28871825
-0.07928826 0.012281446 -0.1294714 -0.31158906 0.14032431 -0.17614897 -0.1616233 0.2672084
0.2543291 0.09084154 0.1670301 -0.23998912 0.03604965 -0.25557578 -0.13293484 0.11287288
0.016523113 0.15988016 -0.2175322 -0.2717304 -0.15230784 0.09156793 -0.041417185 0.049805105
-0.2604007 0.23745187 -0.0040966766 -0.14297627 0.017707296 -0.11007405 -0.1069231 0.11828598
-0.16893455 0.0607653 0.17599922 0.025583116 0.22562714 0.21366337 0.2189195 -0.18715712
0.26203793 0.1271865 0.031097217 0.27491242 -0.11001702 0.24300279 0.23594676 0.096288085
0.02316675 -0.17650446 0.06526592 -0.006079632 -0.17983161 0.12835644 0.034914806 0.07564423
-0.032169323 0.03474732 0.15254766 0.12896034 -0.25514117 -0.0014200857 0.100041285 0.10693703
0.18326618 0.15636615 0.034789324 -0.053892672 0.13150357 0.14512192 -0.14627448 0.06447813
0.07593191 0.11270627 -0.15949504 -0.15609302 -0.21367899 -0.16317496 0.05411508 -0.045370437
0.22814882 0.023813486 -0.09821222 0.06387541 -0.15414882 -0.08075126 0.09706315 0.021356203
-0.19375648 0.2655206 -0.048349317 -0.002604584 -0.066007696 0.041748136 -0.13335137 0.10764828
0.106217355 -0.1843698 0.11454424 0.0161046 -0.30082488 -0.2888613 0.25045156 -0.25217506
-0.0635709 -0.026638785 0.21492185 -0.27915993 0.0063462295 0.24719734 0.13250013 0.15466815
0.1524685 0.027661553 -0.20890447 0.13993363 -0.016402923 0.11521469 0.19947398 -0.08771991
-0.06258408 0.2127937 -0.28005823 0.034434058 -0.22628032 -0.04402331 -0.054795265 0.053125918
-0.021530975 0.013808946 -0.08471307 -0.11716369 0.13079044 -0.13223384 0.23769252 -0.021779886
-0.22650951 0.030793935 -0.18837458 0.061717622 0.04990334 0.066686936 -0.14999565 0.1366015
0.14277239 0.24181442 -0.18992689 -0.06807233 -0.061445925 0.15462437 -0.18591729 0.1656233
-0.0014715542 0.18776959 -0.10580574 -0.23879172 -0.2668624 -0.16246101 0.23902932 -0.021855298
-0.182626 -0.15274905 -0.16083306 -0.095671244 0.060089223 0.21616396 -0.25868443 0.26974508
0.26578084 -0.17805052 -0.06402322 0.16937429 0.16281627 -0.23525912 -0.17830607 0.04830206
0.011479478 0.2411573 -0.2604878 -0.13878784 0.00404274 -0.11811534 -0.23883949 0.11630288
0.083921775 0.19372252 -0.10373822 0.19054072 -0.15012288 -0.20625456 0.18795693 0.09712742
0.039974708 0.13039327 0.19766754 -0.15274279 -0.01838677 0.22854821 -0.06940363 -0.009734271
-0.14015037 -0.14238347 -0.00065061916 0.20162068 0.20596752 -0.14986221 -0.0071741766 -0.08080053
-0.16167626 -0.28153962 -0.008094157 -0.16370307 0.0043421956 -0.15268424 -0.09700165 0.07360746
0.0064224936 -0.22250544 0.13836257 -0.003779615 -0.14437844 -0.091168985 -0.009017139 0.25563192
0.16772138 0.18924391 0.074542314 -0.038726293 -0.048152607 0.035765935 0.09640818 -0.07395358
00000000: fddf b9bd a931 573e 183e 843e c683 60be
00000010: 0dfb 05be 126e d43c 3125 4ebe 94ad 273e
00000020: a24c 98be 9963 a1bd 851b 853e c1a4 8ebe
00000030: 12ad c53b 1afd 8dbe 4db2 a83d 03ca 823e
00000040: 5bd0 1a3e d091 713e 67e8 8c3e c5c7 19be
00000050: f201 343e b7f1 2dbe fd00 8abe e1d2 93be
00000060: e261 a2bd 1e38 493c 2794 04be 9a88 9fbe
00000070: 2db1 0f3e 6560 34be 9480 25be 8acf 883e
00000080: 6c37 823e 210b ba3d f009 2b3e b5bf 75be
00000090: cca8 133d d4da 82be 1220 08be e629 e73d
000000a0: 7b5b 873c a0b7 233e c3c0 5ebe 3f20 8bbe
000000b0: 96f6 1bbe f887 bb3d 11a5 29bd 7000 4c3d
000000c0: 3e53 85be 9526 733e 6a3d 86bb 5f68 12be
000000d0: e40e 913c 816e e1bd 80fa dabd eb3f f23d
000000e0: 2efd 2cbe 09e5 783d 2439 343e af93 d13c
000000f0: cd0a 673e 92ca 5a3e 6f2c 603e 1ea6 3fbe
00000100: d629 863e 2e3d 023e 97bf fe3c 52c1 8c3e
00000110: 9a50 e1bd b9d5 783e 079c 713e b032 c53d
00000120: 32c8 bd3c 96bd 34be 23aa 853d a637 c7bb
00000130: c725 38be df6f 033e d402 0f3d 5deb 9a3d
00000140: fbc3 03bd 3553 0e3d 7435 1c3e 2e0e 043e
00000150: dda1 82be 2b22 baba 72e2 cc3d cd01 db3d
00000160: 21aa 3b3e 731e 203e 407f 0e3d 90be 5cbd
00000170: dfa8 063e d79a 143e fac8 15be 1c0d 843d
00000180: 3082 9b3d 8bd2 e63d ab52 23be d9d6 1fbe
00000190: aace 5abe 5617 27be c6a7 5d3d 5ad6 39bd
000001a0: d89f 693e 8014 c33c 7d23 c9bd 1cd1 823d
000001b0: 30d9 1dbe eb60 a5bd 0bc9 c63d 34f3 ae3c
000001c0: 1968 46be 51f2 873e ef09 46bd abb1 2abb
000001d0: 0b2f 87bd 1800 2b3d 438d 08be b476 dc3d
000001e0: 7c88 d93d 70cb 3cbe 2c96 ea3d cbed 833c
000001f0: b805 9abe a1e5 93be 303b 803e 171d 81be
00000200: 7631 82bd 9539 dabc 7914 5c3e 0dee 8ebe
00000210: 08f4 cf3b 4d21 7d3e 1dae 073e 5461 1e3e
00000220: b420 1c3e 7b9a e23c 0eeb 55be c34a 0f3e
00000230: 6c5f 86bc aef5 eb3d e842 4c3e 7fa6 b3bd
00000240: 152c 80bd 97e6 593e cb63 8fbe ba0a 0d3d
00000250: 07b6 67be c951 34bd 0071 60bd 909a 593d
00000260: ba61 b0bc eb3e 623c 0c7e adbd 84f3 efbd
00000270: eeed 053e 4f68 07be ab65 733e bb6b b2bc
00000280: 1cf2 67be 9043 fc3c 44e5 40be 9ecb 7c3d
00000290: 7267 4c3d 2993 883d 7698 19be 43e1 0b3e
000002a0: ed32 123e 339e 773e 327c 42be 8169 8bbd
000002b0: b9ae 7bbd da55 1e3e 1a61 3ebe 2899 293e
000002c0: 2ae1 c0ba ac46 403e aeb0 d8bd d185 74be
000002d0: 30a2 88be 2e5c 26be 1ac4 743e e209 b3bc
000002e0: 4f02 3bbe 3f6a 1cbe 6cb1 24be 49ef c3bd
000002f0: 1e20 763d 165a 5d3e 4972 84be 071c 8a3e
00000300: 6d14 883e e052 36be 9b1e 83bd 7470 2d3e
00000310: 4fb9 263e c4e7 70be de95 36be 62d8 453d
00000320: 6c14 3c3c f0f1 763e a85e 85be 661e 0ebe
00000330: f678 843b 75e6 f1bd 5792 74be 3430 ee3d
00000340: 2edf ab3d 325f 463e b474 d4bd 1b1d 433e
00000350: d0b9 19be 6534 53be c877 403e beea c63d
00000360: 85bc 233d d085 053e 5c69 4a3e 9b68 1cbe
00000370: da9f 96bc 8b08 6a3e 7e23 8ebd 7e7c 1fbc
00000380: 9483 0fbe f9cc 11be 508e 2aba a775 4e3e
00000390: 26e9 523e 7b75 19be 5b15 ebbb c07a a5bd
000003a0: 768e 25be f625 90be 5b9d 04bc c7a1 27be
000003b0: fa48 8e3b 4259 1cbe cda8 c6bd 82bf 963d
000003c0: c873 d23b 77d8 63be ebae 0d3e 6bb3 77bb
000003d0: f1d7 13be ceb6 babd 9fbc 13bc 30e2 823e
000003e0: 27bf 2b3e 28c9 413e a4a9 983d 769f 1ebd
000003f0: ab3b 45bd 4d7f 123d a771 c53d f974 97bd

sequential_1/conv2d_7/BiasAdd/ReadVariableOp f4 [2]
0.005380505 0.0054558157
00000000: f34e b03b b3c6 b23b

sequential_1/conv2d_8/BiasAdd/ReadVariableOp f4 [2]
0.0051932223 0.01266742
00000000: e82b aa3b 038b 4f3c

sequential_1/conv2d_9/BiasAdd/ReadVariableOp f4 [2]
-0.00973701 -0.0049219155
00000000: fb87 1fbc 0548 a1bb

sequential_1/conv2d_10/BiasAdd/ReadVariableOp f4 [2]
0.0035752726 -0.003988252
00000000: 1f4f 6a3b e2af 82bb

sequential_1/conv2d_11/BiasAdd/ReadVariableOp f4 [2]
-0.010300775 -0.007414016
00000000: 95c4 28bc 46f1 f2bb

sequential_1/conv2d_12/BiasAdd/ReadVariableOp f4 [2]
-0.0035499719 -0.0036776867
00000000: a5a6 68bb 5805 71bb

sequential_1/conv2d_13/BiasAdd/ReadVariableOp f4 [2]
-0.0048626703 -0.010071999
00000000: 0957 9fbb 0705 25bc

sequential_1/conv2d_7/Conv2D f4 [2, 3, 3, 1]
-0.12396694 0.10816981 0.117882766 -0.4069884 -0.3994987 0.3679844 0.18230477 0.15196723
-0.059318103 0.19233918 -0.1208045 0.22588953 0.17891125 -0.30728176 0.27390575 0.16396087
-0.27511764 -0.122166574
00000000: 61e2 fdbd 2288 dd3d 856c f13d c960 d0be
00000010: 188b ccbe 7468 bc3e 1aae 3a3e 4c9d 1b3e
00000020: 8af7 72bd 90f4 443e 5a68 f7bd 964f 673e
00000030: 8334 373e 0954 9dbe 603d 8c3e 5ce5 273e
00000040: 38dc 8cbe 7832 fabd

sequential_1/conv2d_8/Conv2D f4 [2, 3, 3, 2]
0.24587782 0.25356042 -0.060940128 -0.1426885 -0.2698642 -0.32135493 -0.33108225 -0.321184
-0.32112685 0.38209912 0.40401274 0.055847984 -0.22410898 0.3919786 -0.06147841 0.14181456
-0.33172604 0.29826635 0.13297191 0.073018424 0.2781387 -0.27278543 -0.3934257 -0.003928803
-0.30437937 -0.34578785 -0.046802055 0.29342517 -0.33341217 -0.33426976 0.23038933 0.27064118
-0.19398306 0.27230948 0.2233869 0.25450504
00000000: 65c7 7b3e acd2 813e 5b9c 79bd ef1c 12be
00000010: a42b 8abe a288 a4be 9d83 a9be 3b72 a4be
00000020: bd6a a4be 7fa2 c33e c2da ce3e dbc0 643d
00000030: d37c 65be 6bb1 c83e c9d0 7bbd d637 113e
00000040: ffd7 a9be 5eb6 983e ca29 083e af8a 953d
00000050: 3268 8e3e 88aa 8bbe 186f c9be 30bd 80bb
00000060: 9dd7 9bbe 1b0b b1be 83b3 3fbd d33b 963e
00000070: 00b5 aabe 6825 abbe 2eeb 6b3e 7b91 8a3e
00000080: 7fa3 46be 266c 8b3e 89bf 643e 7c4e 823e

sequential_1/conv2d_9/Conv2D f4 [2, 3, 3, 2]
-0.038946617 -0.13610543 0.058048885 0.16257167 0.37759796 -0.27813458 0.23139748 0.08884484
-0.101237856 -0.087350465 -0.2088221 0.25883847 -0.34105653 0.3211834 0.38381085 0.16366765
-0.34393793 0.27265516 -0.25399396 -0.27059507 0.34379953 -0.07859144 -0.14919674 0.046797752
0.15101185 0.15534015 0.3184728 0.20889194 -0.22320068 0.0477051 -0.09295798 0.27965614
-0.11990423 0.009339623 -0.22624423 -0.3422381
00000000: 7d86 1fbd 395f 0bbe abc4 6d3d 3079 263e
00000010: 8554 c13e a867 8ebe 76f3 6c3e 49f4 b53d
00000020: cb55 cfbd cde4 b2bd 76d5 55be 7a86 843e
00000030: f69e aebe 2772 a43e db82 c43e 7e98 273e
00000040: a218 b0be 7599 8b3e 7f0b 82be 708b 8abe
00000050: 7e06 b03e 8df4 a0bd 08c7 18be 00af 3f3d
00000060: daa2 1a3e 7d11 1f3e de0e a33e c5e7 553e
00000070: b88e 64be 6c66 433d c160 bebd 172f 8f3e
00000080: 5990 f5bd 3805 193c 91ac 67be d539 afbe

sequential_1/conv2d_10/Conv2D f4 [2, 3, 3, 2]
-0.12925103 0.29862434 0.16913441 -0.24418215 0.30161154 -0.35830528 0.13537186 -0.2752499
-0.04093515 -0.09874831 0.22580752 0.3705466 -0.02599312 -0.31041414 -0.03373767 -0.23195569
0.2743252 -0.25007626 -0.16022854 -0.24194926 0.06044425 0.1966359 0.28730366 -0.34047252
-0.17135319 0.038199406 -0.31745607 -0.08391712 -0.030575475 0.34115392 -0.18387742 -0.19620726
-0.26190713 -0.3968822 0.3988111 0.24979408
00000000: 625a 04be 4ae5 983e 9231 2d3e e30a 7abe
00000010: d46c 9a3e ca73 b7be ec9e 0a3e 8eed 8cbe
00000020: 9eab 27bd 8e3c cabd 163a 673e 49b8 bd3e
00000030: 86ef d4bc 9aee 9ebe 8330 0abd cb85 6dbe
00000040: 5a74 8c3e ff09 80be f312 24be 8cc1 77be
00000050: 6494 773d ec5a 493e 7719 933e 6a52 aebe
00000060: 3677 2fbe fb76 1c3d 9a89 a2be bddc abbd
00000070: 6b79 fabc baab ae3e 5d4a 3cbe 8eea 48be
00000080: b118 86be 2534 cbbe f830 cc3e 05ca 7f3e

sequential_1/conv2d_11/Conv2D f4 [2, 3, 3, 2]
0.2043455 0.36472112 0.09977274 -0.13796416 -0.00047410198 -0.2652672 -0.022829264 -0.24976437
0.27464777 0.13469772 -0.15007864 -0.24616086 -0.2949198 0.33878142 0.22805579 -0.0052097957
0.025694031 -0.18556386 0.13291152 -0.13960107 -0.243789 0.026131203 -0.041146513 -0.29716948
0.27573654 -0.08479691 0.047639914 0.24748825 0.02702354 -0.30334517 0.10698278 0.29968897
0.3005259 0.18998848 0.057145033 -0.09894803
00000000: f23f 513e babc ba3e a655 cc3d 7a46 0dbe
00000010: e490 f8b9 1ad1 87be 7004 bbbc 3bc2 7fbe
00000020: a29e 8c3e 33ee 093e 37ae 19be 9811 7cbe
00000030: baff 96be c274 ad3e 7587 693e efb6 aabb
00000040: 4a7c d23c 7404 3ebe f519 083e 95f3 0ebe
00000050: d3a3 79be 1b11 d63c 3f89 28bd 9926 98be
00000060: 572d 8d3e 01aa adbd 1222 433d 8f6d 7d3e
00000070: 7960 dd3c 0f50 9bbe ca19 db3d d570 993e
00000080: 88de 993e 578c 423e e910 6a3d 44a5 cabd

sequential_1/conv2d_12/Conv2D f4 [2, 3, 3, 2]
-0.06937623 0.39087784 0.344825 -0.17468506 0.061063826 -0.35686043 0.116279185 0.20803674
0.14019427 0.0031483637 -0.17601813 0.3990151 0.106411144 0.10778208 -0.1132993 0.34465936
-0.342558 0.37096912 -0.19641675 0.03606965 0.19587143 -0.060319576 -0.32737267 -0.25860137
-0.31758788 0.21155007 -0.30874476 -0.11487987 0.06625858 -0.060610548 0.32342187 0.31685755
-0.16392846 0.3359364 -0.16859555 -0.21091205
00000000: 2015 8ebd 2421 c83e e78c b03e a4e0 32be
00000010: 101e 7a3d 69b6 b6be c823 ee3d 9507 553e
00000020: 168f 0f3e c754 4e3b 193e 34be b54b cc3e
00000030: 16ee d93d dabc dc3d 7709 e8bd 3177 b03e
00000040: c363 afbe aaef bd3e 7921 49be c5bd 133d
00000050: 8592 483e a911 77bd 649d a7be 6667 84be
00000060: e19a a2be 95a0 583e cb13 9ebe 2346 ebbd
00000070: 94b2 873d c442 78bd 8d97 a53e 273b a23e
00000080: dddc 27be dbff ab3e 50a4 2cbe 54f9 57be

sequential_1/conv2d_13/Conv2D f4 [2, 3, 3, 2]
-0.34368527 0.21452641 0.021454813 0.070528135 0.20086423 0.09617314 -0.40638018 -0.096992336
0.16527295 -0.0018129081 0.17617242 0.119839825 -0.0115869865 0.21006867 0.11185931 0.28760126
-0.27579656 -0.27456805 -0.25071728 -0.24013478 0.05312616 0.1555471 -0.051169068 0.048141953
-0.26228368 -0.0068060895 0.060946997 0.35580033 0.37331855 0.078622185 0.16468655 0.08504301
-0.3405022 0.14666526 -0.21145546 0.3697912
00000000: 84f7 afbe d0ac 5b3e 01c2 af3c 0e71 903d
00000010: 5aaf 4d3e 6cf6 c43d 1011 d0be eba3 c6bd
00000020: 503d 293e 1a9f edba 8b66 343e 956e f53d
00000030: 58d7 3dbc 3e1c 573e 7e16 e53d 7940 933e
00000040: 3535 8dbe 2f94 8cbe 045e 80be e4e5 75be
00000050: d19a 593d bd47 1f3e a896 51bd 7f30 453d
00000060: 0c4a 86be 9e05 dfbb 8fa3 793d 762b b63e
00000070: 9c23 bf3e ab04 a13d 97a3 283e 082b ae3d
00000080: 4e56 aebe 6b2f 163e c887 58be 4655 bd3e

sequential_1/dense_3/BiasAdd/ReadVariableOp f4 [7]
-0.023751585 0.0010975295 0.0003097314 0.007766513 0.00229457 -0.008904148 -0.0016592032
00000000: af92 c2bc fbda 8f3a 7263 a239 3c7e fe3b
00000010: 7f60 163b b4e2 11bc 9f79 d9ba

sequential_1/dense_2/BiasAdd/ReadVariableOp f4 [64]
0.0013194655 -0.0049607647 -0.0021222415 0.0007411115 -0.002730946 -0.008461714 -7.762664e-05 -0.0047578844
0.00802431 0.0067521282 -0.0013357279 -0.0019829324 0.0041200384 -0.006428967 -0.007085213 -0.0051719723
0.00060759706 0.001350458 -0.0008250367 0.004105529 -0.001060023 -0.0019100062 0.005322866 0.0036440438
0.002805652 -0.004164662 -0.005006224 0.0010323391 -0.009914209 -0.0013260542 -0.0013325263 -0.0035412621
-0.0050386777 -0.0019984774 0.0020210934 7.8803016e-05 -0.0028473567 -0.0036768 -0.005437396 -0.004128214
-0.004362913 -0.0027566087 -0.001887496 -0.0058382517 0.005636138 -0.0015403174 -0.004624894 0.004716699
0.00051431736 0.00023080866 0.004370904 -0.00076834357 -0.009248018 -0.0015743922 -0.0010230042 0.004870975
-0.0032538164 0.0010654768 -0.0042042313 -0.0019249937 -0.005083291 -0.0038372006 -0.003141182 0.0014998473
00000000: eaf1 ac3a e98d a2bb 4e15 0bbb 2747 423a
00000010: acf9 32bb 00a3 0abc 7ccb a2b8 07e8 9bbb
00000020: 6578 033c f540 dd3b 9713 afba 16f4 01bb
00000030: 6301 873b 16aa d2bb 132b e8bb a679 a9bb
00000040: 2647 1f3a da01 b13a 4747 58ba ac87 863b
00000050: 78f0 8aba 2c59 faba 706b ae3b e9d0 6e3b
00000060: 08df 373b b877 88bb 400b a4bb 8d4f 873a
00000070: 356f 22bc ffce adba 2aa8 aeba 8514 68bb
00000080: 7e1b a5bb e3f8 02bb 5274 043b 0c43 a538
00000090: b89a 3abb 78f6 70bb 2f2c b2bb f845 87bb
000000a0: c4f6 8ebb 38a8 34bb db65 f7ba ce4e bfbb
000000b0: 5aaf b83b 7ae4 c9ba 6c8c 97bb 8a8e 9a3b
000000c0: 41d3 063a 3a05 7239 cd39 8f3b aa6a 49ba
000000d0: 0085 17bc d65b ceba 5316 86ba b39c 9f3b
000000e0: fb3d 55bb 78a7 8b3a a6c3 89bb 1250 fcba
000000f0: bc91 a6bb 8b79 7bbb 4adc 4dbb 8696 c43a

sequential_1/batch_normalization_7/FusedBatchNormV3 f4 [2]
0.015667994 0.007886063
00000000: 2a5a 803c 8c34 013c

sequential_1/batch_normalization_7/FusedBatchNormV31 f4 [2]
-0.6135144 -0.6508036
00000000: 480f 1dbf 119b 26bf

sequential_1/batch_normalization_8/FusedBatchNormV3 f4 [2]
4.2853775 4.4455867
00000000: d021 8940 3f42 8e40

sequential_1/batch_normalization_8/FusedBatchNormV31 f4 [2]
-0.9274915 -1.0596054
00000000: 1570 6dbf 26a1 87bf

sequential_1/batch_normalization_9/FusedBatchNormV3 f4 [2]
1.3744313 2.305427
00000000: 5ded af3f 1e8c 1340

sequential_1/batch_normalization_9/FusedBatchNormV31 f4 [2]
-0.6504872 -0.7114262
00000000: 5486 26bf 0720 36bf

sequential_1/batch_normalization_10/FusedBatchNormV3 f4 [2]
1.4501874 2.351604
00000000: be9f b93f ae80 1640

sequential_1/batch_normalization_10/FusedBatchNormV31 f4 [2]
-0.7708735 -1.1687765
00000000: f757 45bf 789a 95bf

sequential_1/batch_normalization_11/FusedBatchNormV3 f4 [2]
1.3018961 1.0164138
00000000: 88a4 a63f d919 823f

sequential_1/batch_normalization_11/FusedBatchNormV31 f4 [2]
-0.8118714 -0.8100542
00000000: ced6 4fbf b65f 4fbf

sequential_1/batch_normalization_12/FusedBatchNormV3 f4 [2]
0.8169241 1.8384818
00000000: f021 513f 5f53 eb3f

sequential_1/batch_normalization_12/FusedBatchNormV31 f4 [2]
-0.6477953 -1.0444466
00000000: ead5 25bf 6db0 85bf

sequential_1/batch_normalization_13/FusedBatchNormV3 f4 [2]
2.5136538 1.6937822
00000000: b4df 2040 dbcd d83f

sequential_1/batch_normalization_13/FusedBatchNormV31 f4 [2]
-0.98370385 -0.8903173
00000000: 04d4 7bbf d6eb 63bf

sequential_1/dense_2/MatMul i1 [64, 3380] scale=0.0005026001 zero_point=0
0.017088404 -0.015078003 0.018596204 -0.028648205 0.025130006 -0.035684608 -0.012565003 -0.0005026001
0.019098803 0.0035182007 0.0075390013 0.017088404 -0.014072803 0.035684608 0.033674207 0.012062402
0.014575403 0.011559802 -0.026135206 -0.016083203 -0.031663805 0.033674207 0.0015078003 -0.005026001
-0.0025130005 -0.0025130005 -0.034679405 0.04071061 0.033674207 0.05076261 -0.019098803 -0.019601405
0.030156005 0.010554602 -0.012062402 0.04674181 -0.020606603 0.038197607 0.04925481 0.011559802
-0.034176808 0.030156005 0.03920281 0.031161206 0.023119604 -0.025130006 0.013067603 -0.016585803
-0.012565003 0.018093605 0.026637806 0.005528601 -0.014072803 0.014575403 -0.0075390013 0.033674207
-0.0070364014 0.012062402 0.005026001 0.021109205 0.04020801 0.021109205 0.044228807 0.0015078003
0.04473141 0.022617005 -0.008544202 0.017088404 0.016585803 0.017088404 -0.0075390013 -0.0065338016
0.023622205 -0.034679405 0.010052002 0.0005026001 0.033674207 -0.037192408 0.0135702025 0.019601405
0.019601405 -0.015580603 -0.032166407 -0.032166407 0.005026001 -0.0015078003 0.014575403 -0.022617005
0.04674181 0.016083203 0.023119604 -0.022617005 -0.032166407 -0.023622205 0.04674181 0.004020801
-0.015078003 0.019098803 0.0020104004 0.031663805 -0.004523401 0.027643006 0.0010052002 -0.011057202
0.032166407 -0.015078003 -0.0020104004 -0.04020801 -0.0135702025 -0.04824961 0.0005026001 -0.027643006
-0.010554602 0.031161206 -0.031161206 0.0025130005 0.039705407 0.026135206 0.014575403 0.028145606
-0.027140405 0.052270412 0.032669008 -0.011559802 -0.018093605 0.0025130005 0.05478341 -0.024627404
-0.04473141 0.028145606 0.033171605 -0.014575403 0.05026001 -0.04020801 0.0010052002 0.020104004
-0.034176808 0.010052002 -0.05578861 -0.020606603 0.011057202 -0.0025130005 0.012565003 -0.028648205
0.030658606 0.015078003 0.008544202 -0.024627404 -0.033171605 -0.016083203 -0.023622205 -0.018596204
0.03618721 -0.04372621 0.0020104004 0.024124805 0.025632605 -0.008041602 0.04020801 0.038700208
-0.011559802 -0.03920281 -0.034679405 -0.024124805 0.024124805 -0.010052002 0.020606603 0.0035182007
-0.026135206 0.012565003 0.037192408 0.006031201 0.0075390013 -0.025130006 -0.027140405 0.028145606
0.04523401 -0.031663805 0.0070364014 -0.020606603 -0.011057202 -0.042721007 0.009046802 -0.013067603
0.033674207 -0.03618721 0.015580603 -0.034176808 -0.038700208 0.021611804 -0.04322361 -0.012565003
-0.04774701 0.016083203 -0.014072803 -0.026135206 0.0010052002 0.0025130005 -0.04020801 0.009046802
0.014072803 -0.032166407 -0.014072803 0.023622205 0.04071061 0.008544202 0.0075390013 -0.012565003
-0.021611804 -0.038700208 -0.04020801 -0.04171581 -0.004523401 -0.020606603 -0.017591003 -0.025130006
0.0070364014 0.018596204 0.031161206 -0.0065338016 -0.010052002 0.032669008 0.028648205 -0.034176808
0.04071061 0.041213207 0.023622205 0.028145606 -0.012062402 0.033674207 0.035182007 0.023622205
-0.029150806 -0.035182007 -0.014575403 -0.014072803 0.025632605 0.025632605 0.035684608 -0.0075390013
0.029150806 0.032166407 0.032669008 0.021109205 0.033171605 -0.005026001 -0.018093605 0.015580603
0.028648205 0.030658606 0.036689807 0.036689807 0.011057202 -0.0030156006 -0.021611804 -0.014072803
00000000: 22e2 25c7 32b9 e7ff 2607 0f22 e447 4318
00000010: 1d17 cce0 c143 03f6 fbfb bb51 4365 dad9
00000020: 3c15 e85d d74c 6217 bc3c 4e3e 2ece 1adf
00000030: e724 350b e41d f143 f218 0a2a 502a 5803
00000040: 592d ef22 2122 f1f3 2fbb 1401 43b6 1b27
00000050: 27e1 c0c0 0afd 1dd3 5d20 2ed3 c0d1 5d08
00000060: e226 043f f737 02ea 40e2 fcb0 e5a0 01c9
00000070: eb3e c205 4f34 1d38 ca68 41e9 dc05 6dcf
00000080: a738 42e3 64b0 0228 bc14 91d7 16fb 19c7
00000090: 3d1e 11cf bee0 d1db 48a9 0430 33f0 504d
000000a0: e9b2 bbd0 30ec 2907 cc19 4a0c 0fce ca38
000000b0: 5ac1 0ed7 eaab 12e6 43b8 1fbc b32b aae7
000000c0: a120 e4cc 0205 b012 1cc0 e42f 5111 0fe7
000000d0: d5b3 b0ad f7d7 ddce 0e25 3ef3 ec41 39bc
000000e0: 5152 2f38 e843 462f c6ba e3e4 3333 47f1
000000f0: 3a40 412a 42f6 dc1f 393d 4949 16fa d5e4
