saved_model/quantized_models/layers5/trial1/paramcount977091.tflite (tflite, 996960 bytes, 24 tensors)

sequential_8/dense_17/MatMul f4 [7, 64]
0.07498151 0.2588206 -0.10359339 -0.21459205 0.1663167 0.22827025 -0.021651441 -0.15052477
-0.2952776 -0.19617435 0.20921719 0.073804714 0.16521606 -0.18523833 0.040960986 0.16289687
-0.06797437 -0.22326167 0.05883539 0.19571899 -0.2986254 -0.20288561 -0.27137658 0.1308876
0.12579608 -0.072114035 0.26469094 0.016748771 0.10653662 -0.20865798 -0.089854345 0.070009775
-0.26805133 0.11623891 0.23813434 -0.28795266 0.27211756 -0.019810798 0.019793121 0.0008732247
-0.0885543 -0.17750272 -0.07311759 0.116818585 0.25390235 0.24579875 0.13622135 0.27856427
-0.029818127 -0.1254363 0.030928023 -0.17674369 -0.14352214 0.057843607 0.17399609 0.28418183
0.2219751 -0.014572802 -0.29178363 -0.21096995 -0.011061962 -0.21396847 0.062356826 -0.2503298
0.15928988 -0.07115835 -0.136624 0.2278656 0.020041285 -0.1433112 -0.075116135 -0.26200384
0.10641812 -0.046837647 0.24804105 0.0893324 0.26395047 0.1740154 -0.24775197 -0.094569914
-0.09786522 0.11368006 0.1465392 0.14092445 0.2555539 -0.0077976435 -0.17097776 -0.13033436
0.15941732 0.16948636 0.15263781 -0.2542488 -0.04331546 -0.2734742 -0.28449583 0.2102145
0.16722746 -0.21013044 -0.13293356 0.17175104 0.035208233 -0.10482215 0.012201816 0.19736005
0.13494813 0.08464006 -0.27336955 0.21926798 0.2823317 -0.098667085 -0.018180182 -0.006722442
0.2675003 -0.04006123 0.112517945 0.2587995 0.023794929 0.24306732 -0.16482197 0.23819974
0.18462199 -0.23299372 0.27840617 0.04915455 0.21406302 -0.28502324 -0.12646164 0.20262162
-0.050749876 0.034173325 -0.16440725 0.062542245 0.22064412 0.02190069 0.21476755 -0.23175454
0.16207993 0.12366443 -0.20237687 -0.10069231 0.27261132 0.275551 0.14082919 -0.03672651
0.030010011 -0.04711502 0.047714554 -0.11785544 0.15403585 0.10667727 -0.09833656 0.02244229
0.16414578 0.084523074 -0.23858368 -0.25864378 -0.00041412347 -0.29162064 -0.029538583 0.003474073
-0.17892075 -0.09223558 -0.11241942 -0.20603472 0.005360232 0.28104055 -0.24951611 -0.0033308247
0.068607144 0.27346283 0.1606444 -0.01756296 0.051692076 -0.22381775 -0.07976501 -0.16789813
-0.090968266 -0.21846785 -0.15307735 0.13115731 -0.15461658 -0.25859144 -0.23617294 -0.25836304
-0.020589536 -0.053357426 0.0513907 0.24553858 -0.2631898 0.18273827 0.05771799 -0.07744417
-0.12623185 -0.152513 -0.27588966 0.047717966 -0.095634036 -0.118740745 0.0021392743 0.2381635
0.076379195 -0.010585365 -0.0016272939 -0.25886804 -0.18478335 0.24361141 -0.18952076 0.14233376
0.24300916 -0.24379174 0.28043935 -0.1805014 -0.23442979 -0.2470646 0.2408307 -0.15836267
-0.029182632 -0.0653292 0.084696226 0.21635178 0.07326387 0.26951358 -0.14355744 0.19312118
0.12999354 0.009058672 -0.15877429 0.20435828 -0.27052483 0.22161873 -0.19471265 -0.18870004
-0.15507402 0.039576206 0.11530246 0.27523047 -0.19738689 0.1789955 0.2893493 -0.038088623
-0.28940597 0.06596575 0.08381852 -0.06869249 0.07362183 0.0035146312 0.13209714 0.0439704
0.024134543 -0.05191944 0.0833789 0.2747095 0.03134914 0.063486695 -0.014592275 -0.2105497
00000000: e88f 993d 2284 843e c528 d4bd 05be 5bbe
00000010: ed4e 2a3e adbf 693e 5d5e b1bc 2a23 1abe
00000020: a02e 97be eee1 48be 083d 563e ed26 973d
00000030: 662e 293e 1eaf 3dbe b5c6 273d 70ce 263e
00000040: 2636 8bbd b59e 64be 61fd 703d 8f6a 483e
00000050: 6ee5 98be 3fc1 4fbe dff1 8abe 6607 063e
00000060: b0d0 003e 86b0 93bd 9285 873e b834 893c
00000070: df2f da3d 70aa 55be 8e05 b8bd 4961 8f3d
00000080: 063e 89be aa0e ee3d 7dd9 733e 886e 93be
00000090: fe52 8b3e 414a a2bc 2f25 a23c 1ee9 643a
000000a0: f55b b5bd 46c3 35be adbe 95bd 953e ef3d
000000b0: 7dff 813e abb2 7b3e 9c7d 0b3e fa9f 8e3e
000000c0: 2545 f4bc 6072 00be c45c fd3c 4cfc 34be
000000d0: 78f7 12be 6bed 6c3d 082c 323e 4880 913e
000000e0: 714d 633e c3c2 6ebc aa64 95be 8208 58be
000000f0: 3b3d 35bc 8d1a 5bbe df69 7f3d 3a2b 80be
00000100: e31c 233e 78bb 91bd 29e7 0bbe 9a55 693e
00000110: 9f2d a43c 2cc0 12be 7dd6 99bd 5e25 86be
00000120: bef1 d93d d5d8 3fbd 79fe 7d3e e8f3 b63d
00000130: 8424 873e 1831 323e b1b2 7dbe dfad c1bd
00000140: 8f6d c8bd 17d1 e83d 5f0e 163e 804e 103e
00000150: f6d7 823e 6083 ffbb cb14 2fbe 5f76 05be
00000160: 4b3e 233e d58d 2d3e 164d 1c3e e62c 82be
00000170: 8d6b 31bd cf04 8cbe 70a9 91be 7842 573e
00000180: ad3d 2b3e 6f2c 57be bc1f 08be 81df 2f3e
00000190: 8236 103d ffac d6bd 20ea 473c c118 4a3e
000001a0: d82f 0a3e c557 ad3d 18f7 8bbe c987 603e
000001b0: c88d 903e f811 cabd 9bee 94bc ee47 dcbb
000001c0: cdf5 883e 3f17 24bd cf6f e63d 5e81 843e
000001d0: 95ed c23c a4e6 783e 17c7 28be a2ea 733e
000001e0: 8c0d 3d3e e895 6ebe 418b 8e3e 4856 493d
000001f0: 5633 5b3e 91ee 91be 297f 01be 0b7c 4f3e
00000200: 1adf 4fbd 54f9 0b3d 605a 28be 2616 803d
00000210: 88f0 613e 1369 b33c 06ec 5b3e 1051 6dbe
00000220: 48f8 253e c743 fd3d e23b 4fbe c537 cebd
00000230: b693 8b3e 0515 8d3e 8735 103e 896e 16bd
00000240: 8ed7 f53c aefb 40bd 5670 433d 315e f1bd
00000250: 93bb 1d3e 9d79 da3d ae64 c9bd e5d8 b73c
00000260: d515 283e 6f1a ad3d 484f 74be f56c 84be
00000270: b61e d9b9 4d4f 95be e6fa f1bc 46ad 633b
00000280: 0037 37be 02e6 bcbd 273c e6bd c4fa 52be
00000290: e3a4 af3b 8ce4 8f3e 2781 7fbe f749 5abb
000002a0: e781 8c3d 5203 8c3e f77f 243e 32e0 8fbc
000002b0: 12bb 533d 7b30 65be d65b a3bd 7ded 2bbe
000002c0: 924d babd 09b6 5fbe 4fc0 1cbe 1a4e 063e
000002d0: cf53 1ebe 1966 84be 52d7 71be 2948 84be
000002e0: 63ab a8bc 518d 5abd 0e7f 523d 776e 7b3e
000002f0: d0c0 86be be1f 3b3e b369 6c3d 0d9b 9ebd
00000300: ec42 01be 5e2c 1cbe 6941 8dbe ea73 433d
00000310: c7db c3bd 592e f3bd 1133 0c3b 22e1 733e
00000320: b26c 9c3d 3d6e 2dbc ec4a d5ba 5a8a 84be
00000330: d937 3dbe 4575 793e bb11 42be f1bf 113e
00000340: 65d7 783e 8ba4 79be bf95 8f3e 5cd5 38be
00000350: 5d0e 70be 81fe 7cbe 539c 763e d329 22be
00000360: 6a10 efbc 51cb 85bd 3775 ad3d 528b 5d3e
00000370: 5e0b 963d affd 893e b900 13be 8fc1 453e
00000380: 071d 053e d36a 143c ba95 22be 4c43 513e
00000390: 3b82 8abe 05f0 623e c162 47be 953a 41be
000003a0: b9cb 1ebe a91a 223d b223 ec3d 02eb 8c3e
000003b0: ca1f 4abe 994a 373e 9725 943e d102 1cbd
000003c0: 052d 94be 0d19 873d 0ba9 ab3d a6ae 8cbd
000003d0: 0bc7 963d ba55 663b 7944 073e 4e1a 343d
000003e0: ceb5 c53c 7ba9 54bd 8fc2 aa3d b9a6 8c3e
000003f0: f567 003d 5005 823d 7014 6fbc 579a 57be

sequential_8/conv2d_40/BiasAdd/ReadVariableOp f4 [9]
0.0072883135 -0.003620204 0.0056752297 -0.011832096 -0.012662345 -0.00862036 -0.004383903 -0.0010345537
-0.0018834756
00000000: ced2 ee3b f240 6dbb 47f7 b93b 68db 41bc
00000010: b975 4fbc 693c 0dbc d8a6 8fbb dd99 87ba
00000020: f4de f6ba

sequential_8/conv2d_41/BiasAdd/ReadVariableOp f4 [9]
0.001458271 0.0009082589 -0.0039818566 -0.0030507818 0.0045212326 0.006447997 0.007554478 0.006458646
-0.0039297305
00000000: 7523 bf3a 3918 6e3a 3c7a 82bb a0ef 47bb
00000010: d926 943b b849 d33b 8e8b f73b 0da3 d33b
00000020: f8c4 80bb

sequential_8/conv2d_42/BiasAdd/ReadVariableOp f4 [9]
0.011997003 -0.006344392 -0.004140362 -0.006829168 -0.0059189014 0.0033011998 0.00047279402 0.0026462637
0.0014907637
00000000: 148f 443c 9ee4 cfbb e0ab 87bb 37c7 dfbb
00000010: 58f3 c1bb f158 583b 57e1 f739 f06c 2d3b
00000020: bb65 c33a

sequential_8/conv2d_43/BiasAdd/ReadVariableOp f4 [9]
-0.0002346031 0.0058159432 -0.0030956785 0.00485188 0.006007918 0.017512536 -0.008594252 -0.0001318556
0.0107216975
00000000: caff 75b9 ab93 be3b dee0 4abb 85fc 9e3b
00000010: 12de c43b 7376 8f3c e8ce 0cbc b842 0ab9
00000020: 0faa 2f3c

sequential_8/conv2d_44/BiasAdd/ReadVariableOp f4 [9]
-0.008106468 -0.0124043 -0.014089674 -0.0049444954 0.011450806 -0.006804146 -0.00093024806 -0.00051561266
-0.004028391
00000000: fed0 04bc 683b 4bbc 60d8 66bc 6f05 a2bb
00000010: 299c 3b3c 50f5 debb e4db 73ba 2e2a 07ba
00000020: 9800 84bb

sequential_8/conv2d_40/Conv2D f4 [9, 3, 3, 1]
-0.17529961 0.051860064 0.16377334 0.24907653 -0.042936385 -0.09318084 0.07823426 0.06684958
-0.23799112 0.07707198 -0.071541876 0.009363677 -0.021062342 -0.051706146 0.16499719 -0.1927266
0.06479987 0.06152815 0.03500836 0.1693691 -0.049665492 0.041747753 -0.03226574 -0.095029935
0.22707525 0.02234717 0.22468275 0.22553569 -0.072952256 0.061339654 -0.06199642 -0.10087841
-0.0419714 0.14987406 -0.10827342 0.09096204 0.21025704 0.15956809 -0.17752871 -0.14086333
0.07025423 -0.11683841 -0.042879798 0.18450572 0.082525805 -0.14013034 -0.19134077 0.21784447
-0.11156828 0.122584805 -0.014645027 0.06344138 0.063676246 0.021277443 -0.019231973 -0.19522946
-0.25053862 -0.108352736 0.06565304 0.22633603 -0.15374278 0.099293165 0.11760773 0.19786319
0.07874 0.20097494 -0.045554392 -0.20704886 0.0063577853 0.08353208 0.0009545118 0.0487179
0.031084029 0.21011207 0.030847223 0.1540065 -0.2489518 -0.1600447 -0.22467682 0.106696345
-0.008548185
00000000: be81 33be 386b 543d 33b4 273e eb0d 7f3e
00000010: 10de 2fbd 99d5 bebd 4939 a03d 6fe8 883d
00000020: f2b3 73be ead7 9d3d 8c84 92bd 1c6a 193c
00000030: ef8a acbc d3c9 53bd 06f5 283e 1f5a 45be
00000040: cbb5 843d f104 7c3d ed64 0f3d 186f 2d3e
00000050: 0b6e 4bbd b1ff 2a3d 1529 04bd 0e9f c2bd
00000060: 6a86 683e 6a11 b73c 3c13 663e d4f2 663e
00000070: fe67 95bd 4a3f 7b3d f5ef 7dbd 5799 cebd
00000080: 34ea 2bbd 9678 193e 74be ddbd 4e4a ba3d
00000090: 9f4d 573e d165 233e 16ca 35be 7a3e 10be
000000a0: 73e1 8f3d fa48 efbd baa2 2fbd 11ef 3c3e
000000b0: 4a03 a93d 547e 0fbe d6ee 43be 9f12 5f3e
000000c0: e97d e4bd be0d fb3d b2f1 6fbc 8eed 813d
000000d0: b168 823d 084e ae3c 5f8c 9dbc 3bea 47be
000000e0: 9946 80be 0ae8 ddbd 1a75 863d a2c4 673e
000000f0: bf6e 1dbe 375a cb3d 52dc f03d a69c 4a3e
00000100: 7042 a13d 60cc 4d3e 3e97 3abd 9e04 54be
00000110: f854 d03b de12 ab3d 3438 7a3a 6c8c 473d
00000120: efa3 fe3c 9e27 573e 51b3 fc3c e1b3 1d3e
00000130: 38ed 7ebe c2e2 23be ae11 66be 9d83 da3d
00000140: b00d 0cbc

sequential_8/conv2d_41/Conv2D f4 [9, 3, 3, 9]
0.042122245 -0.044751853 0.1420501 0.13685027 0.13298175 -0.14686835 -0.18685628 0.014334959
-0.12671503 0.14058033 -0.04177055 -0.033555474 -0.11557291 -0.11761769 0.0015603357 0.05164034
-0.092778556 -0.17443316 -0.02503702 -0.13270137 0.050755143 0.06565746 -0.032784086 0.006680093
-0.16053392 -0.06011459 -0.13647187 0.045480322 0.17900392 -0.06490029 0.16810265 0.17074761
0.07482739 -0.05545508 -0.13129292 -0.17886567 0.038007826 0.0113218 0.06524931 -0.13948509
0.033962484 -0.18778785 -0.031113833 0.027152352 0.060618524 0.089246266 -0.0612372 -0.004772731
0.004600918 0.16903165 0.08565589 -0.092764 0.12745467 0.16342567 0.016989173 -0.059055854
-0.06735714 0.008500461 -0.025422938 -0.02786661 0.16564871 -0.029485859 -0.006533791 0.046921846
-0.16386059 -0.19399478 0.16585408 0.0690611 0.17494912 0.17457034 -0.121657506 0.13942352
0.11275639 0.13714543 -0.17015006 0.08060598 -0.1529445 -0.03408408 -0.12369317 0.07130746
0.045399927 -0.19773653 0.036218356 -0.08952046 0.16626202 -0.06300926 -0.07845349 -0.04232033
-0.0054973024 -0.07383871 -0.048812732 -0.062516026 -0.16306376 -0.0034935821 0.14656109 -0.05433027
0.05051852 0.03322862 -0.14473826 0.012810989 -0.12622884 -0.093185894 0.16564617 0.13165395
0.03039298 -0.11709373 -0.118861236 0.15417275 -0.11334986 0.16571979 -0.08258099 0.10419905
-0.03440133 0.1743631 0.11645494 0.13635142 0.011393355 -0.1828925 -0.16823983 -0.17288822
0.0043793474 -0.07364279 0.030114068 0.13632368 -0.034746625 0.1338138 0.06869369 0.013031394
0.14366269 -0.08358354 -0.012857831 0.17689514 -0.17025985 0.11381514 0.051589604 0.06111295
0.006696902 -0.08144083 0.09050204 0.13577424 0.00433035 0.017543146 -0.17747204 -0.1978706
-0.09305542 -0.15947355 0.0026527515 -0.038016886 0.09793797 0.117580995 -0.08850005 0.1631923
-0.03049832 -0.14342463 -0.15267125 0.1568837 0.073050834 -0.003240837 -0.025692267 -0.11300438
0.13878025 -0.044663005 0.1495771 0.14305264 0.13667557 -0.0741797 -0.16909112 0.048855416
-0.041368496 0.17521425 0.19053447 0.11223332 -0.08802466 0.056110755 0.15211515 -0.04341021
0.082678184 -0.16474064 0.04528915 -0.09760977 0.14661567 0.103799365 0.12600419 0.049454886
-0.15412675 0.022258742 -0.02935277 0.15146662 -0.07542513 -0.036706574 -0.06778752 -0.029296992
-0.09803241 -0.13689308 -0.1536832 0.12528843 -0.12526517 0.18182443 0.052734993 -0.14260072
0.03174319 0.08194751 0.17415455 -0.07240279 0.19131218 0.021480385 0.031760152 -0.0018746065
-0.07813436 -0.061228678 0.110951476 -0.019424854 -0.11991616 -0.15838204 0.091702804 -0.15236953
0.18010798 0.02362265 0.16012257 -0.16117214 0.03593896 -0.101397656 0.17674842 -0.06600227
0.16605102 0.14343189 0.16637711 0.11551482 -0.027276697 -0.18005615 0.055844214 0.1713618
0.0033412676 0.045709856 0.16776237 0.041459396 0.02296491 0.031951834 0.10998829 0.09968125
-0.12881301 0.18965575 -0.123959415 -0.07103756 0.101186834 0.02519256 0.098448224 0.11446438
-0.0060340306 0.07376341 0.043391388 0.047676913 0.16084278 0.10182238 -0.017067982 0.12422909
00000000: 6088 2c3d b84d 37bd 9575 113e 7a22 0c3e
00000010: 5e2c 083e a864 16be 4157 3fbe 2ddd 6a3c
00000020: 96c1 01be 4af4 0f3e 9917 2bbd 7771 09bd
00000030: 7db1 ecbd 8be1 f0bd 2e84 cc3a d284 533d
00000040: af02 bebd 9b9e 32be 701a cdbc dee2 07be
00000050: a0e4 4f3d 6b77 863d 9b48 06bd aee4 da3b
00000060: 0163 24be b73a 76bd 48bf 0bbe 9349 3a3d
00000070: ce4c 373e 71ea 84bd 1a23 2c3e 76d8 2e3e
00000080: 1a3f 993d de24 63bd a771 06be 9028 37be
00000090: 18ae 1b3d 127f 393c 6ea1 853d 2ed5 0ebe
000000a0: 3f1c 0b3d 754b 40be 70e2 febc 9c6e de3c
000000b0: 214b 783d bfc6 b63d dcd3 7abd 9264 9cbb
000000c0: 4cc3 963b a216 2d3e 5b6c af3d 0dfb bdbd
000000d0: 7a83 023e 0f59 273e e12c 8b3c 8de4 71bd
000000e0: 8af2 89bd 8445 0b3c c443 d0bc 8448 e4bc
000000f0: d19f 293e 548c f1bc 6919 d6bb 1f31 403d
00000100: 12cb 27be 91a6 46be a7d5 293e e86f 8d3d
00000110: dd25 333e 91c2 323e 9227 f9bd 0ac5 0e3e
00000120: d2ec e63d da6f 0c3e d13b 2ebe bf14 a53d
00000130: 7c9d 1cbe c09b 0bbd d852 fdbd a509 923d
00000140: 46f5 393d 727b 4abe b359 143d 8156 b7bd
00000150: 9740 2a3e 000b 81bd 39ac a0bd 1558 2dbd
00000160: b722 b4bb c038 97bd dcef 47bd 6708 80bd
00000170: 30fa 26be 95f4 64bb 1c14 163e 6b89 5ebd
00000180: 82ec 4e3d bc1a 083d 4436 14be 2fe5 513c
00000190: 2242 01be 3fd8 bebd 269f 293e 4bd0 063e
000001a0: b3fa f83c d6ce efbd 856d f3bd 76df 1d3e
000001b0: f923 e8bd 73b2 293e 3920 a9bd 5066 d53d
000001c0: 69e8 0cbd 3e8c 323e ed7f ee3d b59f 0b3e
000001d0: 32ab 3a3c 2c48 3bbe 1047 2cbe 9c09 31be
000001e0: a180 8f3b 08d2 96bd c7b1 f63c 6f98 0b3e
000001f0: 7a52 0ebd 7c06 093e 47af 8c3d a181 553c
00000200: 501c 133e d92d abbd a7a9 52bc 0024 353e
00000210: 9958 2ebe ea17 e93d 9f4f 533d 9351 7a3d
00000220: b071 db3b 73ca a6bd 2259 b93d 6708 0b3e
00000230: 9ce5 8d3b a5b6 8f3c 3bbb 35be 979e 4abe
00000240: d793 bebd 094d 23be c9d9 2d3b 98b7 1bbd
00000250: b493 c83d 4ece f03d 843f b5bd e21b 273e
00000260: 9dd7 f9bc e8dd 12be da55 1cbe 1fa6 203e
00000270: ad9b 953d 3964 54bb 9778 d2bc d76e e7bd
00000280: 691c 0e3e 8ef0 36bd bd2a 193e 647c 123e
00000290: aef4 0b3e 87eb 97bd 3926 2dbe 9e1c 483d
000002a0: 0372 29bd 5d6b 333e 781b 433e 95da e53d
000002b0: 4646 b4bd 64d4 653d 13c4 1b3e e8ce 31bd
000002c0: 2e53 a93d c5b1 28be 1e81 393d a2e7 c7bd
000002d0: 6b22 163e c394 d43d 3e07 013e 3591 4a3d
000002e0: 67d3 1dbe f757 b63c 3875 f0bc 111a 1b3e
000002f0: 7e78 9abd a259 16bd 2fd4 8abd 3f00 f0bc
00000300: 37c5 c8bd b32d 0cbe 215f 1dbe 9c4b 003e
00000310: 8345 00be 2f30 3a3e a600 583d ec05 12be
00000320: 2605 023d 19d4 a73d 9255 323e ea47 94bd
00000330: 57e7 433e a2f7 af3c ef16 023d 5bb5 f5ba
00000340: e804 a0bd ecca 7abd 873a e33d df20 9fbc
00000350: 9b96 f5bd e72e 22be aece bb3d c206 1cbe
00000360: 3a6e 383e 4a84 c13c 2cf7 233e 4f0a 25be
00000370: bb34 133d 93a9 cfbd 8afd 343e 332c 87bd
00000380: 4709 2a3e cfdf 123e c35e 2a3e 0993 ec3d
00000390: 6173 dfbc a460 38be e7bc 643d 7879 2f3e
000003a0: 2bf9 5a3b 423a 3b3d e6c9 2b3e 54d1 293d
000003b0: e820 bc3c eddf 023d 8a41 e13d af25 cc3d
000003c0: 8fe7 03be 1e35 423e 6fde fdbd 247c 91bd
000003d0: 0b3b cf3d a160 ce3c 399f c93d 4d6c ea3d
000003e0: 1eb9 c5bb 4511 973d 2bbb 313d de48 433d
000003f0: f8b3 243e 4188 d03d 27d2 8bbc d26b fe3d

sequential_8/conv2d_42/Conv2D f4 [9, 3, 3, 9]
-0.1094722 0.14727658 -0.12819846 -0.15097785 0.08010917 0.13678369 0.113891974 0.15151733
0.15046157 0.00897706 -0.05802185 -0.085356206 0.040119953 -0.14038081 -0.16179718 0.16922702
0.10962497 -0.16151366 -0.037301775 0.0149812475 -0.13591689 -0.19366112 0.17117748 0.14484113
-0.08945461 0.12770744 -0.19355223 -0.12456704 -0.0755371 -0.14909616 -0.1820763 -0.19098827
-0.10412852 -0.025083415 -0.18182239 -0.024678718 0.15188411 -0.06716312 -0.06158663 0.029391514
-0.0390282 0.057320803 0.15355426 0.1314402 0.11080303 0.14278282 0.047189116 0.08848066
0.07869613 0.1694061 -0.059910826 -0.081027254 -0.0800195 0.0014850146 0.04127211 0.044079375
0.12238626 0.041755043 -0.061640047 -0.037109595 0.012543766 0.070088975 -0.04530559 0.10241309
-0.038484644 0.15156619 -0.19165698 -0.023131125 -0.19852385 0.072128646 -0.0016760014 -0.17671941
0.041140985 -0.021599492 0.1403015 0.10746547 -0.16550256 0.07097115 -0.06542993 -0.10245047
-0.10994665 -0.06139363 0.029320644 -0.07581472 -0.056815397 -0.12730148 -0.10486719 -0.08582774
-0.14982174 0.14565109 -0.10363728 -0.14514427 -0.10399752 -0.03800251 0.059376914 -0.04838484
0.0744691 -0.06984876 0.095046125 -0.027468076 0.15307154 -0.1617559 -0.1545301 0.12492336
-0.17657153 -0.13348405 -0.10504438 -0.123234466 0.17862102 0.15967546 0.13362965 -0.16750395
0.005129652 -0.1793472 0.053077918 -0.12262685 -0.06614125 -0.014721074 0.14061058 -0.1887826
0.14539266 -0.11247402 -0.14787745 -0.100251205 0.19387622 -0.06396815 0.024091523 0.0803293
-0.17437048 -0.095236406 -0.140923 0.0097452765 0.031171529 0.027884029 0.13637967 -0.1687179
0.02093866 -0.09469254 0.14646572 -0.01578181 -0.028400306 0.09241228 -0.15326762 0.049045026
-0.17637748 0.027361479 -0.101676725 -0.042205255 0.13334912 -0.05269714 -0.11579752 0.06891922
-0.036514454 0.09470943 -0.15141916 0.0514222 -0.13667363 -0.065585144 0.11137383 -0.043107152
0.1266408 -0.009072995 -0.002704425 -0.19420595 0.015428647 0.1172254 -0.14316222 0.10753529
0.10148329 -0.14373285 -0.058752548 0.031463232 0.077220045 0.052498486 0.09279586 -0.06820846
-0.09380151 -0.06880761 -0.19131342 0.16287096 0.09711925 -0.16806896 0.0079107415 0.11758412
-0.044950925 0.07005426 0.027746456 -0.05948863 -0.031446114 0.016409518 0.06499965 0.117196664
-0.0764237 -0.17098229 0.08619088 0.17408851 -0.18252333 -0.1725366 0.08146196 0.031716924
0.09725272 0.11512523 0.16211417 -0.1797396 -0.0009945332 0.13334897 0.14805372 0.0132608125
-0.08182059 0.048972767 0.14812739 -0.07964387 -0.05540048 -0.16201903 0.1404678 -0.0050339894
0.092224404 -0.04442812 -0.045839176 0.09442313 0.08316495 -0.16248941 0.00020446288 -0.07084912
0.18902315 -0.112423934 0.099547684 0.07793731 0.02919499 0.03653728 0.060908865 0.09010474
-0.11937282 0.04887447 0.062338106 -0.06742736 -0.17911829 -0.06918705 -0.1682864 -0.11736358
0.12910837 -0.03610021 0.18398592 -0.15600021 -0.18198 0.07323387 -0.08605207 0.03825368
0.1806069 -0.13060202 0.046262804 -0.1508785 -0.15930587 0.03811234 -0.09208174 -0.07538457
00000000: f632 e0bd accf 163e 7546 03be f099 1abe
00000010: 4710 a43d 0611 0c3e 3240 e93d 5c27 1b3e
00000020: 9912 1a3e 8514 133c 52a8 6dbd 3ccf aebd
00000030: d254 243d fdbf 0fbe 29ae 25be d949 2d3e
00000040: 0e83 e03d d663 25be bfc9 18bd e873 753c
00000050: cc2d 0bbe 1a4f 46be 2649 2f3e 3c51 143e
00000060: fb33 b7bd bdc5 023e 8e32 46be 011d ffbd
00000070: 32b3 9abd aaac 18be 3672 3abe 6e92 43be
00000080: 5541 d5bd bc7b cdbc a62f 3abe 062b cabc
00000090: 8287 1b3e d18c 89bd 4342 7cbd 79c6 f03c
000000a0: 09dc 1fbd 38c9 6a3d 543d 1d3e 4398 063e
000000b0: b3ec e23d a935 123e 6049 413d 5935 b53d
000000c0: 702b a13d cb78 2d3e 0e65 75bd 9ef1 a5bd
000000d0: 43e1 a3bd d2a4 c23a f20c 293d 938c 343d
000000e0: a6a5 fa3d 5607 2b3d 467a 7cbd 3b00 18bd
000000f0: 5e84 4d3c cf8a 8f3d 5b92 39bd f4bd d13d
00000100: 13a2 1dbd 2b34 1b3e ba41 44be 7c7d bdbc
00000110: d649 4bbe 2fb8 933d 46ad dbba eff5 34be
00000120: 7383 283d 6bf1 b0bc 32ab 0f3e db16 dc3d
00000130: 8179 29be 5359 913d 2100 86bd 8dd1 d1bd
00000140: b62b e1bd e377 7bbd d931 f03c bf44 9bbd
00000150: 43b7 68bd 525b 02be 9cc4 d6bd 74c6 afbd
00000160: df6a 19be 8f25 153e c83f d4bd b3a0 14be
00000170: a7fc d4bd 85a8 1bbd 3535 733d 2f2f 46bd
00000180: 4183 983d de0c 8fbd 8ba7 c23d bb04 e1bc
00000190: c9be 1c3e 57a3 25be 233d 1ebe d2d7 ff3d
000001a0: 2bcf 34be 0bb0 08be 8221 d7bd 5a62 fcbd
000001b0: 6ee8 363e f781 233e 36d6 083e 2886 2bbe
000001c0: a416 a83b cba6 37be 3b68 593d c923 fbbd
000001d0: 1075 87bd a930 71bc 38fc 0f3e 3a50 41be
000001e0: d0e1 143e c758 e6bd 306d 17be 8150 cdbd
000001f0: 7d87 463e bc01 83bd 965b c53c b083 a43d
00000200: 2d8e 32be 4e0b c3bd 1e4e 10be a7aa 1f3c
00000210: 6f5b ff3c 0c6d e43c 1da7 0b3e 63c4 2cbe
00000220: 8d87 ab3c 2aee c1bd 1cfb 153e db48 81bc
00000230: c2a7 e8bc a642 bd3d 30f2 1cbe 70e3 483d
00000240: 4c9c 34be 2e25 e03c e33b d0bd 6bdf 2cbd
00000250: ac8c 083e f5d8 57bd 4027 edbd 8525 8d3d
00000260: 2e90 15bd 05f7 c13d a00d 1bbe 16a0 523d
00000270: 2cf4 0bbe 8151 86bd f617 e43d 2091 30bd
00000280: 20ae 013e e6a6 14bc b93c 31bb eddd 46be
00000290: 70c8 7c3c df13 f03d 1e99 12be 763b dc3d
000002a0: 79d6 cf3d b42e 13be 83a6 70bd 97df 003d
000002b0: 8b25 9e3d a708 573d c10b be3d e1b0 8bbd
000002c0: 021b c0bd 01eb 8cbd aae7 43be a5c7 263e
000002d0: 75e6 c63d 451a 2cbe 0e9c 013c f1cf f03d
000002e0: 761e 38bd 9c78 8f3d 894c e33c 5aaa 73bd
000002f0: a4cd 00bd 416d 863c 891e 853d ce04 f03d
00000300: 0784 9cbd fb15 2fbe d884 b03d 4244 323e
00000310: 65e7 3abe 6fad 30be 87d5 a63d 9be9 013d
00000320: 6f2c c73d c7c6 eb3d 4201 263e a80d 38be
00000330: ff5a 82ba a28c 083e 659b 173e e143 593c
00000340: 8e91 a7bd ab97 483d b5ae 173e 531c a3bd
00000350: 9deb 62bd 51e8 25be cad6 0f3e 2af4 a4bb
00000360: 26e0 bc3d 43fa 35bd dcc1 3bbd ea60 c13d
00000370: 6352 aa3d a063 26be 1665 5639 5819 91bd
00000380: 498f 413e 853e e6bd a8df cb3d 999d 9f3d
00000390: 552a ef3c 1da8 153d 937b 793d d588 b83d
000003a0: bd79 f4bd 9930 483d 3e56 7f3d 5b17 8abd
000003b0: c96a 37be f1b1 8dbd 4553 2cbe 515c f0bd
000003c0: fc34 043e d0dd 13bd ce66 3c3e 85be 1fbe
000003d0: f758 3abe a4fb 953d 113c b0bd e4af 1c3d
000003e0: 04f1 383e 89bc 05be 117e 3d3d e57f 1abe
000003f0: 1421 23be af1b 1c3d 5a95 bcbd 3a63 9abd

sequential_8/conv2d_43/Conv2D f4 [9, 3, 3, 9]
0.10603519 -0.123600625 0.15551434 0.047814753 -0.113391064 0.17302963 0.012636841 0.010153462
-0.04394677 0.10146803 -0.123570256 0.1767124 0.050449662 -0.004029493 -0.15104531 0.07215885
0.055207517 0.16900599 -0.13149758 0.038482897 -0.009259599 -0.0064113345 0.07490862 0.10560253
-0.17718138 -0.17697138 0.02439763 0.15350038 0.034534093 -0.18151875 -0.1632807 -0.15893067
0.16010971 -0.08993771 -0.15744439 0.12797321 0.17760961 0.092286356 -0.00236117 -0.014901636
0.09223078 0.123757936 -0.17816421 -0.15224268 -0.031174773 -0.025496883 0.09220858 -0.1658393
-0.062885664 0.16464385 0.04328802 -0.1413748 -0.09302169 -0.1494383 0.121794656 0.08514551
-0.030222798 -0.10249773 -0.15537512 -0.08728834 -0.17901297 -0.15094277 -0.071533225 -0.029697215
0.123679265 0.0814011 0.0023236624 0.08028505 -0.007081321 -0.024334934 -0.1042317 -0.09362789
0.17721388 -0.16187878 0.14111686 0.087414384 0.19607915 -0.1701408 0.08962251 -0.055983964
0.12874222 0.14439899 0.16308273 0.0063365963 0.027772386 0.16297823 0.15122695 -0.02819271
-0.11897404 -0.1401497 -0.11270871 0.13738126 0.020725006 -0.1153758 0.03199735 0.030141674
0.062811434 0.14202607 0.09224429 0.06642629 -0.05633148 0.043670785 0.117617935 0.033289388
-0.1067925 -0.08557973 0.1686234 -0.072728544 -0.11653579 -0.08306975 0.022027448 0.010915045
0.05198745 -0.16282646 -0.106989 -0.120533936 -0.15742311 0.13249815 -0.16160493 0.08657075
-0.17042285 -0.117101245 -0.09470626 -0.13370588 0.16030791 0.074868746 -0.092944235 -0.059432887
0.08564329 0.0814616 -0.20128022 0.09286229 -0.08140142 -0.16946127 0.05970951 0.049506243
0.048916694 0.08744601 -0.18309274 0.09734565 0.18502581 0.009704857 0.011066546 -0.051431
0.0986945 0.108111404 -0.029182116 0.035814617 -0.10224642 0.1208762 -0.08227966 0.053647492
0.1592556 0.03960971 0.10006074 -0.15283018 0.09918899 -0.16107424 -0.015439775 -0.17810526
-0.14312677 -0.05720241 0.15292862 -0.07522547 -0.04619942 0.11069554 0.068481915 0.023797588
0.009545851 -0.12983845 0.13599059 0.06368329 -0.15707311 -0.16176462 -0.0593572 -0.12561996
0.16817062 -0.07841585 0.067428336 0.1528814 -0.04988713 0.0652523 0.13193648 0.089206025
-0.06491102 0.106499046 0.037334386 0.15648878 -0.03915305 -0.14712852 0.072963886 0.18965134
-0.020964246 0.11517612 0.13385534 -0.00831091 -0.072334625 0.11220018 -0.13497418 0.04515649
-0.17727311 0.010113345 -0.08079984 0.16465685 0.17113842 -0.06442588 0.074347556 -0.12571393
0.026459528 -0.10697064 -0.15327087 0.087478586 0.14597335 -0.18629646 0.08145289 -0.14632376
-0.026865909 0.015491988 -0.03796826 -0.018730467 0.18158369 0.182116 0.11175571 0.1854177
-0.119881235 0.04881904 -0.17796773 0.19157235 -0.100560784 0.041305486 0.13027349 0.10290356
-0.121489026 -0.12720262 0.06332149 -0.048018344 0.106060036 -0.1022381 0.13665795 0.016595716
0.029709456 0.031394 -0.026056858 0.09675479 0.082356565 -0.0018341446 -0.119930774 -0.008836181
0.14859046 -0.1508379 0.08752268 -0.06491071 0.1410721 -0.06763895 0.03117136 0.05619004
00000000: fa28 d93d 5322 fdbd 273f 1f3e 67d9 433d
00000010: 9339 e8bd ae2e 313e c10a 4f3c b55a 263c
00000020: 8701 34bd 78ce cf3d 6712 fdbd 18f4 343e
00000030: 4ea4 4e3d d609 84bb 9fab 1abe 05c8 933d
00000040: 4721 623d e80f 2d3e 4da7 06be 3ea0 1d3d
00000050: 93b5 17bc 2c16 d2bb b169 993d 2446 d83d
00000060: 096f 35be fc37 35be 8add c73c 342f 1d3e
00000070: 9f73 0d3d 0de0 39be 0e33 27be b9be 22be
00000080: cdf3 233e 4331 b8bd 1a39 21be 690b 033e
00000090: 4bdf 353e a100 bd3d dcbd 1abb fe25 74bc
000000a0: 7ee3 bc3d cd74 fd3d ae70 36be 81e5 1bbe
000000b0: 3d62 ffbc d7de d0bc dad7 bc3d c7d1 29be
000000c0: 33ca 80bd 6698 283e c74e 313d 8ec4 10be
000000d0: 2882 bebd 5b06 19be 7a6f f93d c560 ae3d
000000e0: cd95 f7bc 54ea d1bd a81a 1fbe 3bc4 b2bd
000000f0: 2d4f 37be be90 1abe 0380 92bd 9347 f3bc
00000100: 8e4b fd3d 9fb5 a63d 9648 183b 7d6c a43d
00000110: 6d0a e8bb 0e5a c7bc 6e77 d5bd fbbf bfbd
00000120: 8e77 353e 8dc3 25be f080 103e 5006 b33d
00000130: f9c8 483e 6439 2ebe 028c b73d 714f 65bd
00000140: 00d5 033e 54dd 133e 29ff 263e 39a3 cf3b
00000150: ea82 e33c c4e3 263e 3ddb 1a3e 66f4 e6bc
00000160: a9a8 f3bd 6783 0fbe d3d3 e6bd acad 0c3e
00000170: 7dc7 a93c 264a ecbd a70f 033d aceb f63c
00000180: 48a3 803d 486f 113e 93ea bc3d 820a 883d
00000190: d7bb 66bd 23e0 323d ace1 f03d 745a 083d
000001a0: 07b6 dabd 6d44 afbd 9dab 2c3e b4f2 94bd
000001b0: 51aa eebd 7920 aabd e872 b43c 04d5 323c
000001c0: cbf0 543d fbbb 26be 0d1d dbbd 7fda f6bd
000001d0: 8633 21be 98ad 073e c37b 25be 014c b13d
000001e0: 5483 2ebe c7d2 efbd 5bf5 c1bd 32ea 08be
000001f0: c227 243e c954 993d 8c59 bebd e66f 73bd
00000200: c065 af3d 57d5 a63d 671c 4ebe 962e be3d
00000210: cab5 a6bd 4187 2dbe f691 743d 0fc7 4a3d
00000220: df5c 483d e516 b33d aa7c 3bbe 285d c73d
00000230: 6877 3d3e 1f01 1f3c 7550 353c 50a9 52bd
00000240: 5820 ca3d 8369 dd3d 550f efbc 59b2 123d
00000250: 9266 d1bd f18d f73d 3d82 a8bd 79bd 5b3d
00000260: e613 233e cb3d 223d a5ec cc3d 847f 1cbe
00000270: 9923 cb3d a5f0 24be 1cf7 7cbc 3a61 36be
00000280: d38f 12be 134d 6abd 5299 1c3e d00f 9abd
00000290: 9a3b 3dbd 58b4 e23d 3f40 8c3d 29f3 c23c
000002a0: 3366 1c3c 5ff4 04be 1e41 0b3e 626c 823d
000002b0: c6d7 20be a0a5 25be 8920 73bd 85a2 00be
000002c0: eb34 2c3e 7d98 a0bd de17 8a3d f18c 1c3e
000002d0: 7256 4cbd ffa2 853d 5b1a 073e a6b1 b63d
000002e0: 12f0 84bd 2c1c da3d f1eb 183d 983e 203e
000002f0: f35e 20bd dca8 16be 176e 953d f633 423e
00000300: 36bd abbc 75e1 eb3d 6011 093e 7c2a 08bc
00000310: 2d24 94bd 35c9 e53d ac36 0abe 03f6 383d
00000320: 1587 35be 72b2 253c 637a a5bd ce9b 283e
00000330: e93e 2f3e b7f1 83bd 8843 983d 27bb 00be
00000340: a7c1 d83c 6c13 dbbd 0af3 1cbe f927 b33d
00000350: 0a7a 153e 80c4 3ebe c6d0 a63d e5d5 15be
00000360: e515 dcbc 1bd2 7d3c 9b84 1bbd a370 99bc
00000370: 13f1 393e 9e7c 3a3e 2de0 e43d 23de 3d3e
00000380: 4b84 f5bd 79f6 473d 2c3d 36be 8b2b 443e
00000390: d0f2 cdbd f12f 293d 6a66 053e 1abf d23d
000003a0: 3dcf f8bd 6741 02be b3ae 813d e2ae 44bd
000003b0: 0136 d93d 3562 d1bd 10f0 0b3e bdf3 873c
000003c0: 3f61 f33c ff96 003d 3175 d5bc 6027 c63d
000003d0: 8faa a83d ae67 f0ba 449e f5bd a1c5 10bc
000003e0: 1928 183e 4075 1abe 173f b33d e8ef 84bd
000003f0: 3475 103e 4a86 8abd 145b ff3c 8727 663d

sequential_8/conv2d_44/Conv2D f4 [9, 3, 3, 9]
-0.17781438 0.008898782 0.14905289 -0.12093304 -0.16897322 0.04856583 0.14906724 -0.09535783
0.14559275 -0.100600876 0.1420401 0.038911417 -0.01525348 -0.1141331 -0.019140832 -0.14785276
-0.11888636 0.15683152 0.07501808 0.18964882 -0.111885436 -0.01809489 0.019173628 -0.12557428
-0.034069553 -0.17555483 0.14519837 -0.1638831 -0.060728207 -0.114891045 -0.08399181 -0.15047413
0.1477511 -0.13888289 -0.115483776 -0.032402985 0.13537794 0.080588445 -0.17623238 -0.14540862
0.118957035 -0.11255586 0.109723926 -0.13043876 -0.1305983 0.09136115 0.12847286 0.1684259
0.07364099 0.12841061 0.15977776 -0.055493385 -0.12380292 -0.04218253 -0.15421815 -0.04162566
-0.17452458 -0.14015216 0.085202485 0.09435293 -0.19258809 -0.056995466 0.008769974 0.19276273
-0.13385212 -0.04844621 0.09699391 0.028237663 0.1037354 0.13710843 -0.13494964 -0.022028798
-0.0006144726 -0.046120174 -0.10442241 0.012616718 -0.14108458 -0.1876938 -0.07833961 0.0012114467
0.1361435 -0.10378535 -0.052340098 0.14481913 -0.029054675 0.04024842 0.003917044 0.15546776
0.1534305 -0.033564556 -0.031053776 0.1595864 -0.022009999 0.0831493 -0.07170152 -0.11460535
0.15360264 -0.03799297 0.0071692113 -0.036407508 -0.008801288 0.09419045 -0.03930046 0.17654079
-0.17671323 0.030902516 -0.105751224 0.17278028 -0.020639554 0.040574323 0.14543039 0.031425614
0.051070265 -0.05392529 0.06254854 0.06135271 -0.08102337 -0.080455005 0.05517963 0.16768153
0.11711094 0.018526802 -0.14367053 -0.021909142 -0.13321316 0.093847 0.079052486 0.09807721
0.11409432 -0.052137487 -0.079202436 -0.17916541 0.16107558 -0.046102695 -0.13377516 -0.08304014
-0.11407586 -0.102705605 -0.19595805 -0.1103812 -0.11324017 0.18259099 -0.024238188 0.08711742
0.073492 -0.09806094 -0.115654334 0.19161147 -0.110238165 -0.15294607 0.037640207 -0.07114837
-0.12544273 -0.12123383 -0.15452304 0.15582839 0.19218108 -0.1694288 -0.036882162 0.17016098
-0.14750373 -0.13832863 -0.13867769 0.071534514 -0.16167709 -0.090298004 0.19786246 0.042729996
-0.17725094 0.1715523 0.17690034 0.10941029 0.18115343 0.17991398 0.05249704 -0.09950602
-0.1824022 0.1752059 -0.1522109 0.00081053464 -0.14231831 0.16363594 -0.10874133 -0.15667355
-0.071376614 -0.06463675 0.012372646 0.073643684 -0.11012073 -0.18293905 -0.13622525 0.13090228
0.1036846 0.17530876 0.17744316 0.017020386 0.11194805 -0.06209612 -0.088731565 -0.056128398
-0.047587268 -0.09139983 -0.05640212 -0.066007316 0.005565201 0.0066779177 -0.022329891 -0.08127151
-0.11860818 -0.07472949 -0.07647404 -0.12948802 0.099519834 -0.16025501 -0.15858908 0.020679763
0.18633625 -0.15130822 0.1110606 -0.13921586 -0.07089918 0.11241756 0.07028666 0.15819627
0.06514908 -0.012931479 0.02008949 -0.00022796987 -0.1573853 0.00308736 0.0940384 -0.15187852
-0.17957799 -0.04116331 -0.0014890746 -0.13261035 0.084425494 0.13814048 -0.18233989 -0.0047515924
-0.029158494 0.047236416 0.026874747 0.0069226217 0.08772416 -0.08480577 0.18446942 -0.18056804
-0.16655296 0.033260014 0.020515703 -0.111245155 0.12848346 0.13044004 0.024409847 0.14960688
00000000: f914 36be 32cc 113c 52a1 183e beab f7bd
00000010: 5107 2dbe f7ec 463d 15a5 183e f74a c3bd
00000020: 4416 153e d507 cebd f672 113e 9461 1f3d
00000030: bbe9 79bc 9dbe e9bd 3ccd 9cbc b766 17be
00000040: b17a f3bd 7198 203e 14a3 993d 4d33 423e
00000050: 3124 e5bd bc3b 94bc 0312 9d3c 8b96 00be
00000060: 848c 0bbd a5c4 33be e2ae 143e f9d0 27be
00000070: 24be 78bd ff4b ebbd e603 acbd e415 1abe
00000080: 104c 173e 5137 0ebe c282 ecbd feb8 04bd
00000090: 84a0 0a3e 8e0b a53d 4376 34be ffe5 14be
000000a0: bf9f f33d b083 e6bd f0b6 e03d bd91 05be
000000b0: 90bb 05be 8e1b bb3d 648e 033e d777 2c3e
000000c0: 16d1 963d 127e 033e c89c 233e 084d 63bd
000000d0: 638c fdbd 97c7 2cbd 5deb 1dbe ab7f 2abd
000000e0: 92b6 32be 0c84 0fbe a47e ae3d 1c3c c13d
000000f0: d035 45be 1474 69bd f0af 0f3c 9863 453e
00000100: 8810 09be 886f 46bd bea4 c63d ac52 e73c
00000110: 3a73 d43d 2766 0c3e 3d30 0abe bd75 b4bc
00000120: 8f14 21ba 82e8 3cbd 6bdb d5bd 5ab6 4e3c
00000130: 7a78 10be ce32 40be 8470 a0bd 68c9 9e3a
00000140: 3469 0b3e 6a8d d4bd 9262 56bd 774b 143e
00000150: 1204 eebc 87db 243d 8c5a 803b f132 1f3e
00000160: e31c 1d3e fd7a 09bd 7d64 febc 9e6a 233e
00000170: 504e b4bc 2e4a aa3d 3fd8 92bd 36b6 eabd
00000180: 034a 1d3e 849e 1bbd b4eb ea3b 0a20 15bd
00000190: 4733 10bc ece6 c03d 85f9 20bd 1cc7 343e
000001a0: 50f4 34be 4627 fd3c 1994 d8bd 50ed 303e
000001b0: 4814 a9bc 4331 263d b4eb 143e 25b8 003d
000001c0: 0e2f 513d c4e0 5cbd 7319 803d fb4c 7b3d
000001d0: 95ef a5bd 98c5 a4bd 0904 623d b5b4 2b3e
000001e0: dcd7 ef3d 85c5 973c 5e1e 13be cd7a b3bc
000001f0: 0869 08be db32 c03d 45e6 a13d b4dc c83d
00000200: 48aa e93d 1e8e 55bd e334 a2bd 2377 37be
00000210: fff0 243e 2ed6 3cbd 5bfc 08be f310 aabd
00000220: 9ba0 e9bd 5157 d2bd 3aa9 48be 8a0f e2bd
00000230: 76ea e7bd 22f9 3a3e 2a8f c6bc 9e6a b23d
00000240: f982 963d 2dd4 c8bd 2edc ecbd cc35 443e
00000250: 8cc4 e1bd e59d 1cbe 9e2c 1a3d 3db6 91bd
00000260: 0f74 00be 7149 f8bd 4a3b 1ebe 7a91 1f3e
00000270: 1ecb 443e be7e 2dbe c011 17bd ae3e 2e3e
00000280: 380b 17be 05a6 0dbe 8601 0ebe b080 923d
00000290: ae8e 25be 29ee b8bd 759c 4a3e a605 2f3d
000002a0: 4581 35be 68ab 2f3e 5d25 353e 8112 e03d
000002b0: 4980 393e 5f3b 383e 2307 573d d0c9 cbbd
000002c0: a4c7 3abe 2d69 333e 2ddd 1bbe 0f7a 543a
000002d0: e4bb 11be 2e90 273e c6b3 debd 086f 20be
000002e0: e72d 92bd 4660 84bd a3b6 4a3c 80d2 963d
000002f0: fa86 e1bd 6054 3bbe a27e 0bbe 3f0b 063e
00000300: 9758 d43d 2484 333e a9b3 353e 566e 8b3c
00000310: 0545 e53d 8058 7ebd e5b8 b5bd e4e6 65bd
00000320: deea 42bd d62f bbbd e905 67bd d82e 87bd
00000330: 4a5c b63b 6fd2 da3b 2ded b6bc ad71 a6bd
00000340: d8e8 f2bd c60b 99bd 6c9e 9cbd 8298 04be
00000350: 0ed1 cb3d e419 24be 2d65 22be 9b68 a93c
00000360: eece 3e3e 8bf0 1abe bd73 e33d 9a8e 0ebe
00000370: 9733 91bd 2d3b e63d 74f2 8f3d 34fe 213e
00000380: e16c 853d 8ede 53bc b792 a43c 320b 6fb9
00000390: 9d29 21be 4e55 4a3b 3497 c03d 0b86 1bbe
000003a0: 4be3 37be dc9a 28bd 0d2d c3ba 02cb 07be
000003b0: 46e7 ac3d b374 0d3e 4fb7 3abe 3fb3 9bbb
000003c0: cbdd eebc f97a 413d 6e28 dc3c 29d7 e23b
000003d0: b9a8 b33d a6ae adbd 8de5 3c3e d4e6 38be
000003e0: dc8c 2abe a73b 083d 8c10 a83c 80d4 e3bd
000003f0: 2b91 033e 1392 053e 29f7 c73c 8c32 193e

sequential_8/dense_17/BiasAdd/ReadVariableOp f4 [7]
-0.01963924 -0.0007174783 0.0010565385 0.003111982 0.00036650538 -0.001129342 -0.0013723675
00000000: 79e2 a0bc 2715 3cba 8d7b 8a3a 65f2 4b3b
00000010: 8527 c039 6e06 94ba 03e1 b3ba

sequential_8/dense_16/BiasAdd/ReadVariableOp f4 [64]
-0.006887756 -0.0022111903 -0.0011664529 -0.0010727487 -0.00056391675 -0.0018381173 0.0015849986 0.0012463592
-0.0016241403 0.00029157993 -0.0076858057 -0.0030248673 -0.0007504755 0.00039230526 -0.006366685 0.00021866735
-0.0013264628 -0.0026916694 -0.0022315287 -0.0049669915 -0.0027510193 -0.002109726 -0.0010271646 -0.0008148211
-0.0057576415 -0.00046188995 -0.0037410778 0.00034250887 -0.0015867816 -0.00034445108 0.0011866323 -0.006367629
-0.0037196337 0.00036128587 -0.0018271895 0.0007538443 -0.0034781308 0.0015575166 -0.00375532 -0.0009120007
-0.0010616266 -0.0017549762 -0.0012318686 -0.0028841333 -0.0035989776 -0.0026621614 0.00093040994 -0.0046073855
-0.0034118379 9.2593815e-05 -0.0031998057 -0.0031883277 -0.0025807885 -0.0034719575 0.0020774053 -0.0057997154
-0.0027020152 0.00063695945 -0.00020640081 -0.0015371125 -0.0044787745 -0.0022574037 -0.00011078686 -0.0007244381
00000000: afb2 e1bb 9ee9 10bb aae3 98ba 799b 8cba
00000010: d0d3 13ba fbec f0ba babf cf3a e05c a33a
00000020: 1be1 d4ba 32df 9839 36d9 fbbb da3c 46bb
00000030: 8fbb 44ba 52ae cd39 a09f d0bb 124a 6539
00000040: b5dc adba b866 30bb d73e 12bb 25c2 a2bb
00000050: 724a 34bb 5443 0abb eda1 86ba b899 55ba
00000060: 99aa bcbb d229 f2b9 df2c 75bb c392 b339
00000070: 8efb cfba 7197 b4b9 c688 9b3a 8ba7 d0bb
00000080: 19c5 73bb f86a bd39 4e7e efba a29d 453a
00000090: 5af1 63bb 9625 cc3a d11b 76bb 5513 6fba
000000a0: 4726 8bba 3b07 e6ba a776 a1ba ba03 3dbb
000000b0: d3dc 6bbb a877 2ebb c1e6 733a 8df9 96bb
000000c0: 2499 5fbb ed2e c238 d5b3 51bb 43f3 50bb
000000d0: 7222 29bb c889 63bb 1425 083b 8a0b bebb
000000e0: 4b14 31bb a0f9 263a 4c6d 58b9 f078 c9ba
000000f0: afc2 92bb f3f0 13bb 3e56 e8b8 38e8 3dba

sequential_8/batch_normalization_40/FusedBatchNormV3 f4 [9]
0.14040565 0.036011226 0.06300342 0.019611713 0.037375204 0.025996018 0.019051448 0.035025872
0.08588256
00000000: 80c6 0f3e 8280 133d f007 813d bea8 a03c
00000010: be16 193d 9af5 d43c c811 9c3c 4a77 0f3d
00000020: 32e3 af3d

sequential_8/batch_normalization_40/FusedBatchNormV31 f4 [9]
-0.94943684 -0.6153202 -1.0170199 -0.7113314 -0.8427617 -0.5767363 -0.58594203 -0.919667
-0.7731
00000000: 4b0e 73bf a085 1dbf b52d 82bf d119 36bf
00000010: 3bbf 57bf fda4 13bf 4c00 16bf 4c6f 6bbf
00000020: e2e9 45bf

sequential_8/batch_normalization_41/FusedBatchNormV3 f4 [9]
2.3618338 1.8239254 0.6530712 0.9871667 2.3504388 1.4008455 3.4232697 2.8220513
2.3825934
00000000: 4928 1740 6376 e93f ad2f 273f f5b6 7c3f
00000010: 976d 1640 e84e b33f da16 5b40 7d9c 3440
00000020: 697c 1840

sequential_8/batch_normalization_41/FusedBatchNormV31 f4 [9]
-0.7589986 -0.824695 -0.62276757 -0.6877995 -0.983911 -0.6030421 -0.9688658 -0.90815914
-1.6425123
00000000: bb4d 42bf 361f 53bf b26d 1fbf a113 30bf
00000010: 97e1 7bbf f860 1abf 9707 78bf 1e7d 68bf
00000020: d83d d2bf

sequential_8/batch_normalization_42/FusedBatchNormV3 f4 [9]
1.892047 1.6984109 0.90521514 1.0649067 2.19995 1.9194825 1.4436654 2.4123147
2.0584016
00000000: 992e f23f 8765 d93f 2ebc 673f dd4e 883f
00000010: fbcb 0c40 9ab1 f53f 07ca b83f 5d63 1a40
00000020: dabc 0340

sequential_8/batch_normalization_42/FusedBatchNormV31 f4 [9]
-0.9891056 -1.2938845 -0.6759506 -0.7292505 -1.2830671 -1.1838384 -0.8424555 -1.0555441
-0.92292756
00000000: 0636 7dbf 029e a5bf 190b 2dbf 29b0 3abf
00000010: 8b3b a4bf 0488 97bf 2aab 57bf 121c 87bf
00000020: fb44 6cbf

sequential_8/batch_normalization_43/FusedBatchNormV3 f4 [9]
0.9917947 1.884988 1.1784437 2.2136927 1.2336057 1.9624798 2.1752355 1.509971
1.0619103
00000000: 42e6 7d3f 4947 f13f 3ed7 963f 24ad 0d40
00000010: cbe6 9d3f 8a32 fb3f 0f37 0b40 bb46 c13f
00000020: adec 873f

sequential_8/batch_normalization_43/FusedBatchNormV31 f4 [9]
-0.79541034 -0.8178336 -0.9347172 -1.0597662 -0.7509094 -1.0014797 -0.7977666 -0.7785667
-0.774343
00000000: 03a0 4bbf 8b5d 51bf a049 6fbf 6ba6 87bf
00000010: 993b 40bf 7d30 80bf 6f3a 4cbf 2650 47bf
00000020: 583b 46bf

sequential_8/batch_normalization_44/FusedBatchNormV3 f4 [9]
1.5383999 1.4472896 1.4645026 1.5794744 1.0369596 2.608091 1.7031187 1.0567453
2.3266895
00000000: 4aea c43f c940 b93f d274 bb3f 382c ca3f
00000010: 18bb 843f f7ea 2640 cbff d93f 6e43 873f
00000020: 7be8 1440

sequential_8/batch_normalization_44/FusedBatchNormV31 f4 [9]
-1.13934 -1.013319 -1.1557015 -0.83010167 -0.7064314 -1.065748 -1.1144626 -0.65059
-0.88589776
00000000: e5d5 91bf 70b4 81bf 07ee 93bf 8b81 54bf
00000010: b0d8 34bf 6e6a 88bf b6a6 8ebf 118d 26bf
00000020: 32ca 62bf

sequential_8/dense_16/MatMul i1 [64, 15210] scale=0.00029558415 zero_point=0
0.0062072673 -0.0056160986 0.01773505 0.0085719405 0.0014779207 -0.0062072673 0.0085719405 -0.011823365
0.0047293464 -0.013301287 0.0023646732 0.0073896036 -0.0029558414 -0.018917385 0.009754277 0.013892455
-0.0038425939 0.013005703 0.0044337623 0.011527781 0.022464395 -0.0023646732 -0.0023646732 -0.012414535
-0.0014779207 0.014779207 -0.0053205146 -0.008276356 0.007980772 0.017439464 -0.025420237 -0.009458693
0.0121189505 0.0076851877 -0.0186218 -0.009458693 0.015074791 -0.0005911683 -0.010641029 0.014188039
-0.011232197 0.016552713 -0.013301287 -0.0017735049 0.007980772 0.002069089 -0.013596871 -0.02364673
-0.0056160986 0.009163109 -0.011232197 -0.016257128 0.009458693 -0.0050249305 0.0038425939 0.013301287
-0.008276356 0.018326217 0.009754277 -0.0053205146 0.019804139 0.0056160986 -0.0026602573 0.012710119
-0.014188039 -0.0085719405 0.013596871 -0.0065028514 0.018326217 0.015074791 -0.0186218 0.016257128
0.016848296 -0.013596871 -0.015074791 -0.014188039 -0.013005703 0.0005911683 0.014779207 -0.019804139
-0.017143881 -0.0076851877 0.016257128 0.019804139 0.0065028514 0.010049861 0.016552713 0.010641029
-0.012414535 0.016257128 -0.0085719405 0.012414535 0.020099722 0.0085719405 -0.0050249305 -0.0047293464
0.011232197 0.009754277 0.0038425939 0.0044337623 0.013596871 0.015074791 -0.009754277 0.010641029
-0.010936613 -0.010049861 -0.0085719405 -0.0067984355 -0.0186218 -0.0017735049 0.015961545 -0.009163109
-0.014483623 0.008276356 -0.0047293464 0.011232197 0.013892455 0.0065028514 -0.004138178 0.023055563
-0.0065028514 -0.012710119 0.0032514257 0.0032514257 0.01921297 -0.021577643 0.010345445 0.00029558415
0.022168811 -0.0056160986 -0.0067984355 0.00088675244 0.012414535 0.01921297 -0.014779207 0.021282058
-0.0014779207 0.010049861 -0.0011823366 -0.023351148 0.0023646732 0.021873226 0.004138178 0.0059116827
-0.0121189505 0.0029558414 -0.00029558415 0.009163109 0.002069089 0.022464395 -0.012414535 -0.019804139
-0.024533484 -0.011527781 0.014779207 -0.012710119 -0.013892455 -0.015074791 -0.013005703 0.002069089
-0.00029558415 -0.00088675244 -0.0067984355 0.002069089 0.0026602573 -0.015961545 0.0153703755 -0.008276356
-0.012710119 0.0017735049 -0.008276356 0.007980772 0.011527781 -0.016257128 0.011527781 0.0038425939
0.020986475 0.013596871 -0.016552713 0.0059116827 0.013892455 0.009163109 -0.0029558414 0.010345445
0.013596871 -0.011527781 -0.019508554 -0.0017735049 0.0076851877 0.022464395 -0.013596871 0.0011823366
0.013005703 -0.0065028514 0.010641029 0.010049861 -0.007980772 -0.018326217 0.0005911683 0.0062072673
-0.016848296 -0.019508554 0.0029558414 0.0062072673 0.008867525 -0.0044337623 -0.021577643 0.009163109
-0.0153703755 0.0070940196 -0.0085719405 0.013301287 -0.008276356 0.008867525 0.01566596 0.01566596
0.0035470098 0.02069089 -0.010936613 0.008276356 -0.012414535 -0.013596871 -0.010936613 -0.02275998
-0.011232197 -0.004138178 0.021577643 0.023942316 -0.0085719405 0.009163109 -0.012710119 -0.00088675244
-0.019804139 0.008867525 -0.004138178 -0.0029558414 0.0026602573 0.009754277 -0.011527781 0.019508554
0.010641029 0.013005703 -0.0059116827 0.02275998 0.0038425939 -0.0059116827 -0.007980772 -0.0121189505
0.0121189505 -0.009163109 -0.002069089 0.014188039 0.010641029 0.0029558414 -0.0121189505 -0.021282058
00000000: 15ed 3c1d 05eb 1dd8 10d3 0819 f6c0 212f
00000010: f32c 0f27 4cf8 f8d6 fb32 eee4 1b3b aae0
00000020: 291a c1e0 33fe dc30 da38 d3fa 1b07 d2b0
00000030: ed1f dac9 20ef 0d2d e43e 21ee 4313 f72b
00000040: d0e3 2eea 3e33 c137 39d2 cdd0 d402 32bd
00000050: c6e6 3743 1622 3824 d637 e32a 441d eff0
00000060: 2621 0d0f 2e33 df24 dbde e3e9 c1fa 36e1
00000070: cf1c f026 2f16 f24e ead5 0b0b 41b7 2301
00000080: 4bed e903 2a41 ce48 fb22 fcb1 084a 0e14
00000090: d70a ff1f 074c d6bd add9 32d5 d1cd d407
000000a0: fffd e907 09ca 34e4 d506 e41b 27c9 270d
000000b0: 472e c814 2f1f f623 2ed9 befa 1a4c d204
000000c0: 2cea 2422 e5c2 0215 c7be 0a15 1ef1 b71f
000000d0: cc18 e32d e41e 3535 0c46 db1c d6d2 dbb3
000000e0: daf2 4951 e31f d5fd bd1e f2f6 0921 d942
000000f0: 242c ec4d 0dec e5d7 29e1 f930 240a d7b8
