saved_model/quantized_models/layers5/trial1/paramcount217031.tflite (tflite, 228008 bytes, 24 tensors)

sequential_1/dense_3/MatMul f4 [7, 64]
0.16211972 0.04616856 0.07745047 -0.11076503 -0.26795033 0.21186115 0.14486477 -0.08510734
-0.2961171 0.08200382 -0.22280295 0.08423055 0.16872764 0.10958277 -0.11457768 -0.03989938
-0.039364457 0.20490015 -0.008876824 -0.071384616 0.05787807 0.1720358 0.23473139 -0.24178067
-0.30130678 -0.16968301 -0.006451749 0.00041438424 0.19718033 -0.18315928 0.20143098 0.051260512
0.16718648 -0.27792603 -0.30145717 -0.03795091 -0.16667707 0.047895048 -0.11058961 -0.022679992
-0.19819582 -0.15534589 -0.04645683 -0.29114965 -0.27768105 0.06637618 0.2510457 0.1537284
-0.11508394 -0.08359782 -0.31595293 0.033135716 0.22296582 -0.054546382 0.075217195 0.013210929
0.024172936 -0.17095515 0.012874078 -0.014228249 -0.049810506 -0.2473327 -0.23859988 0.0654204
-0.14010875 -0.080051765 0.046104312 0.23294573 -0.26306012 0.11910706 -0.072870746 -0.07833136
-0.08198335 0.041924812 0.009246205 0.04857572 0.09606093 -0.12762937 0.2512121 -0.3004852
-0.07049043 0.057754602 0.03923054 -0.10872694 -0.24482211 -0.08382816 0.22901669 0.052045755
0.1258178 0.21318795 0.14952818 0.21553773 0.102096714 -0.015659714 -0.04569341 0.14409286
0.100019306 0.08067553 -0.16465327 -0.21648435 -0.25701636 0.21793611 0.096963346 -0.25526544
-0.0155682815 0.07537379 -0.04379138 -0.22821526 0.20611057 -0.18973899 0.0010515423 -0.066889346
-0.1761064 0.01998628 0.27722606 0.018032894 -0.21403185 -0.28914678 0.04519201 0.10113916
-0.033487894 0.19416445 -0.17468484 -0.104690865 1.2030301e-05 0.23399077 0.24806614 -0.085261226
0.10730904 -0.25658554 -0.05581925 0.012531725 0.050550446 -0.12863526 -0.09637979 -0.14656983
0.25836226 -0.02223885 -0.2930507 -0.10353591 0.2526456 0.251716 0.21169852 0.13378964
-0.16833113 -0.014045656 0.19192104 0.1893925 0.13372564 -0.065971635 -0.09286716 0.27927902
0.19967571 0.13754466 -0.2168145 -0.1569859 0.021659374 0.23612389 -0.052212786 0.056057446
0.1506063 0.056924853 -0.020952303 -0.18316704 0.009917722 -0.037078205 -0.021505924 -0.21679941
0.19027936 -0.25750113 -0.046858806 0.21291699 0.12005053 -0.15816155 -0.09095669 -0.21888678
0.23336191 0.2067871 0.19720484 -0.28142765 -0.1966267 0.12704138 -0.0061978446 -0.25509107
0.24839884 -0.15554506 -0.14417684 0.14455138 0.21541992 0.19199985 0.2140928 -0.035797708
-0.1144182 0.2007128 0.18403982 -0.26422963 0.25558835 -0.27738237 -0.061438795 -0.25911823
0.270157 -0.25259408 -0.07591316 -0.29640692 -0.02360728 0.08291453 0.15054306 0.03089804
-0.08066198 -0.26091743 -0.03241491 0.088900805 0.052919853 -0.19729635 -0.18756509 0.13519822
-0.21144867 -0.27920792 -0.087814994 0.14687017 0.008398295 -0.18918036 0.21540539 -0.21505386
-0.21714 -0.17716444 0.0071148598 0.11425543 0.1452541 -0.16909583 -0.2666982 0.20586866
0.1873689 0.1950201 0.09862421 0.20049909 -0.08485951 -0.00832595 -0.18350822 0.16518776
-0.04123518 -0.050094943 0.15126514 -0.12231495 0.25925085 -0.030440478 0.17801078 0.23120227
0.11995528 0.19282383 -0.2078915 -0.11634213 0.09962337 -0.15909472 -0.2479744 -0.13510211
00000000: b602 263e 3e1b 3d3d 5a9e 9e3d c7d8 e2bd
00000010: c930 89be 21f2 583e 6e57 143e c24c aebd
00000020: a99c 97be 9ef1 a73d 7526 64be 1181 ac3d
00000030: f0c6 2c3e ee6c e03d b4a7 eabd 886d 23bd
00000040: a03c 21bd 58d1 513e 1970 11bc 1932 92bd
00000050: 8e11 6d3d 272a 303e 6d5d 703e 5a95 77be
00000060: e244 9abe 62c1 2dbe 3169 d3bb b641 d939
00000070: a4e9 493e 1b8e 3bbe ec43 4e3e 8bf6 513d
00000080: ef32 2b3e 524c 8ebe 9858 9abe 6a72 1bbd
00000090: 65ad 2abe 992d 443d ce7c e2bd 64cb b9bc
000000a0: d8f3 4abe fe12 1fbe 8449 3ebd 9111 95be
000000b0: 362c 8ebe 3cf0 873d 1089 803e fa6a 1d3e
000000c0: 21b1 ebbd 5535 abbd 95c4 a1be 51b9 073d
000000d0: 2751 643e 076c 5fbd 790b 9a3d a772 583c
000000e0: 5206 c63c de0e 2fbe cced 523c 9a1d 69bc
000000f0: 1a06 4cbd c944 7dbe 8753 74be 21fb 853d
00000100: ab78 0fbe 2ef2 a3bd e0d7 3c3d 5389 6e3e
00000110: d1af 86be 67ee f33d 423d 95bd 316c a0bd
00000120: e3e6 a7bd 5ab9 2b3d 657d 173c 56f7 463d
00000130: 98bb c43d 46b1 02be df9e 803e 32d9 99be
00000140: 495d 90bd 1790 6c3d 34b0 203d 3bac debd
00000150: a6b2 7abe 19ae abbd 5a83 6a3e ee2d 553d
00000160: 62d6 003e f14d 5a3e ea1d 193e ecb5 5c3e
00000170: 1518 d13d cd48 80bc 0329 3bbd 148d 133e
00000180: ecd6 cc3d 3639 a53d de9a 28be 13ae 5dbe
00000190: a697 83be a52a 5f3e b894 c63d 27b2 82be
000001a0: 1b12 7fbc 935d 9a3d 975e 33bd 43b1 69be
000001b0: a60e 533e f04a 42be e8d3 893a 48fd 88bd
000001c0: 3c55 34be 44ba a33c 93f0 8d3e b8b9 933c
000001d0: 2a2b 5bbe 0c0b 94be 421b 393d 0c22 cf3d
000001e0: 9a2a 09bd 0cd3 463e 95e0 32be 2a68 d6bd
000001f0: c0d5 4937 479b 6f3e 0d05 7e3e 709d aebd
00000200: d8c4 db3d 2e5f 83be baa2 64bd dd51 4d3c
00000210: fc0d 4f3d f6b8 03be c462 c5bd 6716 16be
00000220: 0f48 843e 402e b6bc be0a 96be a30a d4bd
00000230: c45a 813e ebe0 803e 7fc7 583e 2700 093e
00000240: ff5e 2cbe c01f 66bc f386 443e 1cf0 413e
00000250: 60ef 083e 231c 87bd 2331 bebd a9fd 8e3e
00000260: ca77 4c3e 82d8 0c3e 9f04 5ebe e9c0 20be
00000270: 006f b13c 76ca 713e 13dd 55bd 7e9c 653d
00000280: 8a38 1a3e 092a 693d 2aa4 abbc 2490 3bbe
00000290: f17d 223c 51df 17bd 312d b0bc aa00 5ebe
000002a0: 98d8 423e 30d7 83be 05ef 3fbd e906 5a3e
000002b0: 0ddd f53d 1af5 21be 8047 babd db23 60be
000002c0: 6df6 6e3e ffbf 533e 11f0 493e 4917 90be
000002d0: 8258 49be 2317 023e 4a17 cbbb 4c9b 82be
000002e0: 445c 7e3e 3447 1fbe 18a3 13be 4705 143e
000002f0: 0a97 5c3e 9c9b 443e 253b 5b3e 9ea0 12bd
00000300: 1754 eabd a887 4d3e ef74 3c3e 1b49 87be
00000310: 7adc 823e 1005 8ebe 3fa7 7bbd 25ab 84be
00000320: 0552 8a3e 0354 81be 5c78 9bbd a6c2 97be
00000330: 0e64 c1bc 18cf a93d f627 1a3e e31d fd3c
00000340: 1c32 a5bd f896 85be 7fc5 04bd a011 b63d
00000350: 7dc2 583d 0e08 4abe 1011 40be 6771 0a3e
00000360: 0086 58be 57f4 8ebe 59d8 b3bd 2265 163e
00000370: 0199 093c 7fb8 41be 3b93 5c3e 1437 5cbe
00000380: f359 5ebe 986a 35be c523 e93b c0fe e93d
00000390: 7ebd 143e 7527 2dbe ab8c 88be 3ccf 523e
000003a0: a2dd 3f3e 59b3 473e 7dfb c93d a24f 4d3e
000003b0: d3ca adbd 9169 08bc 94e9 3bbe fb26 293e
000003c0: 38e6 28bd 5b30 4dbd 40e5 1a3e 4380 fabd
000003d0: 87bc 843e 4f5e f9bc 7548 363e 4ac0 6c3e
000003e0: 1dab f53d 9c73 453e 82e1 54be c844 eebd
000003f0: 5607 cc3d bae9 22be 00ed 7dbe 3558 0abe

sequential_1/conv2d_5/BiasAdd/ReadVariableOp f4 [2]
-0.005934167 -0.0049386346
00000000: 6773 c2bb 45d4 a1bb

sequential_1/conv2d_6/BiasAdd/ReadVariableOp f4 [2]
-0.0051819338 -0.0060970457
00000000: 36cd a9bb bac9 c7bb

sequential_1/conv2d_7/BiasAdd/ReadVariableOp f4 [2]
0.0058300872 -0.007977585
00000000: 510a bf3b 6bb4 02bc

sequential_1/conv2d_8/BiasAdd/ReadVariableOp f4 [2]
0.003789334 0.005024564
00000000: 7a56 783b 19a5 a43b

sequential_1/conv2d_9/BiasAdd/ReadVariableOp f4 [2]
0.0026037742 0.0028559493
00000000: 15a4 2a3b e12a 3b3b

sequential_1/conv2d_5/Conv2D f4 [2, 3, 3, 1]
-0.0008604428 -0.25880158 0.3402021 -0.038868066 -0.252033 -0.11634992 0.040288173 0.13800342
-0.15481538 0.071729995 0.2357909 -0.31929284 0.21758762 -0.28613088 0.44419912 -0.35385907
-0.17073473 0.42067438
00000000: 578f 61ba a481 84be f82e ae3e 1f34 1fbd
00000010: 780a 81be de48 eebd 3605 253d c550 0d3e
00000020: ec87 1ebe 2de7 923d 2b73 713e 5a7a a3be
00000030: 4acf 5e3e bf7f 92be 116e e33e 042d b5be
00000040: 16d5 2ebe a262 d73e

sequential_1/conv2d_6/Conv2D f4 [2, 3, 3, 2]
0.045662463 0.39012155 -0.28873658 0.2643109 0.054295063 0.30193308 -0.14592347 -0.338517
-0.0124489525 -0.17392528 0.0792893 0.36983317 -0.25747097 -0.111233994 0.02029607 0.07994561
-0.37554175 0.38030797 -0.37692016 -0.03350748 -0.040205132 -0.08180444 0.36477935 -0.03178758
-0.2343497 -0.09191731 -0.3641157 -0.3232339 -0.13874695 0.19184393 0.28299445 0.22061807
0.18953888 -0.1944024 0.28347948 0.32730243
00000000: 9008 3b3d 03be c73e 48d5 93be c253 873e
00000010: 8064 5e3d f996 9a3e f66c 15be 1a52 adbe
00000020: b1f6 4bbc 7819 32be 6e62 a23d c65a bd3e
00000030: 3cd3 83be a6ce e3bd f243 a63c 86ba a33d
00000040: 0247 c0be bab7 c23e aefb c0be 243f 09bd
00000050: 23ae 24bd 1689 a7bd 5cc4 ba3e b233 02bd
00000060: 5ef9 6fbe 253f bcbd 5f6d babe ea7e a5be
00000070: ae13 0ebe bc72 443e a6e4 903e b4e9 613e
00000080: 7b16 423e 6c11 47be 3924 913e 2f94 a73e

sequential_1/conv2d_7/Conv2D f4 [2, 3, 3, 2]
-0.10564802 -0.16804792 0.020945428 0.18062504 0.17836294 -0.0074955076 -0.121868186 0.15826966
-0.3450049 0.2651151 -0.17318024 -0.08525988 0.2197025 0.04323138 -0.39998302 -0.24003579
-0.22516726 0.368759 0.25470787 -0.00988101 -0.13659988 -0.37722254 0.28179955 -0.35371342
-0.03797632 0.064159356 -0.3806874 -0.3243837 -0.35760328 0.2740027 -0.15560149 -0.17482951
0.2510914 -0.07113072 0.123699896 0.11414016
00000000: fd5d d8bd c114 2cbe bf95 ab3c c5f5 383e
00000010: c6a4 363e e09c f5bb 0796 f9bd 7111 223e
00000020: 7ba4 b0be 2bbd 873e 2956 31be bb9c aebd
00000030: b1f9 603e 6313 313d 93ca ccbe f1cb 75be
00000040: 3f92 66be fbcd bc3e 1269 823e f6e3 21bc
00000050: d7e0 0bbe 5023 c1be 0848 903e ed19 b5be
00000060: 0f8d 1bbd fb65 833d 75e9 c2be 9f15 a6be
00000070: c717 b7be 154a 8c3e ff55 1fbe 8206 33be
00000080: 0d8f 803e fcac 91bd 5f56 fd3d 51c2 e93d

sequential_1/conv2d_8/Conv2D f4 [2, 3, 3, 2]
-0.080454774 -0.08222344 0.23834498 -0.06647575 0.14185284 0.21086527 0.3601862 0.10693413
0.13447651 -0.1150885 -0.12627776 0.27179047 -0.07215564 -0.41208863 0.29445916 -0.03327334
-0.34160924 -0.35778925 -0.19901294 0.14202863 -0.0048651784 0.35313606 0.36578614 -0.32983184
-0.16122976 -0.14015403 -0.33623305 -0.10598103 -0.23656352 -0.26546264 0.048095096 0.04662346
-0.10330872 0.16892932 -0.108747505 0.07491841
00000000: 79c5 a4bd c364 a8bd b510 743e 7024 88bd
00000010: df41 113e 11ed 573e 536a b83e 4800 db3d
00000020: 36b4 093e 85b3 ebbd f54e 01be 1f28 8b3e
00000030: 56c6 93bd 48fd d2be 5ac3 963e a049 08bd
00000040: 68e7 aebe 2730 b7be 0cca 4bbe f46f 113e
00000050: 136c 9fbb 40ce b43e 5248 bb3e b8df a8be
00000060: 6a19 25be 8a84 0fbe bd26 acbe 950c d9bd
00000070: b53d 72be b8ea 87be 5dff 443d 3ef8 3e3d
00000080: 8693 d3bd cffb 2c3e 03b7 debd d36e 993d

sequential_1/conv2d_9/Conv2D f4 [2, 3, 3, 2]
-0.04857932 0.21204504 -0.17676958 -0.27051273 -0.23728938 0.15281172 -0.04155904 0.1790776
-0.16068418 -0.19306816 -0.033572897 0.32157788 0.2894492 -0.12761217 0.30335328 0.29802036
0.17354809 0.0013222808 -0.0011176879 -0.1016496 -0.22880343 0.36451474 -0.088294394 0.31115612
-0.18386437 -0.3716719 -0.13890243 -0.18378994 -0.09618338 -0.286449 0.37834063 0.0826983
0.3334821 -0.2783523 0.38004008 0.3315299
00000000: 1cfb 46bd 5622 593e 1603 35be a580 8abe
00000010: fdfb 72be ad7a 1c3e d039 2abd 1e60 373e
00000020: 658a 24be a9b3 45be bc83 09bd dba5 a43e
00000030: af32 943e c4ac 02be 1f51 9b3e 2096 983e
00000040: 97b6 313e 6250 ad3a 627f 92ba aa2d d0bd
00000050: 724b 6abe ada1 ba3e b1d3 b4bd db4f 9f3e
00000060: f146 3cbe c74b bebe 703c 0ebe 6e33 3cbe
00000070: cbfb c4bd 71a9 92be ddb5 c13e ba5d a93d
00000080: 2abe aa3e 3184 8ebe 9d94 c23e 49be a93e

sequential_1/dense_3/BiasAdd/ReadVariableOp f4 [7]
-0.028960023 0.0019786512 -0.0014606768 0.0020020842 0.0055329246 -0.0034981458 -0.00014236331
00000000: 923d edbc 42ac 013b 2e74 bfba 6635 033b
00000010: 894d b53b 2641 65bb 5c47 15b9

sequential_1/dense_2/BiasAdd/ReadVariableOp f4 [64]
-0.0011588908 0.0064608385 0.002831299 -0.0026161335 0.0013201925 -0.0019377546 -0.0043423497 -0.008345188
-5.951843e-05 -0.0016793171 0.00068412727 -0.0040201806 -0.0056195892 0.0018202579 -0.0054626223 0.0030443813
-0.0014465626 -0.0066997656 0.0014613346 0.00060962467 -0.003371989 -0.007751031 -0.004560247 -0.0030032354
0.0017644147 -0.0011246933 -7.33556e-05 -0.0017047977 -0.0073904106 -0.00014321503 -0.0011810912 -0.003108494
0.004220331 -0.00049809006 -0.00030957215 0.0026498404 0.0036467682 -0.0010143808 -0.005812795 0.005045036
0.0046005477 0.003733785 0.0032094235 -0.0022011106 -0.0025389665 -0.0034425952 -0.0025782776 0.004989901
-0.0053349477 -0.0013148161 -0.00085770123 -0.0011085045 -0.0006055783 0.0032091236 0.0053180465 -0.007913224
0.00025689323 -0.001186938 0.0026279746 -0.004594743 -0.0033013492 -0.0021660137 -0.006419944 -0.0062303636
00000000: ece5 97ba 71b5 d33b 518d 393b 7073 2bbb
00000010: 4f0a ad3a 41fc fdba 454a 8ebb 41ba 08bc
00000020: 6da3 79b8 881c dcba 0157 333a b8bb 83bb
00000030: 8824 b8bb b895 ee3a ccff b2bb 3e84 473b
00000040: 969a bdba b589 dbbb 418a bf3a 38cf 1f3a
00000050: 96fc 5cbb 5cfc fdbb 206e 95bb eed1 44bb
00000060: ef43 e73a 726a 93ba 7dd6 99b8 8573 dfba
00000070: 422b f2bb fe2b 16b9 d8ce 9aba e0b7 4bbb
00000080: b44a 8a3b 4292 02ba 124e a2b9 f2a8 2d3b
00000090: 9efe 6e3b f9f4 84ba 4279 bebb d450 a53b
000000a0: 31c0 963b 84b2 743b 3155 523b 8240 10bb
000000b0: ca64 26bb 2a9d 61bb 52f8 28bb 5382 a33b
000000c0: c9d0 aebb e855 acba 5bd7 60ba 3d4b 91ba
000000d0: acbf 1eba 2950 523b 0243 ae3b 78a6 01bc
000000e0: a0af 8639 0893 9bba 193a 2c3b 7f8f 96bb
000000f0: 735b 58bb aef3 0dbb 655e d2bb 1428 ccbb

sequential_1/batch_normalization_5/FusedBatchNormV3 f4 [2]
0.015229084 0.017249795
00000000: 6883 793c 714f 8d3c

sequential_1/batch_normalization_5/FusedBatchNormV31 f4 [2]
-0.5026555 -0.667905
00000000: 08ae 00bf d2fb 2abf

sequential_1/batch_normalization_6/FusedBatchNormV3 f4 [2]
1.4867076 3.7800295
00000000: 6f4c be3f 01ec 7140

sequential_1/batch_normalization_6/FusedBatchNormV31 f4 [2]
-0.45076612 -0.6985777
00000000: d1ca e6be fdd5 32bf

sequential_1/batch_normalization_7/FusedBatchNormV3 f4 [2]
2.3809865 3.1488535
00000000: 1562 1840 d186 4940

sequential_1/batch_normalization_7/FusedBatchNormV31 f4 [2]
-1.0339543 -1.7950695
00000000: 9d58 84bf d6c4 e5bf

sequential_1/batch_normalization_8/FusedBatchNormV3 f4 [2]
1.424562 3.0972564
00000000: 0c58 b63f 7339 4640

sequential_1/batch_normalization_8/FusedBatchNormV31 f4 [2]
-0.68542165 -1.4496412
00000000: cb77 2fbf d88d b9bf

sequential_1/batch_normalization_9/FusedBatchNormV3 f4 [2]
2.2541718 1.6448247
00000000: 5a44 1040 9e89 d23f

sequential_1/batch_normalization_9/FusedBatchNormV31 f4 [2]
-0.8524764 -0.6783348
00000000: e53b 5abf 59a7 2dbf

sequential_1/dense_2/MatMul i1 [64, 3380] scale=0.00052997645 zero_point=0
0.00052997645 -0.04928781 -0.026498822 0.028618729 0.030738633 0.017489223 0.013249411 -0.02384894
0.021729033 0.030738633 0.009539576 -0.027028799 -0.019609129 -0.04027821 0.021729033 -0.037628327
-0.03550842 0.024378916 0.0031798587 0.030738633 0.024378916 -0.018549176 0.033918492 -0.043458067
-0.011659482 0.015899293 -0.0042398116 -0.0063597173 0.0052997647 0.01642927 -0.027558776 -0.0010599529
-0.024378916 0.034978446 0.03126861 0.0090096 0.02543887 0.02543887 0.033388518 0.013779388
0.01483934 -0.021199059 0.010069553 0.022788987 -0.041338164 0.010069553 0.024908893 -0.01483934
0.00741967 -0.0180192 0.0015899293 0.01483934 -0.033388518 -0.010599529 -0.030208657 -0.033388518
-0.033918492 -0.02225901 0.022788987 -0.016959246 -0.02225901 -0.043458067 -0.0021199058 -0.047167905
-0.010599529 0.0052997647 0.02225901 -0.01483934 0.010069553 -0.03126861 0.012719435 0.008479623
-0.031798586 -0.022788987 0.015899293 -0.03285854 -0.02967868 0.01483934 0.0015899293 0.008479623
0.017489223 -0.027028799 -0.009539576 0.0031798587 0.0031798587 0.0042398116 0.021729033 -0.0063597173
-0.03285854 0.010599529 0.016959246 -0.0015899293 0.031798586 0.010069553 0.032328565 0.013779388
0.0010599529 -0.0042398116 -0.020669082 -0.0021199058 -0.021729033 0.021199059 0.037628327 0.0042398116
-0.019609129 0.0015899293 0.010069553 -0.02384894 -0.020139106 0.028618729 -0.022788987 -0.0021199058
0.0 -0.012719435 0.003709835 -0.004769788 0.023318963 0.003709835 0.036568373 0.0015899293
0.013779388 0.03126861 0.0021199058 0.0010599529 -0.011659482 -0.005829741 0.0360384 -0.0010599529
-0.022788987 -0.034448467 -0.0180192 0.02543887 -0.00052997645 0.04027821 -0.038158305 -0.021199059
0.0180192 0.0026498823 -0.039748233 0.012189458 0.026498822 0.013249411 -0.0021199058 -0.0063597173
0.02967868 -0.020669082 0.041338164 0.032328565 -0.0063597173 0.03868828 0.03126861 -0.007949647
0.015899293 -0.015369317 -0.0042398116 -0.030208657 -0.037628327 -0.02967868 0.027028799 -0.04610795
-0.03550842 0.011659482 0.038158305 -0.037628327 0.005829741 -0.03868828 -0.00741967 -0.0360384
-0.040808186 0.0026498823 -0.02384894 -0.028088752 0.0021199058 -0.03868828 0.02543887 -0.014309364
0.010069553 -0.032328565 0.042928092 0.037628327 -0.025968846 0.014309364 -0.030738633 -0.011659482
-0.019079152 -0.0031798587 -0.034448467 -0.016959246 -0.018549176 0.0026498823 -0.00052997645 -0.0360384
0.020139106 0.02225901 -0.005829741 0.009539576 -0.0021199058 0.007949647 0.036568373 -0.010599529
0.043458067 -0.031798586 0.039748233 -0.03868828 -0.031798586 0.0031798587 0.043458067 -0.02384894
-0.0015899293 -0.048757832 -0.040808186 0.020139106 -0.0052997647 0.00052997645 -0.009539576 -0.040808186
-0.03550842 -0.0031798587 -0.0026498823 0.022788987 0.03868828 0.020139106 -0.030738633 0.0360384
0.010599529 0.009539576 0.012719435 0.018549176 -0.012189458 0.011129505 -0.018549176 -0.028088752
0.043458067 0.030208657 -0.02543887 -0.004769788 0.03550842 0.018549176 0.011129505 0.0
0.02543887 0.01642927 0.030738633 0.018549176 -0.024378916 0.0042398116 0.010599529 -0.003709835
0.030738633 0.017489223 0.045048 0.010599529 -0.015899293 -0.0042398116 0.009539576 0.00741967
00000000: 01a3 ce36 3a21 19d3 293a 12cd dbb4 29b9
00000010: bd2e 063a 2edd 40ae ea1e f8f4 0a1f ccfe
00000020: d242 3b11 3030 3f1a 1cd8 132b b213 2fe4
00000030: 0ede 031c c1ec c7c1 c0d6 2be0 d6ae fca7
00000040: ec0a 2ae4 13c5 1810 c4d5 1ec2 c81c 0310
00000050: 21cd ee06 0608 29f4 c214 20fd 3c13 3d1a
00000060: 02f8 d9fc d728 4708 db03 13d3 da36 d5fc
00000070: 00e8 07f7 2c07 4503 1a3b 0402 eaf5 44fe
00000080: d5bf de30 ff4c b8d8 2205 b517 3219 fcf4
00000090: 38d9 4e3d f449 3bf1 1ee3 f8c7 b9c8 33a9
000000a0: bd16 48b9 0bb7 f2bc b305 d3cb 04b7 30e5
000000b0: 13c3 5147 cf1b c6ea dcfa bfe0 dd05 ffbc
000000c0: 262a f512 fc0f 45ec 52c4 4bb7 c406 52d3
000000d0: fda4 b326 f601 eeb3 bdfa fb2b 4926 c644
000000e0: 1412 1823 e915 ddcb 5239 d0f7 4323 1500
000000f0: 301f 3a23 d208 14f9 3a21 5514 e2f8 120e
