saved_model/quantized_models/layers5/trial1/paramcount542339.tflite (tflite, 555848 bytes, 24 tensors)

sequential_4/dense_9/MatMul f4 [7, 64]
000000 85 fe 64 3c b0 63 0b 3e d4 4e aa bd ba b8 05 3e
       0.013976698 0.13612247 -0.083158165 0.13058749
000010 17 08 4b be 11 da 73 3e 35 37 dd bd f2 6e a1 bd
       -0.19827305 0.23813654 -0.108015455 -0.07882489
000020 74 2d 70 be d4 b1 fa bd 33 43 7f 3e d8 ef 52 be
       -0.23454839 -0.12240949 0.24927978 -0.20599306
000030 f7 07 83 be 40 08 1d be 86 3f 39 3c 0f 62 8a 3e
       -0.25592014 -0.15335178 0.011306649 0.27027938
000040 36 95 4c be b3 51 e5 bd 19 70 4b 3e 29 4c 0e 3e
       -0.19978794 -0.111972235 0.1986698 0.1389624
000050 09 e8 78 3d 8c 86 5d be b9 98 76 3e 8e cd b7 bd
       0.06076816 -0.21633357 0.24081697 -0.08974753
000060 f2 9b 38 bc 8b 4f 75 be 48 ac 92 be bb 38 28 3d
       -0.011267649 -0.23956124 -0.28647065 0.041069727
000070 c0 10 95 3d 70 b9 cc bd 71 e1 14 3d 6a 15 02 bc
       0.072785854 -0.09996307 0.03634781 -0.007939676
000080 2b 2c 2d be 0b e5 00 bc 36 ee 8d be 6a 46 86 be
       -0.1691138 -0.007867108 -0.27720803 -0.26225597
000090 0a 2d 0b be 1f 65 1a bd 91 82 67 3e 18 fc 7b 3d
       -0.135914 -0.037694093 0.22608401 0.061519712
0000a0 91 1d 2c bc 67 97 19 bc 86 27 4b 3e e2 06 26 3e
       -0.010505096 -0.009374476 0.19839296 0.16213563
0000b0 cf 77 0b 3e 65 ad 17 be 64 1a 99 be 02 0c 77 be
       0.13619922 -0.14812239 -0.29902947 -0.24125674
0000c0 c2 0c 68 3e a3 4e 93 be 0d da 63 3e b4 88 67 3e
       0.22661117 -0.28770933 0.22251149 0.22610742
0000d0 0d b2 0b be dd df 8f be 77 32 1a be a5 5d 85 3e
       -0.1364214 -0.28100482 -0.15058313 0.26048008
0000e0 06 07 8d bd 76 06 d2 3d 51 ed 19 3e bb 82 91 3c
       -0.06886105 0.102551386 0.15031935 0.017762532
0000f0 f5 20 d6 3c 42 2f 80 3b 04 89 19 be 6c b8 97 be
       0.026138762 0.0039118836 -0.14993674 -0.2963289
000100 aa 9c 71 be 09 e9 07 3d e4 20 8a 3e e4 af 29 3d
       -0.23594919 0.033181224 0.2697822 0.041427508
000110 52 f8 1e 3b 30 e7 e3 3d 6d ea e8 3d e0 04 83 3e
       0.0024256897 0.1112808 0.11372838 0.25589657
000120 ed 39 87 3e 83 fc c9 bd cc 23 36 be d6 c1 52 3d
       0.2641138 -0.09862616 -0.17787093 0.051454388
000130 32 23 80 3e 90 32 04 3d 90 a6 ce bd aa 0d 26 3e
       0.25026852 0.032274783 -0.10090363 0.1621615
000140 d1 81 8d 3e a4 3c 6f 3d 6a 63 23 3e 9f c6 9c bb
       0.27638105 0.05840744 0.15955892 -0.0047844197
000150 70 be c4 bd f1 86 36 be 81 b7 0d be 4d 8a 35 bb
       -0.096066356 -0.17824914 -0.13839532 -0.0027700842
000160 ae 3e 85 3e c3 a4 4c 3e 1e 2f 43 3e b0 6c 3f be
       0.26024383 0.19984727 0.19060943 -0.18693805
000170 b0 0d ae 3b 7f 3a 3a be 79 12 de bd 60 81 71 3c
       0.0053116903 -0.18186377 -0.10843367 0.014740318
000180 cf ed 8e 3e 0c de 7c 3e eb e0 43 bd 11 a1 3d 3e
       0.2791581 0.24694079 -0.04782192 0.18518473
000190 ff ff 90 3e 83 d5 a5 bd aa 21 83 3e 6a a5 71 3e
       0.2832031 -0.08097365 0.2561162 0.23598257
0001a0 bf 40 05 bc c5 a5 66 3e 33 05 39 be a0 47 54 3e
       -0.008133112 0.22524174 -0.1806839 0.20730448
0001b0 21 ff 7c 3d 86 9f 68 3e ff e5 c2 3d 3f b4 8c 3d
       0.061766747 0.22717103 0.095165245 0.06870317
0001c0 e2 c2 0f 3d 9a 89 af 3d 6c ab 37 3e 18 9b 72 be
       0.035097964 0.08571167 0.17936486 -0.23691976
0001d0 66 9c 01 be 5e 28 5a be 54 02 bc bd 5e 0e 8e be
       -0.12657318 -0.21304461 -0.091801316 -0.27745336
0001e0 95 76 42 bc 35 cc b2 3c 06 4e 48 3e 22 55 51 bd
       -0.0118690925 0.02182589 0.19561014 -0.05110658
0001f0 88 69 94 bd ad ff 55 be fc e2 86 bd 1d 45 85 3e
       -0.07246691 -0.20898314 -0.065862626 0.26029292
000200 3f 39 1d be 97 f5 2d be 47 e1 b1 bc 35 3f 3f be
       -0.15353869 -0.16988216 -0.021713866 -0.18676455
000210 20 7b 85 3e 13 67 56 be 9c 8b ad bd 0b b0 6d 3e
       0.260705 -0.20937757 -0.08473894 0.23211686
000220 06 1f 40 3e ad 91 20 be 98 06 0c bc 2e df bb 3d
       0.18761835 -0.15680571 -0.008546494 0.091734275
000230 c6 12 44 3e 38 8a 5b 3e 5a cb 88 bc 3f c9 2f be
       0.19147786 0.21439445 -0.016698528 -0.17166613
000240 9b ac dd 3d 3e 17 15 3c 12 8b 8f 3e 50 fa 23 3e
       0.108239375 0.00909978 0.2803579 0.16013455
000250 86 70 57 3e e3 31 52 be ba 74 a3 3c 6a 21 d8 bd
       0.21039018 -0.20526843 0.01995312 -0.10553248
000260 39 dc 01 bd c8 72 c0 3d 1b 53 87 3e bf 90 c9 bd
       -0.03170416 0.09396893 0.26430592 -0.09842061
000270 33 6b 49 be 8c 1f 46 be fe 13 85 3d 90 07 ff bc
       -0.196698 -0.19347972 0.06497954 -0.031131536
000280 a6 c4 4f 3e a0 45 8d be 6f 73 07 3b 7c a3 8a 3e
       0.20289859 -0.27592182 0.002066817 0.27077854
000290 11 cf 5a 3e 0c 09 48 3e ca 19 90 be 79 38 e4 3d
       0.21368052 0.19534701 -0.28144675 0.11143584
0002a0 1e 97 45 be 61 9b 83 be ab c5 88 be d3 13 72 bb
       -0.19295928 -0.25704482 -0.2671331 -0.0036938086
0002b0 26 30 4a be 36 1f 19 be ae d4 83 be 5d 3a 6a bc
       -0.1974493 -0.14953312 -0.257482 -0.014296141
0002c0 e4 d6 80 be d3 e7 1a 3d f7 f4 b4 ba 53 e2 7f 3e
       -0.2516395 0.03781874 -0.0013805915 0.2498868
0002d0 99 ec 82 3e 86 63 88 3d 53 fe 76 be f0 e6 08 be
       0.25571135 0.066596076 -0.24120454 -0.13369346
0002e0 f2 94 6b 3e cc c0 00 be 09 bb 72 3e 33 66 65 be
       0.23006037 -0.12573546 0.23704161 -0.22402267
0002f0 bd 37 7d 3e c1 e1 c2 bd 28 e9 07 3e 70 f6 7d be
       0.24728294 -0.095157154 0.13272536 -0.2480104
000300 2c ed 8d bd 7e 48 89 be 0b c2 90 3e 8c ab 7f be
       -0.069300026 -0.2681312 0.28273043 -0.24967784
000310 55 72 3d bd f7 57 e5 3a 00 09 2c be 6d d6 69 be
       -0.046251614 0.0017497529 -0.16800308 -0.22835703
000320 b3 1a 23 3e c7 cd c8 3d f0 dc 4c be a3 d6 82 3e
       0.15928154 0.09804874 -0.20006156 0.2555438
000330 08 75 7e bd 3c f5 17 be 6c f1 b8 3d 1f 58 bf bd
       -0.06212333 -0.14839643 0.090304226 -0.0934298
000340 85 ca 62 be b9 37 8e be 82 7e 8d 3e 1f e7 c4 3c
       -0.22147568 -0.27776888 0.2763558 0.024035988
000350 0a 7a 83 3e 64 bc cc bd 13 0a 83 3e fb c9 85 3d
       0.25679046 -0.0999687 0.25593624 0.06532665
000360 0f e8 db 3d b8 20 d3 bc 5d 92 71 3d 10 05 9c 3c
       0.10737621 -0.025772437 0.058977474 0.019045383
000370 26 4f 26 be 19 b1 01 3c 2f 9c 0b 3e 36 76 65 be
       -0.1624113 0.0079157585 0.13633798 -0.22408375
000380 44 bf d0 bd 8b 5a d3 3d 3e a8 38 3e 90 f5 4d bd
       -0.10192731 0.10320004 0.1803293 -0.050283015
000390 2b f9 15 3e 16 90 34 be f7 2f 2a be c5 70 e6 3d
       0.14645831 -0.1763309 -0.1661986 0.11251978
0003a0 cd d8 5b 3e f4 bc 51 3e bb 62 8a b9 53 50 56 be
       0.21469422 0.20482236 -0.0002639497 -0.20929079
0003b0 e3 ed 88 be 68 b1 99 bd 7d 2a 3c bd f6 4e 69 3e
       -0.26743993 -0.07504541 -0.045938957 0.22784027
0003c0 63 d4 c4 3c 5c d8 f6 bd 32 d5 89 bd 3c 02 fd 3d
       0.024027055 -0.12052986 -0.06730117 0.12353942
0003d0 e7 14 65 be 30 2a cd bd a7 f2 20 3e 5e c4 d2 bd
       -0.22371255 -0.10017812 0.15717565 -0.1029136
0003e0 82 d0 b6 3d 5f 5c 91 3e 51 2e 66 bd ee 77 be bd
       0.089264885 0.28390786 -0.056196515 -0.093002185
0003f0 61 68 25 3e 84 a6 1c bd 3b 91 02 be 6e f0 50 be
       0.16153099 -0.03824474 -0.12750714 -0.20404217

sequential_4/conv2d_20/BiasAdd/ReadVariableOp f4 [5]
000000 cd ba 27 bb c9 49 57 3c e7 bf f7 3b f5 e6 b5 3b
       -0.002559352 0.01314015 0.0075607183 0.005551214
000010 cb f3 8c 3a
       0.0010753808

sequential_4/conv2d_21/BiasAdd/ReadVariableOp f4 [5]
000000 33 20 48 3b 9f b9 92 bb fb fe 34 bb f5 ab e2 3b
       0.003053677 -0.004477694 -0.00276178 0.0069174715
000010 de e5 b2 3b
       0.005459531

sequential_4/conv2d_22/BiasAdd/ReadVariableOp f4 [5]
000000 08 6f 0c bc 58 5d d3 bb bd b2 b0 3b 1a 77 5e 3b
       -0.008571394 -0.0064503364 0.005392401 0.0033945502
000010 4e aa 1c 3b
       0.002390522

sequential_4/conv2d_23/BiasAdd/ReadVariableOp f4 [5]
000000 36 40 9c 3b bc 82 af 3b 60 50 26 3c e0 6c a1 3b
       0.0047683967 0.005356161 0.010150999 0.004926309
000010 14 18 89 3b
       0.0041837785

sequential_4/conv2d_24/BiasAdd/ReadVariableOp f4 [5]
000000 17 a1 5b bb f7 78 15 3b 8b 5c 20 3b 1d 36 6a bb
       -0.0033512765 0.0022807696 0.0024469222 -0.003573782
000010 09 31 10 3c
       0.008800753

sequential_4/conv2d_20/Conv2D f4 [5, 3, 3, 1]
000000 8a 50 ad 3e 35 86 82 3e 70 78 59 bd b0 29 bc bd
       0.3385051 0.25493017 -0.053093374 -0.09187639
000010 47 cc 0d be 3c 38 f8 bd 81 c2 1a 3e 9f ea a5 be
       -0.13847457 -0.12120101 0.1511326 -0.32405564
000020 71 e3 78 be 07 76 a3 be 16 49 9e be 32 ba 5d 3e
       -0.24305512 -0.31925985 -0.30915135 0.21653059
000030 a9 80 c2 bd 62 c5 f8 3b 62 5b 85 3e 10 e4 c4 bd
       -0.09497196 0.0075918892 0.26046282 -0.09613812
000040 83 98 56 be d1 5b 89 be a9 4d 2d 3e 99 7d f1 3b
       -0.20956616 -0.26827863 0.16924156 0.0073697087
000050 bc 7b 01 3e d2 fc 15 3e 68 27 08 be 7d 45 2c 3e
       0.12644857 0.14647225 -0.13296282 0.16823383
000060 bd d0 6d 3e 24 c9 10 be ff da ab bd 71 fd b0 bd
       0.23224159 -0.14139229 -0.083913796 -0.0864209
000070 c4 0b 91 3c 76 06 a2 3e 55 0c 5c 3c e1 8a fb 3d
       0.017705806 0.31645554 0.013430675 0.122823484
000080 cf a5 2d be 26 15 ce 3d 1e 95 96 bd 3b 48 4a be
       -0.16957782 0.100626275 -0.073526606 -0.19754116
000090 6a ae a0 bd b4 15 55 be 43 2a 72 be 71 84 d5 3c
       -0.07845767 -0.2080906 -0.23648934 0.02606413
0000a0 8e 32 de bd 51 c3 ca bd 6a 0b 97 3e 8f 9a a4 be
       -0.10849486 -0.09900535 0.29500896 -0.3214917
0000b0 38 79 17 be
       -0.14792335

sequential_4/conv2d_21/Conv2D f4 [5, 3, 3, 5]
000000 d4 0d 4e 3e f3 87 71 be e3 cc d2 3c 4f bb 51 be
       0.20122463 -0.23587017 0.025732463 -0.20481609
000010 6d b6 3e 3e 0b a1 62 3e 6b 13 e1 3d df 06 b8 3d
       0.18624277 0.22131746 0.10990032 0.089856856
000020 f7 6b 40 be 12 37 20 3e 18 e3 72 3d 23 38 5d 3e
       -0.18791185 0.15646008 0.059298605 0.21603446
000030 3e 1f 0b be 7c a7 29 be 81 ed 09 be 14 85 3c be
       -0.13586137 -0.16567796 -0.13469507 -0.1841014
000040 b0 28 69 be 4c 82 37 3d e6 80 1a 3d 3d 96 10 be
       -0.22769427 0.044801995 0.037720583 -0.14119811
000050 92 d5 19 3e 12 aa 5b 3e 23 9f b1 3c fd d8 7c be
       0.15022877 0.21451595 0.021682328 -0.2469215
000060 95 e3 4a be 70 eb 29 3e 0b e2 80 3e d0 ec 83 bc
       -0.19813378 0.16593719 0.25172457 -0.016104132
000070 51 0e 50 be 67 0b 55 be 68 a2 75 bd 74 0c b7 3d
       -0.20317961 -0.20805131 -0.059969336 0.08937922
000080 14 50 6a be 50 b5 54 bd da 04 57 3e 3f 3a ce bd
       -0.2288211 -0.051930726 0.20997944 -0.10069703
000090 51 4e 8c bc d4 79 7e be 1d 63 32 be 86 30 3a be
       -0.017127188 -0.24851161 -0.17420621 -0.18182573
0000a0 19 1e 02 be cf 53 30 be 7c 93 b4 3d 31 be 53 3d
       -0.12706794 -0.1721947 0.08817193 0.051695053
0000b0 79 43 14 be 67 76 57 3d 1b cd 07 be 97 2e 05 bd
       -0.14478864 0.05260315 -0.13261835 -0.032515135
0000c0 6c d1 72 be cc 3b 49 be 80 55 73 3e 2f f9 7e be
       -0.237127 -0.19651717 0.23763084 -0.24899743
0000d0 96 d0 cc bb ac 35 90 bd c9 e6 29 3e bb 19 82 bd
       -0.0062504513 -0.07041487 0.16591944 -0.06352564
0000e0 81 81 17 3e 58 71 1a be f7 7e 66 3e c3 85 08 be
       0.14795496 -0.150823 0.2250937 -0.13332276
0000f0 80 cc 3b 3e cf ac 33 be 15 bf be 3d 6d 6f f5 bd
       0.1833973 -0.1754639 0.0931379 -0.119841434
000100 3a 50 54 3d 6a 84 be bd c9 5e ed 3d 49 2a 65 be
       0.051834323 -0.093026 0.115903445 -0.22379412
000110 b3 66 a8 3d 64 5c 6f 3d 6b f4 7e 3e 90 fa ea 3d
       0.08222713 0.05843772 0.24897926 0.11473572
000120 27 1d 05 be b4 0d 1f 3e 28 8e bf bd 19 62 20 bd
       -0.12999402 0.15532571 -0.09353286 -0.039156053
000130 dd fa cb ba 2a de 30 3e 6e 14 83 bd 28 d8 65 bd
       -0.0015562434 0.17272249 -0.06400381 -0.056114346
000140 3f f8 f6 3d 47 f4 4b 3e e9 62 5f be a3 97 d3 3d
       0.12059068 0.19917403 -0.21815075 0.10331657
000150 c5 f3 68 3e ed 5d 0a 3e 10 51 88 3d 3c df db 3d
       0.2274924 0.13512392 0.066560864 0.10735938
000160 85 7d 14 bd c8 37 3e be 2d b3 5e bc e3 ac 13 be
       -0.036252517 -0.18575966 -0.0135925235 -0.1442142
000170 e2 78 bd 3c cd d9 84 3c 5b fa 5d be 47 05 84 bd
       0.02312893 0.016217137 -0.21677534 -0.06446319
000180 15 a2 c0 3d 31 e2 41 3e 7e 72 38 3e fd 0d a5 bc
       0.09405915 0.18933941 0.18012425 -0.020148272
000190 28 ee 01 3e 97 51 12 be 62 72 b5 bc a4 fa b8 bd
       0.12688506 -0.14288937 -0.022149269 -0.09032181
0001a0 04 a2 46 be e1 9a 9c bd e7 84 49 3e aa ed 00 be
       -0.19397742 -0.07646728 0.19679604 -0.12590662
0001b0 8d 3b 46 be 0c 37 c0 3d 95 74 e0 bd 5f 09 d2 bd
       -0.19358654 0.09385499 -0.10959736 -0.10255694
0001c0 5c 11 51 be d5 fa 3f 3e 9a e5 da 3d 24 e8 cb 3b
       -0.20416778 0.18748029 0.10688324 0.0062227417
0001d0 6d c2 70 be 14 91 1e 3e 53 c1 7f 3e 20 30 82 be
       -0.23511668 0.1548503 0.24976091 -0.2542734
0001e0 c3 1f 97 bd d7 14 5e be 8e 27 34 3d c8 be 5e be
       -0.07379105 -0.21687637 0.043983035 -0.21752465
0001f0 0e 91 81 3e ae 98 44 3d 58 aa 4e 3b 20 2a aa bd
       0.2530598 0.04799717 0.0031534638 -0.08308816
000200 a2 77 03 3e e2 81 75 bd cf 21 0e be 30 f2 6d bd
       0.12838605 -0.05993832 -0.13880084 -0.058092296
000210 40 43 2a 3e d8 f4 18 3e 53 9b 64 bc 15 5a 1d bd
       0.16627216 0.1493715 -0.013953048 -0.038415987
000220 db e8 64 3e 28 30 85 be 62 95 2c be 43 3b 2f bd
       0.22354452 -0.26013303 -0.1685386 -0.042781126
000230 6d 61 f4 bc a8 42 35 3e 14 65 a2 3c f2 dc 64 3e
       -0.029831612 0.17701209 0.019823588 0.22349909
000240 a7 45 0d be 54 fa 0b 3e 0f 91 c1 3d 95 2e 33 be
       -0.13796102 0.13669711 0.09451496 -0.17498238
000250 ee f1 0b 3e 30 59 23 3e f0 8a 47 be 40 ce 60 be
       0.13666508 0.15951991 -0.19486594 -0.21953678
000260 87 6a 0f be 67 0a 66 bd 4f 62 1b be f3 2b 71 3d
       -0.1400548 -0.056162264 -0.1517422 0.058879804
000270 88 88 b4 3d a2 e1 88 bd c0 4b 1d 3d d1 53 e9 bd
       0.08815104 -0.06683661 0.03840232 -0.1139294
000280 25 64 ca bd d6 ea 02 3e 05 5a 73 bc d3 2c 0f be
       -0.09882382 0.12784895 -0.014853005 -0.13981943
000290 33 6f 36 3c ad 72 c8 3d 41 02 b8 bd 4d 86 c1 bd
       0.01113491 0.09787498 -0.08984805 -0.09449444
0002a0 6e 03 77 3c a7 ac 14 3e b2 b2 97 3b ec 94 0a 3e
       0.015076501 0.14518987 0.0046294564 0.13533372
0002b0 10 ae 0c be 94 ba 48 be 32 96 63 be 02 21 85 be
       -0.13738275 -0.19602424 -0.22225264 -0.26001745
0002c0 50 5f 03 3e 06 52 35 3a 05 f3 5d be a2 34 63 3e
       0.12829328 0.00069168245 -0.21674736 0.22188047
0002d0 54 c1 5e 3d 45 b5 30 be f5 48 02 3c 91 b1 40 3d
       0.05438359 -0.17256649 0.007951965 0.04704434
0002e0 30 e0 5b 3d 4b 83 42 be ff ba f5 bd a2 f2 3e 3e
       0.0536806 -0.18995397 -0.11998557 0.18647245
0002f0 0f 78 7e 3e 87 f9 63 3e 28 6a b1 b9 90 24 37 3e
       0.24850486 0.22263156 -0.00033839163 0.17885041
000300 dc a5 7d 3d 4e 66 61 3d ac 8c 99 bd 63 23 43 3e
       0.061925754 0.055029206 -0.07497534 0.19056468
000310 de 39 d6 3d fe 6a 44 be b1 6a 96 bd 82 77 20 3e
       0.10460256 -0.1918144 -0.073445685 0.15670589
000320 58 45 67 be 04 c9 3d bd b2 8e 23 be 93 42 b7 3d
       -0.22585046 -0.04633428 -0.15972403 0.08948245
000330 4f 5c ca 3c 5e 5f 56 be 3a ac 76 3e 67 ab 3a be
       0.02470222 -0.20934817 0.24089137 -0.18229447
000340 0e 8a d8 bc f1 99 80 3c 34 0a 88 bb 12 ec 44 3e
       -0.026433017 0.015698405 -0.004151607 0.19230679
000350 72 7d 13 3e 08 16 3a bd cd 08 8b 3c 64 a8 73 3e
       0.14403322 -0.045431167 0.01697197 0.23794705
000360 9e d5 e2 3d 8d 78 b8 3d 80 0f d4 bd a8 db 6e 3d
       0.110759005 0.09007368 -0.10354519 0.05831495
000370 fb f1 a8 bd 2a 2a 5e be 84 33 14 be 69 d3 67 3c
       -0.08249279 -0.21695772 -0.14472777 0.014149525
000380 cd 85 5b be
       -0.2143776

sequential_4/conv2d_22/Conv2D f4 [5, 3, 3, 5]
000000 01 33 3b 3e 7f 4a b1 bd f0 5f 48 bd 8d b4 1d 3e
       0.18281175 -0.08656787 -0.048919618 0.15400906
000010 8a 3e ba bc 4f 15 77 3d e0 fb 30 bd 01 9d 1c 3e
       -0.0227349 0.060323056 -0.043208957 0.15294267
000020 bd a1 54 be cc 8e 5f be 00 97 63 3e 48 f9 83 bd
       -0.20764823 -0.21831816 0.2222557 -0.06444031
000030 81 1a 4c 3e 40 43 33 3d f6 d4 b5 bc 8c 77 13 3e
       0.19931985 0.043765306 -0.022196274 0.14401072
000040 4b 20 2d bd cf 85 b1 bd c8 74 1a 3c 3e c5 bd 3a
       -0.042267125 -0.086681 0.009427257 0.0014478338
000050 02 b0 dd bc b5 b9 dd bd 60 c7 c9 bd 86 bf 17 be
       -0.027061466 -0.108264364 -0.09852481 -0.14819154
000060 fd d6 a9 bd 14 e4 6d 3e bf cd 7b be 88 28 3e bd
       -0.08292959 0.23231536 -0.24590205 -0.046425372
000070 c0 13 80 3e e3 b2 cb bd c0 52 4a 3e b4 dd cb 3c
       0.25015068 -0.09946229 0.19758129 0.02488599
000080 58 8b 87 3d 4c c9 97 bd 1f d8 78 be 48 7b 17 3e
       0.066183746 -0.07411441 -0.24301194 0.14793122
000090 1c fa 23 3e d0 5e 60 bd 54 a1 9b bd dd c0 40 3d
       0.16013378 -0.05477792 -0.0759913 0.04705893
0000a0 10 99 cf bd ac 71 3c 3d 4a 13 8e bc 10 0b df bd
       -0.10136616 0.046006843 -0.017343182 -0.10890782
0000b0 a8 c4 ac 3d e9 53 06 be c2 34 80 be 59 2a 63 3e
       0.08435947 -0.13117947 -0.2504025 0.22184123
0000c0 44 36 22 3e e1 0e 85 3e 81 67 ca bd f8 81 7a 3e
       0.15841013 0.25987914 -0.09883023 0.24463642
0000d0 ae 76 63 3c f7 ea 16 bd 2a 29 25 be b0 49 58 be
       0.013883276 -0.036845174 -0.16128984 -0.2112186
0000e0 79 ce 24 bd 29 74 55 3d c8 87 2e bd d5 f8 43 be
       -0.04023597 0.052112732 -0.04260996 -0.1913789
0000f0 b2 28 3b be 85 f7 2b 3c 46 d3 10 3e 72 bb 64 3e
       -0.18277243 0.010496025 0.14143094 0.2233713
000100 fc 08 14 3e 6d 6a 5f 3e 91 49 5e be ff d1 34 be
       0.14456552 0.21817942 -0.21707751 -0.17658232
000110 12 87 04 be 39 b9 44 3e 9c b9 96 3b df 00 7e 3e
       -0.1294215 0.19211282 0.004599763 0.2480502
000120 aa e3 40 3e fb be b8 bc 9a 8f 67 bd fb da b5 3c
       0.18836847 -0.022552004 -0.056533433 0.022199145
000130 c6 e4 7f 3e 8e 19 db bd 68 fa 80 be 9a f7 3e be
       0.24989614 -0.106982335 -0.25191045 -0.1864914
000140 6f 18 2d be 95 28 d8 bc b7 a6 53 3e b6 df 14 be
       -0.16903852 -0.026386539 0.20669065 -0.14538464
000150 6f 71 5c be 1e 0f 78 3e 55 f4 96 3c f8 6a 2c 3e
       -0.21527646 0.24224517 0.018427053 0.1683768
000160 42 a1 04 be fc 3e 8c 3d ea f0 24 bd 71 95 0a be
       -0.1295214 0.06847951 -0.040268816 -0.1353357
000170 c1 2b 21 be 8b ec 18 be d9 c6 39 be 15 ee 7d be
       -0.15739347 -0.14933984 -0.1814226 -0.24797852
000180 14 4c 0d 3e 50 67 42 3d 2b 80 98 3d 00 9c 06 bd
       0.13798553 0.047461808 0.07446321 -0.032863617
000190 61 76 7c bd 3c bf 1c be b7 28 9a bd 91 a3 81 bd
       -0.061636332 -0.15307325 -0.07527297 -0.06330026
0001a0 9b 6d 26 bd f1 14 d5 3d 7f 98 89 3d fc 59 9e 3d
       -0.04063187 0.10404385 0.067185394 0.07732007
0001b0 4f cb 7c bc 80 f4 ef 3b 0e 94 3f be e7 37 7a 3c
       -0.015429332 0.007322848 -0.18708822 0.015272117
0001c0 e3 94 d8 bc 9e 69 f9 3c c0 0e 31 3d 87 44 72 3e
       -0.026438182 0.03044587 0.043226957 0.23658954
0001d0 8a e7 bd bc 64 63 47 3d 4f 89 1d 3e 11 5b 8d bd
       -0.023181695 0.04867877 0.1538441 -0.06902135
0001e0 38 ad be 3d b8 fc 82 be 49 40 7e 3e 60 04 5a 3e
       0.093103826 -0.25583434 0.2482921 0.21290731
0001f0 75 e8 19 bd 73 43 7b bd 7e a2 35 be 18 da 57 be
       -0.037575204 -0.06134362 -0.17737767 -0.2107929
000200 9a 2b 08 3e 61 10 44 3e 77 e1 ba bc da 37 db 3c
       0.13297883 0.19146873 -0.022812588 0.02676003
000210 9d 84 08 3e a4 f4 9d 3d 24 87 46 3e f8 b3 84 bb
       0.13331838 0.07712677 0.1938749 -0.0040497743
000220 04 de 3b bd 4a ea 2d 3e 7c ce dd 3d a9 db 0b 3e
       -0.045866027 0.16983905 0.108303994 0.13658012
000230 f7 76 35 be 2e 6e 7b be ad 2d 0c 3d 53 34 97 3d
       -0.17721163 -0.24553749 0.034223247 0.07383027
000240 3c a2 1c 3e 18 80 97 bd 76 47 e5 3c 5d 12 23 3e
       0.15296263 -0.07397479 0.027988177 0.15924974
000250 72 3a 74 be 02 fd 02 3d ea 81 70 3d 18 c8 a1 bb
       -0.2385042 0.03197957 0.058717646 -0.004937183
000260 f2 5f 70 be af 15 88 bd ad 52 39 3d 84 50 ba bd
       -0.234741 -0.06644761 0.04524486 -0.090973884
000270 9f 8f 27 be 2e 60 2c 3e 57 f5 39 3e b7 17 11 3e
       -0.16363381 0.16833565 0.18159996 0.14169203
000280 eb d4 a5 bd 2b 24 33 3e 32 e7 b2 bc 9b e4 54 be
       -0.080972515 0.17494266 -0.021838758 -0.20790331
000290 74 8f 2b be d5 63 5e 3e 21 a1 b2 bb 58 29 4f be
       -0.16753942 0.2171777 -0.005451337 -0.20230615
0002a0 ed e6 c0 3d 0c 3d df 3d 4f ae 6d be d9 f4 1f be
       0.094190456 0.10900316 -0.23211025 -0.15620746
0002b0 0d a4 60 be 2e d2 11 3e 03 ed cb bd f1 34 21 3e
       -0.2193758 0.14240333 -0.09957316 0.15742852
0002c0 20 ef 90 3c d1 43 1d 3b 3a e3 9c bd 68 cf 5c be
       0.017692149 0.002399672 -0.076605275 -0.21563494
0002d0 db 8a 44 3e 5f 88 51 be 92 05 70 bd 5f b1 66 3e
       0.19193594 -0.20462178 -0.058599062 0.22528599
0002e0 b5 87 dd bb 82 c7 56 3b 86 a9 4d 3e d9 35 3c 3e
       -0.0067605623 0.0032772725 0.200842 0.18379916
0002f0 cf 3e 6e be 73 f3 6c be 51 a3 4f bc 2f 14 07 3e
       -0.23266147 -0.23139744 -0.012673215 0.13191293
000300 ce 46 b0 3d b4 37 c8 bd c8 92 6c 3e 51 00 61 3e
       0.08607255 -0.097762495 0.23102868 0.21972777
000310 bd a4 b7 3c 6d 7c 61 be 10 c1 e8 3d af 42 f2 bd
       0.02241742 -0.22020121 0.11364949 -0.11829125
000320 8c 23 fb bd 52 2f 56 bc 97 79 da 3d 50 77 15 3e
       -0.122626394 -0.0130728055 0.10667723 0.14596295
000330 5e 5c 81 3e cb 8c 9f 3d 4e 39 19 3d a3 26 41 3e
       0.25265783 0.07790526 0.037408166 0.18862395
000340 ed c0 3a 3e f5 cf 71 bd f4 41 48 be 54 17 46 be
       0.18237658 -0.059036214 -0.19556409 -0.19344836
000350 ec 4a 69 be a2 44 2d bd 1f 82 6b be 6c 78 46 3e
       -0.22782487 -0.04230178 -0.22998856 0.19381875
000360 5d fb e4 3d 5c 15 13 3e 14 ea 38 3e cd 5d 4d 3e
       0.11180756 0.14363617 0.18058044 0.20055313
000370 d7 22 d7 3d 98 d8 3b 3e 94 ba 5f be 69 be 45 be
       0.10504692 0.18344343 -0.21848518 -0.19310917
000380 94 fc 2a 3c
       0.010436196

sequential_4/conv2d_23/Conv2D f4 [5, 3, 3, 5]
000000 83 7a 27 be 4b 01 57 bd 07 ab d7 3d 87 03 62 bd
       -0.16355328 -0.052491467 0.10530668 -0.055179145
000010 e1 ae 00 be fe d7 10 be 7c 5d 6e 3e 56 23 69 3e
       -0.12566711 -0.14144894 0.23277849 0.22767386
000020 e9 c5 24 3c 13 44 21 3e d9 c8 0f be e6 ce 39 be
       0.010056951 0.15748625 -0.14041461 -0.18145332
000030 b8 99 89 3d 11 61 85 be a9 16 3d be fc 5a 9a bd
       0.06718773 -0.26050618 -0.18465675 -0.07536885
000040 31 ec 51 be ef 4a 08 3e e3 6a f1 3d de 86 6c 3e
       -0.20500256 0.13309835 0.11787965 0.23098323
000050 88 be 01 be 50 e9 1b be 15 1f 73 3e a1 87 08 bd
       -0.12670338 -0.1522572 0.23742326 -0.03333247
000060 11 79 17 3e ca f8 02 be 5a a0 15 3d 37 0c 0a 3d
       0.14792277 -0.12790218 0.036529876 0.033703055
000070 47 c0 fd 3d f2 88 40 bd e3 91 af bd ba 0c bc bd
       0.123901896 -0.0470056 -0.085727476 -0.09182115
000080 23 e4 62 3e 05 a1 c1 3d 57 1e 0b 3d 4d 1f 3f 3d
       0.2215734 0.0945454 0.03396448 0.04666071
000090 47 55 82 3c 8a 62 2d bd 73 5f 03 3e 35 84 77 be
       0.015909804 -0.042330302 0.1282938 -0.24171527
0000a0 cd a0 04 be e5 3d 82 be 01 86 46 be 12 84 6c be
       -0.12951966 -0.25437847 -0.19387056 -0.23097256
0000b0 66 70 72 be 75 97 35 be 5a 54 9e 3d 73 ce 47 3c
       -0.23675689 -0.17733558 0.077309325 0.012195217
0000c0 b3 76 67 3c 22 87 39 bd be ca 5a 3e 33 d8 74 3d
       0.014127421 -0.04529489 0.21366403 0.059776496
0000d0 5e b7 a1 3d bc d1 63 be dc 56 30 3e 85 e3 a6 3d
       0.07896303 -0.22247976 0.17220634 0.08148865
0000e0 7f 1b 8e 3d 80 db 90 3d 79 e3 c6 3d e4 3d e6 bc
       0.06938838 0.07073116 0.09711356 -0.028105684
0000f0 07 67 d3 3d 6c 0a c8 bd e2 c7 e7 bd 29 3d b7 bd
       0.10322385 -0.09767613 -0.113174215 -0.08947212
000100 c9 e5 1c 3e 83 54 ad 3c 54 d0 b7 3d 72 dd 47 3e
       0.15322031 0.021158462 0.08975282 0.19518068
000110 04 d9 1f be e0 14 40 be 7c 0d 41 be 42 f7 56 be
       -0.15610129 -0.18757963 -0.188528 -0.20992759
000120 3b 9c 45 be 39 c0 6d 3e 4b e5 5f 3e d5 fd 62 3e
       -0.19297878 0.23217858 0.21864812 0.22167142
000130 eb 3b 57 bd 08 50 81 be e9 90 0c 3e 76 47 3d 3e
       -0.052547377 -0.25256371 0.13727154 0.18484291
000140 0d f2 30 3e 45 c0 9e 3d 0c e4 74 be 86 86 76 bd
       0.17279835 0.07751516 -0.23915118 -0.060186885
000150 f7 99 45 3e 67 8d 6b 3a 24 61 4d 3e c6 a0 57 3e
       0.19297014 0.0008985609 0.20056587 0.21057424
000160 2d 31 1b be 17 bc 2f bd 75 a6 84 3e c2 cb 3d be
       -0.15155478 -0.042903986 0.25908247 -0.18534759
000170 de 11 a3 bd 13 27 17 3e 55 d1 08 3e b6 a1 7c be
       -0.07962392 0.14761 0.13361104 -0.24671063
000180 79 05 e6 3d 43 0a 49 3e b2 17 1b 3e d3 65 06 3e
       0.112315126 0.19632821 0.15145758 0.1312478
000190 46 2c 3f be e0 48 38 bd 58 6a 48 3e 89 7e 75 3e
       -0.18669233 -0.044991374 0.19571817 0.2397405
0001a0 ad 11 1d be d1 99 58 3e 29 13 be bd 72 27 80 be
       -0.15338774 0.21152426 -0.09280998 -0.25030094
0001b0 d9 4a 68 3d ab 06 36 be 94 b1 00 bc 20 2d 1c 3e
       0.056712005 -0.17775981 -0.007854838 0.15251589
0001c0 a0 bc 32 3e 92 f8 7f bb bd 65 e4 bd ef 22 b6 bd
       0.17454767 -0.0039058072 -0.111522175 -0.08893382
0001d0 e0 ce b4 3d 43 7c 09 3e ee 9f 43 3e 3f 10 8c bc
       0.08828521 0.13426308 0.19103977 -0.01709759
0001e0 c7 9c 9f 3d 30 db 53 be 80 f4 57 be d2 af f7 bc
       0.07793575 -0.20689082 -0.21089363 -0.030235205
0001f0 07 c9 99 bd ab 4b 77 3e c9 f6 78 3e 86 56 51 3e
       -0.07509046 0.24149959 0.24312891 0.20443162
000200 5f a2 10 3d f1 ae 71 be 40 d8 91 3c df f7 b6 bd
       0.0353111 -0.23601891 0.017803311 -0.089339964
000210 9c 74 80 3e 90 55 75 be e8 8e 8d bd 31 10 39 be
       0.25088966 -0.23958421 -0.06912023 -0.18072583
000220 b8 dc 6c bc ff 58 50 3e a7 94 3c 3e 61 e0 6c bb
       -0.01445692 0.2034645 0.18416081 -0.0036144482
000230 ee cf a6 3d ce ef 0a 3e b5 3a 7b 3e c0 02 c7 bd
       0.08145128 0.1356804 0.24534114 -0.097173214
000240 1b f7 4e 3d e3 ad d7 3d ea 7b 46 3d a3 03 b8 3d
       0.050528627 0.10531213 0.048458017 0.08985069
000250 e7 66 d9 bd 27 28 f4 bd 5b f1 74 bd 59 3f e1 3d
       -0.1061533 -0.11921721 -0.059800487 0.10998411
000260 33 52 70 3e cd 0e aa 3d fc 73 60 be 2c 4e 65 be
       0.23468857 0.08303604 -0.21919245 -0.22393101
000270 84 5d ff bd f8 bb 25 3e 3b 57 7f be e8 f1 59 3e
       -0.124690086 0.16184986 -0.2493562 0.21283686
000280 94 62 70 be a6 ce b1 3d 38 d6 f1 3d fb 07 2d 3e
       -0.23475105 0.08681993 0.11808437 0.16897576
000290 d6 b8 72 be cf 50 b7 3d 57 c8 83 3e cd 2e 04 bd
       -0.23703322 0.0895096 0.25738785 -0.032271195
0002a0 5a b4 ef 3d 67 0e 64 be 46 a9 8f bd 54 9f 55 bd
       0.11704321 -0.22271119 -0.07014708 -0.0521539
0002b0 d9 14 e7 bd 82 51 3e be eb c4 68 bc 45 6a 3a be
       -0.11283273 -0.1858578 -0.014207105 -0.18204601
0002c0 9f 19 47 be 57 37 01 3e bf 9f 22 3d 90 54 35 be
       -0.19443367 0.12618767 0.039703127 -0.1770804
0002d0 38 5b 40 3e 1f b5 33 3e a6 4c 32 3e c2 a1 3f be
       0.18784797 0.17549561 0.17412052 -0.1871405
0002e0 5c 34 41 3e 01 7d 99 3d 68 c5 77 3e 3d 0a 2e 3e
       0.1886763 0.07494546 0.24196398 0.16996093
0002f0 c7 26 a4 3d b0 c3 db 3b ef a0 0b be 7e e8 70 3e
       0.08015209 0.0067066774 -0.1363561 0.23526189
000300 a7 00 2f 3d 38 39 fa 3d d8 76 5a 3e 6b af 34 be
       0.04272523 0.12217945 0.21334398 -0.17645042
000310 aa ae 2b 3e 53 a6 54 3e 63 64 2f 3d 26 c3 d4 bd
       0.16765848 0.20766573 0.042820346 -0.10388784
000320 d4 71 0f bd 77 0e 3c bc 89 f7 c7 3d 05 57 56 be
       -0.035020664 -0.011478058 0.097640105 -0.20931633
000330 58 72 a8 bc 91 da 38 3d 74 66 ce bd d0 15 2f 3d
       -0.020562336 0.045130316 -0.10078135 0.04274541
000340 ea a0 d8 bc cc e7 62 3e c8 f6 76 3e 7a 3c 32 be
       -0.026443917 0.22158736 0.24117577 -0.17405882
000350 bc 35 ca bd 40 ed 59 3e 42 55 5b be 0e 36 39 be
       -0.0987353 0.2128191 -0.21419242 -0.18087026
000360 7b 2b 01 be 0f ed 16 be 8d 77 bf 3d f0 da 4c 3e
       -0.12614243 -0.14738868 0.093489744 0.20005393
000370 c7 3a 9b 3d 08 e4 01 bd 51 53 5c be 59 0e 26 3d
       0.0757957 -0.03171161 -0.21516158 0.040541027
000380 5b 7c a8 3d
       0.08226844

sequential_4/conv2d_24/Conv2D f4 [5, 3, 3, 5]
000000 eb 8f 61 bd 3f 80 62 bd 2f ff 86 bd 59 67 01 3e
       -0.05506889 -0.055298086 -0.06591641 0.1263708
000010 62 d4 28 be dc f4 39 be a5 ff ac bd c0 e7 53 3e
       -0.16487268 -0.18159813 -0.08447198 0.20693874
000020 d9 39 7f 3d 78 fa f7 3d 9d b8 6f be e2 fa 89 3d
       0.062311027 0.1210832 -0.23410268 0.06737305
000030 ed df 7e be 69 e4 03 be 06 2a 72 3c 95 01 0b 3e
       -0.24890108 -0.128801 0.014780527 0.13574822
000040 b1 0b f8 3d 83 71 00 bd 4c 72 e1 bc a1 02 c3 bd
       0.12111605 -0.031358253 -0.027520321 -0.09521986
000050 74 c9 02 3e 1e 0f 63 3d 6b eb 36 be 2f 82 07 bc
       0.12772161 0.05543434 -0.17863242 -0.008270784
000060 c7 7e 47 3e 31 91 36 3d 5a 46 9e bd 30 8a 45 3e
       0.19481955 0.04457206 -0.07728262 0.19290996
000070 48 d4 9b 3d 6a 3c b2 3d e6 24 5c be f1 ff 1b be
       0.07608849 0.08702929 -0.2149845 -0.15234353
000080 d4 2e 7c 3d 45 e9 2b 3e 60 fa 22 bd cf 2a 27 3c
       0.061568096 0.16788204 -0.039789557 0.010203077
000090 b7 98 b1 bd f5 48 43 be f6 40 3e 3e 0c a2 be bd
       -0.08671706 -0.190708 0.18579468 -0.09308252
0000a0 4e 4e d0 bd 5f 46 72 be e5 b7 55 3e 39 c6 eb 3d
       -0.101711854 -0.23659657 0.20870931 0.11512417
0000b0 22 5d 70 bd 6b ac f8 b9 f1 2b c1 3d 21 f4 93 bd
       -0.05868257 -0.00047430707 0.09432209 -0.07224298
0000c0 8e 2c 22 3d 9a c9 e0 bd 3a 03 41 be e1 94 89 bd
       0.039593272 -0.109759524 -0.18848887 -0.067178495
0000d0 1b e4 12 3e a5 4c c5 3d a1 dc 66 3e 21 16 5f be
       0.14344828 0.096337594 0.22545101 -0.21785785
0000e0 38 21 5f 3e 58 fe 5b be 2f 25 5a 3e eb 61 3a 3d
       0.21790016 -0.21483743 0.21303247 0.045503538
0000f0 6f 30 ad bd 10 c1 c9 3d 5b f0 85 be 7a bb 5e 3e
       -0.084565036 0.09851277 -0.2615994 0.21751204
000100 5a 7c fc 3d 67 8a 02 3e c3 3e 50 be a3 9f 74 3e
       0.12328406 0.12748109 -0.20336442 0.23889022
000110 82 54 d9 bd 0d 8d 05 be 02 28 41 3e d1 57 6f 3e
       -0.10611822 -0.13042088 0.18862918 0.23373343
000120 f2 18 9e 3d b7 68 46 3e d9 29 83 3b 5b 08 6f 3e
       0.07719602 0.19375883 0.0040027914 0.23343031
000130 13 02 54 3e bf bb f5 3d dd 7b 61 bb 34 e3 3b bd
       0.20703916 0.119987 -0.0034406104 -0.045870975
000140 3c 76 10 3d ab c4 82 3e 50 1a 15 be 99 42 71 3e
       0.035269007 0.2554067 -0.14560819 0.23560561
000150 8f 20 7c 3e 1b 42 83 be f1 ba 3e be 29 4c 8e 3d
       0.24621795 -0.25636372 -0.18626 0.0694812
000160 31 c9 81 be 9a 14 66 be 45 56 68 3e 1a 3e 6e 3e
       -0.2534881 -0.22468796 0.22689159 0.23265877
000170 fc c3 9b bd c1 70 0e 3e 12 e7 80 3b 91 b9 40 bd
       -0.076057404 0.139102 0.0039337957 -0.04705197
000180 9a c8 6b be cb 49 8a be 14 3f 49 be a7 a6 5a 3e
       -0.23025742 -0.27009425 -0.19652969 0.21352635
000190 2b 12 04 3e e5 45 46 bd 0c 2a 99 3c 5b a2 62 be
       0.12897556 -0.0484065 0.018696807 -0.22132246
0001a0 61 94 79 be f6 31 85 bd 61 57 81 be 7b af 81 be
       -0.24373008 -0.0650367 -0.25261977 -0.25329193
0001b0 4a 29 ba bd 0d 76 92 3d dc c5 29 3e b6 4f 39 3e
       -0.090899065 0.07151423 0.16579384 0.18096814
0001c0 bb dd d2 3d 59 2d d1 3d 08 95 3b 3e af f2 04 3e
       0.10296198 0.102137275 0.1831857 0.12983201
0001d0 5b 75 6b be 0c 4c c3 bd 1e d8 50 bd 6b fe eb 3d
       -0.22993986 -0.09535989 -0.050987355 0.11523136
0001e0 0e bc ff 3d 3a b6 52 be ee 10 89 be 0f 32 7c 3e
       0.124870405 -0.20577326 -0.2677073 0.24628471
0001f0 fd 6c 28 3e db ce 71 3e 50 60 a4 3d f8 62 1c be
       0.16447826 0.23614065 0.08026183 -0.15272129
000200 e0 df 80 3c d6 ad 4b 3e c3 99 9c bd b5 5c 9f bd
       0.015731752 0.19890532 -0.07646515 -0.07781354
000210 0d d1 c4 3d e6 87 71 3d 08 53 4b be c5 a8 6a bd
       0.09610186 0.058967493 -0.19855893 -0.057289857
000220 72 38 e5 3d 53 7c 91 3d 99 d8 4f be bf 99 40 be
       0.11192407 0.07103791 -0.20297469 -0.1880865
000230 b1 3f 36 3e 72 28 13 3e 0a 45 c1 bd c8 b1 e8 bd
       0.17797734 0.14370897 -0.09436996 -0.11362034
000240 54 ca 73 be 66 08 2a be 75 90 2f be 1b d9 c0 bd
       -0.23807651 -0.16604766 -0.1714495 -0.094164096
000250 95 76 90 3c ec 2b a0 bd f1 fa 83 be fb 59 13 3e
       0.01763467 -0.078208774 -0.2577739 0.14389794
000260 22 1c 29 be 9c 2c 59 be 57 f9 10 3e df b1 6d bd
       -0.16514638 -0.21208423 0.14157616 -0.05803096
000270 1b 74 68 be fd 87 fa bd ae e0 1b bd b8 5f 2c 3e
       -0.2270054 -0.12232969 -0.038056068 0.16833389
000280 d1 a5 36 be 93 02 61 bd 96 88 15 be 7c 48 73 3d
       -0.17836691 -0.054934096 -0.14602885 0.0593953
000290 5a 1c 1c 3e 3a cf 0d be 73 24 48 3e 45 d6 3d 3e
       0.1524519 -0.13848582 0.19545154 0.18538769
0002a0 7d 98 c9 3d ef d5 df 3d 57 26 df 3d cd 6b 2e be
       0.09843538 0.109294765 0.108959846 -0.1703331
0002b0 96 b3 85 3d 7f ec 57 be c5 30 7f be 2e 06 7e 3e
       0.06528394 -0.2108631 -0.24920948 0.24807045
0002c0 4c 78 6b bd dc 1e 5b be 58 dd 2a be eb 23 c3 3d
       -0.05748777 -0.2139849 -0.16685998 0.09528335
0002d0 3b 47 4f 3d eb 36 6a 3e 67 49 81 3e 3d 88 87 be
       0.05060504 0.22872512 0.25251314 -0.2647113
0002e0 f8 0e e8 bc 2b c2 50 be 77 b2 20 3b 13 cc 76 3e
       -0.02832745 -0.20386569 0.0024520436 0.24101286
0002f0 30 c1 f1 bb 64 7f 03 3e 00 92 5d be 1b 85 9c bd
       -0.007377766 0.12841564 -0.21637726 -0.07642575
000300 12 c5 bf bd de 66 61 3e 4f ef 6e be 3e b9 14 3d
       -0.0936376 0.22011897 -0.23333476 0.036309473
000310 db d8 08 be 1a f5 0c 3e 48 fe b2 3d 11 3f 73 bd
       -0.13363974 0.13765374 0.087399065 -0.059386317
000320 99 57 69 3c 06 22 05 bb 3e d3 9a bd 21 18 6f 3d
       0.014242076 -0.002031447 -0.075598225 0.05837262
000330 78 d9 1c be 3f 2b 5e be ef 6f 52 3c 23 c5 4f 3e
       -0.15317333 -0.21696185 0.01284407 0.20290045
000340 be dc 32 bd 3a 12 c3 3d be f6 91 3d cf 55 9e bd
       -0.043667547 0.09524961 0.071271405 -0.077312104
000350 32 62 bf 3d 72 3f 9a 3d be e5 99 bd eb 9d 0d 3d
       0.09344901 0.075316325 -0.07514523 0.03457443
000360 5b 2b 08 be c7 4d 5e be a1 98 6f 3d 1c 5b 4c bd
       -0.13297789 -0.21709357 0.058495168 -0.049891576
000370 03 67 40 be df 93 83 bd a4 68 34 3e 16 25 01 be
       -0.18789296 -0.064246885 0.17618042 -0.12611803
000380 9f 69 9a bd
       -0.07539677

sequential_4/dense_9/BiasAdd/ReadVariableOp f4 [7]
000000 66 0e 9b bc 88 c2 0d bb 29 cc 95 ba b2 b5 cd 3b
       -0.018927764 -0.0021630842 -0.0011428642 0.0062777633
000010 88 ab e4 3b 6f e0 ca bb 8c f1 c0 bb
       0.006978456 -0.0061913054 -0.0058881696

sequential_4/dense_8/BiasAdd/ReadVariableOp f4 [64]
000000 9d 58 8a ba 18 03 0c b9 e4 09 da bb f0 61 86 bb
       -0.0010554973 -0.00013352593 -0.006654011 -0.0041010305
000010 b7 e0 d4 ba f2 0e 95 3a 75 40 73 bb 4e 4f 02 bc
       -0.0016241287 0.0011372252 -0.0037117277 -0.007953478
000020 84 09 02 3c c5 14 4f 3b 45 f2 cd bb 01 8c b8 bb
       0.007936839 0.0031598073 -0.0062849843 -0.005631924
000030 30 de 4d bb 0e e7 d7 ba 8e 26 81 3b 37 ae 2e bb
       -0.0031412952 -0.0016472058 0.0039413637 -0.0026654133
000040 4a e7 f5 bb df 19 c4 ba 65 8f d4 ba d5 c9 ad 3a
       -0.0075043784 -0.0014961323 -0.0016217051 0.0013259003
000050 8b 8c 50 3b d4 6c 08 3b 71 f6 d0 3a c5 7d 11 bb
       0.0031822051 0.002081682 0.0015942586 -0.0022200209
000060 7d 30 0b bc 9c 23 51 39 d9 93 72 bb 8e fb a4 bb
       -0.008495447 0.00019945059 -0.0037014394 -0.0050348705
000070 e0 98 ce 39 1d 6b b6 bb a5 fa 93 ba 0c 5f 2a bc
       0.00039405283 -0.005566968 -0.0011289908 -0.0103986375
000080 43 e6 c1 3a 76 d5 ec ba 10 3c 74 3b dc 27 af ba
       0.0014793355 -0.0018068987 0.0037267245 -0.001336332
000090 b9 a5 d0 bb 0b 0c 0a bb 3c b6 09 bc 8d 5d db b9
       -0.006367412 -0.0021064307 -0.0084052645 -0.00041840636
0000a0 4a 67 17 3b b4 71 91 3a 74 c4 cf bb 68 e8 9c bb
       0.0023102337 0.0011096508 -0.0063405577 -0.004788447
0000b0 f1 e6 c9 bb 94 02 3e bc 6f b9 01 ba 62 97 7d 3b
       -0.0061615636 -0.011597294 -0.0004948591 0.0038694968
0000c0 34 25 d7 3a 89 ee cf bb 46 63 89 bb c4 30 eb ba
       0.0016414286 -0.0063455743 -0.0041927425 -0.001794361
0000d0 13 a0 2f 3a 36 91 3b bb 52 46 05 3c 1d 25 01 bb
       0.0006699573 -0.0028620488 0.008134441 -0.001970596
0000e0 34 bb 02 bb 6b 8c 54 3b 07 c1 29 bc fc 25 bd bb
       -0.0019948008 0.0032432328 -0.010360963 -0.0057723504
0000f0 36 34 a7 38 f9 a3 8d ba 66 47 2e 39 f5 ee a9 bb
       7.9729056e-05 -0.0010806314 0.00016620531 -0.0051859566

sequential_4/batch_normalization_20/FusedBatchNormV3 f4 [5]
000000 89 7e 04 3d e7 45 25 3c 9e f8 9e 3c 7d 4a 5c 3e
       0.032347236 0.010087467 0.01940566 0.2151279
000010 4c c4 47 3c
       0.012192797

sequential_4/batch_normalization_20/FusedBatchNormV31 f4 [5]
000000 4f 36 37 bf 48 26 09 bf c1 ca 6a bf cf c8 6d bf
       -0.71567243 -0.5357404 -0.9171563 -0.92884535
000010 20 0b 05 bf
       -0.519701

sequential_4/batch_normalization_21/FusedBatchNormV3 f4 [5]
000000 de 34 16 40 cd 10 c8 3f d9 f8 f7 3f d2 ea 32 40
       2.3469768 1.5630127 1.9372817 2.7955823
000010 6f bf 7f 3f
       0.9990148

sequential_4/batch_normalization_21/FusedBatchNormV31 f4 [5]
000000 18 76 a5 bf 39 02 2a bf 40 9f 77 bf b5 b3 a0 bf
       -1.2926664 -0.6640964 -0.9672737 -1.2554842
000010 c3 5e 0b bf
       -0.5444147

sequential_4/batch_normalization_22/FusedBatchNormV3 f4 [5]
000000 58 73 e8 3f bf 18 9b 3f 2f c3 1e 40 0e 00 c2 3f
       1.81602 1.2116927 2.480663 1.5156267
000010 b8 fa 65 3f
       0.8983569

sequential_4/batch_normalization_22/FusedBatchNormV31 f4 [5]
000000 fb 3e 85 bf 02 05 1d bf cc 3d 78 bf 70 9c 4d bf
       -1.0409845 -0.61335766 -0.96969295 -0.8031683
000010 d7 d9 0b bf
       -0.5462927

sequential_4/batch_normalization_23/FusedBatchNormV3 f4 [5]
000000 5d 49 90 3f f3 9f aa 3f 09 81 78 3f fd c7 78 3f
       1.1272389 1.3330063 0.9707189 0.9718016
000010 50 4a 62 3f
       0.8839464

sequential_4/batch_normalization_23/FusedBatchNormV31 f4 [5]
000000 71 44 45 bf 95 fb 24 bf 2d 9f 29 bf bc 1b 3b bf
       -0.7705756 -0.64446384 -0.6625851 -0.73089194
000010 cc 36 d1 be
       -0.4086212

sequential_4/batch_normalization_24/FusedBatchNormV3 f4 [5]
000000 8e d3 2d 40 b3 8f 61 3f c8 3b 88 3f 57 9c 11 40
       2.7160373 0.8810989 1.0643244 2.2751672
000010 b1 2e 20 40
       2.5028498

sequential_4/batch_normalization_24/FusedBatchNormV31 f4 [5]
000000 98 79 6f bf d3 64 bb be fa 1f 3b bf 39 58 a3 bf
       -0.9354491 -0.3660036 -0.7309567 -1.2761298
000010 1a 24 6d bf
       -0.9263321

sequential_4/dense_8/MatMul i1 [64, 8450] scale=0.00036059716 zero_point=0
000000 bc 21 29 26 fd df c1 f3 dd 2f 11 2c 34 05 38 3d
       -0.024520606 0.011899706 0.014784483 0.013702692 -0.0010817915 -0.011899706 -0.022717621 -0.004687763 -0.012620901 0.016948067 0.0061301515 0.015866276 0.018751051 0.0018029858 0.02019344 0.021996427
000010 01 3d 19 0e c9 f3 d1 d1 0b 27 1f 38 1e e3 be d0
       0.00036059716 0.021996427 0.009014929 0.00504836 -0.019832844 -0.004687763 -0.016948067 -0.016948067 0.003966569 0.014063289 0.011178512 0.02019344 0.010817915 -0.010457317 -0.023799412 -0.017308664
000020 05 ca a9 ec 3a 3b c6 14 b4 4d ba f0 22 0a 61 ac
       0.0018029858 -0.019472247 -0.03137195 -0.007211943 0.020914635 0.021275232 -0.020914635 0.007211943 -0.027405385 0.027765982 -0.025241802 -0.0057695545 0.012260303 0.0036059716 0.034977924 -0.03029016
000030 ee 3e 35 e7 1f 1b 30 b0 cf 1c 2c ca 0f 1e ce f5
       -0.006490749 0.022357024 0.01911165 -0.009014929 0.011178512 0.0097361235 0.017308664 -0.028847773 -0.01766926 0.01009672 0.015866276 -0.019472247 0.0054089576 0.010817915 -0.018029857 -0.003966569
000040 0c ed 3d be 17 0e 17 1e c7 f1 19 3f e0 eb cc c5
       0.004327166 -0.006851346 0.021996427 -0.023799412 0.008293735 0.00504836 0.008293735 0.010817915 -0.020554038 -0.0054089576 0.009014929 0.022717621 -0.011539109 -0.00757254 -0.018751051 -0.021275232
000050 10 e4 b8 e4 21 10 f8 c1 1d 22 c5 c6 f4 fb d2 d7
       0.0057695545 -0.01009672 -0.025962995 -0.01009672 0.011899706 0.0057695545 -0.0028847773 -0.022717621 0.010457317 0.012260303 -0.021275232 -0.020914635 -0.004327166 -0.0018029858 -0.01658747 -0.014784483
000060 10 00 de e3 95 df b6 9f 18 03 16 ed 2e af a6 42
       0.0057695545 0.0 -0.012260303 -0.010457317 -0.038583897 -0.011899706 -0.02668419 -0.034977924 0.008654332 0.0010817915 0.007933138 -0.006851346 0.01658747 -0.02920837 -0.032453746 0.023799412
000070 15 31 03 05 65 c9 06 0f c8 53 f5 25 f3 39 ff f9
       0.00757254 0.01766926 0.0010817915 0.0018029858 0.03642031 -0.019832844 0.002163583 0.0054089576 -0.02019344 0.029929563 -0.003966569 0.013342095 -0.004687763 0.020554038 -0.00036059716 -0.00252418
000080 ef 36 01 19 0e 07 04 18 03 ef 21 fb 28 e1 f1 ed
       -0.0061301515 0.019472247 0.00036059716 0.009014929 0.00504836 0.00252418 0.0014423886 0.008654332 0.0010817915 -0.0061301515 0.011899706 -0.0018029858 0.014423886 -0.011178512 -0.0054089576 -0.006851346
000090 f4 d7 c6 0b f4 15 34 40 f1 af ff 46 05 15 c0 2f
       -0.004327166 -0.014784483 -0.020914635 0.003966569 -0.004327166 0.00757254 0.018751051 0.023078218 -0.0054089576 -0.02920837 -0.00036059716 0.025241802 0.0018029858 0.00757254 -0.023078218 0.016948067
0000a0 22 33 38 9b ea 3e 06 0a fb d4 ae 5d 12 cd 45 b1
       0.012260303 0.018390454 0.02019344 -0.03642031 -0.007933138 0.022357024 0.002163583 0.0036059716 -0.0018029858 -0.015866276 -0.029568966 0.033535536 0.006490749 -0.018390454 0.024881205 -0.028487176
0000b0 2a 2d ef 41 e1 14 b2 ff 61 ed 09 af f1 28 14 e1
       0.01514508 0.016226873 -0.0061301515 0.023438815 -0.011178512 0.007211943 -0.028126579 -0.00036059716 0.034977924 -0.006851346 0.0032453744 -0.02920837 -0.0054089576 0.014423886 0.007211943 -0.011178512
0000c0 a4 55 c6 34 da 01 e2 d5 00 20 2c fc 3d dc eb a8
       -0.03317494 0.03065076 -0.020914635 0.018751051 -0.013702692 0.00036059716 -0.010817915 -0.015505678 0.0 0.011539109 0.015866276 -0.0014423886 0.021996427 -0.012981498 -0.00757254 -0.03173255
0000d0 59 ab 1b c3 07 18 3c 50 fe 0d f7 e4 ee 26 40 a8
       0.03209315 -0.03065076 0.0097361235 -0.021996427 0.00252418 0.008654332 0.02163583 0.028847773 -0.0007211943 0.004687763 -0.0032453744 -0.01009672 -0.006490749 0.013702692 0.023078218 -0.03173255
0000e0 1d d0 ca ee 21 de 3d e6 c3 9c f5 1b 4f c4 2f 20
       0.010457317 -0.017308664 -0.019472247 -0.006490749 0.011899706 -0.012260303 0.021996427 -0.009375526 -0.021996427 -0.036059715 -0.003966569 0.0097361235 0.028487176 -0.02163583 0.016948067 0.011539109
0000f0 27 0b 2d f5 fc f6 46 a3 f9 e6 0e ea 0c f8 39 39
       0.014063289 0.003966569 0.016226873 -0.003966569 -0.0014423886 -0.0036059716 0.025241802 -0.033535536 -0.00252418 -0.009375526 0.00504836 -0.007933138 0.004327166 -0.0028847773 0.020554038 0.020554038
