saved_model/quantized_models/layers5/trial1/paramcount108739.tflite (tflite, 119112 bytes, 9 tensors)

sequential/dense_1/MatMul f4 [7, 64]
0.10914136 -0.1285599 -0.13683553 0.011197307 -0.08421845 7.5841745e-05 0.0067318752 0.12958844
0.045214914 -0.23545063 -0.32592183 -0.11239883 0.10499994 -0.036714304 0.13438162 0.14903422
-0.056386616 0.21848992 0.24256778 -0.006151369 -0.19985819 0.25379708 0.18013978 -0.07872509
-0.13360982 -0.28826356 -0.05979628 0.10732061 0.25023073 0.124101624 -0.16684419 -0.13138582
0.026556525 -0.17153439 -0.21142703 0.13948399 0.22902904 -0.034775514 0.02245718 0.11257169
-0.25829443 -0.010041815 0.06637019 0.26642597 0.20122132 -0.16361624 -0.051987298 0.2676654
-0.16539131 0.2261388 0.23603687 -0.28860527 -0.27313042 0.24747933 -0.08276106 0.13221171
0.01679133 0.12939493 -0.099874035 -0.16132091 -0.17173593 0.24717663 0.032237776 -0.26844785
-0.032935876 -0.2675587 -0.2385654 0.28062695 -0.27874103 -0.011350728 0.023931583 0.030780226
0.07149769 -0.21862762 -0.12689966 -0.027765552 0.080964826 -0.030456118 -0.015392291 -0.15052776
-0.024182843 -0.27826092 0.1352152 -0.10387135 -0.20179284 -0.033372935 -0.15356152 0.046937037
0.13460459 -0.09228479 0.28862977 -0.21224898 -0.092132665 0.14809677 0.09096169 0.20973296
0.2925323 -0.20694108 -0.0652952 -0.0877834 0.12389735 0.2670391 0.015946567 0.1443163
-0.20521447 0.02015368 0.23288204 0.06523232 0.22350125 0.2725083 0.23961271 0.21143876
-0.1931923 0.15090954 -0.030183792 -0.13627586 0.047461707 0.25636214 -0.1002581 0.13455808
0.028808804 0.21973754 0.04738304 0.06830902 0.15666707 -0.070827395 0.22132295 0.17470363
-0.1162827 0.28850225 0.118575424 0.2160137 0.025212482 -0.17907506 0.11580136 0.17679793
0.1870112 -0.049318723 -0.020875752 -0.28371572 -0.033508316 0.12281162 -0.26016754 -0.115491025
0.06227322 -0.09499592 -0.124602236 0.1870145 -0.13408943 -0.22631335 0.28384414 -0.06666644
-0.15227683 0.19294302 0.15715413 0.2872531 0.23446973 -0.25181884 -0.03732511 -0.07113595
0.24467477 -0.0445341 -0.26450515 -0.13037391 -0.23144124 0.00074907474 0.22059155 0.19844212
-0.25402513 -0.08559372 0.058855478 0.17257313 0.27484038 0.26216134 0.2212752 0.011390464
0.17416012 -0.008734768 -0.27447477 0.009650935 0.11989635 0.020915514 -0.08441212 0.2651789
-0.06426877 -0.18000323 -0.05174546 0.17085847 -0.15454552 -0.072382055 -0.09441134 0.28525227
0.039533094 -0.08304895 0.25108987 0.24380955 0.022974081 -0.2538524 -0.061453853 -0.09786996
0.25737602 0.20709582 -0.057861328 0.17552567 0.016418196 0.1494597 -0.12087421 0.27590588
-0.028372675 -0.07265056 -0.1849637 -0.22704452 0.0589118 -0.21784237 -0.12964897 -0.026752912
-0.1449209 -0.08390703 -0.24730006 -0.2738214 0.11646037 -0.036495555 -0.1246191 -0.11462971
0.075977415 0.20512839 0.051998243 -0.014942435 0.06179919 -0.24953254 -0.26499358 -0.18522169
0.2381274 -0.18064523 0.28322926 -0.20325911 0.13793041 0.24950415 0.118123524 -0.2737739
-0.0959838 0.1576384 -0.02052474 -0.004234539 0.013512931 -0.13814972 0.25678465 0.27632296
0.051692482 -0.22915106 -0.08775933 0.07042466 0.021153053 0.20184389 -0.023006914 0.2306299
00000000: 8185 df3d 35a5 03be 9d1e 0cbe e974 373c
00000010: b97a acbd 3a0d 9f38 1097 dc3b d5b2 043e
00000020: 4633 393d f819 71be 3adf a6be 5c31 e6bd
00000030: 350a d73d bd61 16bd 569b 093e 6d9c 183e
00000040: a7f5 66bd d2bb 5f3e b063 783e 6c91 c9bb
00000050: a0a7 4cbe b1f1 813e 9076 383e 9f3a a1bd
00000060: 03d1 08be 4897 93be f2ec 74bd e8ca db3d
00000070: 3e1e 803e fe28 fe3d 34d9 2abe 018a 06be
00000080: 128d d93c b6a6 2fbe 5480 58be e4d4 0e3e
00000090: 9786 6a3e c570 0ebd 1ff8 b73c fc8b e63d
000000a0: 2b3f 84be 6d86 24bc 18ed 873d fc68 883e
000000b0: f60c 4e3e 048b 27be a2f0 54bd 700b 893e
000000c0: 575c 29be ee90 673e a6b3 713e 12c4 93be
000000d0: c0d7 8bbe 396b 7d3e a17e a9bd 8262 073e
000000e0: f98d 893c 1b80 043e c28a ccbd 4f31 25be
000000f0: 8bdb 2fbe df1b 7d3e c20b 043d ff71 89be
00000100: c5e7 06bd 74fd 88be 7d4a 74be 56ae 8f3e
00000110: 25b7 8ebe 67f8 39bc 2b0c c43c d026 fc3c
00000120: 626d 923d ebdf 5fbe fcf1 01be 9574 e3bc
00000130: e3d0 a53d 1c7f f9bc f32f 7cbc f323 1abe
00000140: 191b c6bc 3778 8ebe da75 0a3e 81ba d4bd
00000150: c8a2 4ebe 0fb2 08bd 3b3f 1dbe 0d41 403d
00000160: c9d5 093e cfff bcbd 48c7 933e cc57 59be
00000170: 0db0 bcbd aea6 173e 1f4a ba3d 3dc4 563e
00000180: cbc6 953e 5de8 53be 7db9 85bd c9c7 b3bd
00000190: e5bd fd3d 59b9 883e 60a2 823c a7c7 133e
000001a0: be23 52be 5519 a53c a178 6e3e 8698 853d
000001b0: 83dd 643e 3586 8b3e 095d 753e 6783 583e
000001c0: 34d4 45be 0888 1a3e 0044 f7bc e68b 0bbe
000001d0: 3567 423d e641 833e 1e54 cdbd 98c9 093e
000001e0: 7100 ec3c e102 613e b814 423d 99e5 8b3d
000001f0: 556d 203e f40d 91bd 7ca2 623e 82e5 323e
00000200: a025 eebd 91b6 933e acd7 f23d b232 5d3e
00000210: 688a ce3c 745f 37be 4329 ed3d 840a 353e
00000220: dd7f 3f3e 6e02 4abd a003 abbc 3043 91be
00000230: 0440 09bd a984 fb3d ae34 85be 8f86 ecbd
00000240: 3412 7f3d 398d c2bd 752f ffbd bb80 3f3e
00000250: bd4e 09be b0be 67be 0554 913e 6a88 88bd
00000260: 75ee 1bbe db92 453e 03ed 203e d712 933e
00000270: d518 703e 66ee 80be 37e2 18bd baaf 91bd
00000280: 068c 7a3e 6369 36bd 386d 87be bd80 05be
00000290: effe 6cbe 8e5d 443a c0e2 613e 6934 4b3e
000002a0: 950f 82be c34b afbd 7112 713d 03b7 303e
000002b0: e1b7 8c3e 033a 863e f795 623e 129f 3a3c
000002c0: 0857 323e 461c 0fbc f587 8cbe f51e 1e3c
000002d0: 388c f53d 0357 ab3c 43e0 acbd 87c5 873e
000002e0: 589f 83bd c452 38be 0cf3 53bd 86f5 2e3e
000002f0: 2e41 1ebe 0b3d 94bd bc5a c1bd 960c 923e
00000300: 74ed 213d 9115 aabd da8e 803e 36a9 793e
00000310: 2434 bc3c f1f8 81be 09b7 7bbd 0c70 c8bd
00000320: cac6 833e ed10 543e 0000 6dbd 00bd 333e
00000330: 747f 863c f70b 193e e68c f7bd 8943 8d3e
00000340: d06d e8bc d1c9 94bd 2067 3dbe 5c7e 68be
00000350: 804d 713d 1212 5fbe b3c2 04be ec28 dbbc
00000360: 2566 14be 73d7 abbd 3a3c 7dbe 5232 8cbe
00000370: c682 ee3d 5d7c 15bd 4c38 ffbd fbc2 eabd
00000380: 0c9a 9b3d 2d0d 523e 1cfc 543d 1dd1 74bc
00000390: 2621 7d3d 7585 7fbe 3dad 87be c1aa 3dbe
000003a0: abd7 733e 10fb 38be 6d03 913e 2823 50be
000003b0: a13d 0d3e 047e 7f3e bfea f13d 182c 8cbe
000003c0: 2893 c4bd f66b 213e 8023 a8bc e3c1 8abb
000003d0: 5765 5d3c 1f77 0dbe 4779 833e 347a 8d3e
000003e0: 7fbb 533d 93a6 6abe 2abb b3bd ce3a 903d
000003f0: 2b49 ad3c 2ab0 4e3e ff78 bcbc 3f2a 6c3e

sequential/conv2d/Conv2D f4 [1, 3, 3, 1]
-0.25460222 -0.51857275 0.28866088 -0.35935542 -0.2093483 -0.013548997 -0.090876766 -0.5074554
-0.57052743
00000000: 395b 82be 2fc1 04bf 5ccb 933e 6ffd b7be
00000010: 675f 56be 9dfc 5dbc 991d babd 99e8 01bf
00000020: 160e 12bf

sequential/conv2d_1/Conv2D f4 [1, 3, 3, 1]
-0.36914897 -0.10376115 0.23262341 0.3371785 0.10429283 0.41601902 0.1016825 0.03979671
-0.3499825
00000000: 1801 bdbe ba80 d4bd d534 6e3e a9a2 ac3e
00000010: 7b97 d53d 7200 d53e ea3e d03d e001 233d
00000020: e830 b3be

sequential/conv2d_2/Conv2D f4 [1, 3, 3, 1]
-0.43534142 -0.43897626 0.021576429 0.54661083 -0.22425245 -0.5149069 -0.4084653 -0.026467191
-0.18177855
00000000: 12e5 debe 7fc1 e0be 0dc1 b03c b0ee 0b3f
00000010: 6fa2 65be f0d0 03bf 5d22 d1be b9d1 d8bc
00000020: 2824 3abe

sequential/conv2d_3/Conv2D f4 [1, 3, 3, 1]
-0.0072159558 0.024191082 -0.33148837 -0.39360422 -0.14455041 -0.52411246 -0.18650965 0.13562827
0.089832716
00000000: d373 ecbb 602c c63c d8b8 a9be 7e86 c9be
00000010: 0605 14be 3c2c 06bf 63fc 3ebe 23e2 0a3e
00000020: 37fa b73d

sequential/conv2d_4/Conv2D f4 [1, 3, 3, 1]
-0.5398342 0.46087223 -0.2191057 -0.039129328 -0.37662923 0.5252953 0.16308974 0.07935991
0.00837077
00000000: 9332 0abf 72f7 eb3e 3f5d 60be 1346 20bd
00000010: 8cd5 c0be c179 063f ff00 273e 7387 a23d
00000020: 8e25 093c

sequential/dense/BiasAdd/ReadVariableOp f4 [64]
-0.00027624462 -0.0005159651 -0.0039703157 -0.006270105 -0.000630841 -0.0009885774 -0.0060647894 -0.0013011092
-0.007413983 -0.0028365129 0.00011882525 -0.0013841763 -0.0015580814 0.004543444 -0.006923499 -0.0007404831
0.007739097 -0.0016748967 -0.0019809913 -0.0049929842 -0.00051297556 -0.000781619 0.0010802348 -0.00171057
-0.0012811833 0.0032658654 -0.00048641773 0.0 -0.005983128 -0.0005130247 -0.0012819512 -0.005556913
0.004411579 -0.0036597038 0.0025268313 -0.0045833816 -0.0041612177 -0.00067669916 -0.0036416405 -0.0017596817
-0.001297741 -0.0005154112 -6.509939e-05 -0.0005744973 -0.0017548769 -0.0045220703 0.0011572847 -0.0011696686
-0.002718527 -0.0014555454 0.0 0.0065628877 0.007194831 -0.0012462604 -0.0070064957 0.0031414889
-0.006654132 0.0011178348 0.0 0.00832599 -0.004601545 -0.00036848118 -0.0013207796 -0.0010356454
00000000: edd4 90b9 d541 07ba 6c19 82bb 7475 cdbb
00000010: 065f 25ba 2793 81ba 24bb c6bb fb89 aaba
00000020: fff0 f2bb cae4 39bb d231 f938 406d b5ba
00000030: 8938 ccba 2ce1 943b 85de e2bb fb1c 42ba
00000040: 4098 fd3b 3588 dbba 85d3 01bb 309c a3bb
00000050: 3579 06ba 90e5 4cba aa96 8d3a 3435 e0ba
00000060: 61ed a7ba 2108 563b e205 ffb9 0000 0000
00000070: 1e0e c4bb 817c 06ba 2507 a8ba c416 b6bb
00000080: 028f 903b a4d7 6fbb 3299 253b 3130 96bb
00000090: d35a 88bb 8364 31ba 97a8 6ebb 1fa5 e6ba
000000a0: f618 aaba a91c 07ba f885 88b8 dc99 16ba
000000b0: e603 e6ba e02d 94bb 08b0 973a 914f 99ba
000000c0: 5129 32bb 00c8 beba 0000 0000 7e0d d73b
000000d0: 9ec2 eb3b 8f59 a3ba bf96 e5bb 70e1 4d3b
000000e0: e80a dabb 5084 923a 0000 0000 bc69 083c
000000f0: 8fc8 96bb b530 c1b9 021e adba 7ebe 87ba

sequential/dense_1/BiasAdd/ReadVariableOp f4 [7]
-0.033826817 0.005321196 -0.005428105 -0.005483187 0.008022667 -0.005591077 0.009470884
00000000: fd8d 0abd 6d5d ae3b 3fde b1bb 4eac b3bb
00000010: 8171 033c 5a35 b7bb c42b 1b3c

sequential/dense/MatMul i1 [64, 1690] scale=0.00074939046 zero_point=0
-0.0022481713 -0.03746952 -0.013489028 -0.06594636 -0.006744514 0.022481713 -0.05995124 -0.040467083
-0.0044963425 -0.023980495 0.054705504 -0.030725008 -0.020233542 0.05095855 0.053956114 0.040467083
0.011240857 -0.056204285 0.0029975618 -0.053956114 0.04871038 0.04945977 -0.0014987809 0.0314744
-0.055454895 -0.0472116 0.035221353 0.044214036 -0.07493904 -0.06519697 0.0059951236 -0.01498781
-0.009742076 -0.033722572 -0.052457333 0.046462208 -0.04796099 -0.041216474 0.035221353 0.044214036
0.040467083 -0.052457333 0.0157372 -0.056204285 0.01498781 0.04871038 -0.03597074 0.022481713
0.053206723 0.011990247 0.038968302 0.03746952 0.041216474 0.022481713 -0.03672013 -0.056204285
0.026228666 0.01648659 -0.03746952 0.044963427 0.0029975618 -0.053956114 -0.024729885 0.035221353
0.05095855 0.04871038 -0.053956114 0.01873476 -0.043464646 0.012739638 -0.027727447 0.035221353
0.055454895 -0.020982932 -0.05095855 0.04871038 -0.03297318 0.026978057 -0.051707942 0.029226229
-0.044214036 -0.0037469524 -0.005245733 0.0157372 0.026978057 0.053956114 -0.019484151 -0.0014987809
-0.007493905 -0.054705504 -0.024729885 0.027727447 -0.034471963 0.024729885 0.020982932 -0.0314744
0.05020916 -0.020982932 -0.052457333 0.0029975618 0.01873476 0.0044963425 -0.056204285 0.041965865
-0.04871038 0.052457333 -0.01498781 -0.041216474 0.00074939046 0.04796099 -0.0029975618 0.025479276
0.026978057 0.0037469524 0.053206723 -0.0044963425 0.029226229 0.0022481713 0.017235981 0.03297318
-0.052457333 0.006744514 0.056953676 0.020982932 0.058452457 -0.011240857 -0.052457333 -0.0029975618
0.013489028 -0.021732323 0.043464646 0.052457333 -0.010491466 0.0044963425 0.03597074 -0.044963427
-0.03672013 -0.013489028 0.011240857 -0.054705504 0.04796099 0.053206723 0.051707942 -0.011990247
-0.038968302 -0.013489028 0.0029975618 -0.0059951236 0.042715255 -0.011240857 0.051707942 -0.011990247
-0.043464646 0.0059951236 -0.011240857 -0.03222379 -0.0157372 -0.027727447 -0.057703067 0.009742076
-0.033722572 0.056953676 0.034471963 0.043464646 0.03746952 -0.0472116 0.00074939046 -0.03672013
0.0472116 -0.008243295 0.024729885 0.041965865 -0.0314744 0.046462208 0.03222379 -0.045712817
-0.021732323 -0.03297318 0.021732323 -0.03746952 -0.00074939046 -0.027727447 -0.005245733 -0.055454895
-0.026978057 0.011240857 -0.052457333 0.020982932 0.010491466 -0.0029975618 -0.039717693 0.02997562
0.027727447 0.026228666 0.052457333 0.033722572 -0.008243295 -0.057703067 -0.053956114 0.043464646
-0.0044963425 0.0029975618 0.028476838 0.012739638 -0.054705504 0.025479276 0.025479276 0.05095855
-0.0014987809 -0.0037469524 0.035221353 0.011240857 -0.019484151 -0.04796099 -0.026978057 -0.052457333
0.012739638 -0.03597074 0.033722572 -0.019484151 0.007493905 -0.0014987809 0.038968302 -0.044963427
-0.051707942 0.0314744 0.03597074 0.053956114 0.01648659 0.0037469524 -0.041965865 0.0022481713
-0.019484151 0.0022481713 -0.030725008 0.011990247 0.053956114 0.00074939046 -0.033722572 -0.03821891
0.0029975618 0.044963427 -0.026228666 -0.030725008 0.053956114 0.044963427 -0.029226229 0.034471963
-0.010491466 0.025479276 -0.046462208 -0.0029975618 -0.03672013 -0.03746952 -0.024729885 0.01873476
00000000: fdce eea8 f71e b0ca fae0 49d7 e544 4836
00000010: 0fb5 04b8 4142 fe2a b6c1 2f3b 9ca9 08ec
00000020: f3d3 ba3e c0c9 2f3b 36ba 15b5 1441 d01e
00000030: 4710 3432 371e cfb5 2316 ce3c 04b8 df2f
00000040: 4441 b819 c611 db2f 4ae4 bc41 d424 bb27
00000050: c5fb f915 2448 e6fe f6b7 df25 d221 1cd6
00000060: 43e4 ba04 1906 b538 bf46 ecc9 0140 fc22
00000070: 2405 47fa 2703 172c ba09 4c1c 4ef1 bafc
00000080: 12e3 3a46 f206 30c4 cfee 0fb7 4047 45f0
00000090: ccee 04f8 39f1 45f0 c608 f1d5 ebdb b30d
000000a0: d34c 2e3a 32c1 01cf 3ff5 2138 d63e 2bc3
000000b0: e3d4 1dce ffdb f9b6 dc0f ba1c 0efc cb28
000000c0: 2523 462d f5b3 b83a fa04 2611 b722 2244
000000d0: fefb 2f0f e6c0 dcba 11d0 2de6 0afe 34c4
000000e0: bb2a 3048 1605 c803 e603 d710 4801 d3cd
000000f0: 043c ddd7 483c d92e f222 c2fc cfce df19
