saved_model/quantized_models/layers3/trial3/paramcount433519.tflite (tflite, 442352 bytes, 16 tensors)

sequential_3/dense_7/MatMul f4 [7, 64]
000000 36 98 b9 3d 36 f6 8b bd 38 5d 9e 3d 2a 90 55 be
       0.09062235 -0.068340704 0.07732624 -0.20855775
000010 b5 0f 3c 3e d7 97 50 be 60 9b 1d 3e 7e 76 fb 3d
       0.18365367 -0.20370422 0.15391302 0.1227846
000020 50 72 8e be 07 54 73 be b3 62 c7 bd 22 b0 fc 3c
       -0.2782159 -0.23762523 -0.09735622 0.030845705
000030 32 2e c3 3b 93 37 37 3e 2a c9 3e 3e 20 95 fd ba
       0.0059564346 0.17892294 0.18631425 -0.0019346811
000040 b1 1c 1d 3d 62 cd 8a be f4 de 55 3e b6 cb 33 be
       0.03835744 -0.2710982 0.20885831 -0.17558178
000050 ec b5 8b bd f2 9d 17 3b 1b 2f 35 be 73 3f 37 be
       -0.06821808 0.0023134914 -0.1769375 -0.17895298
000060 3e 47 d0 bd 20 c5 df 3d 68 2d 84 be 68 1f 8f 3c
       -0.10169838 0.109262705 -0.25815892 0.01747103
000070 b2 35 38 3e 54 84 54 be 49 ea 2b be a0 28 79 3e
       0.17989233 -0.20753604 -0.16788591 0.24331903
000080 7c 5f c0 bd fb 07 63 be 55 0a 0c bd 9d 8a 28 3e
       -0.09393212 -0.22171013 -0.03418954 0.16459127
000090 bd 0b 83 bc 06 aa 64 be a7 2b 13 be d2 ed 83 be
       -0.015996808 -0.22330484 -0.14372121 -0.2576738
0000a0 5c a4 8f bd be 64 1c bd be 15 27 3c 1a 3b 03 3e
       -0.07013771 -0.038182013 0.010198055 0.12815514
0000b0 ec f4 08 be 19 7f bb bd 13 a4 23 be 21 ea f3 bd
       -0.1337468 -0.09155101 -0.15980558 -0.11909891
0000c0 00 f6 64 bd 82 22 5d 3e 62 89 39 be c4 9d e4 3d
       -0.055898666 0.21595195 -0.18118814 0.11162904
0000d0 31 25 3b be 14 34 9e bc 7a 1f 8d be 80 bf 77 be
       -0.18275906 -0.019311942 -0.27563077 -0.24194145
0000e0 5b f8 46 be 63 49 2a be a3 52 14 3e 73 95 2b be
       -0.19430678 -0.16629557 0.14484648 -0.16756229
0000f0 ff d7 65 3e b0 05 7b 3e 69 82 59 3e a4 74 84 3e
       0.22445677 0.24513888 0.21241154 0.2587024
000100 4a a7 5d be da be 8e be 31 99 16 be e1 88 0d bd
       -0.21645847 -0.27879983 -0.14706875 -0.034554366
000110 f9 19 5f 3e 14 75 31 3e 47 d6 03 be 4e 7b 1b 3e
       0.21787252 0.17329818 -0.12874709 0.15183756
000120 df fe 06 bd 39 ef 76 3e e3 f0 57 3e 37 59 cc bd
       -0.032957908 0.24114694 0.21087985 -0.09977954
000130 6d 32 c0 3d 9a 38 aa bc aa 42 3f be 8d 56 8f 3e
       0.09384618 -0.020778943 -0.18677774 0.2799572
000140 e7 d6 45 3e d5 1a 3e 3e 08 b3 ce 3d fc 48 0e be
       0.1932026 0.18564923 0.10092741 -0.13895029
000150 28 84 05 be df 1d f8 bd ac 8b 74 3e f9 d9 fc bd
       -0.13038695 -0.121150725 0.23881406 -0.123462625
000160 92 c1 76 be d5 9a 92 3d 87 49 86 3e 7d 93 af 3d
       -0.24097279 0.07158438 0.26227972 0.08573053
000170 48 35 3f 3c 0c 66 87 3d 13 15 37 be 14 e1 25 3d
       0.011670418 0.06611261 -0.17879133 0.040497854
000180 3f 02 24 be 96 1a 28 3e 71 c9 21 be b8 31 54 be
       -0.16016482 0.16416392 -0.157995 -0.20722091
000190 61 d5 fa bd b5 09 ef 3c bd e7 7e be 98 f0 64 3e
       -0.1224773 0.029179433 -0.24893089 0.22357404
0001a0 de 86 11 be 5f b7 76 3e e6 14 52 3e 1b 9e 1f 3e
       -0.14211604 0.24093388 0.20515785 0.15587656
0001b0 c4 7a 39 bd 48 08 8e be f4 71 09 be 61 5c 52 bd
       -0.045283094 -0.27740693 -0.13422376 -0.05135763
0001c0 13 34 52 3d 99 31 0b 3d 1b 49 73 3d 8f 0d 9c bd
       0.051319193 0.033982847 0.05939589 -0.076197736
0001d0 9a b0 27 be e0 7c 30 3e 24 7f c1 3d 30 54 83 3e
       -0.16375962 0.17235136 0.09448078 0.25650167
0001e0 0d 78 24 bd 8c 4e 87 be ec c5 bb 3d 0b 43 0c 3c
       -0.04015355 -0.26427114 0.0916861 0.008560906
0001f0 98 2d 2d 3e e4 0f 89 be f8 22 11 be e6 eb 4c 3e
       0.16911924 -0.26769936 -0.14173496 0.20011863
000200 a4 ac 1b be bb ed 6a bd cd 3a 62 be 13 63 81 3e
       -0.15202576 -0.057355624 -0.22092743 0.252709
000210 3f 5c e7 3d 19 ea 70 bc 79 a3 84 3e 7e 7c 82 bd
       0.112968914 -0.014704251 0.2590597 -0.06371401
000220 a3 89 ea bd f7 cb f6 3d 0e b1 b8 3d 54 89 40 3c
       -0.11452033 0.12050622 0.090181455 0.011751492
000230 96 de 70 3e 65 d4 27 3d 69 d2 38 3e 7a 66 fc bd
       0.2352241 0.04097404 0.18049015 -0.12324233
000240 ba d2 60 3e 3a 7c 6f be 7a c2 6f 3e d3 b9 1e 3c
       0.21955386 -0.23387232 0.2341403 0.009687859
000250 a8 1e d5 3d d8 bc 81 be 3d a1 77 3e a9 c7 83 bd
       0.10406238 -0.2533939 0.24182601 -0.064345665
000260 fd cc 90 3d c4 82 92 3d f2 b2 54 be 23 4a 86 3e
       0.070703484 0.07153848 -0.20771387 0.26228437
000270 62 2d 3a 3e f5 5f 90 be 29 75 94 3d 22 91 2d 3d
       0.18181375 -0.2819821 0.07248909 0.042374738
000280 18 12 49 3e b9 ff 0f 3e cb 7a 58 be 4b 66 89 3e
       0.19635808 0.14062394 -0.21140592 0.26835856
000290 b1 cd 35 be 66 be 79 3e 6b 43 95 be 42 bb 73 be
       -0.17754246 0.24389037 -0.29152998 -0.23801902
0002a0 6c 17 59 3d 8c f2 83 bd d4 a9 fe bd 56 10 7d 3e
       0.053000852 -0.064427465 -0.12434736 0.24713263
0002b0 3d c3 b6 bc c7 5f fe bd 2a eb 7a 3e db 95 b1 3c
       -0.022309894 -0.12420612 0.2450377 0.021677902
0002c0 e6 7a 05 3e a5 e9 17 3e 18 77 ae bd a0 59 ad bd
       0.13035163 0.14835222 -0.08518809 -0.0846436
0002d0 ce 4b 06 3d 9e 3c 3f be e1 b5 18 3e 38 99 60 3e
       0.032787137 -0.18675467 0.14913131 0.21933448
0002e0 db 7a 6c 3e 6f 08 bf bd 86 09 6f be 38 22 05 be
       0.2309374 -0.093277805 -0.23343477 -0.13001335
0002f0 29 91 1c 3e 06 37 d4 bd 81 7f 49 bd 1e e6 3f 3e
       0.15289749 -0.103620574 -0.049193863 0.18740126
000300 06 d1 13 3e 46 d6 a8 3d 58 3e 9c 3c d1 53 dc bd
       0.14435205 0.082439944 0.019072697 -0.10758174
000310 fa bb 5d be 43 7e 48 be 59 8b d5 bd f2 19 5f bc
       -0.21653739 -0.19579415 -0.10426969 -0.013617026
000320 20 7e 30 3d d7 ab 6f be 73 8b 95 3e 1c 30 1c 3e
       0.043089032 -0.23405395 0.29207954 0.15252727
000330 d9 8b 5a 3e 8d b9 ab bd 05 18 48 be 9a 4b 5d be
       0.2134241 -0.083850004 -0.19540413 -0.21610871
000340 b5 24 88 3e bd 7d 89 3c c2 75 4e be 0f ed 85 be
       0.26590505 0.01678359 -0.20162109 -0.26157424
000350 1e 34 20 3e b6 ab 3b be d6 99 14 be e3 74 3d be
       0.15644881 -0.18327221 -0.14511809 -0.1850162
000360 09 61 76 3e 7e 9f 87 bd 63 45 84 be 8b a8 96 bd
       0.24060453 -0.066222176 -0.25834188 -0.07356366
000370 c4 11 93 3d 35 98 41 3e 57 3a 99 bd 7b d8 ea bd
       0.07181123 0.18905719 -0.074818306 -0.114670716
000380 90 7f 5d 3e 79 1e 3b be 61 94 11 bd 80 a7 de bd
       0.21630692 -0.18273343 -0.035541896 -0.10871792
000390 4e d2 81 be 75 05 60 be 7c 30 d0 bd 82 69 22 3c
       -0.25355762 -0.21877082 -0.10165498 0.00991285
0003a0 bd 1b 5d 3e 83 1a 40 3e e5 92 73 bd 9f c0 84 be
       0.21592613 0.18760113 -0.05946626 -0.25928208
0003b0 bc ba f5 bc 2f 55 11 bd 49 cd 78 3d aa 9a 8e 3c
       -0.029996268 -0.035481628 0.06074265 0.017407734
0003c0 7e 1a cd bd 75 ee 74 be 9b 1e cf bd bc 03 32 3e
       -0.100148186 -0.23919089 -0.101132594 0.17384237
0003d0 ed 28 1d 3c 82 d5 2c 3e dd 99 6d 3e c5 a1 47 be
       0.009592277 0.16878322 0.23203225 -0.19495304
0003e0 36 1f 93 3e 32 9c 1b 3d 4b 37 5c be 93 16 9d 3d
       0.2873475 0.037990756 -0.21505468 0.07670321
0003f0 68 80 4f be bc b8 55 be dc 0f 51 be 32 9a 8e 3e
       -0.20263827 -0.20871252 -0.20416206 0.27852017

sequential_3/conv2d_9/BiasAdd/ReadVariableOp f4 [4]
000000 e0 4b 17 3b 85 b7 5b 3c 4d 88 21 bc 9f 5f 09 3c
       0.0023085997 0.013410454 -0.009859157 0.008384614

sequential_3/conv2d_10/BiasAdd/ReadVariableOp f4 [4]
000000 ea ba 7c bb 38 27 c3 3b be d3 9e bb ed 67 b5 bb
       -0.0038563558 0.005955603 -0.004847019 -0.0055360706

sequential_3/conv2d_11/BiasAdd/ReadVariableOp f4 [4]
000000 29 97 71 bc 8a ae a4 bc 3d 28 c9 3b 97 4b 64 bc
       -0.014745512 -0.020102758 0.00613883 -0.013934038

sequential_3/conv2d_9/Conv2D f4 [4, 3, 3, 1]
000000 7e 64 97 bd 41 38 c2 be e1 06 b0 be 92 be 32 3e
       -0.07392214 -0.37933543 -0.34380248 0.1745551
000010 74 f0 95 be 9e fa 99 3e 9b 16 80 3e 87 43 68 3d
       -0.29285014 0.30074018 0.25017247 0.056705024
000020 8f 41 b3 3e 0b c5 7c bc 73 2e 9d be 01 2b a5 3e
       0.35010955 -0.015427838 -0.306995 0.32259372
000030 81 6c fc bc ce 2c ab 3d 6d 65 90 be 8c e7 75 be
       -0.030813457 0.08358155 -0.28202382 -0.2401411
000040 44 27 a0 3e f4 f8 4a be 8c 5f 9f 3e b3 1a 73 3e
       0.31279957 -0.1982153 0.31127584 0.23740654
000050 c1 85 12 3e 4f b5 9c 3d 21 83 84 3e 01 86 6c be
       0.14308836 0.07651769 0.25881293 -0.23097993
000060 07 69 5c be 95 eb 69 be b9 9e 5a 3e 5e 13 b9 3e
       -0.2152444 -0.22843774 0.2134961 0.36147588
000070 ad 85 10 3e 16 ea 34 be 26 18 8b 3d 5a 2e 1c be
       0.14113493 -0.17667422 0.06791715 -0.15252057
000080 71 43 25 3e f7 2d 81 be b3 92 70 be 3c e9 91 be
       0.16139008 -0.2523038 -0.23493461 -0.28498256

sequential_3/conv2d_10/Conv2D f4 [4, 3, 3, 4]
000000 ed d2 af 3d 9b 75 55 be 54 97 29 be c8 0a 8c bd
       0.08585153 -0.20845644 -0.16561633 -0.06837994
000010 56 a6 ce 3d 61 19 0a 3e 1e 83 5a be 22 64 41 3e
       0.1009032 0.13486244 -0.2133908 0.18885854
000020 e8 b1 c9 bd e0 49 4c 3e 3e c2 42 bd 3e 2e 70 be
       -0.09848386 0.19950056 -0.047548525 -0.2345514
000030 cf 8a 23 3e fe f8 94 3d 5e 39 3c be c7 6b 3f 3d
       0.1597092 0.07274054 -0.18381259 0.046733644
000040 9c d5 1c be 8f 61 2c 3e 5b be a8 bd 2c e0 c2 3c
       -0.1531586 0.1683409 -0.082394324 0.023788534
000050 fe 3f de bc 69 9d f6 bb 1a 11 a2 bd e3 09 59 bc
       -0.027130123 -0.007526089 -0.07913418 -0.013246986
000060 13 35 f5 3d c5 a0 7f 3e cb 49 29 3e 88 63 96 3e
       0.11973014 0.24963672 0.16532056 0.2937281
000070 6e c5 32 3e 6a fb 26 be 89 0b 80 3e 5e 79 16 3e
       0.17458126 -0.16306844 0.250088 0.14694735
000080 62 35 92 be 0f 50 74 be 0c f3 2f be 56 ab 8c 3d
       -0.28556353 -0.23858665 -0.17182559 0.06868617
000090 b6 05 53 bc c2 e5 10 be 6c 78 0a be a2 c3 45 3e
       -0.01287978 -0.14150146 -0.135225 0.19312909
0000a0 d7 7d 5d 3e 40 7b 97 3d fc 96 88 be a2 5c 42 be
       0.21630035 0.07396555 -0.26677692 -0.18980649
0000b0 ac 32 6b be 3f 2c c8 3d 3f 1e c4 3d 0b 08 88 be
       -0.22968549 0.09774064 0.095760815 -0.26568636
0000c0 f4 30 07 3e 87 f8 ac bd 5c 93 86 bb 2c b5 41 be
       0.13202268 -0.0844584 -0.004106922 -0.18916768
0000d0 19 04 f4 bd d7 1a 57 be b8 c4 8c 3d 09 24 59 3e
       -0.11914844 -0.21006332 0.068734586 0.21205153
0000e0 2e 58 45 3e 18 de b1 bd 08 13 55 be 96 44 6e bd
       0.19271919 -0.08684939 -0.20808041 -0.058170877
0000f0 83 c5 80 be d3 ff e8 bc a6 59 0f 3e 63 da 0a be
       -0.2515069 -0.028442299 0.13999042 -0.1355987
000100 98 ab 17 be 11 40 a7 bd 0d f8 8a 3e 91 3b ac bd
       -0.14811552 -0.081665166 0.27142373 -0.08409799
000110 90 bf d5 bd 90 c8 99 bd e4 9b 88 bd a5 02 d0 3c
       -0.10436928 -0.075089574 -0.06670359 0.025391886
000120 7f 10 8d 3e c0 20 15 3e 6f a1 61 3e cf 5f 47 bd
       0.27551648 0.14563274 0.22034238 -0.048675355
000130 5f 36 cc bc 47 c7 c3 3d 1a 29 77 be b3 51 14 3d
       -0.02492827 0.095594935 -0.24136773 0.036210727
000140 ad b0 6f 3d 96 ef 0c 3e 9a 9a 09 3d bb de c7 bd
       0.0585181 0.1376327 0.033594705 -0.09759279
000150 5a 01 83 be 5c c8 99 bc 57 18 88 be 67 63 1d be
       -0.2558697 -0.018772297 -0.2658107 -0.1536995
000160 88 0e 82 3d cd be 24 3e 0e bf 84 be fd be 6b 3e
       0.06350428 0.1608841 -0.25927013 0.23022075
000170 a1 f3 7f be 96 5f 36 be 47 83 0d be 06 f5 79 3e
       -0.24995281 -0.178099 -0.1381961 0.24409875
000180 2c dc b7 bd f0 e2 48 3c d5 af 52 be 6f f4 84 be
       -0.08977541 0.012261137 -0.20574887 -0.25967738
000190 7d 74 fb 3c 6a 77 2b 3d c0 4b 83 3e e4 94 69 be
       0.030695194 0.04186193 0.2564373 -0.22810704
0001a0 ca a6 86 be ba 47 2d be 2a 9e 00 bd c9 c9 05 be
       -0.26299125 -0.16921893 -0.031400837 -0.13065256
0001b0 d6 20 53 bd d5 87 22 3d d2 51 74 3e 74 43 f6 bd
       -0.051544987 0.03968032 0.23859337 -0.120245844
0001c0 19 41 29 3d e2 ea 15 3e 5d db f4 3d 3a 8a 64 3e
       0.041321848 0.14640382 0.11955903 0.22318354
0001d0 97 ac be bc f8 55 05 be 8b 23 fd 3c 04 36 a8 3d
       -0.023275657 -0.13021076 0.030900737 0.08213428
0001e0 85 a6 62 3c 9a e1 9a 3d 3d a5 95 bc a9 6f dc bc
       0.013833647 0.07562561 -0.018267268 -0.026908712
0001f0 ca 2d 62 be b0 b1 dc 3d 5e 5a 0f be 10 74 5e be
       -0.2208778 0.10776079 -0.13999316 -0.21723962
000200 5a 41 37 be 0c ce 72 be 2f d8 70 be af e4 24 bd
       -0.17896023 -0.23711413 -0.23519967 -0.040257152
000210 82 61 42 3e 1b c1 15 be 1d a4 4e bd 26 01 93 be
       0.18982509 -0.14624445 -0.05044948 -0.28711814
000220 ca 7b 29 3e 6a 05 02 bc 81 21 6e be ca ab 50 be
       0.16551128 -0.007935861 -0.23254968 -0.20378032
000230 86 7d 59 be ba aa 0b be 1d f4 22 be fc 93 02 be
       -0.2123929 -0.13639346 -0.15913434 -0.12751764

sequential_3/conv2d_11/Conv2D f4 [4, 3, 3, 4]
000000 71 41 a1 bd b0 e8 64 3e 96 29 7a be d9 73 89 bd
       -0.0787381 0.22354388 -0.24429926 -0.06711549
000010 c6 b2 65 3e b6 73 43 3c 95 20 df bd de b0 1b 3e
       0.22431478 0.011929443 -0.108948864 0.15204188
000020 ff ba de 3c b2 81 8e bd c9 f4 70 be ff d0 0f be
       0.027188776 -0.06958331 -0.23530878 -0.1404457
000030 d6 4c 99 3e 35 5e 82 3e 34 44 70 3d 07 0d b8 3d
       0.29941434 0.254625 0.058658794 0.0898686
000040 39 0a 63 be ec 5d 10 3e 9d 4b 80 3e f0 4d a8 bd
       -0.22171868 0.14098328 0.25057688 -0.082179904
000050 60 99 26 be ab fe 67 3e dd 5c 80 be 6b 35 7d 3e
       -0.16269445 0.22655742 -0.2507085 0.24727409
000060 b2 e9 05 be 4b a7 2a 3e 67 93 7e be 4a 3f 33 3e
       -0.13077429 0.1666538 -0.24860917 0.17504612
000070 16 ca b5 3d d1 20 5e be 33 15 0f 3e 13 27 33 be
       0.088764355 -0.21692206 0.1397293 -0.17495374
000080 2f 3c 39 be ce 8a be bd 8a 01 50 3d 2e 70 c6 3c
       -0.18089364 -0.09303819 0.050782718 0.024223413
000090 81 df 97 3e 5d 69 3b 3d 0a 66 01 be b1 4a ba 3d
       0.29662707 0.04575478 -0.12636581 0.090962775
0000a0 77 93 82 be 8b 24 df bc 68 d2 31 3e 14 81 23 3e
       -0.25503132 -0.027239105 0.1736542 0.15967208
0000b0 16 b8 0e be a8 39 03 bd 85 fe cf bd c5 01 7f be
       -0.1393741 -0.032037407 -0.101559676 -0.24903019
0000c0 6d 54 3a be c3 14 51 be 67 dd 53 be d8 91 6b bb
       -0.18196268 -0.20418076 -0.20689927 -0.0035945084
0000d0 84 29 2a 3d 09 90 4a bd 3e de 76 3d a3 25 38 bd
       0.0415435 -0.04945377 0.06027054 -0.04495777
0000e0 2f 2a c4 bd 72 28 8c 3d 28 74 58 3e d8 47 62 3e
       -0.095783584 0.06843652 0.2113806 0.22097719
0000f0 85 fe db 3d a3 e3 82 3e b3 33 3a bd b4 bb 1e 3d
       0.10741905 0.25564298 -0.04545946 0.038753226
000100 12 fb e4 bd 80 01 6b bd e2 50 85 be bf 5a 82 be
       -0.111807 -0.057374477 -0.2603827 -0.2545986
000110 c3 68 49 be ce 44 39 3d 23 44 3b 3e e4 13 4d 3e
       -0.1966887 0.045231633 0.18287711 0.20027119
000120 e0 42 72 bd ea d3 32 bd 2f f9 26 3e 75 29 0a be
       -0.05914581 -0.04365913 0.16305993 -0.13492377
000130 26 d1 03 bd 8e 39 82 be 4a 8f 84 be 71 f8 67 be
       -0.03218188 -0.25434536 -0.2589057 -0.22653367
000140 3f 5c a4 3c f6 05 69 3e e2 fa 4f 3d 01 4a 33 3e
       0.020063518 0.2275618 0.05077637 0.17508699
000150 4f 62 4a be 86 10 1c bc 6b 73 d0 bd 73 b3 d7 bd
       -0.19764064 -0.009525424 -0.10178264 -0.10532274
000160 e5 78 ac 3d a0 9f af 3d 5e 1d 80 3e 57 c8 8b be
       0.08421496 0.08575368 0.25022405 -0.27301285
000170 c5 05 32 be 08 65 87 3e c3 f2 8b be 0e ba e2 bd
       -0.17385013 0.26444268 -0.2733365 -0.11070643
000180 49 6d 49 be cf 98 c9 3a 5f 53 48 be c1 2c 84 3d
       -0.19670595 0.0015380624 -0.19563054 0.06453849
000190 cf f1 0d be 1b 46 c5 bb 00 d2 d9 3d f8 67 c7 3d
       -0.13861774 -0.00602032 0.106357574 0.09736627
0001a0 95 b2 69 3d ce b0 34 be c5 a6 1c 3e cd aa 16 3e
       0.057055075 -0.1764557 0.15297993 0.14713593
0001b0 d8 b3 5a 3d e6 a2 80 be 67 11 81 3d b3 96 97 bd
       0.05339417 -0.25124282 0.06302147 -0.074017905
0001c0 2d 20 91 3e b7 5b 3f be 73 37 3d 3e bc e4 5d be
       0.2834486 -0.1868733 0.18478183 -0.21669286
0001d0 68 e5 c8 3d 69 47 42 bd ce 59 5e be cd eb 02 bd
       0.09809381 -0.047431383 -0.21713945 -0.03196316
0001e0 e0 8f 3d bd df c7 78 3e 5c d9 0f be 08 c4 34 be
       -0.046279788 0.24294995 -0.1404776 -0.17652905
0001f0 9e de 4d 3e 5a 8a c5 3d d2 e1 6a 3e c8 92 85 be
       0.20104453 0.09645529 0.22937706 -0.26088548
000200 20 9d ae 3b c3 a6 35 3e 63 d5 70 3d 6b b2 5b bd
       0.0053287894 0.17739396 0.05879725 -0.05363695
000210 b1 d7 9a 3d 25 ba 9b bd d3 9c 8b be b8 17 4c 3d
       0.07560671 -0.076038636 -0.27268085 0.049827307
000220 84 1e 50 bd 64 d3 92 3e 6f 2c 51 be fa d4 55 be
       -0.050810352 0.28676903 -0.20427106 -0.20882025
000230 d0 89 72 be fa 19 13 3d 94 40 0e bb 6b 9e c4 bd
       -0.23685384 0.035913445 -0.0021705972 -0.09600528

sequential_3/dense_7/BiasAdd/ReadVariableOp f4 [7]
000000 f6 7c 7c bc ce 66 94 38 ce 65 31 bb ab 9c e3 3b
       -0.015410652 7.076339e-05 -0.0027068737 0.0069461665
000010 24 23 55 3b 82 1f 34 bc 32 47 bc b9
       0.0032522166 -0.01099384 -0.000359112

sequential_3/dense_6/BiasAdd/ReadVariableOp f4 [64]
000000 39 e9 b1 3a e0 5c 47 bb 04 91 f7 b8 7d f1 dd bb
       0.0013573534 -0.0030420348 -0.00011804889 -0.0067731724
000010 7e 0d 98 bb c1 c5 26 bb 3a fc a4 b9 b3 43 f3 bb
       -0.0046402803 -0.002544746 -0.0003146844 -0.007423842
000020 ff c2 40 3b a6 41 99 ba 46 b2 fd 39 58 0f 92 ba
       0.0029413102 -0.0011692538 0.00048388744 -0.0011143489
000030 89 36 91 ba 24 96 63 bb 1c 31 8e bb 5d b0 4a 3a
       -0.0011078875 -0.0034726942 -0.0043393504 0.00077319687
000040 bb 1d a7 3a c6 b1 6c bb 93 73 b3 ba 99 44 13 3b
       0.0012749949 -0.0036116703 -0.001369106 0.0022471307
000050 5d c4 b0 b9 b2 10 4e 3a da 11 e8 bb 59 40 4e bb
       -0.00033715638 0.0007860764 -0.007082206 -0.003147146
000060 2a 3e fd 3a 2f 07 d0 bb 78 dd a4 bb c9 83 2c bb
       0.0019320894 -0.0063485126 -0.005031284 -0.0026323667
000070 1c 68 9c bb 37 c0 a7 ba f5 21 2e 3a 29 b8 8b bb
       -0.004773153 -0.0012798373 0.0006642633 -0.004263897
000080 c9 75 e0 38 14 30 b7 ba 6c de 87 ba 06 d0 f6 b9
       0.000107030915 -0.001397612 -0.001036597 -0.00047075766
000090 ec 12 40 bb 0d 59 b5 bb 4f 0f ec ba 2f 79 ff b9
       -0.0029308153 -0.0055342973 -0.0018009933 -0.0004872768
0000a0 18 8f 1b 3b 05 03 3a 3a 06 ed a3 bb 32 fb 15 bb
       0.0023736414 0.0007095787 -0.0050026206 -0.002288532
0000b0 64 4d 20 bb 28 b8 51 3a 83 95 d5 bb 82 d8 45 39
       -0.002446019 0.00080001587 -0.0065180673 0.0001886804
0000c0 7f 61 ef ba 75 a3 01 ba 11 76 12 bb e5 d1 c5 3a
       -0.0018263309 -0.00049453165 -0.0022348205 0.0015092461
0000d0 c6 1d 2e bb ff b9 09 bb 6d b6 9c ba 0d bf fe ba
       -0.002656804 -0.0021015403 -0.0011956223 -0.00194356
0000e0 5d df 20 bb 16 f9 9f ba 3c c2 9f bb 9f 51 6e ba
       -0.0024547197 -0.0012204971 -0.0048754495 -0.0009091142
0000f0 fe 7e e8 bb af 4b 74 bb a8 0e ac bb 31 28 92 bb
       -0.007095217 -0.0037276556 -0.0052507706 -0.0044603576

sequential_3/batch_normalization_9/FusedBatchNormV3 f4 [4]
000000 ac 25 1f 3c aa 64 8c 3c 6e 6a ad 3d ef fd ff 3c
       0.0097135715 0.017137844 0.084675655 0.031249015

sequential_3/batch_normalization_9/FusedBatchNormV31 f4 [4]
000000 c0 18 25 bf 3d 4f 25 bf 9a 80 80 bf 71 03 18 bf
       -0.6449089 -0.64574033 -1.0039246 -0.5938025

sequential_3/batch_normalization_10/FusedBatchNormV3 f4 [4]
000000 b5 da 51 3f 8a 6d 2e 40 11 5a 34 40 a7 1c 0c 40
       0.81974345 2.7254357 2.8179972 2.1892488

sequential_3/batch_normalization_10/FusedBatchNormV31 f4 [4]
000000 a0 94 24 bf 94 68 bb bf 2c 15 9f bf 78 76 be bf
       -0.64289284 -1.464129 -1.2428336 -1.4879904

sequential_3/batch_normalization_11/FusedBatchNormV3 f4 [4]
000000 a2 d9 10 40 59 17 2f 40 7b 1d 18 40 1e 3d 73 3f
       2.2632833 2.7358 2.3767993 0.9501513

sequential_3/batch_normalization_11/FusedBatchNormV31 f4 [4]
000000 19 28 85 bf e8 0a ba bf b1 20 7b bf 89 a3 4e bf
       -1.0402862 -1.4534578 -0.9809676 -0.80718285

sequential_3/dense_6/MatMul i1 [64, 6760] scale=0.0003765396 zero_point=0
000000 38 f0 5b 25 2c f4 4d 0f 3b 5c 0d 1e cb f8 d3 eb
       0.021086218 -0.0060246335 0.034265105 0.013931965 0.016567742 -0.0045184754 0.028993549 0.0056480938 0.022215836 0.034641642 0.0048950147 0.0112961875 -0.019956598 -0.0030123168 -0.016944282 -0.007907332
000010 ed da 28 b9 cc 12 6f 29 c0 da e8 3e 44 44 60 ee
       -0.0071542524 -0.014308505 0.015061583 -0.026734311 -0.019580059 0.0067777126 0.041795895 0.015438124 -0.024098534 -0.014308505 -0.009036951 0.023345456 0.025604693 0.025604693 0.036147803 -0.0067777126
000020 c1 ed 1b c6 13 c8 3c 1b 36 1d c3 0e 45 37 0a f9
       -0.023721995 -0.0071542524 0.010166569 -0.021839296 0.0071542524 -0.021086218 0.022592375 0.010166569 0.020333137 0.010919648 -0.022968916 0.0052715545 0.025981233 0.020709679 0.0037653958 -0.0026357772
000030 c7 10 be f6 45 eb fa 13 3d 26 62 ef e1 16 db 30
       -0.021462757 0.0060246335 -0.024851613 -0.0037653958 0.025981233 -0.007907332 -0.0022592377 0.0071542524 0.022968916 0.014308505 0.03690088 -0.0064011733 -0.011672728 0.008283871 -0.013931965 0.018073902
000040 2a 16 61 cd 36 05 d3 23 c8 4e e8 e5 d4 bc 4e 2e
       0.015814664 0.008283871 0.03652434 -0.01920352 0.020333137 0.0018826979 -0.016944282 0.013178886 -0.021086218 0.029370088 -0.009036951 -0.010166569 -0.016567742 -0.025604693 0.029370088 0.017320821
000050 da 17 38 10 3c f0 f5 d9 1c 4e 4c c7 d1 f8 2c 0c
       -0.014308505 0.0086604105 0.021086218 0.0060246335 0.022592375 -0.0060246335 -0.0041419356 -0.014685044 0.010543109 0.029370088 0.02861701 -0.021462757 -0.01769736 -0.0030123168 0.016567742 0.0045184754
000060 3d 25 17 16 0e 07 f4 c0 27 fc 18 12 02 08 14 2f
       0.022968916 0.013931965 0.0086604105 0.008283871 0.0052715545 0.0026357772 -0.0045184754 -0.024098534 0.014685044 -0.0015061584 0.009036951 0.0067777126 0.0007530792 0.0030123168 0.0075307917 0.01769736
000070 4d ec 3d d6 1b d3 09 bb e0 e9 4d 26 cb fb 60 23
       0.028993549 -0.0075307917 0.022968916 -0.015814664 0.010166569 -0.016944282 0.0033888563 -0.025981233 -0.012049267 -0.0086604105 0.028993549 0.014308505 -0.019956598 -0.0018826979 0.036147803 0.013178886
000080 06 22 33 39 4b f4 37 ef ec 26 2a 44 d2 f9 fa b6
       0.0022592377 0.012802347 0.01920352 0.021462757 0.02824047 -0.0045184754 0.020709679 -0.0064011733 -0.0075307917 0.014308505 0.015814664 0.025604693 -0.017320821 -0.0026357772 -0.0022592377 -0.02786393
000090 02 16 fb 28 05 27 c1 bd d5 db 05 41 0e e0 ec 42
       0.0007530792 0.008283871 -0.0018826979 0.015061583 0.0018826979 0.014685044 -0.023721995 -0.025228152 -0.016191203 -0.013931965 0.0018826979 0.024475073 0.0052715545 -0.012049267 -0.0075307917 0.024851613
0000a0 11 b5 cc 1e f0 43 5c b2 16 32 f2 1f 43 e2 c0 1c
       0.0064011733 -0.02824047 -0.019580059 0.0112961875 -0.0060246335 0.025228152 0.034641642 -0.029370088 0.008283871 0.01882698 -0.0052715545 0.011672728 0.025228152 -0.0112961875 -0.024098534 0.010543109
0000b0 f2 d5 f7 19 61 be b5 39 47 04 c7 fb 5c 24 14 e8
       -0.0052715545 -0.016191203 -0.0033888563 0.00941349 0.03652434 -0.024851613 -0.02824047 0.021462757 0.026734311 0.0015061584 -0.021462757 -0.0018826979 0.034641642 0.013555425 0.0075307917 -0.009036951
0000c0 3f 11 d0 bf d0 56 47 df bd 27 3f 35 fe 2f e9 b2
       0.023721995 0.0064011733 -0.018073902 -0.024475073 -0.018073902 0.032382406 0.026734311 -0.012425806 -0.025228152 0.014685044 0.023721995 0.019956598 -0.0007530792 0.01769736 -0.0086604105 -0.029370088
0000d0 f5 12 24 c7 e5 0b 12 30 35 d6 f6 f7 2e e2 2d dd
       -0.0041419356 0.0067777126 0.013555425 -0.021462757 -0.010166569 0.0041419356 0.0067777126 0.018073902 0.019956598 -0.015814664 -0.0037653958 -0.0033888563 0.017320821 -0.0112961875 0.016944282 -0.013178886
0000e0 58 43 08 d2 5a e5 16 15 fa 15 13 0e 29 1a de e0
       0.033135485 0.025228152 0.0030123168 -0.017320821 0.033888564 -0.010166569 0.008283871 0.007907332 -0.0022592377 0.007907332 0.0071542524 0.0052715545 0.015438124 0.009790029 -0.012802347 -0.012049267
0000f0 46 0f 20 db c1 0e dc e3 f9 ea 0a 46 cc f9 47 00
       0.026357772 0.0056480938 0.012049267 -0.013931965 -0.023721995 0.0052715545 -0.013555425 -0.010919648 -0.0026357772 -0.008283871 0.0037653958 0.026357772 -0.019580059 -0.0026357772 0.026734311 0.0
