saved_model/quantized_models/layers3/trial1/paramcount867095.tflite (tflite, 878760 bytes, 16 tensors)

sequential_7/dense_15/MatMul f4 [7, 64]
-0.034580916 -0.233129 0.028365565 0.04709625 -0.18235351 -0.08995619 -0.17655294 -0.03747674
0.2484156 -0.17994481 0.04869744 0.21572438 -0.27687266 0.10864629 0.09770466 -0.097430095
0.08746555 -0.031248853 -0.055493344 0.13638502 -0.26989758 -0.14280173 -0.21202922 0.014857137
0.15715244 0.2438672 0.03495328 0.23859182 -0.039275944 -0.29444706 0.17769025 -0.02145578
-0.30256313 0.11331363 0.1173786 -0.1439969 -0.21240593 0.26933044 -0.03989586 -0.16951253
0.246488 0.13873272 0.17240976 0.10119536 -0.0891144 -0.18666881 0.21587443 0.1527614
0.12390176 0.17803608 -0.19181149 -0.028599095 -0.17368302 0.02592943 -0.15914118 0.14579105
0.27894452 -0.06284733 -0.11576039 -0.237735 -0.3088205 0.17072502 0.2682678 -0.25092834
0.11754292 -0.15329023 0.11780083 0.25174034 0.071515515 0.047369275 -0.18224232 0.10956717
-0.015339376 -0.041672833 -0.0820571 0.11491711 0.19158053 0.19699791 0.04372504 -0.04806188
0.039615173 0.18591624 0.22707945 -0.24977684 0.14340536 0.118003 0.2656384 -0.27312762
0.11267426 0.057950255 0.057673 0.2709436 -0.20090745 -0.16756971 0.06969051 -0.23855598
-0.032325335 -0.16843903 -0.22323051 0.12652452 0.048458524 0.24021001 0.25969526 0.22486666
-0.10382064 0.017246852 0.00026608695 -0.18250321 0.00382378 0.2822594 0.024274029 -0.11520083
-0.1389244 0.25926572 -0.05918033 0.016138399 0.1407846 -0.25577614 0.07599834 0.101614624
-0.14061008 -0.030008873 -0.21632126 -0.12547228 0.18822938 0.25196993 0.2051904 -0.10323531
-0.2653309 -0.21275854 0.233731 -0.11698787 -0.14775087 0.26636198 0.20579983 0.19783346
-0.04358307 0.24402839 0.28874323 -0.0017968079 -0.2714462 0.1813336 -0.25028798 -0.034388166
-0.20792605 0.2809136 0.018827753 -0.20885734 -0.21088909 0.24537282 0.21692607 -0.22103977
0.09255426 -0.2720616 -0.22791244 0.15170793 -0.038473666 -0.081227474 0.026497431 0.1390714
0.23303987 0.21978068 0.12494746 -0.28274906 0.02889016 0.21307176 -0.23530068 0.14855841
-0.09537311 0.16750588 0.08194058 0.20206624 -0.018878058 0.054701976 -0.09974573 -0.19324614
0.1829209 0.09083704 0.22536084 -0.24620254 -0.10187897 -0.064785555 0.23857036 -0.28653786
0.10849641 -0.05226764 0.21941552 -0.14130166 -0.1746844 -0.024220675 -0.028878573 -0.072012566
0.05252207 0.15482749 -0.13232306 -0.2299591 0.12901145 0.24295852 -0.1000563 0.121037476
0.010604506 -0.21565248 0.20792693 -0.18072195 0.25415736 -0.06473328 -0.13191482 -0.27336958
-0.07336199 0.26267698 -0.048431344 -0.21702677 0.03258695 -0.08462022 -0.1584387 0.21969742
0.09836496 0.2399112 0.22889525 -0.15841489 -0.12161782 -0.14570534 -0.22630416 -0.14159052
0.22474867 -0.039297845 0.24973626 -0.23785561 0.28082964 0.2622624 -0.11523086 -0.00030385295
-0.14076751 -0.014978184 0.2380717 -0.06835206 0.048105042 0.21914189 0.2022137 0.095995314
0.04172209 0.27571473 0.13411887 0.13598865 -0.24063885 0.04245595 -0.03115857 0.1519773
-0.13591899 -0.1816099 -0.027466023 0.09390095 0.24553894 0.05663463 -0.28110486 0.20887503
00000000: b8a4 0dbd 5eb9 6ebe e75e e83c ffe7 403d
00000010: e1ba 3abe f33a b8bd 4bca 34be 3681 19bd
00000020: a960 7e3e 7443 38be f876 473d dae6 5c3e
00000030: 41c2 8dbe f281 de3d 6119 c83d 6e89 c7bd
00000040: 2321 b33d 98fd ffbc fd4c 63bd 84a8 0b3e
00000050: 0430 8abe 9e3a 12be 301e 59be 596b 733c
00000060: 92ec 203e 53b8 793e 2c2b 0f3d 6a51 743e
00000070: d0df 20bd c4c1 96be 6ff4 353e 08c4 afbc
00000080: 8ee9 9abe fa10 e83d 3164 f03d ec73 13be
00000090: f180 59be aee5 893e d769 23bd b194 2dbe
000000a0: 5a67 7c3e f30f 0e3e 2f8c 303e 833f cf3d
000000b0: 9c81 b6bd 1c26 3fbe 300e 5d3e 7c6d 1c3e
000000c0: 35c0 fd3d 174f 363e 3b6a 44be a648 eabc
000000d0: f6d9 31be f569 d43c e8f5 22be 404a 153e
000000e0: d1d1 8e3e 1ab6 80bd c913 edbd ce70 73be
000000f0: b81d 9ebe 8ad2 2e3e 665a 893e ae79 80be
00000100: 58ba f03d 1df8 1cbe 9041 f13d 1ce4 803e
00000110: ba76 923d 4906 423d bb9d 3abe c164 e03d
00000120: 0252 7bbc 22b1 2abd 8e0d a8bd a959 eb3d
00000130: b02d 443e d2b9 493e 0719 333d 89dc 44bd
00000140: 8543 223d d460 3e3e 8487 683e 80c5 7fbe
00000150: dbd8 123e 8fab f13d c201 883e 62d7 8bbe
00000160: c3c1 e63d 3f5d 6d3d 863a 6c3d 1fb9 8a3e
00000170: afba 4dbe 6597 2bbe e6b9 8e3d 0548 74be
00000180: 9267 04bd 487b 2cbe 8a96 64be a58f 013e
00000190: 727c 463d 9df9 753e c7f6 843e 7243 663e
000001a0: ea9f d4bd 4549 8d3c 9681 8b39 1fe2 3abe
000001b0: 6298 7a3b 4e84 903e 54da c63c 6aee ebbd
000001c0: 3342 0ebe 7abe 843e 1367 72bd ad34 843c
000001d0: d729 103e 17f5 82be 05a5 9b3d 541b d03d
000001e0: 17fc 0fbe 2bd5 f5bc 5283 5dbe ce7b 00be
000001f0: 34bf 403e 3402 813e 6f1d 523e 096d d3bd
00000200: 74d9 87be 60dd 59be 2e57 6f3e 5697 efbd
00000210: 014c 17be 9960 883e 31bd 523e db94 4a3e
00000220: 2984 32bd 94e2 793e 27d6 933e de82 ebba
00000230: fffa 8abe 84af 393e bf25 80be 9bda 0cbd
00000240: 91ea 54be e8d3 8f3e a93c 9a3c b3de 55be
00000250: 4ff3 57be 0343 7b3e de21 5e3e 4058 62be
00000260: 168d bd3d a84b 8bbe e161 69be 5359 1b3e
00000270: 9096 1dbd 975a a6bd 2411 d93c bc68 0e3e
00000280: 01a2 6e3e 300e 613e 74e4 ff3d 7cc4 90be
00000290: 0fab ec3c 7c2f 5a3e a9f2 70be b21f 183e
000002a0: fa52 c3bd a986 2b3e 76d0 a73d 74ea 4e3e
000002b0: 28a6 9abc 2e0f 603d 7d47 ccbd 51e2 45be
000002c0: 9e4f 3b3e c508 ba3d fec4 663e 851c 7cbe
000002d0: eca5 d0bd 4aae 84bd ca4b 743e 17b5 92be
000002e0: 5e33 de3d 9816 56bd 76ae 603e 62b1 10be
000002f0: 78e0 32be 706a c6bc c292 ecbc 537b 93bd
00000300: 6221 573d 198b 1e3e b27f 07be 667a 6bbe
00000310: 941b 043e 1eca 783e 51ea ccbd 7fe2 f73d
00000320: 86be 2d3c 01d4 5cbe ccea 543e 2d0f 39be
00000330: ea20 823e e292 84bd ae14 07be 19f7 8bbe
00000340: d03e 96bd 997d 863e f25f 46bd 443c 5ebe
00000350: e579 053d 5e4d adbd c13d 22be 5cf8 603e
00000360: 9173 c93d 48ab 753e 8463 6a3e 8337 22be
00000370: c312 f9bd c833 15be 47bc 67be 1bfd 10be
00000380: 8424 663e c7f6 20bd ddba 7f3e 6c90 73be
00000390: e7c8 8f3e 4247 863e 28fe ebbd 744e 9fb9
000003a0: 5c25 10be 0f67 75bc 11c9 733e 2afc 8bbd
000003b0: cb09 453d bb66 603e 1c11 4f3e 3199 c43d
000003c0: c8e4 2a3d 7b2a 8d3e 7556 093e 9c40 0b3e
000003d0: 086a 76be 4ae6 2d3d 4240 ffbc f09f 1b3e
000003e0: 592e 0bbe f2f7 39be 6d00 e1bc 244f c03d
000003f0: 8f6e 7b3e b7f9 673d faec 8fbe 56e3 553e

sequential_7/conv2d_21/BiasAdd/ReadVariableOp f4 [8]
-0.009666532 -0.0007272264 -0.0025464685 0.012602698 -0.0051752785 0.0013448448 0.0023077303 -0.0072602564
00000000: 6060 1ebc 56a3 3eba a7e2 26bb 8c7b 4e3c
00000010: 6295 a9bb 8145 b03a 4a3d 173b 72e7 edbb

sequential_7/conv2d_22/BiasAdd/ReadVariableOp f4 [8]
0.0006150482 0.00033972133 -0.003967116 0.006085843 -0.0022201126 -0.012526128 -0.0077449144 0.0038067754
00000000: 303b 213a a01c b239 95fe 81bb c06b c73b
00000010: 4f7f 11bb 643a 4dbc 0dc9 fdbb 187b 793b

sequential_7/conv2d_23/BiasAdd/ReadVariableOp f4 [8]
-0.011558098 -0.004108323 -0.009360306 0.00050080055 0.015497814 -0.00022802348 -0.01109193 0.005866005
00000000: 2d5e 3dbc 1c9f 86bb f85b 19bc 2848 033a
00000010: 8bea 7d3c 9619 6fb9 edba 35bc 9e37 c03b

sequential_7/conv2d_21/Conv2D f4 [8, 3, 3, 1]
-0.22143383 -0.13090536 -0.10950024 0.07167069 0.012395518 0.15855476 0.22392483 -0.055525474
-0.23731488 -0.14269356 0.08639612 -0.0034812524 0.00682321 0.044495266 -0.0692863 0.20025155
0.056926697 0.05846511 -0.11947403 -0.16621757 -0.050745696 0.26088372 -0.08158906 -0.14404882
-0.04565345 0.07179668 -0.23911658 -0.039319757 0.16093546 -0.19644858 -0.09044306 -0.1940232
0.0037824272 0.17873716 -0.11537808 -0.2523269 -0.22448547 0.26333308 -0.11312402 0.06122252
-0.18233347 -0.18994597 -0.22110878 -0.24524312 0.04753256 -0.08355723 -0.028732596 -0.009420136
-0.14330615 -0.012121078 0.063675836 0.15409979 -0.25257707 0.10821926 -0.22026157 0.16386217
-0.06811111 -0.09562826 -0.21122746 0.18088724 0.2281752 0.14902134 0.04441543 0.2333965
0.24834666 -0.078127146 0.003818235 0.029954523 -0.102871075 0.20002809 0.07506441 0.22058868
00000000: 8dbf 62be 0e0c 06be a941 e0bd 15c8 923d
00000010: 9216 4b3c 2e5c 223e 8d4c 653e ae6e 63bd
00000020: ac02 73be 431e 12be 73f0 b03d b925 64bb
00000030: 3c95 df3b ab40 363d fae5 8dbd be0e 4d3e
00000040: f82b 693d 1c79 6f3d cdae f4bd f034 2abe
00000050: b8da 4fbd 8d92 853e 2a18 a7bd 8981 13be
00000060: 1dff 3abd 230a 933d fada 74be c10d 21bd
00000070: 44cc 243e d129 49be 363a b9bd 05ae 46be
00000080: 99e2 773b e006 373e 584b ecbd fe30 81be
00000090: 85df 65be 98d3 863e 91ad e7bd 77c4 7a3d
000000a0: a0b5 3abe 3281 42be 576a 62be 0321 7bbe
000000b0: 80b1 423d 0e20 abbd 9f60 ebbc ea56 1abc
000000c0: d9be 12be 7c97 46bc 7a68 823d 56cc 1d3e
000000d0: c851 81be 0fa2 dd3d 408c 61be 7ccb 273e
000000e0: d67d 8bbd c0d8 c3bd 034c 58be 813a 393e
000000f0: c2a6 693e 0d99 183e f4ec 353d 7eff 6e3e
00000100: 964e 7e3e 2001 a0bd 5a3b 7a3b 3063 f53c
00000110: 12ae d2bd 2ad4 4c3e 5fbb 993d 00e2 613e

sequential_7/conv2d_22/Conv2D f4 [8, 3, 3, 8]
0.07313582 0.20503655 0.07730848 0.11799762 0.14195444 -0.028598607 0.1841845 0.068101734
-0.1002398 -0.14883052 -0.083769836 -0.11225619 -0.12637444 -0.051190965 0.16044706 -0.053082645
-0.15425085 0.19885804 -0.10029811 -0.031043345 0.017234638 -0.053537946 -0.19417475 -0.05203963
0.03702921 0.1860506 0.10003898 -0.20047612 -0.0005794693 -0.17476866 -0.06032213 0.20448005
0.100640014 -0.06358681 0.08841538 -0.14474206 -0.14731169 0.021357374 0.09104384 -0.07155511
-0.097105354 0.14345104 0.18127751 0.10080812 0.037414465 -0.17211443 0.19689642 -0.16498046
-0.068806686 0.055778094 0.010135835 0.17588045 0.17998916 -0.1521197 -0.073594786 -0.051456425
0.039035577 0.11229027 0.13375862 -0.046216093 0.058199186 0.015390018 -0.0170638 0.09705591
0.10670034 0.0062244926 0.04678579 -0.20033464 -0.17269287 -0.11920989 -0.047733612 0.16386247
0.13188069 0.042713836 -0.041132793 0.14721641 -0.048063073 -0.18843202 -0.004141808 0.20056438
0.20840453 0.18104766 0.09543245 0.20228617 0.15818752 -0.1525859 0.13491233 0.011762533
0.0099731935 0.15966834 0.016357545 0.09736066 -0.010087706 0.085290946 0.11453846 -0.19892368
-0.0999324 0.0775194 0.19125663 0.19338907 0.11432978 0.11454819 -0.13204855 -0.20137145
0.032988586 0.06604794 0.20041822 -0.009239101 -0.09263749 -0.19712748 -0.09269802 0.08008077
-0.105299115 0.16818155 0.015979176 -0.012110176 0.0049378327 -0.080539785 -0.1967475 0.16400716
-0.03626563 0.13942462 -0.016420998 -0.003040415 0.14770715 0.036652282 0.13015656 0.2019692
-0.016718844 0.10922718 0.08821432 -0.08323053 -0.10069204 0.0043104286 0.023935381 0.026436914
-0.07405453 0.087528296 0.059921835 -0.06770833 -0.158466 0.026538072 -0.18820454 -0.09708745
0.103121564 -0.069491476 0.0027766845 0.13434309 -0.18851486 0.18165565 -0.12723231 0.13062969
-0.1407585 0.116647355 -0.18440413 -0.20318331 -0.11891229 -0.2021529 -0.14906411 -0.12120636
-0.16931464 0.19672717 -0.035326112 0.11968682 -0.065301254 -0.12909134 0.14665629 -0.18059234
0.023061614 -0.13992703 0.1541546 0.0031790424 0.08797409 0.11439346 -0.08560177 -0.19207776
0.041890457 0.031532504 -0.051529903 -0.07145203 -0.033823986 -0.0038541558 -0.01623676 -0.1087211
0.18765557 0.11029939 -0.15556127 0.16883177 -0.1720873 -0.14742051 0.108997524 0.030308614
-0.18183877 -0.17487 0.19173785 -0.1917564 0.009330325 0.007889126 0.018933661 0.0069641713
0.059305266 -0.03645039 -0.13955364 -0.019272303 0.02641876 -0.035277132 -0.079450496 -0.09751003
0.18748637 -0.15215823 -0.07148457 -0.19263597 0.08384207 -0.19756292 -0.123792924 -0.18901537
-0.012108615 -0.119819306 0.025586119 0.054763842 0.015671683 0.03609742 -0.04076751 0.114109516
0.008836072 -0.02663496 -0.17613858 0.039378937 0.087051876 0.048906114 0.11757046 -0.08904721
0.05517756 0.0459 0.076275446 -0.1657296 -0.20660791 -0.0156246275 0.09061573 0.052926615
-0.16876858 -0.111522876 0.013263596 0.04732605 0.084292896 0.1946294 -0.12813571 -0.11825609
0.009288169 0.14045803 0.1128835 -0.11444375 -0.0804863 -0.039431345 -0.112902045 -0.008483904
00000000: 3cc8 953d 1af5 513e e953 9e3d bca8 f13d
00000010: 815c 113e a047 eabc dd9a 3c3e ec78 8b3d
00000020: 864a cdbd 0767 18be 858f abbd 93e6 e5bd
00000030: 4d68 01be 9ead 51bd 3c4c 243e 306d 59bd
00000040: eff3 1dbe 71a1 4b3e 1869 cdbd 9d4e febc
00000050: a82f 8d3c 9b4a 5bbd bfd5 46be 8227 55bd
00000060: f1ab 173d 0c84 3e3e 3de1 cc3d 9d49 4dbe
00000070: 87e7 17ba 8ef6 32be 5614 77bd 3863 513e
00000080: 5a1c ce3d cd39 82bd 1f13 b53d 4337 14be
00000090: e0d8 16be a9f5 ae3c 3175 ba3d 7c8b 92bd
000000a0: 2cdf c6bd d4e4 123e d0a0 393e 7d74 ce3d
000000b0: e93f 193d c43e 30be 379f 493e a3f0 28be
000000c0: 85ea 8cbd 9277 643d c610 263c 011a 343e
000000d0: 144f 383e 44c5 1bbe ddb8 96bd f9c3 52bd
000000e0: c5e3 1f3d 71f8 e53d 05f8 083e 164d 3dbd
000000f0: 4562 6e3d 6a26 7c3c 62c9 8bbc 40c5 c63d
00000100: b585 da3d d4f6 cb3b 75a2 3f3d 8624 4dbe
00000110: 66d6 30be 5124 f4bd 5284 43bd 90cb 273e
00000120: bb0b 073e b4f4 2e3d dc7a 28bd e6bf 163e
00000130: c9dd 44bd 53f4 40be 01b8 87bb c060 4d3e
00000140: ff67 553e 8f64 393e 1772 c33d 1b24 4f3e
00000150: e9fb 213e 7a3f 1cbe 7526 0a3e a4b7 403c
00000160: 9b66 233c 1980 233e 4200 863c 0765 c73d
00000170: e846 25bc 05ad ae3d 2493 ea3d a6b2 4bbe
00000180: 5ca9 ccbd 7ec2 9e3d c7d8 433e c907 463e
00000190: bb25 ea3d 3e98 ea3d bc37 07be 5134 4ebe
000001a0: 0a1f 073d 2444 873d 6f3a 4d3e 995f 17bc
000001b0: b9b8 bdbd c9db 49be 76d8 bdbd 6301 a43d
000001c0: 10a7 d7bd c937 2c3e c3e6 823c c269 46bc
000001d0: 8bcd a13b 0bf2 a4bd 2d78 49be 7ef1 273e
000001e0: 458b 14bd 54c5 0e3e 5485 86bc b341 47bb
000001f0: 8b40 173e b420 163d c347 053e 04d1 4e3e
00000200: f5f5 88bc 80b2 df3d b6a9 b43d c574 aabd
00000210: a137 cebd 7f3e 8d3b 2214 c43c 3a92 d83c
00000220: e7a9 97bd 0942 b33d 9970 753d aaaa 8abd
00000230: e944 22be 5f66 d93c b1b8 40be c9d5 c6bd
00000240: 6631 d33d 8c51 8ebd 09f9 353b 3c91 093e
00000250: 0a0a 41be f003 3a3e 3049 02be cac3 053e
00000260: ff22 10be cfe4 ee3d 70d4 3cbe 490f 50be
00000270: 4988 f3bd 2b01 4fbe 43a4 18be 0a3b f8bd
00000280: d160 2dbe d972 493e 1db2 10bd 5d1e f53d
00000290: aabc 85bd 8530 04be 112d 163e 33ed 38be
000002a0: b6eb bc3c 0849 0fbe b4da 1d3e 7b57 503b
000002b0: c22b b43d 1e47 ea3d fb4f afbd 08b0 44be
000002c0: 5495 2b3d 3a28 013d 0511 53bd 7155 92bd
000002d0: 058b 0abd 0196 7cbb f402 85bc 2ba9 debd
000002e0: c828 403e a6e4 e13d 744b 1fbe 3ce2 2c3e
000002f0: a737 30be 67f5 16be 183a df3d c549 f83c
00000300: f133 3abe 1f11 33be ed56 443e ca5b 44be
00000310: 38de 183c 6541 013c c41a 9b3c b433 e43b
00000320: 14ea 723d 014d 15bd 26e7 0ebe f3e0 9dbc
00000330: 286c d83c c17e 10bd f1b6 a2bd 57b3 c7bd
00000340: 6dfc 3f3e 5ecf 1bbe 8166 92bd 5d42 45be
00000350: 64b5 ab3d ef4d 4abe 2587 fdbd 3f8d 41be
00000360: 3663 46bc d363 f5bd fb99 d13c 0d50 603d
00000370: e761 803c e3da 133d d5fb 26bd 40b2 e93d
00000380: 2cc5 103c 8f31 dabc ac5d 34be cf4b 213d
00000390: 4148 b23d c751 483d c8c8 f03d 625e b6bd
000003a0: dd01 623d a301 3c3d 4d36 9c3d 05b5 29be
000003b0: 0691 53be 70fe 7fbc bd94 b93d 94c9 583d
000003c0: acd1 2cbe 1b66 e4bd 8e4f 593c f6d8 413d
000003d0: c1a1 ac3d ee4c 473e 0236 03be 4030 f2bd
000003e0: 682d 183c 3bd4 0f3e 772f e73d 7c61 eabd
000003f0: 00d6 a4bd c382 21bd 3039 e7bd 1300 0bbc

sequential_7/conv2d_23/Conv2D f4 [8, 3, 3, 8]
0.007919946 0.13364694 -0.16385072 -0.035074443 0.039495926 -0.028530227 -0.12960428 0.017510677
-0.11998603 -0.019308962 0.19538197 0.032449946 0.18363334 0.17372547 0.14280988 -0.025926521
-0.15452258 -0.08752235 0.18271458 -0.048067182 -0.027411062 0.13138112 -0.12553671 0.010009582
0.05308158 -0.08883068 -0.016813839 -0.11833853 0.18035689 -0.16523713 -0.13823102 -0.08130171
-0.18727195 -0.10611496 0.045023393 -0.043773632 -0.031781778 -0.12857711 0.12933785 -0.033407215
-0.115633465 0.10960047 -0.15519223 0.11922079 0.14721988 -0.19290632 0.013571266 0.14104754
-0.028403785 -0.0076036016 0.04464649 -0.19499823 -0.12896533 0.17064933 -0.2052524 0.014151527
-0.19761333 0.036690146 0.0027569332 0.10160849 0.043078557 0.010656106 -0.13680662 -0.19647573
-0.0560778 -0.11370031 -0.19691293 -0.050449595 -0.13612726 0.097093284 0.18302667 -0.050590064
0.10016761 -0.20286675 0.15316357 -0.05928242 0.18245974 0.13170388 -0.19635385 -0.19347933
0.09016053 -0.15827014 0.10529395 0.10158724 -0.046322197 0.13833095 -0.085958935 -0.10912859
0.06256449 -0.062283847 -0.18516868 -0.03919126 0.056036912 -0.12433608 0.02432118 -0.077548355
-0.13500272 0.016790329 0.17348936 0.16256964 -0.058594503 -0.108115055 -0.0033047213 -0.06096268
0.18971913 0.13464376 -0.08396375 -0.060191132 0.10339699 -0.18831033 0.067459665 -0.088116735
-0.1089216 -0.13378865 0.059657086 -0.1819632 -0.17422812 0.053990833 -0.07798418 -0.19451515
-0.1764882 -0.1393101 0.146201 0.0073356186 0.080100045 0.19864547 0.13741894 -0.0016303946
0.07584338 0.17179587 -0.0075369086 0.18415971 -0.011494732 -0.16392194 -0.1225357 0.1860851
0.15859851 -0.014736835 -0.19017306 -0.05788247 0.045312382 -0.03972545 -0.17236242 -0.19997117
-0.19461446 0.068940334 -0.025486413 0.004954166 0.20229207 0.111886516 -0.028284824 -0.005271042
0.04469746 0.13312404 0.022383748 0.1281878 0.08298595 -0.0044232 0.03825554 0.06203856
-0.08494618 -0.018755345 -0.052361764 -0.09446989 -0.08711706 0.1254187 -0.08759134 -0.101746276
-0.15498576 0.040124338 0.07816038 0.03857635 0.13858837 0.18904436 0.047072932 0.015802225
-0.14610754 -0.20222636 0.18180555 0.14652023 0.16499896 -0.11421321 -0.11219848 -0.18734698
-0.19268093 0.055795852 -0.16898677 0.10071327 0.19252272 -0.05371028 0.16856231 0.05955005
0.15437102 0.035621345 -0.09384192 0.19891924 -0.14989932 -0.08133172 -0.108018905 -0.08262289
-0.0423955 -0.024732955 0.03803043 -0.027042525 0.02284502 0.16069011 0.042858932 0.14978819
-0.1996601 0.17708772 0.039917152 -0.14348952 0.14241296 0.13398117 -0.09199665 0.20597252
0.12014494 0.031084143 0.006315129 0.11341714 -0.12719268 0.09606342 0.16227458 0.17974462
0.048312236 -0.08396861 -0.03432944 -0.21001047 0.1846918 -0.050902504 -0.12683973 0.090308204
-0.1488282 0.053235643 -0.09601118 0.01518472 0.07336134 0.06718971 0.14389038 0.15120214
-0.21352698 0.17686078 0.18720701 -0.1656412 -0.012342323 -0.016158376 -0.17287523 -0.14119783
0.118729815 -0.15924336 0.06797514 0.12290273 -0.1704699 0.106220804 0.19363603 -0.16996159
00000000: a9c2 013c beda 083e 7cc8 27be 38aa 0fbd
00000010: 7bc6 213d 39b8 e9bc fcb6 04be 8d72 8f3c
00000020: 3cbb f5bd d42d 9ebc 3612 483e 3cea 043d
00000030: 610a 3c3e 17e5 313e c13c 123e db63 d4bc
00000040: 2b3b 1ebe eb3e b3bd 8819 3b3e 18e2 44bd
00000050: 2a8d e0bc c688 063e b28c 00be 3bff 233c
00000060: 126c 593d dcec b5bd 2dbd 89bc 795b f2bd
00000070: 7aaf 383e ec33 29be 6f8c 0dbe 8381 a6bd
00000080: 38c4 3fbe cd52 d9bd 736a 383d fb4b 33bd
00000090: 9c2d 02bd b8a9 03be 2471 043e 01d6 08bd
000000a0: 3dd1 ecbd 3676 e03d b6ea 1ebe 082a f43d
000000b0: cfc0 163e 3c89 45be 045a 5e3c c46e 103e
000000c0: 0eaf e8bc a227 f9bb 3ddf 363d 9ead 47be
000000d0: 7d0f 04be b3be 2e3e af2d 52be cedb 673c
000000e0: 265b 4abe 6848 163d aaad 343b 1d18 d03d
000000f0: 2473 303d f396 2e3c 0917 0cbe ef30 49be
00000100: d6b1 65bd b5db e8bd 8ba3 49be 3ca4 4ebd
00000110: f264 0bbe d8d8 c63d 586b 3b3e 8737 4fbd
00000120: ad24 cd3d 4dbc 4fbe e9d6 1c3e 1fd2 72bd
00000130: bad6 3a3e 62dd 063e fc10 49be 721f 46be
00000140: 15a6 b83d 9111 22be 5ba4 d73d f90c d03d
00000150: 58bc 3dbd a1a6 0d3e 3d0b b0bd cf7e dfbd
00000160: d021 803d 591d 7fbd dc9c 3dbe 0487 20bd
00000170: f686 653d eaa3 febd 363d c73c acd1 9ebd
00000180: 273e 0abe df8b 893c 32a7 313e a878 263e
00000190: ca00 70bd 6d6b ddbd 0694 58bb 01b4 79bd
000001a0: bb45 423e 0ee0 093e 30f5 abbd fa8a 76bd
000001b0: cdc1 d33d 6cd4 40be 4b28 8a3d 8c76 b4bd
000001c0: 4a12 dfbd e4ff 08be fd5a 743d 9054 3abe
000001d0: db68 32be 7e25 5d3d 2bb6 9fbd fb2e 47be
000001e0: 53b9 34be 4fa7 0ebe b7b5 153e a15f f03b
000001f0: 7e0b a43d b869 4b3e 8db7 0c3e f7b2 d5ba
00000200: c653 9b3d 42eb 2f3e 2cf8 f6bb 5d94 3c3e
00000210: 6754 3cbc 27db 27be fff3 fabd 188d 3e3e
00000220: a667 223e c472 71bc babc 42be 2b16 6dbd
00000230: 7a99 393d 27b7 22bd c67f 30be 3ec5 4cbe
00000240: 0349 47be 9730 8d3d e2c8 d0bc 8e56 a23b
00000250: a725 4f3e c224 e53d 93b5 e7bc b5b8 acbb
00000260: af14 373d ab51 083e 1f5e b73c aa43 033e
00000270: 8af4 a93d 7ef0 90bb d7b1 1c3d 251c 7e3d
00000280: 43f8 adbd cfa4 99bc 4a79 56bd 6e79 c1bd
00000290: 6e6a b2bd c26d 003e 1763 b3bd 5a60 d0bd
000002a0: 96b4 1ebe 6b59 243d 8d12 a03d 3c02 1e3d
000002b0: 1cea 0d3e d894 413e 8ccf 403d ab73 813c
000002c0: 379d 15be 6d14 4fbe 3c2b 3a3e 6609 163e
000002d0: 7df5 283e 9ee8 e9bd 51c8 e5bd e3d7 3fbe
000002e0: 264e 45be 318a 643d de0a 2dbe c242 ce3d
000002f0: ad24 453e 50ff 5bbd 999b 2c3e c1ea 733d
00000300: 7013 1e3e b0e7 113d 3130 c0bd 7cb1 4b3e
00000310: 357f 19be 3f91 a6bd 0439 ddbd 3136 a9bd
00000320: e7a6 2dbd c49c cabc ccc5 1b3d 4988 ddbc
00000330: 7b25 bb3c f38b 243e d98c 2f3d 1362 193e
00000340: b273 4cbe 7c56 353e 2b80 233d ebee 12be
00000350: b4d4 113e 5c32 093e bd68 bcbd 76ea 523e
00000360: 8d0e f63d 2ca4 fe3c 24ef ce3b 3f47 e83d
00000370: cc3e 02be e6bc c43d 4f2b 263e f90e 383e
00000380: 0de3 453d bcf7 abbd 079d 0cbd fc0c 57be
00000390: d91f 3d3e 257f 50bd 46e2 01be 82f3 b83d
000003a0: 6b66 18be 9e0d 5a3d 82a1 c4bd 55c9 783c
000003b0: 783e 963d c29a 893d 0058 133e bcd4 1a3e
000003c0: d1a6 5abe fe1a 353e 32b3 3f3e d99d 29be
000003d0: 7437 4abc 925e 84bc 3406 31be 2a96 10be
000003e0: 9e28 f33d b110 23be 8d36 8b3d 6db4 fb3d
000003f0: a98f 2ebe 4b8a d93d 8648 463e 690a 2ebe

sequential_7/dense_15/BiasAdd/ReadVariableOp f4 [7]
-0.016826328 -0.0008386506 0.00062001345 -0.0037735843 0.0053639887 -0.0017462503 -0.0040836544
00000000: 5ed7 89bc e4d8 5bba 6688 223a 3d4e 77bb
00000010: 66c4 af3b 70e2 e4ba 2dd0 85bb

sequential_7/dense_14/BiasAdd/ReadVariableOp f4 [64]
-0.00024525367 -7.692584e-05 -0.00040219162 -0.00093190494 -0.0065513826 -0.0052242903 -0.0004691281 -0.0032886346
0.0040639336 -0.00023070816 0.0012229149 -0.0009145287 -0.0008012075 -0.0064781583 -0.002259253 -0.00060015125
-0.00055141986 -0.00090109534 -0.0004215744 -0.00092789385 -0.0006051386 -0.006263687 -0.0006406088 0.0011102525
-0.0019738702 -0.0021321094 -0.0032328982 -0.0031634357 0.0019367652 0.0012144741 -0.0011141968 -0.0029873615
-0.0021118773 -0.0015518473 -0.0032723853 -0.004537593 -0.0022329092 -0.00386245 -0.0028027587 -0.0025287245
-0.0046185963 -0.0025044084 -0.005147393 0.00091676455 -0.00012810774 -0.0056098653 -0.0024636823 -0.00017841454
-0.0031212105 -0.0005801305 0.0014947696 -0.007106665 -0.0034469229 -0.0062890416 0.0023359007 0.0006199421
-0.003835224 -0.0029774802 -0.003006384 0.00022516312 -0.0005467179 -0.006784254 -0.0028847666 -0.00027193132
00000000: 6495 80b9 3f53 a1b8 3fdd d2b9 154b 74ba
00000010: fbac d6bb 8630 abbb 4ff5 f5b9 2286 57bb
00000020: bf2a 853b 40ea 71b9 374a a03a fbbc 6fba
00000030: 2008 52ba bb46 d4bb fa0f 14bb 7853 1dba
00000040: 298d 10ba 7c37 6cba c206 ddb9 e73d 73ba
00000050: 2aa2 1eba 9d3f cdbb 87ee 27ba e485 913a
00000060: 0c5c 01bb dcba 0bbb 08df 53bb a551 4fbb
00000070: 0edb fd3a fd2e 9f3a 3e0a 92ba 9cc7 43bb
00000080: 6c67 0abb 5b67 cbba 8475 56bb 17b0 94bb
00000090: 0056 12bb 2821 7dbb 7dae 37bb f5b8 25bb
000000a0: 9857 97bb 0021 24bb 76ab a8bb 0753 703a
000000b0: a954 06b9 f6d2 b7bb bb75 21bb ca14 3bb9
000000c0: 398d 4cbb e613 18ba 25ec c33a 07df e8bb
000000d0: c5e5 61bb 4e14 cebb e915 193b 9c83 223a
000000e0: 6258 7bbb d421 43bb c106 45bb c419 6c39
000000f0: 9e51 0fba 734e debb 5a0e 3dbb 0192 8eb9

sequential_7/batch_normalization_21/FusedBatchNormV3 f4 [8]
0.04470317 0.1360112 0.052911628 0.061523713 0.01444656 0.019670526 0.045222018 0.046951804
00000000: ac1a 373d 8546 0b3e ddb9 583d 4a00 7c3d
00000010: 44b1 6c3c 1524 a13c b93a 393d 8950 403d

sequential_7/batch_normalization_21/FusedBatchNormV31 f4 [8]
-0.541808 -0.994186 -0.54696614 -0.55746126 -0.5998887 -0.5374075 -0.70764685 -0.98013854
00000000: eeb3 0abf f982 7ebf f905 0cbf c8b5 0ebf
00000010: 4e92 19bf 8a93 09bf 5828 35bf 5cea 7abf

sequential_7/batch_normalization_22/FusedBatchNormV3 f4 [8]
1.0560185 0.7303349 1.6926609 2.8805177 1.2294091 1.3871436 3.844725 1.6065755
00000000: 9d2b 873f 3af7 3a3f 1da9 d83f 675a 3840
00000010: 475d 9d3f ec8d b13f f90f 7640 44a4 cd3f

sequential_7/batch_normalization_22/FusedBatchNormV31 f4 [8]
-0.7038771 -0.6304862 -1.3233496 -0.75913376 -0.7744626 -0.6756382 -1.3217086 -0.5401994
00000000: 4a31 34bf 8b67 21bf 8563 a9bf 9756 42bf
00000010: 2e43 46bf a0f6 2cbf bf2d a9bf 824a 0abf

sequential_7/batch_normalization_23/FusedBatchNormV3 f4 [8]
3.03559 2.6149368 1.0938746 2.486946 1.2131453 1.5173845 0.9261436 0.9802233
00000000: 1b47 4240 205b 2740 1504 8c3f 202a 1f40
00000010: 5848 9b3f a839 c23f bf17 6d3f eaef 7a3f

sequential_7/batch_normalization_23/FusedBatchNormV31 f4 [8]
-1.4072582 -1.122692 -0.50578237 -0.9902707 -0.74165356 -0.7093492 -0.55125576 -0.46794903
00000000: 0921 b4bf 5fb4 8fbf f47a 01bf 6182 7dbf
00000010: 02dd 3dbf e997 35bf 191f 0dbf 0497 efbe

sequential_7/dense_14/MatMul i1 [64, 13520] scale=0.0003191042 zero_point=0
0.007658501 0.010530439 0.004467459 -0.008934918 -0.0041483548 0.014678793 -0.0073393965 -0.0025528336
0.013083273 -0.009573126 -0.012445064 0.014040585 -0.006382084 -0.00989223 -0.014040585 0.006701188
0.0057438756 -0.0019146253 0.006382084 0.0073393965 -0.01212596 0.015317002 -0.0054247715 -0.016912524
-0.019465357 -0.013402376 0.014359689 0.008615813 -0.01595521 0.008615813 0.018827148 0.004467459
-0.015317002 0.012445064 0.0082967095 0.014997898 0.021699086 0.014359689 0.012445064 -0.021379981
0.025528336 -0.015317002 -0.01818894 -0.003191042 0.011487751 -0.01595521 -0.008934918 0.0057438756
0.010530439 0.021379981 0.012445064 -0.006382084 -0.014359689 0.001595521 -0.01212596 0.020741774
0.008934918 0.0073393965 -0.00095731264 -0.003191042 -0.0035101462 -0.0006382084 -0.001595521 -0.0028719378
-0.02042267 0.001595521 0.012445064 0.006382084 0.0051056673 -0.014997898 -0.015636107 -0.01818894
-0.0028719378 -0.0035101462 -0.006382084 -0.01595521 0.021699086 0.010530439 -0.01595521 -0.017550731
0.00606298 -0.01212596 0.008934918 0.016274314 -0.009573126 -0.015317002 0.018827148 0.0054247715
-0.008934918 -0.004786563 0.0073393965 0.009254022 -0.014040585 0.009254022 -0.008934918 -0.00989223
-0.014678793 0.0073393965 -0.015317002 0.009254022 -0.001595521 0.00989223 0.012764168 -0.0035101462
-0.007658501 -0.019465357 -0.011487751 -0.00989223 0.0 -0.007977605 -0.014359689 -0.020741774
-0.008615813 0.0028719378 -0.007658501 0.0051056673 0.019146252 0.010849543 0.0038292506 0.004467459
-0.020741774 0.009573126 0.0073393965 -0.017869836 -0.0012764168 0.018827148 -0.007658501 0.011168648
0.020103564 0.0041483548 0.009254022 0.02201819 0.0035101462 -0.018508043 -0.00606298 0.006382084
0.0041483548 0.020103564 -0.0041483548 0.009254022 -0.0054247715 -0.0025528336 0.0025528336 -0.004467459
0.009573126 -0.0003191042 0.01212596 0.009254022 0.023932815 -0.001595521 -0.006701188 -0.015317002
0.0038292506 0.017550731 0.0041483548 -0.0051056673 -0.020741774 -0.016912524 0.016274314 -0.017869836
-0.0028719378 0.013721481 0.00095731264 0.014997898 -0.008615813 -0.0082967095 0.0054247715 0.017869836
0.0003191042 -0.0038292506 -0.0038292506 -0.019465357 -0.0082967095 -0.016274314 0.006701188 0.017231626
-0.0035101462 0.014040585 -0.017550731 0.008615813 0.017550731 -0.01818894 -0.017869836 0.0028719378
-0.008934918 0.025209231 -0.001595521 -0.012445064 0.01978446 -0.016912524 -0.013083273 -0.0054247715
0.0 -0.010211335 -0.0054247715 -0.0073393965 0.0003191042 -0.010530439 0.006701188 -0.019465357
0.013721481 -0.0051056673 0.0057438756 0.011168648 -0.023613712 -0.00989223 -0.0006382084 -0.026166545
-0.008615813 -0.0035101462 0.012445064 0.014359689 0.011168648 0.02425192 -0.014678793 0.011806856
0.0003191042 0.01212596 -0.004467459 -0.007658501 0.012764168 0.004786563 -0.009254022 0.0003191042
-0.00989223 0.0054247715 -0.0070202923 0.017550731 0.007658501 0.013721481 0.017550731 0.0051056673
-0.0041483548 -0.015317002 0.01818894 -0.003191042 -0.0041483548 0.011806856 -0.016593419 0.0012764168
0.027123857 0.013721481 0.0003191042 0.0022337295 0.01212596 0.00606298 -0.008615813 0.013083273
-0.0054247715 0.020741774 -0.017869836 -0.015317002 0.014678793 -0.017550731 0.0 0.018827148
00000000: 1821 0ee4 f32e e9f8 29e2 d92c ece1 d415
00000010: 12fa 1417 da30 efcb c3d6 2d1b ce1b 3b0e
00000020: d027 1a2f 442d 27bd 50d0 c7f6 24ce e412
00000030: 2143 27ec d305 da41 1c17 fdf6 f5fe fbf7
00000040: c005 2714 10d1 cfc7 f7f5 ecce 4421 cec9
00000050: 13da 1c33 e2d0 3b11 e4f1 171d d41d e4e1
00000060: d217 d01d fb1f 28f5 e8c3 dce1 00e7 d3bf
00000070: e509 e810 3c22 0c0e bf1e 17c8 fc3b e823
00000080: 3f0d 1d45 0bc6 ed14 0d3f f31d eff8 08f2
00000090: 1eff 261d 4bfb ebd0 0c37 0df0 bfcb 33c8
000000a0: f72b 032f e5e6 1138 01f4 f4c3 e6cd 1536
000000b0: f52c c91b 37c7 c809 e44f fbd9 3ecb d7ef
000000c0: 00e0 efe9 01df 15c3 2bf0 1223 b6e1 feae
000000d0: e5f5 272d 234c d225 0126 f2e8 280f e301
000000e0: e111 ea37 182b 3710 f3d0 39f6 f325 cc04
000000f0: 552b 0107 2613 e529 ef41 c8d0 2ec9 003b
