saved_model/quantized_models/layers3/trial1/paramcount650235.tflite (tflite, 660280 bytes, 16 tensors)

sequential_5/dense_11/MatMul f4 [7, 64]
000000 22 34 0d 3e 15 b4 7f 3e b2 02 08 be 21 f3 86 be
       0.13789418 0.2497104 -0.13282278 -0.26357368
000010 63 40 e2 3d 0f bc 77 3e 34 6c a7 3d f5 59 12 3e
       0.11047437 0.24192832 0.08174935 0.14292128
000020 2f bf 05 be 79 4d 74 bc 6b 77 3b 3e 53 9e f2 3c
       -0.13061212 -0.014911049 0.18307273 0.02961651
000030 3f 6d 98 bd 2c 8e 58 be 24 5c 83 3e 4d 45 89 be
       -0.07442712 -0.21147984 0.25656235 -0.26810685
000040 38 56 93 be c9 74 3c be 80 1c 4b 3e 86 8c 5e be
       -0.28776717 -0.18403925 0.1983509 -0.21733293
000050 a0 ec a8 3d b8 1f 01 3e 36 e4 d8 3d e2 6a 66 3b
       0.08248258 0.12609756 0.10590403 0.0035158922
000060 3f 68 39 3e 8b 6d 14 3e cf df 94 be 49 29 c1 bd
       0.18106173 0.14494912 -0.29077002 -0.09431703
000070 20 62 33 3e 3e 6c 3e bd 0f 76 1b be b4 8c 00 3d
       0.175179 -0.046489947 -0.15181755 0.031384185
000080 ee 97 86 3e e3 2d ca bb 62 eb 8c bd 6e 5b 8b be
       0.26287788 -0.006170021 -0.06880833 -0.27218193
000090 61 5a 41 be 7d 2d bf 3d fd d9 3d be 74 68 5e 3e
       -0.18882133 0.09334848 -0.18540187 0.21719533
0000a0 e0 40 86 3e 4c c0 4b be 7b 09 c3 bd 71 de af bd
       0.2622137 -0.19897574 -0.09523293 -0.08587349
0000b0 1a 2f 2d 3d 68 a7 59 be 7d c2 72 3c d1 3e 0e be
       0.042281248 -0.21255267 0.014816877 -0.1389115
0000c0 cd 51 98 bd fc b8 87 3e 74 64 55 3e ec 32 53 3e
       -0.07437477 0.2650832 0.20839101 0.20624894
0000d0 eb 37 09 be b9 1d c9 bd dd e9 8f 3c 30 93 27 be
       -0.13400237 -0.09820122 0.01756757 -0.16364741
0000e0 ed c7 71 bd f5 85 ff 3d 02 72 2e 3b 87 66 47 3d
       -0.059028555 0.12476722 0.0026618247 0.048681762
0000f0 8f c0 7d be c5 a6 48 bc bd 17 48 3d 76 7b 70 3e
       -0.24780487 -0.012246792 0.048850764 0.23484597
000100 3b a0 43 be 54 09 5b bd f6 46 8c be 4d 2b 80 be
       -0.19104092 -0.053475693 -0.2739789 -0.25033036
000110 8e 73 3d 3c 14 4c 6a 3e a6 25 84 be 3d a5 12 3e
       0.011563195 0.22880584 -0.25809973 0.14320846
000120 f5 70 21 3d 7d 97 df bc 4b d9 94 3d 75 fd 90 be
       0.039414365 -0.027293915 0.07268008 -0.28318372
000130 ac 65 72 bd f1 02 02 3c c1 9b 90 be 97 68 06 be
       -0.059178993 0.007935272 -0.2824383 -0.13125835
000140 d0 46 86 be 47 84 73 3d 0a 89 48 be 3c db ca 3d
       -0.262259 0.05945232 -0.19583526 0.09905097
000150 c9 79 68 3e 5e 03 89 be 0d 6a 66 3e 00 f9 28 bd
       0.22702707 -0.2676038 0.22501393 -0.04125309
000160 f1 82 10 3e 68 17 65 bd 65 a4 fa bd 04 05 cc bd
       0.1411245 -0.055930525 -0.12238387 -0.09961894
000170 bf f0 50 be 84 02 48 3e a9 55 89 3c 83 99 7f 3e
       -0.20404337 0.1953221 0.016764479 0.24960904
000180 4e 48 8c be f6 ab 92 be fc bc 18 be aa 2f 8d 3e
       -0.27398914 -0.2864682 -0.14915842 0.27575427
000190 2c 8c db bb 01 8d 3a be 4e 91 51 bd 27 ed 4d be
       -0.0067000594 -0.18217851 -0.051163964 -0.20109998
0001a0 a4 91 7d be c7 da 8e 3c 2b 4f 72 be 9c 96 d5 bd
       -0.24762589 0.017438306 -0.23663013 -0.10429117
0001b0 72 3b 81 be ab fe ba bd 8e 8a 88 be fc 32 32 3e
       -0.25240666 -0.09130605 -0.2666821 0.17402261
0001c0 aa ab c0 bd d6 b8 f0 3d 0c e4 33 3e 83 f9 bd bc
       -0.09407742 0.11754005 0.17567462 -0.023190266
0001d0 27 a5 e5 3c d8 7d d3 3d 28 be f0 3c 27 12 7d bd
       0.028032852 0.10326737 0.029387549 -0.06178489
0001e0 98 68 e8 3d ac 1c d2 3d 34 a9 4c bc 58 10 81 3e
       0.11348075 0.10259375 -0.012491513 0.25207782
0001f0 d2 71 c4 bc 54 5a 91 3e 7f c2 14 3e a7 cf 34 3e
       -0.023980055 0.28389227 0.1452732 0.17657338
000200 23 e0 09 bd e4 8e 5c be 3a 15 8a be c4 a0 41 3c
       -0.03366102 -0.21538883 -0.2696932 0.011818115
000210 ad f8 de 3d a2 93 8d be 58 c0 82 be f7 04 78 be
       0.10887275 -0.27651697 -0.25537372 -0.24220644
000220 25 a5 dc 3d 34 b5 98 be 6b aa 83 bd b6 61 44 3e
       0.10773686 -0.29825747 -0.06428989 0.19177899
000230 dd 72 be bc 98 ad fd bd b6 63 0f bd 5f 8c 35 3e
       -0.02324813 -0.12386626 -0.0350072 0.17729329
000240 a6 7b 0a 3c 4f 56 9b bd 33 e4 ac 3d c6 f8 2f 3e
       0.008452332 -0.075848214 0.08441963 0.17184743
000250 ac 05 77 3e 2d f7 8d be 41 04 59 3d 1b 9d c3 3d
       0.24123257 -0.27727643 0.052982572 0.0955145
000260 d9 be b4 bc cd e0 a6 3d aa 7a 85 be f6 5b 3b be
       -0.02206366 0.08148346 -0.26070148 -0.18296799
000270 56 f1 f3 3d 4f 58 02 3d 78 e1 69 3e 93 e6 02 3e
       0.119112656 0.0318225 0.22839916 0.1278327
000280 e9 f5 c2 3d 91 f2 78 3e 34 82 4d bd 59 ad 6a 3e
       0.0951956 0.24311282 -0.050173 0.2291769
000290 22 d6 47 be ce 63 49 3e 90 12 91 bd 18 f6 c0 3d
       -0.19515279 0.19666979 -0.07083619 0.09421939
0002a0 3e 98 4c bc 04 a5 2f be 1f aa 30 3e 01 92 f4 3c
       -0.012487469 -0.17152792 0.17252396 0.029854776
0002b0 13 d7 1e be c1 36 55 3e 1f 90 92 be 28 53 77 be
       -0.15511732 0.20821668 -0.2862558 -0.24152815
0002c0 ab 09 9f 3d ef 75 3c be be 4a e7 3d 16 0e 8f be
       0.07765516 -0.18404363 0.11293553 -0.27940434
0002d0 92 c0 50 bd 32 de 4e 3d 6d 19 bb bd dd fe d1 bd
       -0.0509649 0.05050487 -0.09135709 -0.102536894
0002e0 df 6c e6 3d 86 ff 15 be 02 78 8a be c0 97 62 3e
       0.11251234 -0.14648256 -0.27044684 0.221282
0002f0 e3 fb 83 be 6f 9c 58 be ee 44 84 be 7f a5 3f 3c
       -0.25778112 -0.21153425 -0.2583384 0.011697172
000300 80 37 75 3c be d8 4f bd 06 3c f4 bd 77 e8 1a 3d
       0.0149668455 -0.05074381 -0.11925511 0.037819352
000310 5c f9 3a bd f4 e8 85 be 9c bf 6c be 1e f6 91 3d
       -0.045647964 -0.26154292 -0.23119968 0.07127021
000320 2b de 9d bd 33 72 f6 3d 8c 33 9b 3d 2e 02 6d 3e
       -0.07708391 0.120335005 0.07578191 0.23145363
000330 bf 4b dd 3d 9d 02 1a be 16 34 03 bd 69 67 89 bd
       0.10805463 -0.1504006 -0.032032095 -0.06709177
000340 21 76 26 bd c5 ae 1f be 84 16 89 3e 21 84 91 bd
       -0.04064 -0.15594013 0.2677499 -0.0710528
000350 0a 20 81 bd 66 db d6 3b 52 8f 80 be a0 52 67 3e
       -0.06304939 0.006556916 -0.25109345 0.22590113
000360 17 23 88 3d 90 57 8b be 2f 68 8b 3d 21 14 f2 3d
       0.06647318 -0.27215242 0.06806981 0.118202455
000370 0e 64 65 be ef 4f 74 3d d6 25 89 3e d2 87 69 3e
       -0.22401449 0.059646543 0.2678668 0.22805718
000380 51 85 fc 3d b1 56 49 be 91 dd 8a 3d cc f5 75 bd
       0.123301156 -0.19661976 0.06780542 -0.060048863
000390 7b d4 83 3e 00 ff 3d 3d 93 de af bd 24 a3 c8 bc
       0.25748047 0.046385765 -0.085873745 -0.024491854
0003a0 5f 73 7b bd 62 c8 28 3e 43 12 27 bd 85 42 54 3e
       -0.061389323 0.1648269 -0.0407889 0.207285
0003b0 8a 95 46 3e c7 c8 6d be ef 8b 2a 3e 2f 01 30 3a
       0.19392982 -0.23221122 0.16654943 0.00067140436
0003c0 af 36 84 3e 5a 05 8e 3e 8e b9 8f be dd 66 e1 bd
       0.2582297 0.27738458 -0.28071254 -0.11005948
0003d0 da 1f 8f 3e 90 c7 8e be db 81 10 be 36 af 59 be
       0.27953988 -0.2788663 -0.14112036 -0.21258244
0003e0 e7 19 54 3d 0a 50 41 3e 46 d6 a6 3b da 3e 5a 3e
       0.051782515 0.18878189 0.0050914614 0.21313038
0003f0 cc 34 43 be 36 71 9a bd a1 5f 3c 3d f9 bb 8c bd
       -0.19063109 -0.075411245 0.045989636 -0.068717904

sequential_5/conv2d_15/BiasAdd/ReadVariableOp f4 [6]
000000 95 a8 2c bc ce 73 a0 b8 bc b8 83 3a 7a bf 45 b8
       -0.01053824 -7.650965e-05 0.0010049562 -4.7146787e-05
000010 ee 40 da 3b 2a d5 1b 3c
       0.0066605723 0.0095112715

sequential_5/conv2d_16/BiasAdd/ReadVariableOp f4 [6]
000000 e4 fd eb bb 07 db 24 bc 29 9c 8e 3b 64 ef 66 3c
       -0.007201897 -0.010061986 0.004352112 0.014095161
000010 c0 11 fe bb 1d 33 a5 ba
       -0.007753581 -0.0012603734

sequential_5/conv2d_17/BiasAdd/ReadVariableOp f4 [6]
000000 c4 95 4d 3b a5 32 b9 bb 33 bc 5d bc 4b e6 55 bc
       0.0031369785 -0.0056517893 -0.01353364 -0.013055394
000010 82 a2 91 3b fb 86 1e bc
       0.0044444213 -0.009675737

sequential_5/conv2d_15/Conv2D f4 [6, 3, 3, 1]
000000 ef 45 22 3e 63 e0 8e 3e 76 1f b8 bd a0 1f 8f be
       0.1584699 0.27905568 -0.08990376 -0.27953815
000010 b8 f1 ab bd 6f c0 14 bd 26 72 31 3e 0c 0b 36 3d
       -0.083957136 -0.03631633 0.173287 0.04444413
000020 e4 97 7b 3e 30 92 18 3e be 04 0f be b0 47 56 3e
       0.2456966 0.14899516 -0.13966653 0.20925784
000030 4b ad 05 be d0 6d fe 3d 03 2d 9c be 7b 1e 81 be
       -0.13054387 0.12423289 -0.3050309 -0.25218567
000040 2f 10 8c 3e a4 2d 6e 3e 81 3e 29 be d3 03 89 3e
       0.27356097 0.23259598 -0.1652775 0.2676073
000050 d9 69 84 3e 1c fc 3e 3e 30 1b 9a 3e 31 72 83 3e
       0.25862005 0.1865086 0.30098867 0.2567306
000060 df 61 35 3e ba 5c 8e be dc f9 5a be 75 4f ed bd
       0.17713116 -0.2780512 -0.21384376 -0.11587421
000070 dd dc 14 be 9c 1f 63 be f9 63 79 3e da b5 d9 bd
       -0.14537378 -0.22180027 0.24354543 -0.106303886
000080 fe 90 09 bc ee 91 8c bd 5c 88 27 3e 56 7a 21 3e
       -0.008396385 -0.068637714 0.1636061 0.15769324
000090 a1 45 71 3e b6 a4 3b 3e fe 5d dd 3c bb 3c 12 bd
       0.23561718 0.18324551 0.027022358 -0.03570245
0000a0 a2 61 04 3e e1 9f 0f 3e b7 ef 1a be 14 44 99 3e
       0.12927869 0.14025833 -0.15130506 0.29934752
0000b0 e1 0e 94 be 4f 36 6e bd 4a 23 96 be 96 72 e1 3d
       -0.28917602 -0.05815726 -0.29323798 0.11008184
0000c0 0b ae 0f 3e db 08 89 be 2f 37 84 3e b2 7b 75 3e
       0.14031236 -0.2676457 0.25823352 0.23972967
0000d0 d3 3a 24 be 4c d4 8e be
       -0.16038065 -0.27896345

sequential_5/conv2d_16/Conv2D f4 [6, 3, 3, 6]
000000 92 2d ab bc ad b1 2a 3d 45 65 db bb ca 13 50 be
       -0.020895753 0.04167335 -0.006695422 -0.20320049
000010 68 bd 34 3e 79 8e e1 bd 41 e7 a9 bd 25 5e 8e 3c
       0.17650378 -0.11013503 -0.08296061 0.017378876
000020 56 10 77 bd 47 63 3f be eb b0 13 3e d8 f1 ef bd
       -0.060318314 -0.18690215 0.14422958 -0.1171605
000030 de bc a0 bd f0 d2 3d be e3 1f 7b bd 5d 90 69 be
       -0.078485236 -0.18537498 -0.061309706 -0.22808976
000040 57 70 49 be b5 30 54 be db 80 46 3c b6 fb db 3c
       -0.1967176 -0.20721705 0.0121156825 0.026853424
000050 08 9a ad 3d 15 25 50 be aa b6 8a bd bc b2 88 3d
       0.08476645 -0.20326646 -0.06773122 0.06674716
000060 ae 02 39 bd c7 78 41 be a1 a1 54 3d 75 34 32 3e
       -0.04516857 -0.18893729 0.051911954 0.17402823
000070 73 a3 f1 bc f1 ff 5f be 99 08 8b 3c 00 d3 5d be
       -0.029496884 -0.21874978 0.016971873 -0.21662521
000080 0d b7 1b be 6e 4a f8 bd 9a f2 54 3b 91 37 3d be
       -0.15206547 -0.12123571 0.0032493235 -0.18478228
000090 a3 83 b3 bd a1 ec 5a 3e cd 5b 0e 3d 08 9b 25 3e
       -0.08765342 0.2137933 0.034755517 0.16172421
0000a0 32 66 76 bd 3e 56 62 3e 2b ce 80 3d 45 8b a6 bd
       -0.060156055 0.22103211 0.062893234 -0.08132032
0000b0 3d cc 6d 3e c3 5d 9f 3d 7b 82 0b 3e 81 78 1a 3e
       0.23222442 0.077815555 0.13623993 0.15085031
0000c0 8a 04 f8 bc 14 61 17 be 5d 6a be bd 6d 9a 93 3c
       -0.030275602 -0.14783126 -0.09297631 0.018017972
0000d0 e2 c0 41 be 1b 1f 16 3d af d1 3d be ee 24 17 3e
       -0.18921235 0.03665076 -0.18537019 0.14760181
0000e0 a7 87 56 bd 20 e4 00 be 88 ab bf 3b ad cc 5b be
       -0.052375462 -0.12587023 0.0058493055 -0.21464796
0000f0 89 a8 0f be 03 e8 98 3d 6d d1 b4 bc 65 a2 ba 3d
       -0.14029135 0.07466128 -0.022072518 0.091130055
000100 a5 87 10 3c 39 bc 48 3d d7 46 49 3d 0e 16 92 bc
       0.008821403 0.049007628 0.049139824 -0.017832782
000110 ed d0 23 3e 24 81 0c be ed 6e e8 3c 9b f0 9c bd
       0.15997668 -0.13721138 0.028373206 -0.07663079
000120 b2 5c 86 bd 60 e0 d8 3d dd e2 38 3d 17 9b bc 3d
       -0.06560649 0.10589671 0.04513823 0.092092685
000130 47 96 19 3d 3d b7 b7 bd 0f 0c 73 3e 2c a6 07 be
       0.03749683 -0.08970497 0.23735069 -0.13246983
000140 3e 7d 59 bd c8 05 5c 3d fe 06 2a 3d 95 ba 1c 3e
       -0.053097956 0.05371645 0.041510575 0.1530555
000150 87 89 00 3e a5 fa d1 3c a4 82 98 3b 82 cb 81 3d
       0.12552463 0.025632212 0.0046542455 0.06337644
000160 7a 35 61 be 6f 56 38 be 10 3d 4d 3d f0 ff 89 3d
       -0.21993056 -0.18001722 0.050107062 0.06738269
000170 21 3d 5e be 07 11 99 3d 1b 8a 28 3d 54 99 2d bb
       -0.21703006 0.07473951 0.041147333 -0.0026489096
000180 be 36 6d 3e 7d 15 5a bc 30 5a bb 3c 3b 31 b4 3d
       0.23165414 -0.013310787 0.022870153 0.087984525
000190 81 d8 2d bb 1a af 21 be 18 9e 69 3e c5 39 0c 3c
       -0.0026526751 -0.15789452 0.22814214 0.008558695
0001a0 d9 24 2d bc 16 70 79 bd 73 2f 49 bd b4 bf 4c 3d
       -0.010567867 -0.06089791 -0.049117517 0.04998751
0001b0 c8 65 f3 bd 61 02 ac 39 85 d4 29 be 15 ea 1a 3e
       -0.118846476 0.0003280817 -0.16584976 0.15128358
0001c0 fe 2e 6a be 43 c6 4a 3e 72 68 45 3d ec b5 c7 bd
       -0.22869489 0.19802193 0.04819531 -0.09751496
0001d0 31 0e 61 be 0e 04 0f 3e 91 92 74 be ce b9 a8 3c
       -0.2197807 0.1396639 -0.23884036 0.020596411
0001e0 56 59 6e be 33 a8 4b be 99 db d6 bd f5 84 19 bc
       -0.23276266 -0.19888382 -0.10491104 -0.009370078
0001f0 20 dc 41 3c 13 88 48 bd f6 99 a3 3c 8b 6f 53 be
       0.011832267 -0.048957895 0.019970875 -0.20648019
000200 93 59 05 bc 29 05 ec 3c 83 ae 70 be f1 7a 3d 3e
       -0.008139032 0.028811054 -0.23504071 0.1850393
000210 56 f0 09 3d 30 8a 0f be 21 ca 10 3e 49 e5 64 3e
       0.033676468 -0.14017558 0.14139606 0.2235309
000220 8c 4a ad bd 93 56 ae bc e2 f8 f0 bd 76 a9 37 be
       -0.08461484 -0.021281516 -0.11766221 -0.17935738
000230 64 4a 5f 3d b5 e1 a1 3d 1c 9e c9 bd 5d 20 5f 3e
       0.054514304 0.07904378 -0.0984461 0.2178969
000240 f0 0b 37 3d d7 e7 f2 3d c8 ae 3e bd 91 8e 3b be
       0.04468912 0.11860626 -0.046553403 -0.18316104
000250 51 92 51 3c e0 01 36 bb bb f2 a5 3a 9d e4 fb 3b
       0.012791232 -0.0027772114 0.001266084 0.007687165
000260 63 e5 ea 3d 0c e9 49 3e fa 74 68 3e c6 ae 7d bd
       0.11469533 0.19717807 0.22700873 -0.061934255
000270 d9 dd 11 be a2 26 5e 3e 0c 6d 57 3e 46 eb 3b be
       -0.14244784 0.21694425 0.21037692 -0.18351468
000280 13 20 0d be 14 ed 16 3e 2a 46 a2 bd 73 a3 c4 bc
       -0.13781767 0.14738876 -0.07923539 -0.02400372
000290 a0 83 42 be 83 88 a0 bd 90 7f 54 bb a7 93 83 3d
       -0.18995523 -0.078385375 -0.0032424666 0.06424647
0002a0 d1 08 d1 3d 78 88 a9 3d 03 6f 11 3e 95 92 33 be
       0.1020676 0.082779825 0.14202504 -0.17536385
0002b0 71 0d 29 3e b0 ef 7e bd a7 86 cc 3d 15 39 da bd
       0.16509034 -0.062240303 0.099866204 -0.10655419
0002c0 2a 31 57 3c e8 ba ee bd d6 13 41 be 99 ee 3a be
       0.01313428 -0.11656743 -0.18855223 -0.1825508
0002d0 76 c0 dc 3c 8f 9f 33 3e 0f 41 50 3b 23 cf d4 3d
       0.026947241 0.17541336 0.003177706 0.10391071
0002e0 67 26 16 be c9 db 51 3c bc cc 30 be 8a 43 6c be
       -0.14663087 0.0128087485 -0.172656 -0.23072639
0002f0 da fa 0c be 89 44 5d be 90 af b8 3d 90 5e 8c bd
       -0.13767567 -0.21608175 0.09017861 -0.06853974
000300 92 5e 16 3c 4c da 73 bd 03 e3 1f 3e 5c 39 37 be
       0.009177821 -0.059534356 0.15613942 -0.17892975
000310 e2 21 27 3e 19 95 45 3e 1c df 1d 3e 6b b5 d9 3c
       0.16321519 0.19295157 0.1541714 0.026575765
000320 e9 f2 39 bc e5 01 53 be e4 d3 26 3e 53 ef a8 bc
       -0.011349418 -0.20606191 0.16291767 -0.020621931
000330 60 c4 0c 3e 90 b3 d7 3d 1d 12 c5 3d 6c df cf 3d
       0.13746786 0.10532296 0.096225955 0.10150036
000340 65 7a b3 3c df c4 0d be 84 26 02 bc a8 d2 0c 3e
       0.021908948 -0.13844632 -0.007943753 0.13752234
000350 ba 7e e6 bd 7f ec 64 be c7 98 98 3d f3 bc 4e 3e
       -0.1125464 -0.22355841 0.07451015 0.20189266
000360 f9 76 26 bd 56 5f 8e bb 42 8b ec 3d 46 b6 67 3e
       -0.040640805 -0.004344861 0.11549999 0.22628126
000370 7d fd e1 3d 1e 54 20 3d 41 0e c2 3c 3b 84 74 be
       0.11034677 0.03914272 0.023688437 -0.23878567
000380 3e 85 d5 bc 5e 7c 16 3e 25 90 71 be b9 f0 66 3c
       -0.026064511 0.1469588 -0.23590143 0.014095479
000390 8b a5 c7 3d d7 17 bb bd 45 91 26 3d c1 81 9c 3d
       0.09748372 -0.091354065 0.040665884 0.07641936
0003a0 7f 7d 10 3d d3 15 f4 3d 3a f0 4c 3e ea a1 5c be
       0.035275932 0.11918225 0.20013514 -0.2154614
0003b0 81 94 9c 3d b7 c6 92 3c 3f 92 0b be be 15 f4 bd
       0.07645512 0.01791702 -0.13630007 -0.119182095
0003c0 9d 0c d5 3c 48 80 51 3e c0 5c 08 3e 5b 90 57 be
       0.026006991 0.20459092 0.13316631 -0.21051161
0003d0 9c 79 05 be a1 dd a2 3d e5 80 b7 3b 22 7b 52 be
       -0.13034672 0.079524286 0.005600082 -0.20554784
0003e0 92 e1 e8 3d e4 c6 13 3e 8c 6b 4b 3e 88 82 c6 bd
       0.11371149 0.1443134 0.19865245 -0.096928656
0003f0 e5 ec 82 bd 34 2a ff bd 58 d6 3f be 8f 56 aa 3d
       -0.0639284 -0.124592215 -0.1873411 0.08317291

sequential_5/conv2d_17/Conv2D f4 [6, 3, 3, 6]
000000 c0 12 6b bc 5b 2a 04 bd cf a3 29 3e d4 11 10 be
       -0.014347732 -0.032266956 0.16566394 -0.14069301
000010 19 96 31 be 97 41 35 be 12 c0 e8 3d b4 d7 96 bc
       -0.17342414 -0.17700802 0.113647595 -0.018413402
000020 52 3d 38 be 13 7c 4b 3d 36 7e d0 bd 05 c4 9e 3d
       -0.17992142 0.049678873 -0.10180323 0.077522315
000030 aa b4 32 3e 69 11 27 3e 1b 64 99 3d fd 6b 82 3d
       0.1745173 0.16315235 0.07489797 0.063682534
000040 c2 f7 dc bd 9b 34 a4 3d f9 b6 63 3e 24 e6 4c 3e
       -0.107894436 0.08017846 0.22237767 0.20009667
000050 15 68 30 bd 87 cb 1a be 0f 09 00 be 17 19 0c be
       -0.04306801 -0.15116702 -0.12503456 -0.13681446
000060 77 5f 55 3e 2c 29 47 3e 98 93 12 3e 51 4e f1 3c
       0.20837198 0.194493 0.14314115 0.02945629
000070 eb fc 52 be 5c 00 05 3e c6 e7 62 3e 7d 70 31 be
       -0.20604293 0.12988418 0.22158727 -0.17328067
000080 43 9f 26 be b8 8d 41 bd d2 7b 1f be 53 32 91 bc
       -0.16271691 -0.047254294 -0.15574577 -0.017724192
000090 7c cb db 3d dc 77 64 be 8b e4 58 be 28 4f b3 3d
       0.10732171 -0.22311348 -0.21180932 0.08755332
0000a0 ec 2d 29 3e 46 51 db bd 6b 0f 57 bd 3d fe 88 bd
       0.16521424 -0.10708861 -0.052504938 -0.06689117
0000b0 b5 fe 5a be ea 7e 52 bd 75 96 49 bc 42 73 18 3e
       -0.21386226 -0.051390566 -0.012303938 0.14887717
0000c0 a1 fe fe bd 11 3a 58 bd 8a e0 35 3d 25 69 f0 3c
       -0.1245091 -0.05278975 0.04440359 0.029347012
0000d0 77 7c 4d 3e 74 a2 19 be 26 fa 2a 3e c1 c0 63 be
       0.20067011 -0.15003377 0.16696987 -0.22241499
0000e0 e1 2e 8f 3c ba 80 1c be a9 f0 ed bd e2 36 bc 3d
       0.017478408 -0.1528348 -0.11618168 0.091901556
0000f0 2a 07 26 be 54 e8 25 3e 5e 7e b6 bc 39 0e 76 bd
       -0.1621367 0.16201907 -0.022277053 -0.060072158
000100 cf 2d 21 be 3d 48 14 be b8 aa 52 bd 96 5b 1d 3e
       -0.15740131 -0.14480682 -0.05143234 0.15366969
000110 fc 74 48 3e 7a 40 56 be 7f 28 53 bd ce cc d6 3b
       0.19575876 -0.20923033 -0.051552292 0.0065551763
000120 8a e1 c9 3d 8c a2 85 bd 80 96 61 bd 93 2b f3 bd
       0.09857471 -0.06525144 -0.05507517 -0.118735455
000130 69 21 3f 3c 64 9d 91 3d a6 73 bc 3d 27 c6 49 bd
       0.01166568 0.07110098 0.09201746 -0.04926124
000140 be f0 3c be 19 67 68 bc a0 d1 18 3d f5 9b 60 3e
       -0.18451211 -0.014184737 0.03730929 0.21934493
000150 6c d9 5b bd 1b 89 a9 bd b2 5e d1 3d fc 45 28 3e
       -0.053674147 -0.08278104 0.1022314 0.16432947
000160 9d e8 99 bd 41 a9 12 be 44 bd 93 bd 60 d8 6f be
       -0.075150706 -0.14322378 -0.07213834 -0.23422384
000170 93 15 23 3e 46 8c ce 3d 7b ba 17 3e be 94 02 3e
       0.15926199 0.10085349 0.1481723 0.12752053
000180 f7 58 fe bd 5c e2 f2 3d 52 39 6b be c1 d1 2b 3e
       -0.124193124 0.11859581 -0.22971085 0.16779234
000190 c1 bc b8 3d bd a0 e4 3d cd 1b c8 3d 36 ec 16 be
       0.09020377 0.11163471 0.097709276 -0.14738545
0001a0 04 69 66 3e 98 96 57 be 18 71 28 3e b3 58 34 be
       0.22500998 -0.2105354 0.16449392 -0.17611961
0001b0 70 3b 4d be 20 7e b1 3d 09 9a e2 bd 43 2d 66 3e
       -0.20042205 0.086666346 -0.11064536 0.22478203
0001c0 2d 7d 1e be ed 9d de 3d d4 94 45 be 6a 5b 57 be
       -0.15477438 0.10869966 -0.19295055 -0.21030965
0001d0 6f 80 b2 bd d9 ec 12 3d 01 84 2f bd 28 94 dc bd
       -0.08715903 0.035870407 -0.042850498 -0.10770446
0001e0 e8 93 60 be 0c 06 65 be 3a 4f b6 3c 41 61 6f be
       -0.21931422 -0.22365588 0.022254575 -0.23376943
0001f0 d4 19 63 3d 0f b4 10 3e 0c c2 c2 3c 08 fc 0d 3e
       0.055444553 0.14131187 0.02377417 0.13865674
000200 1f d0 4e be 21 a5 97 bd f2 90 5c be 78 14 68 3e
       -0.2019658 -0.07404543 -0.21539667 0.22664058
000210 6b db 3c 3e 5e 9c 03 be fd c9 b7 bd b1 fc 53 be
       0.18443076 -0.12852618 -0.08974073 -0.20701863
000220 7a 34 f9 bd 3e 50 ea bd bb 8d 5d be 61 94 01 be
       -0.12168212 -0.11441086 -0.21636097 -0.12654258
000230 8f 00 1f 3e 2d c1 4a 3e 80 61 db 3d 5e 75 2f 3d
       0.15527557 0.19800253 0.10711956 0.04283654
000240 a5 ce 0b 3c 2c 35 80 bd b6 7a 55 be d8 c5 42 be
       0.008533155 -0.06260142 -0.20847592 -0.19020784
000250 3c 2f 10 3e a3 95 4c 3e 41 28 59 3d 36 c5 ca bd
       0.14080518 0.19978957 0.053016905 -0.09900896
000260 b8 ce aa bd 2b 96 ee bd ca 58 d0 3c c0 ec 5d bd
       -0.0834021 -0.11649736 0.025432963 -0.05418086
000270 a9 f6 41 be ba b1 0d bd c6 d2 46 3e ea d4 df 3d
       -0.1894175 -0.03459332 0.19416341 0.10929282
000280 d3 47 54 be ad 9d 90 3d 74 6d 54 3e 3a 51 a6 bc
       -0.20730524 0.07061324 0.20744878 -0.020302404
000290 05 10 b6 3c b0 c2 e0 bd 3e 48 0b 3e 31 fa 02 3e
       0.022224436 -0.10974634 0.13601777 0.12790753
0002a0 54 10 f0 bc 07 2e bf bd 3b 8c 48 bd 59 b3 68 3e
       -0.02930466 -0.09334951 -0.04896186 0.22724666
0002b0 41 1e 4c be c4 5c f9 b9 c1 c5 04 be 52 ce 1b 3e
       -0.19933416 -0.00047562097 -0.12966062 0.15215424
0002c0 23 0e d2 bd 52 c4 61 be 82 55 0e be 35 94 74 3e
       -0.102566026 -0.22047547 -0.13899806 0.23884661
0002d0 28 0c b7 bd f5 10 19 bd f7 0a ca bd e4 16 8c bd
       -0.089378655 -0.037369687 -0.09865373 -0.068403035
0002e0 46 a3 93 bd ea f8 8b bc f1 fc 02 3e a1 9a 3c be
       -0.07208876 -0.017086465 0.12791802 -0.18418361
0002f0 7b 21 46 be 70 9f 42 be 30 5f 35 3e 59 c9 d8 bd
       -0.1934871 -0.19006133 0.17712092 -0.10585279
000300 fa d8 0e be d4 5d 39 be fe 4e 02 3d ab 21 82 3d
       -0.13949957 -0.18102199 0.031813614 0.06354078
000310 a7 5a 31 3c 81 81 20 be 95 f4 a9 bc 4d 87 15 be
       0.010824836 -0.15674402 -0.020746509 -0.14602394
000320 fb 3e 35 3c 64 6a 00 be 31 72 31 3e 71 bb 0a be
       0.011062379 -0.12540585 0.17328717 -0.13548066
000330 e8 90 f3 3d 1e a2 df bd d5 4a c8 bc eb 54 dc bd
       0.11892873 -0.10919593 -0.024449745 -0.10758384
000340 40 d5 5e be dd d6 fb bd cc 6b f7 bc f2 1b 43 3e
       -0.21761036 -0.12296841 -0.030202769 0.19053629
000350 93 90 0e be d8 ff 10 3e bc 21 c3 3c cd e6 23 3e
       -0.13922338 0.14160097 0.023819797 0.16006012
000360 52 eb 42 be b2 3d 1b 3e f5 5a 50 3e 0d 47 84 3d
       -0.1903508 0.15160254 0.20347197 0.06458864
000370 54 af 2e be e7 0a ae bd 1d ea 62 be 19 1c 1a be
       -0.1705907 -0.08498173 -0.2215962 -0.15049781
000380 48 5a 18 3c 96 1e 18 bd 5b 7e 50 be b7 41 1c be
       0.0092988685 -0.037138544 -0.20360701 -0.15259443
000390 29 ed fd bd a4 f4 b9 bd 8c 58 af bd 7f 4e 1a 3e
       -0.1239875 -0.090798646 -0.08561811 0.15069006
0003a0 22 63 57 3d 85 5a 3d 3e fc 24 50 3e 97 1b 40 bd
       0.052584775 0.18491562 0.20326608 -0.04690131
0003b0 42 05 78 3e 44 1d d9 ba a6 c0 27 be 40 d0 28 be
       0.24220756 -0.0016564508 -0.16382083 -0.16485691
0003c0 f3 e2 27 3e d1 0c 1d be f0 5f 3a be 4d d0 99 3c
       0.16395168 -0.1533692 -0.1820066 0.018776083
0003d0 88 c2 35 be d1 ac 08 3e 17 ba d6 3d 96 d0 45 be
       -0.17749989 0.13347174 0.104847126 -0.1931785
0003e0 60 e0 4f 3e c8 2e 4c bd 22 e8 0d bd 69 b4 45 3e
       0.20300436 -0.0498493 -0.034645207 0.19307102
0003f0 5a 7c 05 3e cb 74 62 be 2b a9 65 3e d2 35 1a be
       0.13035718 -0.22114865 0.22427814 -0.15059593

sequential_5/dense_11/BiasAdd/ReadVariableOp f4 [7]
000000 bc 3d a5 bc d8 37 b0 3b ba f0 8a 39 6c 6b c6 3a
       -0.020171039 0.005377751 0.00026500766 0.0015138215
000010 61 ce 9f 3b da d4 46 bc 32 9c 31 bb
       0.004876897 -0.012135709 -0.0027101156

sequential_5/dense_10/BiasAdd/ReadVariableOp f4 [64]
000000 f2 a8 08 39 c2 94 32 ba 3e 15 12 bb 39 b6 5f bb
       0.00013032908 -0.0006812328 -0.0022290493 -0.0034135713
000010 e5 5c a7 bb 03 c5 e7 ba d6 ea b6 bb 11 6e c8 3a
       -0.0051075094 -0.0017682615 -0.005582194 0.0015291591
000020 86 a0 a4 bb 3d 84 62 bb fe 65 13 bb 07 44 3f bb
       -0.0050240187 -0.0034563683 -0.0022491212 -0.0029184835
000030 19 19 fa ba 43 30 54 bb 24 26 38 ba 11 84 36 ba
       -0.0019080966 -0.00323774 -0.00070247264 -0.00069624285
000040 e1 8c 8e bb 74 5f 8d 37 3e 9f 8a ba 89 1a bf 3a
       -0.00435029 1.6852959e-05 -0.0010576022 0.0014580052
000050 41 e7 9c 3a 1f 27 0a bc 14 2a de bb 1e b8 eb ba
       0.0011970775 -0.008432179 -0.0067799184 -0.0017983948
000060 0a bb aa bb c6 98 bd ba 93 fb 94 bb e1 47 a2 bb
       -0.005210285 -0.0014465086 -0.0045465915 -0.0049524163
000070 9a 25 ba bb 20 96 38 39 11 92 5c bb 6e 16 27 bb
       -0.005680752 0.00017603533 -0.0033656398 -0.0025495547
000080 6b 69 3e bb 6d 21 af ba 6c a5 97 bb 14 78 3e bb
       -0.0029054533 -0.0013361402 -0.004627874 -0.0029063271
000090 d4 a6 f0 ba d1 46 03 bb a5 e2 96 bb ba 30 8e bb
       -0.0018360266 -0.0020031224 -0.004604655 -0.0043393048
0000a0 5f 08 b9 bb 02 36 ab 3a 59 e3 0b bb 76 43 18 3b
       -0.00564675 0.001306236 -0.0021345227 0.002323357
0000b0 c1 80 7d 3a 98 1a 4e ba 66 9d db ba 5f ee 30 3a
       0.000967037 -0.0007862239 -0.0016755282 0.0006749387
0000c0 99 8f 7d bb e2 a7 8e ba 28 1c 84 bb 36 9e ff 39
       -0.0038690327 -0.0010883773 -0.004031677 0.00048755266
0000d0 9f 9b 8f 39 da aa 8c 37 5a 7a e4 39 02 84 44 bb
       0.00027391032 1.676886e-05 0.00043578708 -0.002998591
0000e0 44 5c 83 3a 0b 76 a5 bb 66 45 fb bb 1a b8 d3 3a
       0.0010022004 -0.005049472 -0.007668185 0.0016152889
0000f0 7e a4 a0 bb 2c b9 36 bb 19 23 83 bb 4c 02 6e bb
       -0.0049024215 -0.0027881367 -0.0040019867 -0.0036317287

sequential_5/batch_normalization_15/FusedBatchNormV3 f4 [6]
000000 50 01 d7 3d e7 9c 94 3c 8b a8 84 3d f1 09 8a 3d
       0.10498297 0.018141223 0.064774595 0.067401774
000010 29 c3 06 3d 9a df 07 3c
       0.032900963 0.008293057

sequential_5/batch_normalization_15/FusedBatchNormV31 f4 [6]
000000 7d 7f 82 bf 1f 16 2f bf c6 65 80 bf 38 dc 21 bf
       -1.0195156 -0.6839313 -1.0031059 -0.6322665
000010 7e e8 66 bf d7 d7 10 bf
       -0.90198505 -0.56579345

sequential_5/batch_normalization_16/FusedBatchNormV3 f4 [6]
000000 c5 98 0d 40 f3 35 94 3f 45 c7 c8 3f 9f fe 10 40
       2.2124493 1.1578964 1.5685812 2.2655408
000010 b0 b9 c3 3f 67 9c 13 3f
       1.5291042 0.57660526

sequential_5/batch_normalization_16/FusedBatchNormV31 f4 [6]
000000 c5 e9 f9 bf c7 a8 0a bf 68 cd 46 bf 1e 2d 67 bf
       -1.9524466 -0.54163784 -0.77657175 -0.9030322
000010 86 21 f1 be df dd 0c bf
       -0.4709589 -0.5502605

sequential_5/batch_normalization_17/FusedBatchNormV3 f4 [6]
000000 7a 89 fd 3f bd d4 5a 40 59 7d 1c 40 44 eb 2c 40
       1.980758 3.4192345 2.4451506 2.7018595
000010 40 75 0f 40 73 74 b9 3f
       2.2415314 1.4488662

sequential_5/batch_normalization_17/FusedBatchNormV31 f4 [6]
000000 ab c0 84 bf ee 54 74 bf a8 09 a9 bf 44 de af bf
       -1.0371298 -0.9544209 -1.3206072 -1.3739705
000010 c9 0e 86 bf a2 ea fe be
       -1.0473262 -0.49788386

sequential_5/dense_10/MatMul i1 [64, 10140] scale=0.00039175016 zero_point=0
000000 2e db ea 17 ee c1 12 fb e3 03 e6 19 da 0a f9 3a
       0.018020507 -0.014494756 -0.008618504 0.0090102535 -0.007051503 -0.02468026 0.007051503 -0.001958751 -0.011360754 0.0011752505 -0.010185504 0.009793754 -0.014886506 0.003917502 -0.0027422511 0.022721509
000010 1f e3 19 ef e9 b6 27 2a db 21 e1 12 dd 33 e2 fb
       0.0121442545 -0.011360754 0.009793754 -0.0066597527 -0.0090102535 -0.028989512 0.0152782565 0.016453506 -0.014494756 0.012927756 -0.0121442545 0.007051503 -0.013711256 0.019979259 -0.011752505 -0.001958751
000020 cf 15 e5 40 d6 f0 0a e8 fa 23 08 07 ce ef 44 f8
       -0.019195758 0.008226753 -0.010577254 0.02507201 -0.016453506 -0.0062680026 0.003917502 -0.009402004 -0.002350501 0.013711256 0.0031340013 0.0027422511 -0.019587507 -0.0066597527 0.02663901 -0.0031340013
000030 d4 14 f8 24 ec f2 42 2b da d9 00 0d 31 c8 c8 0c
       -0.017237008 0.007835004 -0.0031340013 0.014103006 -0.007835004 -0.0054845023 0.025855511 0.016845256 -0.014886506 -0.0152782565 0.0 0.005092752 0.019195758 -0.02193801 -0.02193801 0.004701002
000040 05 ed 17 2b d6 0e 1b ed 40 20 40 2f 22 1d da ea
       0.001958751 -0.007443253 0.0090102535 0.016845256 -0.016453506 0.0054845023 0.010577254 -0.007443253 0.02507201 0.012536005 0.02507201 0.018412257 0.013319505 0.011360754 -0.014886506 -0.008618504
000050 da 11 c9 f4 fd 0c 1a c9 38 ea eb 04 e1 29 30 e9
       -0.014886506 0.0066597527 -0.02154626 -0.004701002 -0.0011752505 0.004701002 0.010185504 -0.02154626 0.02193801 -0.008618504 -0.008226753 0.0015670006 -0.0121442545 0.016061757 0.018804008 -0.0090102535
000060 0e 1d cd 1b fc db d9 bb f1 f0 17 06 ea 1a 37 25
       0.0054845023 0.011360754 -0.019979259 0.010577254 -0.0015670006 -0.014494756 -0.0152782565 -0.02703076 -0.0058762524 -0.0062680026 0.0090102535 0.002350501 -0.008618504 0.010185504 0.02154626 0.014494756
000070 25 f9 2e c6 36 11 41 09 f1 d8 1a 25 0a d0 ec 19
       0.014494756 -0.0027422511 0.018020507 -0.022721509 0.021154508 0.0066597527 0.02546376 0.0035257514 -0.0058762524 -0.015670007 0.010185504 0.014494756 0.003917502 -0.018804008 -0.007835004 0.009793754
000080 16 14 07 c5 3f 19 ed 22 10 f1 20 dd ff ee 00 f9
       0.008618504 0.007835004 0.0027422511 -0.02311326 0.02468026 0.009793754 -0.007443253 0.013319505 0.0062680026 -0.0058762524 0.012536005 -0.013711256 -0.00039175016 -0.007051503 0.0 -0.0027422511
000090 18 e6 e3 eb 06 39 f8 b7 4f e0 1d fb 23 3a 27 cb
       0.009402004 -0.010185504 -0.011360754 -0.008226753 0.002350501 0.022329759 -0.0031340013 -0.028597761 0.030948263 -0.012536005 0.011360754 -0.001958751 0.013711256 0.022721509 0.0152782565 -0.020762758
0000a0 f7 cd e7 07 cf ee e4 d4 1c 09 bc 0f 10 22 da d6
       -0.0035257514 -0.019979259 -0.009793754 0.0027422511 -0.019195758 -0.007051503 -0.010969005 -0.017237008 0.010969005 0.0035257514 -0.02663901 0.0058762524 0.0062680026 0.013319505 -0.014886506 -0.016453506
0000b0 c4 0b f3 0b f9 e8 ca 20 2a 16 14 2f ea 18 f1 e1
       -0.02350501 0.004309252 -0.005092752 0.004309252 -0.0027422511 -0.009402004 -0.021154508 0.012536005 0.016453506 0.008618504 0.007835004 0.018412257 -0.008618504 0.009402004 -0.0058762524 -0.0121442545
0000c0 31 35 cb 24 17 05 df 44 ff 1a 2b c3 46 1b 3a 3b
       0.019195758 0.020762758 -0.020762758 0.014103006 0.0090102535 0.001958751 -0.012927756 0.02663901 -0.00039175016 0.010185504 0.016845256 -0.02389676 0.027422512 0.010577254 0.022721509 0.02311326
0000d0 e7 29 19 d7 e9 30 d0 18 15 1c ea 4a 2d c3 f0 f8
       -0.009793754 0.016061757 0.009793754 -0.016061757 -0.0090102535 0.018804008 -0.018804008 0.009402004 0.008226753 0.010969005 -0.008618504 0.028989512 0.017628757 -0.02389676 -0.0062680026 -0.0031340013
0000e0 38 fa c6 2b dd 1f 47 c4 d0 e7 0e 2e c3 dc 3e 2e
       0.02193801 -0.002350501 -0.022721509 0.016845256 -0.013711256 0.0121442545 0.027814262 -0.02350501 -0.018804008 -0.009793754 0.0054845023 0.018020507 -0.02389676 -0.014103006 0.024288509 0.018020507
0000f0 14 27 da 16 0e 37 42 38 0e 02 f7 47 0c 22 cd d5
       0.007835004 0.0152782565 -0.014886506 0.008618504 0.0054845023 0.02154626 0.025855511 0.02193801 0.0054845023 0.0007835003 -0.0035257514 0.027814262 0.004701002 0.013319505 -0.019979259 -0.016845256
