saved_model/quantized_models/layers3/trial2/paramcount216947.tflite (tflite, 225000 bytes, 16 tensors)

sequential_1/dense_3/MatMul f4 [7, 64]
-0.10988079 -0.0008891034 0.17086492 0.00034943235 0.15097156 0.051466867 -0.040214904 0.12429671
0.1716823 -0.31567597 -0.1088483 -0.30313808 -0.18881823 -0.0170319 -0.18690287 0.108376585
-0.2502458 0.078732766 0.17603615 0.014724386 -0.0105782775 0.0030611583 -0.2771093 -0.19948018
0.07514788 0.078904614 0.10320092 0.09784425 0.24535027 0.26808122 0.061932337 -0.09078825
0.25038034 -0.12111744 -0.23964362 -0.251618 0.24335888 0.059331898 0.21131267 0.05472054
0.12523302 -0.13372172 -0.18806392 0.015839167 0.20835508 0.1678229 0.18353987 0.18327828
0.11482154 0.12564301 -0.05953963 -0.1845774 -0.12229288 -0.16624787 -0.23673967 0.15868479
0.18914375 -0.17103145 0.07052618 0.15988645 0.18680327 -0.17198819 -0.10705268 -0.15290248
0.019853866 -0.11125469 -0.023472503 0.19231826 -0.14525104 -0.12807275 -0.04623538 0.16776025
0.16268189 -0.010698832 -0.033239305 -0.242241 -0.021026649 -0.15601741 0.19023167 -0.1713824
-0.19767274 -0.23381999 -0.027227763 0.017956195 0.06573355 0.116227776 -0.26888853 -0.28081357
-0.26474226 -0.1674609 -0.09337434 0.12316757 -0.1923698 -0.2027319 -0.18231224 0.10394073
0.092378445 0.1418583 0.1969952 0.052371774 -0.13386333 -0.052204143 -0.03458345 -0.20736644
0.2435845 0.23737599 0.2547607 0.28968385 -0.035701435 0.24855705 0.28664416 -0.06591252
-0.2599873 0.013494447 -0.097195745 0.14254825 -0.020942546 0.12508574 -0.23519896 0.19799264
-0.07531882 -0.23604377 -0.1271035 0.067835756 -0.18773417 -0.17576635 -0.17392212 -0.21846873
-0.071886025 0.08243987 0.028536396 -0.29013735 0.24586563 -0.08530485 0.26894102 0.27519873
-0.2019743 0.24332501 0.07063396 0.07018343 0.061647832 -0.17905483 -0.13782468 0.22391078
-0.19392604 -0.09661404 -0.27903393 -0.09701382 0.21931992 0.15987901 -0.17000535 -0.2905262
0.04890989 0.24946757 0.23107758 -0.24275906 0.1923258 -0.21353133 0.22514127 -0.06398071
0.10161174 -0.25150523 0.14733148 -0.21985249 0.06942157 -0.10451537 -0.2437672 -0.08268034
-0.24235854 0.21260515 0.029580057 -0.072437845 -0.09773042 0.046051454 -0.2512307 -0.24383113
0.021621266 -0.26670915 -0.100195356 -0.22418933 -0.2678527 -0.04058625 0.11760041 0.16019587
0.055497307 0.22733736 0.2548152 0.040247977 0.16093907 -0.2906688 -0.06396437 0.15346116
0.2087097 -0.15006524 -0.19676712 -0.25210774 -0.15134999 0.20243563 -0.17450155 -0.2137811
0.24196221 -0.003149528 0.08996243 0.017417476 0.050165556 0.13746126 0.08782941 0.016371578
0.19188091 0.077053994 0.26848546 -0.19501075 0.1894997 -0.20430309 -0.23833638 -0.059422914
0.16052547 -0.13710801 -0.08302681 0.13143484 -0.016177606 0.15995567 -0.12425286 -0.048696212
-0.032877516 -0.25155166 -0.05758223 -0.15803988 -0.1891691 0.06255001 0.16640471 0.23433879
-0.26899827 0.0855086 0.044181958 -0.13088869 0.25927928 -0.0065232594 -0.12520972 0.047820933
0.27681726 -0.08249189 0.10073407 0.056881193 -0.13838993 0.2674291 -0.15667869 -0.2586013
-0.27215406 0.028313309 -0.025651058 0.039122075 0.17607933 0.045957442 0.065868795 0.25762776
00000000: 2e09 e1bd b812 69ba 37f7 2e3e 0434 b739
00000010: 4a98 1a3e ecce 523d 62b8 24bd 468f fe3d
00000020: 7ccd 2f3e 48a0 a1be dceb debd ea34 9bbe
00000030: 9159 41be 7c86 8bbc 7763 3fbe 8bf4 dd3d
00000040: 3820 80be a53e a13d d242 343e 8d3e 713c
00000050: 8350 2dbc b79d 483b 45e1 8dbe 8844 4cbe
00000060: 22e7 993d be98 a13d 015b d33d 9162 c83d
00000070: 1a3d 7b3e f141 893e c3ac 7d3d 31ef b9bd
00000080: da31 803e 6c0c f8bd 2365 75be 13d4 80be
00000090: 1233 793e 0106 733d 5962 583e a522 603d
000000a0: 163d 003e 59ee 08be d493 40be 24c1 813c
000000b0: 095b 553e c4d9 2b3e e0f1 3b3e 4dad 3b3e
000000c0: 8e27 eb3d 90a8 003e d4df 73bd dc01 3dbe
000000d0: b174 fabd e23c 2abe e26b 72be 447e 223e
000000e0: e6ae 413e de22 2fbe 0870 903d 46b9 233e
000000f0: 5b49 3f3e ac1d 30be 6f3e dbbd 7892 1cbe
00000100: 93a4 a23c 80d9 e3bd 6849 c0bc 14ef 443e
00000110: b0bc 14be 8125 03be 4f61 3dbd 58c9 2b3e
00000120: 1596 263e 274a 2fbc f025 08bd 060e 78be
00000130: 1440 acbc 07c3 1fbe 17cc 423e de7e 2fbe
00000140: b96a 4abe 826e 6fbe c20c dfbc df18 933c
00000150: 509f 863d d408 ee3d c2ab 89be ccc6 8fbe
00000160: 4c8c 87be df7a 2bbe 0c3b bfbd 473f fc3d
00000170: 97fc 44be f498 4fbe 0fb0 3abe e1de d43d
00000180: e930 bd3d 4d43 113e 1cb9 493e c983 563d
00000190: 7813 09be 03d4 55bd 60a7 0dbd de57 54be
000001a0: 376e 793e b112 733e ff6f 823e 7151 943e
000001b0: ab3b 12bd bd85 7e3e 06c3 923e 25fd 86bd
000001c0: 0e1d 85be d017 5d3c 900e c7bd 2bf8 113e
000001d0: b48f abbc 7a16 003e ffd7 70be 95be 4a3e
000001e0: c140 9abd 75b5 71be 6b27 02be 79ed 8a3d
000001f0: 633d 40be 18fc 33be a418 32be 44b6 5fbe
00000200: fb38 93bd 3cd6 a83d 29c5 e93c e28c 94be
00000210: 33c4 7b3e 4fb4 aebd a3b2 893e d9e6 8c3e
00000220: 5ad2 4ebe 312a 793e 8aa8 903d 55bc 8f3d
00000230: 7082 7c3d 265a 37be ea21 0dbe de48 653e
00000240: 8c94 46be 95dd c5bd 89dd 8ebe 2faf c6bd
00000250: 6795 603e 53b7 233e e215 2ebe dabf 94be
00000260: bd55 483d 6d74 7f3e 9a9f 6c3e d595 78be
00000270: 0ef1 443e f5a7 5abe 6f8b 663e 5208 83bd
00000280: d119 d03d 4bc5 80be 10de 163e 0321 61be
00000290: e52c 8e3d 280c d6bd 1c9e 79be 4f54 a9bd
000002a0: d62c 78be 2ab5 593e e051 f23c 4b5a 94bd
000002b0: e326 c8bd 73a0 3c3d 4fa1 80be deae 79be
000002c0: 151f b13c 1a8e 88be 3933 cdbd e391 65be
000002d0: fd23 89be c53d 26bd 7cd8 f03d 630a 243e
000002e0: 2551 633d 20cb 683e 2377 823e 10db 243d
000002f0: 36cd 243e 8ad2 94be c0ff 82bd ec24 1d3e
00000300: ffb7 553e b4aa 19be 527d 49be 4414 81be
00000310: 7efb 1abe 494b 4f3e 89b0 32be 6fe9 5abe
00000320: f1c4 773e 5068 4ebb 393e b83d 18af 8e3c
00000330: 667a 4d3d a5c2 0c3e e8df b33d b01d 863c
00000340: 6e7c 443e 7cce 9d3d ed76 893e e6b0 47be
00000350: 360c 423e d434 51be 740e 74be 7165 73bd
00000360: ca60 243e 0b66 0cbe f609 aabd db96 063e
00000370: e686 84bc 6bcb 233e 4978 febd ae75 47bd
00000380: 93aa 06bd 61cb 80be 58db 6bbd 35d5 21be
00000390: 8bb5 41be 381a 803d ff65 2a3e 82f6 6f3e
000003a0: 24ba 89be 221f af3d 24f8 343d af07 06be
000003b0: 41c0 843e 11c1 d5bb fa36 00be e2df 433d
000003c0: feba 8d3e 82f1 a8bd aa4d ce3d 41fc 683d
000003d0: 17b6 0dbe 78ec 883e 6170 20be 6467 84be
000003e0: c757 8bbe 50f1 e73c 2b22 d2bc 783e 203d
000003f0: 244e 343e df3d 3c3d 38e6 863d c9e7 833e

sequential_1/conv2d_3/BiasAdd/ReadVariableOp f4 [2]
0.02339152 0.010450911
00000000: 939f bf3c 4c3a 2b3c

sequential_1/conv2d_4/BiasAdd/ReadVariableOp f4 [2]
-0.01502859 0.0041469657
00000000: 7a3a 76bc 45e3 873b

sequential_1/conv2d_5/BiasAdd/ReadVariableOp f4 [2]
-0.020391889 -0.006295358
00000000: e40c a7bc 4a49 cebb

sequential_1/conv2d_3/Conv2D f4 [2, 3, 3, 1]
0.4194446 -0.24696293 -0.27109927 -0.3203545 -0.26502037 -0.37107596 0.4123719 0.37723243
-0.20348042 -0.42646086 -0.11897469 0.4199229 0.23718512 -0.28295964 -0.15901713 -0.08196421
-0.104614384 -0.20653108
00000000: 71c1 d63e dae3 7cbe 86cd 8abe 8105 a4be
00000010: c0b0 87be abfd bdbe 6922 d33e 9c24 c13e
00000020: 2c5d 50be 1459 dabe 01a9 f3bd 2200 d73e
00000030: a8e0 723e 16e0 90be 63d5 22be dadc a7bd
00000040: 1140 d6bd e27c 53be

sequential_1/conv2d_4/Conv2D f4 [2, 3, 3, 2]
-0.19844295 -0.29458785 -0.18349703 -0.20275888 0.3428627 0.049921725 0.086734585 0.118656024
-0.111165024 -0.32291088 -0.25664446 -0.08764842 0.16876717 0.02183183 -0.085883774 -0.13039689
0.012877082 0.054522943 0.18282175 -0.38751742 0.28122777 0.12846856 -0.084380865 0.08147435
0.1719949 0.09062846 0.3572452 0.0021891927 -0.2949823 0.070820466 0.19390965 -0.27225035
0.26873815 0.33176115 0.018135658 -0.007385495
00000000: a134 4bbe 38d4 96be a5e6 3bbe 06a0 4fbe
00000010: b38b af3e b97a 4c3d e7a1 b13d ee01 f33d
00000020: 7daa e3bd 9354 a5be e766 83be 0481 b3bd
00000030: 4dd1 2c3e aad8 b23c d5e3 afbd c386 05be
00000040: 66fa 523c 7353 5f3d a035 3b3e af68 c6be
00000050: 16fd 8f3e 438d 033e e0cf acbd 06dc a63d
00000060: 6e1f 303e 6a9b b93d d8e8 b63e 8f78 0f3b
00000070: ec07 97be 520a 913d 4090 463e 6664 8bbe
00000080: 0c98 893e 99dc a93e 3b91 943c 0602 f2bb

sequential_1/conv2d_5/Conv2D f4 [2, 3, 3, 2]
-0.32050338 0.015298892 -0.045211557 0.22862956 0.12715149 -0.017319959 0.19533364 -0.21476129
-0.10830068 0.11690631 -0.02958841 0.18753776 -0.08575629 0.38657668 -0.076662265 -0.32114008
0.31018034 -0.22851415 0.07459711 -0.06656105 0.3325419 -0.29674837 0.29250288 -0.053457618
-0.34887454 0.16288663 -0.31388992 0.37248477 0.25071424 -0.047713824 0.08905059 0.24860547
-0.27498415 0.27915066 -0.014009822 -0.049943883
00000000: 0519 a4be 34a8 7a3c c12f 39bd de1d 6a3e
00000010: 0034 023e 96e2 8dbc 8b05 483e 62ea 5bbe
00000020: bfcc ddbd 936c ef3d 6563 f2bc e609 403e
00000030: fea0 afbd 61ed c53e 1b01 9dbd 796c a4be
00000040: f5cf 9e3e 9dff 69be 5fc6 983d 2951 88bd
00000050: ef42 aa3e 67ef 97be f0c2 953e 60f6 5abd
00000060: af9f b2be c1cb 263e 2eb6 a0be 53b6 be3e
00000070: 9e5d 803e 926f 43bd 2860 b63d 6f92 7e3e
00000080: b9ca 8cbe d6ec 8e3e 7489 65bc f591 4cbd

sequential_1/dense_3/BiasAdd/ReadVariableOp f4 [7]
-0.023246484 0.0076942323 -0.0033958887 0.0035325275 0.0013440681 -0.00048621837 -0.003705975
00000000: 696f bebc e61f fc3b 8f8d 5ebb fa81 673b
00000010: 712b b03a 20eb feb9 f1df 72bb

sequential_1/dense_2/BiasAdd/ReadVariableOp f4 [64]
-0.00073846 -0.0035761138 -0.003183359 -0.00071301655 -0.005864437 -0.0049067 -0.0056335274 -0.00085668714
-0.0043968298 0.0007513692 -0.0022033353 -0.0058755274 0.004305434 -0.0028631445 0.003229479 -0.0027329547
-0.002753202 -0.009972113 -0.00066506595 0.003046886 -0.0061395373 -0.003197863 -0.0038569123 -0.0025247145
-0.0027547488 -0.0068340953 -0.0023986625 -0.005536294 -0.0050905887 -0.0065648146 -0.0032561147 -0.001564387
0.0020282601 -0.0008243988 0.0084946435 -0.0012295628 0.0027728402 -0.0016448684 -0.00024809773 -0.0077744373
-0.0021089094 0.0072789234 0.0057826666 0.0033334224 -0.004104498 -0.0023610636 0.0030777077 -0.0053928494
-0.009249104 -0.0011791744 0.001260344 0.0015028676 0.0063878223 0.000335004 -0.007916163 -0.0009919591
-0.0024745914 0.0025535927 -0.007774732 -0.005366084 -0.004751399 0.0012222864 -0.0042886245 -0.002193105
00000000: 3695 41ba 3c5d 6abb e79f 50bb bbe9 3aba
00000010: 772a c0bb 62c8 a0bb 7499 b8bb 4d93 60ba
00000020: 4813 90bb 89f7 443a d565 10bb 7f87 c0bb
00000030: 9914 8d3b 98a3 3bbb aba5 533b 5f1b 33bb
00000040: 116f 34bb 1362 23bc d257 2eba 44ae 473b
00000050: 2c2e c9bb 3d93 51bb 40c4 7cbb ae75 25bb
00000060: 0489 34bb 8cf0 dfbb e132 1dbb cd69 b5bb
00000070: f4ce a6bb a81d d7bb 8a64 55bb 1e0c cdba
00000080: 8fec 043b 781c 58ba 1e2d 0b3c 4829 a1ba
00000090: 8ab8 353b a098 d7ba 1d13 82b9 b5c0 febb
000000a0: a135 0abb 0984 ee3b 867c bd3b 8c75 5a3b
000000b0: 067f 86bb 13bc 1abb 5eb3 493b 80b6 b0bb
000000c0: 8e89 17bc 878e 9aba 2132 a53a defb c43a
000000d0: f050 d13b 7aa3 af39 cbb2 01bc a004 82ba
000000e0: c12c 22bb 2d5a 273b 2ec3 febb fad5 afbb
000000f0: a0b1 9bbb 2035 a03a 9787 8cbb 32ba 0fbb

sequential_1/batch_normalization_3/FusedBatchNormV3 f4 [2]
0.035595927 0.012143592
00000000: 09cd 113d ebf5 463c

sequential_1/batch_normalization_3/FusedBatchNormV31 f4 [2]
-0.73961776 -0.49572328
00000000: 9757 3dbf 71cf fdbe

sequential_1/batch_normalization_4/FusedBatchNormV3 f4 [2]
3.7263567 0.80224407
00000000: a17c 6e40 de5f 4d3f

sequential_1/batch_normalization_4/FusedBatchNormV31 f4 [2]
-1.4085779 -0.6026602
00000000: 484c b4bf f047 1abf

sequential_1/batch_normalization_5/FusedBatchNormV3 f4 [2]
2.137824 1.2658459
00000000: 1cd2 0840 3d07 a23f

sequential_1/batch_normalization_5/FusedBatchNormV31 f4 [2]
-0.7950139 -0.7396702
00000000: 0886 4bbf 075b 3dbf

sequential_1/dense_2/MatMul i1 [64, 3380] scale=0.00051174604 zero_point=0
0.02712254 0.0030704762 0.025075557 0.011258413 -0.021493334 0.010746667 0.011770159 -0.018934604
0.0040939683 -0.00511746 0.01023492 -0.015352381 0.037869208 -0.039404444 -0.036845714 0.0015352381
0.020981587 -0.010746667 -0.011258413 -0.024052063 0.0 -0.026610794 0.017399365 0.038892698
0.03991619 0.035310477 0.020981587 -0.023028571 -0.02046984 -0.0076761907 0.015352381 0.018934604
-0.019958096 0.009211428 -0.044521905 -0.030193016 -0.036845714 -0.029169524 0.023540318 -0.044521905
0.010746667 0.017399365 -0.020981587 0.017399365 -0.018422857 -0.027634285 -0.035822224 0.038380954
-0.029169524 0.012281905 -0.03991619 -0.02865778 -0.013817143 0.017911112 0.025587302 0.015864126
0.034286983 0.02456381 0.03479873 -0.0020469842 -0.035310477 -0.0035822224 0.0030704762 -0.03735746
-0.035310477 -0.036845714 -0.02456381 -0.00511746 0.02200508 -0.027634285 -0.008187937 0.01023492
-0.036845714 0.033263493 0.008699683 0.039404444 0.041451428 -0.026099049 0.031728253 -0.02456381
0.03224 -0.004605714 -0.017911112 -0.008699683 -0.009211428 -0.009211428 -0.0020469842 -0.021493334
0.028146032 0.027634285 0.02456381 -0.03479873 0.032751746 -0.038892698 -0.0061409525 0.013305397
-0.029681271 -0.0148406355 0.02712254 0.015352381 0.017399365 0.012281905 0.022516826 0.04298667
0.0061409525 0.02456381 -0.034286983 0.019446349 0.01688762 -0.011770159 0.036333967 0.008187937
0.0061409525 -0.013305397 -0.018934604 -0.024052063 -0.040427938 0.013817143 -0.016375873 0.012793651
0.030193016 0.015352381 0.032751746 -0.015864126 0.026099049 0.019958096 -0.02456381 0.018422857
-0.036845714 -0.031216508 -0.015352381 -0.0010234921 0.03991619 -0.037869208 0.02200508 0.007164445
-0.011258413 -0.030193016 -0.031728253 0.018934604 -0.033263493 0.022516826 -0.015352381 -0.02712254
-0.02046984 0.0030704762 -0.035310477 0.020981587 -0.012793651 0.020981587 -0.009211428 0.0040939683
0.041963175 0.0056292065 -0.02046984 -0.038380954 0.018934604 -0.011770159 0.01023492 0.031216508
-0.01432889 -0.03991619 0.018422857 -0.012793651 -0.02712254 0.0020469842 -0.041451428 -0.004605714
-0.0010234921 -0.040427938 -0.0035822224 -0.041963175 -0.035822224 0.036333967 0.015352381 -0.011258413
-0.033263493 0.038380954 0.009723174 -0.035310477 0.041963175 0.029681271 -0.023540318 0.004605714
-0.02865778 0.031728253 0.0076761907 0.019446349 0.012281905 0.035822224 -0.01688762 -0.026099049
-0.047080636 -0.031728253 -0.004605714 0.017911112 -0.035310477 -0.0030704762 -0.0030704762 0.022516826
0.029169524 -0.0066526984 0.019958096 0.029169524 0.0076761907 0.008187937 -0.01688762 -0.02712254
-0.019958096 0.018934604 0.018422857 0.025075557 -0.00511746 -0.02456381 -0.007164445 -0.0148406355
0.011770159 -0.018934604 0.018934604 0.0076761907 -0.040427938 -0.029681271 -0.022516826 -0.036333967
0.02200508 0.035822224 0.0040939683 -0.036333967 -0.019958096 -0.029169524 0.035822224 0.04093968
0.03991619 -0.0030704762 -0.007164445 -0.029681271 -0.0061409525 0.03479873 -0.033263493 0.024052063
-0.00255873 0.020981587 -0.03377524 -0.036845714 0.01688762 -0.0040939683 0.016375873 -0.012281905
-0.03479873 0.03479873 -0.023540318 -0.016375873 -0.012793651 0.028146032 0.035310477 -0.032751746
00000000: 3506 3116 d615 17db 08f6 14e2 4ab3 b803
00000010: 29eb ead1 00cc 224c 4e45 29d3 d8f1 1e25
00000020: d912 a9c5 b8c7 2ea9 1522 d722 dcca ba4b
00000030: c718 b2c8 e523 321f 4330 44fc bbf9 06b7
00000040: bbb8 d0f6 2bca f014 b841 114d 51cd 3ed0
00000050: 3ff7 ddef eeee fcd6 3736 30bc 40b4 f41a
00000060: c6e3 351e 2218 2c54 0c30 bd26 21e9 4710
00000070: 0ce6 dbd1 b11b e019 3b1e 40e1 3327 d024
00000080: b8c3 e2fe 4eb6 2b0e eac5 c225 bf2c e2cb
00000090: d806 bb29 e729 ee08 520b d8b5 25e9 143d
000000a0: e4b2 24e7 cb04 aff7 feb1 f9ae ba47 1eea
000000b0: bf4b 13bb 523a d209 c83e 0f26 1846 dfcd
000000c0: a4c2 f723 bbfa fa2c 39f3 2739 0f10 dfcb
000000d0: d925 2431 f6d0 f2e3 17db 250f b1c6 d4b9
000000e0: 2b46 08b9 d9c7 4650 4efa f2c6 f444 bf2f
000000f0: fb29 beb8 21f8 20e8 bc44 d2e0 e737 45c0
