saved_model/quantized_models/layers3/trial2/paramcount325215.tflite (tflite, 333592 bytes, 16 tensors)

sequential_2/dense_5/MatMul f4 [7, 64]
00000000: 91a9 f93d 91bd f23d 995f 0f3d 10e1 f93c
00000010: 16e4 9cbe aa3b 2b3e f051 97be 2791 883e
00000020: 3442 073d 82f4 67be 29c8 3ebe 9d1a 4bbe
00000030: ed00 fa3c b208 00be 2331 f93c f1ba 9bbe
00000040: 5bcb 4d3e 8dde 8cbe c067 19be 17f8 223e
00000050: d55c 963d 64e9 5e3e 2e2c 0a3e 81c7 5c39
00000060: f85a 5b3c 5649 3a3e a9e9 8ebe c8dd 263e
00000070: 5685 01be f22d 7d3e bd4c 84be d259 7ebe
00000080: 762d 2fbe 8851 01be 8bad 02bc e374 26be
00000090: bfbb 803e ff99 0e3e e9eb 4ebe 21cd 133e
000000a0: 46a7 93be 27ec 72be 1710 233d 1157 3e3a
000000b0: 2beb 5fbe ff1e 2a3e 2cba 2abe 1c6b 923e
000000c0: 2608 fcbd 37c1 f6bd 49db eb3c 1818 88be
000000d0: 853b 84bd e2bc 783e 8ce5 4abe cb4b 2c3e
000000e0: 3caa 24be c897 193d a501 9fbe cfe6 3e3e
000000f0: 924a d7bd 59be 98be b239 76be 5534 58be
00000100: 3e3a b43c f5d3 7d3c 869c 293e da0b 6f3e
00000110: aca8 333e 60de 803e 3a16 193d e651 46be
00000120: 48eb 21be ab8a 37be 0867 163c 7da0 1abe
00000130: 0af6 8abd 4e26 6ebe ad2e 903e f9d4 1bbe
00000140: 1552 2f3c 03f7 7fbc 9eca 043e 007f 86be
00000150: 6ed1 703e 279e 8b3e 1325 36be 6f09 63bd
00000160: dcd9 20bc d266 823e 04bc 1d3e c096 8c3e
00000170: 52de 8dbe 5463 763e 8b96 613d 1d78 13be
00000180: f546 88be 6fba a6bd e9ea 273e 27f0 cebd
00000190: 8763 19be 2349 97bd af6b 043d 61e9 073e
000001a0: 812e 04be 41b0 2a3e 2caa 35be 5f02 86be
000001b0: d13a 0c3e f87b 8bbe 15fd cb3d e317 883d
000001c0: df2f 913e 4d17 1f3d 94a6 c7bd b603 413e
000001d0: b5b2 bc3b 1914 173e 6e00 fc3c b173 7cbe
000001e0: 6144 dfbd c0f5 723e fe78 40bd b987 76be
000001f0: 008b 853b 5466 893e 2f1d 6abc 1225 763e
00000200: 38ca 68be bc45 903c dab2 7c3e ccfa 48be
00000210: 98a6 74bd 07b2 373e 4008 04bd 5ce7 7b3e
00000220: 46d4 093e 6de6 eebc 20ba a33d 4182 873e
00000230: 368f 8fbe dcb6 d43d d053 493e 6a67 213e
00000240: b49c 8cbe 8b72 46be 5716 0f3e b390 d3bd
00000250: f7db 3e3c be5f 32be f656 a3bd 514e 51be
00000260: b7ba 8c3e 5148 813e 6cd3 8dbd 1c09 323e
00000270: aba8 88be 6014 8fbe 9ffa f5bc 3d33 a1bc
00000280: 8ac9 36be afc0 91bd d0cc 7b3e 0bfa 49bd
00000290: ad4b 80bc 289a ac3d e66a 31be 6c8d 173e
000002a0: ea86 8dbd 685c 6a3e 217d e3ba 567c 463c
000002b0: 8d98 19be f447 47be c02c 74be 7db2 74bd
000002c0: 161f 313d e02f a03d da55 86be bd5b 79be
000002d0: bb7b 4d3e ae9b 3abe 7f47 8b3e a130 e1bc
000002e0: bc83 27be 1d8d e2bd 0f21 cbbd b40d 95bd
000002f0: 37d4 883b 49b5 5e3e 05c0 1fbe 26c1 4cbe
00000300: 7940 7b3e 2ef9 26be 9bda 43bd 9993 8bbe
00000310: 71cf 173d 05d6 8cbe fa58 98bd 1e50 d13c
00000320: 220a 86be 0e2f 56bd 3ea7 3bbe 8868 37bd
00000330: cb7d 5c3e 253c 7a3e fadf b13d 6ad5 af3d
00000340: 2985 90be 6498 91be 4ae4 0f3e 6eff 203e
00000350: e5c0 8ebe c997 ce3d a22a 923e dac5 82be
00000360: d5d7 a3bc 6c92 81be 7605 54be ca6e 86bc
00000370: c6c8 b33d 3dbd 81be 38cf 87be 7ba2 323e
00000380: 4a47 0d3e e0dc 313e ffaf 913e da07 443e
00000390: e4eb c23d c167 7dbe 3e8a 7a3d 9629 1c3e
000003a0: 43f4 1fbe d93a 253d d276 863e d920 323e
000003b0: 024f 29be eee8 83be 16b1 6b3e 4611 90bd
000003c0: 5eab 69bd c045 953e 5ef1 c23d 2e01 6bbe
000003d0: 0e38 383e a282 dfbd 9298 3dbe cefc 69be
000003e0: 1a37 813a b652 07bd a50e 653c 052a a8bd
000003f0: fe93 d83d 907e 8b3e 34cf 53be 5ae3 18be
0.12190545 0.11852563 0.03500328 0.030502826 -0.30642766 0.16721979 -0.295547 0.26673242
0.03302212 -0.22651866 -0.18631043 -0.19834371 0.03051802 -0.12503317 0.030418938 -0.30416062
0.20097105 -0.27513543 -0.14980984 0.15914951 0.07341925 0.21768719 0.13493416 0.00021055156
0.013388388 0.18192038 -0.27912644 0.1629554 -0.1264852 0.24724558 -0.25839797 -0.24838951
-0.17107186 -0.12628758 -0.007975946 -0.16255526 0.2514324 0.13925932 -0.2020718 0.14433719
-0.28838557 -0.23722897 0.039810266 0.0007260899 -0.21867053 0.16613387 -0.16672581 0.28597343
-0.12306242 -0.120485716 0.028791087 -0.26580882 -0.06456665 0.24290803 -0.19814128 0.16825788
-0.16080564 0.037498266 -0.31055942 0.18642734 -0.1051227 -0.29832724 -0.24045447 -0.21113713
0.022000428 0.015492429 0.16563615 0.23344365 0.17544812 0.2516966 0.037374713 -0.1936718
-0.15812409 -0.17923991 0.009179838 -0.15100284 -0.067852095 -0.232568 0.2816061 -0.15217961
0.010700722 -0.015622857 0.12967917 -0.26268768 0.23517391 0.27269098 -0.1778758 -0.05542892
-0.009817567 0.2546907 0.15403754 0.27458763 -0.2770868 0.24061328 0.05507521 -0.14401288
-0.26616636 -0.08141028 0.16398205 -0.10104399 -0.14979373 -0.073869966 0.032329258 0.1327262
-0.12908365 0.16668798 -0.17740697 -0.26173684 0.13694312 -0.27243018 0.09960381 0.06645181
0.28356835 0.03884058 -0.09748569 0.18849072 0.005758608 0.1475376 0.030761924 -0.24653508
-0.10901714 0.23726559 -0.046990387 -0.24075212 0.004075408 0.26835883 -0.0142891845 0.24037579
-0.2273339 0.017611377 0.24677601 -0.19626921 -0.05972919 0.17939006 -0.03223443 0.24599975
0.13459882 -0.02916261 0.07994485 0.26466563 -0.2803895 0.1038644 0.19660878 0.15762106
-0.27463305 -0.19379632 0.13973366 -0.103303336 0.011649123 -0.17419335 -0.07975571 -0.20440032
0.27486202 0.25250486 -0.06925091 0.17386287 -0.26691183 -0.27945232 -0.030026732 -0.019677753
-0.17850319 -0.071168296 0.24589849 -0.049310725 -0.015661085 0.084278405 -0.17325935 0.14800042
-0.069104984 0.22886813 -0.0017356017 0.012114605 -0.149996 -0.19461042 -0.23845196 -0.059740532
0.043242536 0.078216314 -0.26237375 -0.24351402 0.2006673 -0.1822345 0.27202985 -0.027489008
-0.16358846 -0.110620715 -0.09918415 -0.07278004 0.0041756886 0.21748842 -0.15600593 -0.19995555
0.24536313 -0.16305992 -0.0478159 -0.27261046 0.037063066 -0.27507034 -0.07438846 0.025550898
-0.26179606 -0.05229097 -0.18325517 -0.044777423 0.21532361 0.24437006 0.08685298 0.085856274
-0.28226593 -0.28436577 0.14051929 0.15722439 -0.27881542 0.100875445 0.2854815 -0.25541574
-0.020000378 -0.25307024 -0.20705208 -0.01641025 0.08778529 -0.2533969 -0.26525283 0.17444794
0.13796726 0.17369413 0.28454587 0.1914362 0.09517649 -0.2474661 0.061166994 0.15250239
-0.15620522 0.040339325 0.26262528 0.17395343 -0.16534045 -0.2576365 0.23016772 -0.07034545
-0.057048194 0.29154778 0.095186934 -0.22949669 0.17990133 -0.10913588 -0.18515232 -0.22850344
0.000985834 -0.033037864 0.013980542 -0.082111396 0.10575102 0.27244997 -0.2068451 -0.14930478

sequential_2/conv2d_6/BiasAdd/ReadVariableOp f4 [3]
00000000: a5c0 233b d417 b43c d9c0 753c
0.0024986651 0.021984018 0.014999592

sequential_2/conv2d_7/BiasAdd/ReadVariableOp f4 [3]
00000000: 5ed6 6b3c 544f 393c c4e4 bfbc
0.014394371 0.011310417 -0.023424514

sequential_2/conv2d_8/BiasAdd/ReadVariableOp f4 [3]
00000000: 792d 143c 8825 78bb a651 dbbc
0.009044045 -0.0037864167 -0.026772331

sequential_2/conv2d_6/Conv2D f4 [3, 3, 3, 1]
00000000: 927b c3bd b292 3fbd b8a3 db3d 6149 ebbd
00000010: 5dc3 a03e 807c f7bd 15e7 473e f931 26be
00000020: 7e5d ad3e ff39 a33d 111c 61be 4f2d 7dbc
00000030: 5d32 1a3e c97d 753e e4a2 803d 67ff 53be
00000040: fbdb 80be cf2f b93e 9269 2cbe 3775 58be
00000050: 246f cabe 0a59 94be 50d0 013e 3120 483d
00000060: 17df 8ebe 45fa c23e de46 afbd
-0.095450535 -0.04677076 0.10724586 -0.11488605 0.3139905 -0.12084293 0.19521745 -0.1623
0.3386039 0.07970046 -0.21983363 -0.015452697 0.15058275 0.23973764 0.06281069 -0.20702897
-0.25167832 0.36169288 -0.16837147 -0.21138464 -0.3953792 -0.2897418 0.12677121 0.048858825
-0.2790458 0.38081565 -0.08558439

sequential_2/conv2d_7/Conv2D f4 [3, 3, 3, 3]
00000000: 1880 a33e 65c1 96bd 905c cabc ff23 3fbe
00000010: 4c84 acbe 5ca9 8b3e 1c5c 20be ecd6 3c3e
00000020: 35c6 f4bd 7439 463e 3c9c 3c3e ef06 5abe
00000030: 9159 1d3e 5ed9 693e 7165 37be 2fed 493e
00000040: 06fc 1bbe ef0a 5f3d decf 3ebe 65bd 5b3e
00000050: f2f1 1f3c a621 083c 3ffd acbd 9bae 9a3e
00000060: 82ae a2be 0de5 56be a0df 653c 2e71 263e
00000070: be55 adbd 921c 783d efc7 983e c59f 1d3e
00000080: 71d8 6e3e f2ef 773d d3a6 a03d 2a87 803e
00000090: 6c87 9dbe 6758 9ebe 5e5b 9f3e b414 9c3e
000000a0: 5553 31be 82d5 e63d 3f45 2cbd 4669 903d
000000b0: 6bad 9e3e 23da 8fbe e0b7 8dbe 6d22 52be
000000c0: e044 78be faeb 853e 07f7 a1be c898 e2bd
000000d0: 8b31 8d3d 0de9 a6be 65f5 33bb 1231 063e
000000e0: e3e4 ccbd d99f 143e c716 56bd 133a a3be
000000f0: 6744 903d a981 663e 9734 81be fa48 393e
00000100: dcef 8abe 0092 a6be 8ebc 0fbe 39cd a13c
00000110: 5161 56be 8455 24bb 7e0f 933e 7c95 953e
00000120: ee45 9cbe dd36 07bd 61ef 71bd 4de6 26bc
00000130: b8e6 d53b 3b56 08be c1c6 81bd 7aaa 32be
00000140: 6cfd 0fbd
0.31933665 -0.07361106 -0.02470234 -0.18666075 -0.33694685 0.27277648 -0.15660137 0.18441361
-0.119518675 0.19357854 0.18418974 -0.21291707 0.15366198 0.22836825 -0.1790979 0.19719385
-0.15232858 0.054453786 -0.18633983 0.21458967 0.009762274 0.008308804 -0.0844674 0.30211338
-0.31773764 -0.20985813 0.014030367 0.16254112 -0.0846362 0.06057412 0.29840037 0.15392978
0.23324753 0.060531564 0.07844319 0.25103122 -0.3076738 -0.3092682 0.31124395 0.30484545
-0.17316945 0.11271192 -0.042058226 0.07051329 0.30991682 -0.28096113 -0.27679348 -0.20520945
-0.24245024 0.26156598 -0.3163378 -0.11064297 0.06894215 -0.3259968 -0.00274595 0.13104656
-0.10004594 0.14514102 -0.052267816 -0.31880245 0.07044297 0.22510399 -0.25235435 0.18094245
-0.27136123 -0.32533264 -0.14036772 0.019751178 -0.20935561 -0.0025075385 0.28722757 0.2921561
-0.30522102 -0.033011306 -0.05906618 -0.010186744 0.006527748 -0.13314144 -0.063367374 -0.17447844
-0.03515379

sequential_2/conv2d_8/Conv2D f4 [3, 3, 3, 3]
00000000: b034 02bc d869 633e 8002 ddbd 0b5c a6be
00000010: b656 89be fd0a 98be 7960 ea3d 87ce 9c3e
00000020: 4d08 80be 5a58 36be 79aa 75bd d891 9cbd
00000030: c1b4 453e 3e32 af3d dcca 483e 242f 7dbd
00000040: 3adc 0dbe fd97 85be f813 4fbe 7589 2fbe
00000050: c120 863e 70c4 8b3e 23d3 a1be 15d1 70bc
00000060: 28b2 903e c4f8 05bd 0f7e c4bd 4f7a 123e
00000070: 31d6 a5be dc36 4c3e 1b2e 8e3e 3592 613e
00000080: b522 543c 3e22 963e f6fa 58be 56e3 113d
00000090: 502f 7dbe e0f3 a7be 1970 543e d132 333e
000000a0: 9a2f a4be 5caf 843e 0ab8 2f3d 189d 473e
000000b0: cad3 85be 74d9 9e3d 11ce a2be 7251 88be
000000c0: b2fa b83c 0c32 79bd 3f3f 46be f5fc c3bc
000000d0: 3e8b 8bbe 17f7 68be 5d9a 46bd e4f8 9a3e
000000e0: b81c a53e f2f2 e13d 6ef2 313e 0e2f 49bd
000000f0: a0d5 b43d 1f14 643a 1825 2f3e 5876 87be
00000100: 191e 03be 8df1 2e3e 7dab 10be 47d1 39be
00000110: 321b abbe c47b 97be 359d a33e 988a c3bd
00000120: f375 bdbd 1fa9 86be f60f 87bc f994 42be
00000130: 01c7 a0be c31e 1a3e f816 073d f3f3 103e
00000140: 7854 45be
-0.007947132 0.22208345 -0.107914925 -0.32492098 -0.26823968 -0.29695883 0.11444182 0.30626318
-0.25006333 -0.17807141 -0.05997703 -0.07645005 0.19307233 0.08554505 0.19608635 -0.061812535
-0.13853541 -0.2609252 -0.20222461 -0.1714228 0.26196864 0.27298307 -0.31606397 -0.014698287
0.28260922 -0.032707945 -0.09594356 0.1430447 -0.32389978 0.19942802 0.2776955 0.2202843
0.012947728 0.29323 -0.21189484 0.035617195 -0.2472508 -0.3280325 0.20745887 0.17499854
-0.32067567 0.2591504 0.042900123 0.1949352 -0.26138145 0.0775632 -0.3179784 -0.26624638
0.022580478 -0.060838744 -0.19360064 -0.02392433 -0.2725467 -0.22750507 -0.048487056 0.30268013
0.32248473 0.11032666 0.17377636 -0.04911714 0.08829808 0.0008700508 0.17103994 -0.26457477
-0.1280445 0.17084332 -0.14127918 -0.18146239 -0.33419186 -0.29586613 0.31955877 -0.09547919
-0.09251013 -0.26300904 -0.016487103 -0.19002141 -0.31401828 0.15050797 0.03298089 0.14155559
-0.19270504

sequential_2/dense_5/BiasAdd/ReadVariableOp f4 [7]
00000000: a1ca 81bc f468 4439 b5b2 1d3b 2a06 543b
00000010: 5b13 a0b9 258d b53b beb3 dbba
-0.015843691 0.00018731115 0.0024062817 0.0032352307 -0.00030532 0.0055405074 -0.0016761941

sequential_2/dense_4/BiasAdd/ReadVariableOp f4 [64]
00000000: cbee bcb9 1246 8eba 8ec9 503a 0000 0000
00000010: dc66 b33a ffca c039 bb51 fa3a 7872 cdba
00000020: 763a 89bb 7717 a6bb cced 7fbb b642 41ba
00000030: 3b5b 24ba 2df2 6939 3a3b 3cba 1235 7e3a
00000040: 6d4e a4bb 810a 09ba 997c afbb ccab aaba
00000050: 4175 c5ba c531 99bb e345 cc3a 74a5 e8ba
00000060: ca56 cbba 36b2 eeba bda0 46bb d9a0 76ba
00000070: 4168 dd39 8267 143b 4282 8dbb 7046 b93a
00000080: 082f 433a 6e40 ad3a bb34 edb9 8463 3abb
00000090: 9895 803a 4c99 aeba 8e5f 403a 0de9 913a
000000a0: ba53 2ab9 5a8e 93ba dab4 1e3b e481 c8bb
000000b0: 9a94 c3ba bb54 d8ba 20c6 38bb 639e 73bb
000000c0: 2cb2 b1b8 27aa ad3a 3d4c 37bb 0be3 8abb
000000d0: eace 7fbb 4043 5ebb 547a 9cba b421 013b
000000e0: 5e34 d0ba afaf d0ba d1bc b53a 38de 2eba
000000f0: 7370 97bb 1634 b33a 6170 bcbb 7d08 94bb
-0.0003603607 -0.0010854623 0.00079646043 0.0 0.0013687271 0.00036772338 0.0019097844 -0.0015674373
-0.0041878773 -0.005068715 -0.003905165 -0.00073723064 -0.0006269698 0.00022310829 -0.00071804563 0.0009697239
-0.005014232 -0.00052277005 -0.0053554294 -0.001302117 -0.0015064852 -0.0046751224 0.0015584793 -0.0017749504
-0.0015513536 -0.001821107 -0.003030821 -0.00094081234 0.0004223008 0.0022644703 -0.0043185065 0.0014135372
0.0007445668 0.0013218054 -0.0004524345 -0.0028440664 0.0009810207 -0.0013320833 0.00073384575 0.0011132077
-0.00016243654 -0.0011257634 0.0024216683 -0.006119 -0.0014921606 -0.0016504744 -0.0028194264 -0.0037173263
-8.473205e-05 0.0013249562 -0.0027969026 -0.0042384914 -0.0039033243 -0.0033914596 -0.0011938312 0.0019703927
-0.0015884747 -0.0015921498 0.0013865476 -0.00066706864 -0.0046215593 0.0013672139 -0.0057507013 -0.0045176134

sequential_2/batch_normalization_6/FusedBatchNormV3 f4 [3]
00000000: 040f ac3d 504e 943c 363b da3b
0.084013015 0.018103749 0.0066598905

sequential_2/batch_normalization_6/FusedBatchNormV31 f4 [3]
00000000: 713d 7ebf 1076 23bf 60ca 1ebf
-0.993125 -0.63852024 -0.6202755

sequential_2/batch_normalization_7/FusedBatchNormV3 f4 [3]
00000000: 89f2 a83f ca22 a63f ad72 3140
1.3199016 1.2979367 2.7726243

sequential_2/batch_normalization_7/FusedBatchNormV31 f4 [3]
00000000: 577e 26bf e745 f6be 7125 afbf
-0.6503653 -0.48100206 -1.3683301

sequential_2/batch_normalization_8/FusedBatchNormV3 f4 [3]
00000000: 225a 0540 7d40 1040 8249 4440
2.0836263 2.253936 3.0669866

sequential_2/batch_normalization_8/FusedBatchNormV31 f4 [3]
00000000: 64c7 3bbf 9304 5bbf e2d1 b4bf
-0.7335112 -0.85553855 -1.4126551

sequential_2/dense_4/MatMul i1 [64, 5070] scale=0.00046012914 zero_point=0
00000000: dd3f b638 e227 f6d6 2807 e6da 35c2 01e0
00000010: 2651 1cce ccf4 3204 cded e0d7 cdb8 c4fe
00000020: 3cf4 d8e9 1ced 14e2 100e 3ffe c7f5 3402
00000030: f80b 4a50 beff 2911 d72f cece 13d2 09f0
00000040: 1e0b 27c6 cbc7 08fa 3bd6 3d2b 11ee 2514
00000050: c323 ba0a 1a01 17e2 00db 003a e320 ee25
00000060: d04c 0704 e716 2eea 0420 4825 1ce1 ed0b
00000070: 0420 d5d5 2e36 0fc0 0c12 fa23 ccbc c2a5
00000080: 23fc dd44 cbb7 ff21 0fe6 23e3 1e19 fbfe
00000090: 2617 c011 3701 f013 e5c7 d736 b737 3143
000000a0: e30e d6ae ca01 25cd c3bb e6c9 15d5 2c06
000000b0: f0f2 2800 ddef 06df 112c 0e18 0419 2936
000000c0: df32 ffe6 c2f5 153a 4045 bb2d f3c9 1cbf
000000d0: 1bcb 0121 ca19 3ae8 f3d6 320d 493d c9ce
000000e0: 3735 11b5 ba26 053a 10d4 cb34 1c0f 123f
000000f0: d9fd 3c3e d52f f522 c04a 32f7 ece2 f5e4
-0.01610452 0.028988136 -0.034049556 0.025767231 -0.013803874 0.017945036 -0.0046012914 -0.019325424
0.018405166 0.003220904 -0.011963358 -0.017484907 0.024386846 -0.028528007 0.00046012914 -0.014724133
0.017484907 0.03727046 0.012883616 -0.023006458 -0.023926716 -0.00552155 0.023006458 0.0018405166
-0.023466587 -0.0087424535 -0.014724133 -0.018865295 -0.023466587 -0.033129297 -0.027607748 -0.0009202583
0.027607748 -0.00552155 -0.018405166 -0.01058297 0.012883616 -0.0087424535 0.009202583 -0.013803874
0.0073620663 0.006441808 0.028988136 -0.0009202583 -0.02622736 -0.0050614206 0.023926716 0.0009202583
-0.0036810332 0.0050614206 0.034049556 0.03681033 -0.030368524 -0.00046012914 0.018865295 0.007822195
-0.018865295 0.02162607 -0.023006458 -0.023006458 0.0087424535 -0.02116594 0.004141162 -0.0073620663
0.013803874 0.0050614206 0.017945036 -0.02668749 -0.024386846 -0.02622736 0.0036810332 -0.002760775
0.027147619 -0.019325424 0.028067878 0.019785553 0.007822195 -0.008282324 0.017024778 0.009202583
-0.028067878 0.01610452 -0.03220904 0.0046012914 0.011963358 0.00046012914 0.01058297 -0.013803874
0.0 -0.017024778 0.0 0.02668749 -0.013343745 0.014724133 -0.008282324 0.017024778
-0.0220862 0.034969814 0.003220904 0.0018405166 -0.011503229 0.010122841 0.02116594 -0.010122841
0.0018405166 0.014724133 0.033129297 0.017024778 0.012883616 -0.014264003 -0.0087424535 0.0050614206
0.0018405166 0.014724133 -0.019785553 -0.019785553 0.02116594 0.024846973 0.006901937 -0.029448265
0.00552155 0.008282324 -0.002760775 0.01610452 -0.023926716 -0.03128878 -0.028528007 -0.041871753
0.01610452 -0.0018405166 -0.01610452 0.03128878 -0.024386846 -0.033589426 -0.00046012914 0.015184262
0.006901937 -0.011963358 0.01610452 -0.013343745 0.013803874 0.011503229 -0.0023006457 -0.0009202583
0.017484907 0.01058297 -0.029448265 0.007822195 0.025307102 0.00046012914 -0.0073620663 0.0087424535
-0.012423486 -0.02622736 -0.018865295 0.024846973 -0.033589426 0.025307102 0.022546329 0.030828653
-0.013343745 0.006441808 -0.019325424 -0.03773059 -0.024846973 0.00046012914 0.017024778 -0.023466587
-0.028067878 -0.03174891 -0.011963358 -0.025307102 0.009662712 -0.019785553 0.020245682 0.002760775
-0.0073620663 -0.006441808 0.018405166 0.0 -0.01610452 -0.007822195 0.002760775 -0.015184262
0.007822195 0.020245682 0.006441808 0.0110431 0.0018405166 0.011503229 0.018865295 0.024846973
-0.015184262 0.023006458 -0.00046012914 -0.011963358 -0.028528007 -0.0050614206 0.009662712 0.02668749
0.029448265 0.03174891 -0.03174891 0.020705812 -0.005981679 -0.025307102 0.012883616 -0.029908394
0.012423486 -0.024386846 0.00046012914 0.015184262 -0.024846973 0.011503229 0.02668749 -0.0110431
-0.005981679 -0.019325424 0.023006458 0.005981679 0.033589426 0.028067878 -0.025307102 -0.023006458
0.025307102 0.024386846 0.007822195 -0.034509685 -0.03220904 0.017484907 0.0023006457 0.02668749
0.0073620663 -0.020245682 -0.024386846 0.023926716 0.012883616 0.006901937 0.008282324 0.028988136
-0.017945036 -0.0013803875 0.027607748 0.028528007 -0.019785553 0.02162607 -0.0050614206 0.01564439
-0.029448265 0.034049556 0.023006458 -0.004141162 -0.009202583 -0.013803874 -0.0050614206 -0.012883616
