saved_model/quantized_models/layers3/trial2/paramcount433519.tflite (tflite, 442352 bytes, 16 tensors)

sequential_3/dense_7/MatMul f4 [7, 64]
0	0xbe09a898	-0.1344322
1	0x3db346d2	0.08753742
2	0x3e14f250	0.1454556
3	0xbe7acedc	-0.24492973
4	0xbe319dc6	-0.17345342
5	0xbd9dc66c	-0.077038616
6	0x3dc253ef	0.09488665
7	0x3e3072c7	0.17231284
8	0x3dc4d19b	0.096102916
9	0xbe835506	-0.25650805
10	0x3d28039a	0.04101906
11	0xbdd1fee7	-0.10253697
12	0xbe854cbd	-0.2603511
13	0x3a887fe5	0.0010414092
14	0x3dd8a98d	0.10579214
15	0xbd35026e	-0.04419177
16	0xbde047f0	-0.10951221
17	0xbdda00ec	-0.10644707
18	0x3e22c6f8	0.15896213
19	0xbe23e276	-0.16004357
20	0xbd82bfbf	-0.06384229
21	0x3dff23f8	0.12458032
22	0xbe571ab6	-0.21006283
23	0x3c1e26f7	0.009652845
24	0x3de9a2ad	0.11407981
25	0xbe7740ad	-0.24145766
26	0xbe6c2851	-0.23062254
27	0xbde21a53	-0.11040177
28	0xbe5969e8	-0.21231806
29	0xbe576337	-0.21033941
30	0xbcf294fd	-0.029612059
31	0x3e67f1a3	0.22650771
32	0xbe78d9d4	-0.24301845
33	0xbe780fb1	-0.24224736
34	0x3d9aab07	0.07552152
35	0xbccc981a	-0.024974871
36	0xbdd6278d	-0.104567625
37	0xbe962964	-0.29328454
38	0x3c36b0c8	0.011150546
39	0xbdcbe9ea	-0.09956725
40	0xbdddb949	-0.10826356
41	0xbe64bd17	-0.22337757
42	0x3d791d56	0.060818993
43	0x3e7e2d1f	0.248219
44	0x3c825abb	0.015912404
45	0xbe4648e2	-0.1936374
46	0x3e6d2cd1	0.23161627
47	0xbdcff045	-0.1015325
48	0xbcd6a080	-0.02619958
49	0xbd0eb7d9	-0.0348433
50	0xbca9913c	-0.020699136
51	0x3e01da60	0.1268096
52	0xbe88e27c	-0.26735294
53	0x3cae0dec	0.021246873
54	0xbc199665	-0.009374236
55	0xbe981eed	-0.29711094
56	0x3e801ba7	0.25021097
57	0xbe20dcfa	-0.15709296
58	0x3c915cdc	0.017744474
59	0xbe340e05	-0.17583473
60	0x3dd02321	0.1016295
61	0xbe8c9ca7	-0.27463266
62	0xbe06c4e9	-0.13161053
63	0x3e75b129	0.23993362
64	0x3d27a371	0.040927354
65	0xbd129f72	-0.03579659
66	0x3bb8cd7b	0.0056397296
67	0x3c931d88	0.017958418
68	0x3e0c4466	0.13697967
69	0x3e49ff82	0.19726375
70	0xbdcfc343	-0.10144665
71	0x3d173046	0.03691127
72	0xbe892064	-0.26782525
73	0xbe62824e	-0.2212002
74	0xbe0046c8	-0.12527001
75	0x3e63e007	0.22253428
76	0xbdaafc7e	-0.0834894
77	0xbda07692	-0.078351155
78	0xbdc00e64	-0.09377745
79	0x3e430fb9	0.19048966
80	0xbe1491db	-0.14508764
81	0xbdc6fadb	-0.09715816
82	0xbe41489e	-0.18875358
83	0x3cb244a4	0.021761246
84	0xbe01249a	-0.12611619
85	0x3df67acc	0.120351404
86	0xbdb76f7f	-0.08956813
87	0x3dc95057	0.09829777
88	0xbe69c3d5	-0.2282861
89	0x3e3f3416	0.18672213
90	0x3e0d958f	0.13826583
91	0xbd610986	-0.054940723
92	0xbe651d55	-0.2237447
93	0xbe8db057	-0.276736
94	0xbd8ce09c	-0.06878778
95	0xbdfc31dc	-0.123141974
96	0xbe2a1d24	-0.16612679
97	0x3de48096	0.11157338
98	0xbdda2c3a	-0.10652967
99	0xbda6b9d0	-0.0814091
100	0xbdbfe448	-0.09369713
101	0x3e21fad9	0.15818347
102	0xbdf16d84	-0.117884666
103	0x3c279f1d	0.010230807
104	0xbe20b50e	-0.15694067
105	0x3e5a078f	0.21291946
106	0x3d70a01f	0.058746453
107	0xbd67a143	-0.056550276
108	0xbe611289	-0.21979727
109	0x3e92c6d9	0.28667334
110	0xbe5cc1da	-0.21558324
111	0x3dbca9ff	0.09212112
112	0x3e92208a	0.2854045
113	0x3e7dfb7a	0.24802962
114	0x3e23f21a	0.16010323
115	0xbd96b903	-0.07359507
116	0xbb0df224	-0.002165922
117	0x3e23f6df	0.16012143
118	0xbe1fd2a4	-0.15607697
119	0x3e8b7bb3	0.27242813
120	0x3e25ac13	0.16178922
121	0x3cb645f1	0.022250148
122	0xbe82b10c	-0.255257
123	0x3d5efbaf	0.054439243
124	0x3cfba5b5	0.030718664
125	0xbe5231dc	-0.20526832
126	0x3e7b564f	0.24544643
127	0x3d858f5f	0.065214865
128	0xbe71cbf1	-0.23612954
129	0x3dcaa8ea	0.09895499
130	0x3c181af3	0.009283769
131	0xbdec0799	-0.11524887
132	0xbe189d28	-0.149037
133	0x3e653b17	0.22385822
134	0xbd11b147	-0.035569455
135	0x3db13554	0.0865275
136	0xbe842d11	-0.25815633
137	0x3d428b2d	0.04749601
138	0xbe87b67d	-0.26506415
139	0x3e164d8e	0.14678022
140	0xbce2e063	-0.027694887
141	0x3e91e7d6	0.2849719
142	0xbe38a207	-0.18030559
143	0xbe609043	-0.21930031
144	0x3e85cbd0	0.2613206
145	0x3d97c093	0.074097775
146	0xbdd2197b	-0.10258766
147	0xbe45be47	-0.19310866
148	0xbdee9a1e	-0.11650489
149	0xbdb3136f	-0.08743941
150	0xbaa57d48	-0.0012625838
151	0x3d2fd6c7	0.042929437
152	0xbe0b4e41	-0.1360407
153	0x3e81d5df	0.25358483
154	0x3e156f4f	0.14593242
155	0xbda116b1	-0.07865656
156	0xbda9eff2	-0.08297719
157	0x3d200b16	0.039073072
158	0x3c9faed9	0.019492554
159	0x3d4ee0d2	0.050507374
160	0x3df15e12	0.117855206
161	0xbe4ca0ad	-0.19983168
162	0x3e6c1185	0.23053558
163	0x3e26b03c	0.16278166
164	0xbe1e5c70	-0.1546495
165	0x3e862147	0.26197264
166	0x3d9904b2	0.07471599
167	0x3e23aec8	0.15984643
168	0xbda5e368	-0.08100015
169	0x3e081549	0.1328937
170	0x3dfd1435	0.1235737
171	0x3e920df0	0.28526258
172	0x3e3a74b7	0.18208586
173	0x3dd01ecf	0.10162126
174	0xbe4c5a4b	-0.19956319
175	0x3dcf2c5d	0.101158835
176	0x3de09ec9	0.10967786
177	0x3de2d6ca	0.11076124
178	0x3e2208f0	0.15823722
179	0x3e450d66	0.19243392
180	0xbd681e62	-0.0566696
181	0xbe489c2b	-0.19590823
182	0x3d210ad8	0.039316982
183	0xbe1a855f	-0.1508994
184	0xbe86801c	-0.26269615
185	0x3e5936ad	0.21212263
186	0x3e6c1b1f	0.23057221
187	0x3ce6aee8	0.028159574
188	0xbe3e935d	-0.18610902
189	0x3e8cd8f7	0.2750928
190	0xbe3fa375	-0.18714698
191	0x3d547cb4	0.05187674
192	0x3d0e8ded	0.03480332
193	0xbe3df90c	-0.18552035
194	0xbda6a5fd	-0.081371285
195	0x3dbe7f45	0.093016185
196	0xbe5ac5f7	-0.2136458
197	0x3e384467	0.17994843
198	0x3c841e38	0.01612769
199	0xbdef6122	-0.116884485
200	0x3e99d95e	0.3004865
201	0xbe04292c	-0.12906331
202	0x3dec692e	0.11543499
203	0xbd859866	-0.06523208
204	0xbdbe3c89	-0.0928889
205	0xbe7bb173	-0.2457941
206	0xbe1d46af	-0.15358995
207	0xbd9219e9	-0.07133848
208	0xbe8044ca	-0.25052482
209	0x3e913a15	0.28364626
210	0xbdcc52fd	-0.09976766
211	0xbe9010ab	-0.28137717
212	0x3d76dc39	0.060268614
213	0xbe31919c	-0.17340702
214	0x3e3863e9	0.18006863
215	0xbd41e8e2	-0.047341235
216	0x3e9305d6	0.2871539
217	0xbdbcafc4	-0.09213212
218	0x3e565588	0.20931065
219	0xbe3ce5f9	-0.18447103
220	0x3df02fbc	0.117278546
221	0x3e1b32be	0.15156075
222	0xbe9466f2	-0.2898479
223	0x3e572f88	0.21014225
224	0xbe0f4695	-0.13991769
225	0xbe87573e	-0.26433748
226	0xbe3a5947	-0.18198119
227	0xbe8e6351	-0.27810147
228	0xbe3a8426	-0.18214473
229	0xbe8b4797	-0.27203056
230	0x3d14b314	0.036303595
231	0x3e621346	0.22077665
232	0xbdf32fb5	-0.11874334
233	0xbb542311	-0.0032369534
234	0x3e95a252	0.29225403
235	0x3d7f6dc6	0.062360547
236	0xbe7cd71b	-0.24691431
237	0x3d0f90a8	0.035050064
238	0x3e82a08a	0.25513107
239	0x3e169384	0.1470471
240	0xbe3759c2	-0.17905334
241	0x3e7212db	0.23640005
242	0xbe326382	-0.17420772
243	0xbb71bdeb	-0.0036886882
244	0xbe3e1032	-0.18560866
245	0xbe4d2ccf	-0.20036624
246	0xbc3f1907	-0.011663682
247	0x3d7ce7e5	0.06174459
248	0xbc69673f	-0.014245807
249	0x3d329ee0	0.043608546
250	0x3d738f95	0.059463102
251	0x3e95d805	0.29266372
252	0xbcc38c25	-0.023870537
253	0xbde53f92	-0.11193766
254	0x3e5562a1	0.20838405
255	0x3de662c7	0.11249309

sequential_3/conv2d_9/BiasAdd/ReadVariableOp f4 [4]
0	0x3cb38f76	0.021918993
1	0x39e2a5e8	0.0004322969
2	0x3aa43e6f	0.0012530814
3	0x3b989f5a	0.004657668

sequential_3/conv2d_10/BiasAdd/ReadVariableOp f4 [4]
0	0xbc526ad2	-0.012842851
1	0x3b72d562	0.0037053456
2	0x3c71ad4b	0.014750789
3	0xbb038fde	-0.0020074765

sequential_3/conv2d_11/BiasAdd/ReadVariableOp f4 [4]
0	0xbcae6280	-0.021287203
1	0xbb372518	-0.0027945694
2	0xbc3936ef	-0.011304601
3	0x3c0eab45	0.008707826

sequential_3/conv2d_9/Conv2D f4 [4, 3, 3, 1]
0	0xbe68fe0d	-0.22753163
1	0xbe8b20d8	-0.27173495
2	0x3e7022f1	0.23450829
3	0xbea76b43	-0.32699022
4	0x3cc15274	0.023598887
5	0x3c922d58	0.017843887
6	0xbe13dfd8	-0.14440858
7	0x3e8c80cf	0.27442023
8	0xbeaf2888	-0.3421061
9	0xbe393d4a	-0.18089786
10	0x3e7fd25f	0.24982594
11	0xbe5f1f60	-0.21789312
12	0xbe9547d5	-0.29156366
13	0x3dbb1052	0.09133972
14	0x3e8e82c9	0.27834156
15	0xbeb54715	-0.35405794
16	0x3ea92cea	0.3304208
17	0x3e6985e9	0.22804989
18	0xbe71bb8f	-0.23606704
19	0x3d8cbec5	0.06872324
20	0xbeab6e8e	-0.33482784
21	0xbe79e4e6	-0.24403724
22	0x3d9bc7b2	0.07606448
23	0x3eb1379f	0.34612748
24	0x3e43d52a	0.19124284
25	0xbe683757	-0.2267736
26	0x3ea5867a	0.3232916
27	0xbd2b2c45	-0.041790266
28	0x3e7de0d5	0.24792798
29	0x3d95874d	0.07301197
30	0x3ea135f8	0.31486487
31	0xbd975790	-0.07389748
32	0x3e8d4282	0.27589804
33	0x3c9cc1bc	0.019135348
34	0x3db17885	0.086655654
35	0x3dc37871	0.09544457

sequential_3/conv2d_10/Conv2D f4 [4, 3, 3, 4]
0	0x3d013e4a	0.031553544
1	0xbe3502cb	-0.17676847
2	0x3e2085ee	0.1567609
3	0xbe6cfd6b	-0.23143546
4	0x3e41d9c0	0.18930721
5	0xbe4ed8d7	-0.20199905
6	0xbd262720	-0.040564656
7	0x3e8fa812	0.28057915
8	0x3e4ed484	0.20198256
9	0xbe2a93bc	-0.16657919
10	0xbd009fe3	-0.03140248
11	0xbd2b126c	-0.041765615
12	0x3e75d480	0.24006844
13	0x3e9055a5	0.28190342
14	0x3e143c6f	0.14476179
15	0x3e42cbe1	0.19023086
16	0xbdb902b1	-0.090337165
17	0xbe58db99	-0.2117752
18	0xbdf6aa9c	-0.1204426
19	0x3de10ee0	0.10989165
20	0x3c1f130e	0.009709133
21	0x3e6905d5	0.22756131
22	0x3e5fc60e	0.21852896
23	0xbe8472b3	-0.2586876
24	0xbdc3b7cb	-0.0955654
25	0xbe5cfb32	-0.21580198
26	0x3e4b3c6d	0.1984727
27	0xbd96713a	-0.07345815
28	0xbd23faf5	-0.040034253
29	0xbe15ad21	-0.14616825
30	0xbe708f04	-0.23492056
31	0xbca0364f	-0.019557146
32	0x3dcb9092	0.09939684
33	0x3e2ad535	0.16682895
34	0xba044e2a	-0.0005047048
35	0x3e5d862a	0.21633211
36	0xbe09e8fb	-0.13467781
37	0x3d95e455	0.073189415
38	0xbdc15353	-0.09439721
39	0xbe14bf31	-0.14526059
40	0xbd66c2ac	-0.056337997
41	0x3dd56a98	0.10420722
42	0xbe8d41c8	-0.2758925
43	0x3da3dafa	0.08000751
44	0x3dbd15d8	0.09232682
45	0x3e866859	0.26251486
46	0x3c95ef9d	0.018302733
47	0x3e6efd7a	0.23338881
48	0x3e56042b	0.20900027
49	0xbe015857	-0.12631355
50	0xbe81488a	-0.25250655
51	0x3df8a9ef	0.12141787
52	0xbdb94f8e	-0.09048377
53	0x3c1b0f8e	0.009464158
54	0x3e933f6a	0.2875932
55	0xbe52057e	-0.20509908
56	0xbe89560a	-0.26823455
57	0xbe4c505f	-0.19952534
58	0x3e714774	0.23562413
59	0xbe3166fc	-0.17324442
60	0xbe1a6c57	-0.15080391
61	0x3d0a327a	0.033739544
62	0x3e25a83c	0.16177458
63	0xbdf0ba65	-0.11754302
64	0xbe3f46e3	-0.18679385
65	0xbe1691aa	-0.14704004
66	0x3dfa32ae	0.12216698
67	0x3e7c9bfd	0.2466888
68	0xbe88d5be	-0.26725572
69	0x3e0e7c62	0.13914636
70	0x3c627642	0.01382214
71	0x3e73ed6a	0.23821035
72	0xbe9054fc	-0.28189838
73	0xbdc2fb53	-0.095205925
74	0xbdcb503f	-0.09927415
75	0xbdd91378	-0.105994165
76	0x3c5439b5	0.012953212
77	0x3e6c3ee9	0.23070873
78	0x3e41a5af	0.1891086
79	0x3e7222f6	0.23646149
80	0x3e8e346e	0.27774376
81	0xbe193630	-0.14962077
82	0xbe097080	-0.13421822
83	0x3e5c879f	0.2153611
84	0x3e6343e6	0.2219387
85	0x3d8a9e09	0.06768424
86	0xbe936147	-0.28785154
87	0xbb9924d5	-0.00467358
88	0xbda3e030	-0.08001745
89	0xbdc6ad2f	-0.09701001
90	0xbd8ab229	-0.067722626
91	0x3e4689bc	0.19388479
92	0x3df20fac	0.118193954
93	0x3e06a61f	0.13149308
94	0x3cb0bdaa	0.021574814
95	0xbddfb2d4	-0.10922781
96	0x3d036665	0.032080073
97	0x3dc9166c	0.0981873
98	0x3e1716a6	0.14754733
99	0xbe6264f1	-0.22108819
100	0xbe7b1c29	-0.24522461
101	0x3dd56ee0	0.10421538
102	0x3e521f04	0.20519644
103	0xbd9862c2	-0.074407116
104	0xbe72f00a	-0.2372438
105	0xbe28b574	-0.16475469
106	0x3dbd691d	0.092485644
107	0x3e922464	0.2854339
108	0x3e1a9fd9	0.1510004
109	0xbe5e55eb	-0.21712463
110	0x3d3e3633	0.046438407
111	0xbdcfa804	-0.10139468
112	0x3e87fb60	0.2655897
113	0x3e4aa009	0.19787611
114	0xbd9e663a	-0.07734342
115	0xbd966252	-0.07342972
116	0xbdda5bb6	-0.10662024
117	0x3ccec481	0.025240185
118	0x3e508b6a	0.20365682
119	0xbdc77426	-0.097389504
120	0x3e79c1cb	0.24390332
121	0x3d96efbb	0.07369944
122	0x3e379a87	0.17930041
123	0x3e568fd4	0.20953304
124	0x3d681846	0.056663774
125	0x3d918943	0.07106259
126	0xbe648296	-0.2231544
127	0xbe67ea52	-0.2264798
128	0x3e7edcf6	0.24888977
129	0x3e18226c	0.14856881
130	0xbe1ae6d9	-0.15127124
131	0xbe2a638c	-0.16639537
132	0x3cbfe81f	0.023426114
133	0xbdf7d3cf	-0.12100946
134	0x3d24cc99	0.040234182
135	0x3e84d0f0	0.25940657
136	0x3e3c4245	0.18384655
137	0xbe665441	-0.22493078
138	0x3e1c675c	0.15273803
139	0xbe20efcd	-0.15716477
140	0xbdf5ca86	-0.12001519
141	0xbcaf6a37	-0.021412952
142	0xbe712c06	-0.2355195
143	0xbdc611a4	-0.096713334

sequential_3/conv2d_11/Conv2D f4 [4, 3, 3, 4]
0	0xbe1357e3	-0.14388995
1	0x3dd3d0f9	0.10342593
2	0x3d213159	0.039353702
3	0x3e2ab393	0.16670065
4	0xbe0e7ff9	-0.13916005
5	0xbe41cd10	-0.18925881
6	0xbdcf1b16	-0.10112588
7	0x3e28312a	0.16425005
8	0x3e230344	0.15919214
9	0x3dd1a395	0.10236279
10	0x3c814082	0.01577783
11	0x3e854249	0.26027134
12	0xbe0b5503	-0.13606648
13	0x3dd52ca3	0.104089044
14	0x3e8985a4	0.26859772
15	0x3c221251	0.009892062
16	0xbe7c97b7	-0.2466725
17	0xbda41956	-0.08012645
18	0xbe6c79a1	-0.23093273
19	0x3e6d9e39	0.23204888
20	0x3e81988f	0.25311705
21	0xbcb242d7	-0.021760387
22	0x3daf1824	0.08549526
23	0x3e18f64e	0.14937708
24	0xbe95299e	-0.29133314
25	0xbe476b00	-0.19474411
26	0x3dee941f	0.116493456
27	0x3db9a6eb	0.0906504
28	0xbcc9c750	-0.024631172
29	0xbe1d4d2d	-0.15361471
30	0x3dffeafc	0.124959916
31	0xbe52e9ee	-0.2059705
32	0x3e809b11	0.25118306
33	0xbe5a456f	-0.2131555
34	0xbe7bb63a	-0.24581233
35	0x3cd28679	0.025698887
36	0x3d6420a9	0.05569521
37	0xbe455009	-0.19268812
38	0x3d7d142c	0.061786816
39	0xbe7e58cc	-0.24838561
40	0x3e48ea5e	0.19620654
41	0xbda92ba8	-0.0826028
42	0x3e5a03d2	0.2129052
43	0xbd4cc757	-0.049994793
44	0x3d252d27	0.040326264
45	0xbe14abaf	-0.14518617
46	0xbe91bb92	-0.28463417
47	0x3e681fbd	0.22668357
48	0x3e2f213b	0.1710252
49	0x3e49bec8	0.19701684
50	0xbe889c40	-0.2668171
51	0x3e2cf740	0.16891193
52	0x3dba3df8	0.09093851
53	0x3e477a14	0.19480163
54	0xbe59f6be	-0.21285531
55	0xbe6c53c3	-0.23078828
56	0xbd427b48	-0.04748085
57	0x3bc88ce5	0.0061203116
58	0x3d81c2ef	0.06336009
59	0x3e3ced04	0.1844979
60	0xbe1f6816	-0.1556705
61	0x3db7dd8f	0.08977806
62	0xbc8430f1	-0.016136618
63	0xbe228aaf	-0.15873216
64	0xbcd1f3b6	-0.025628906
65	0xbcac5eef	-0.021041362
66	0xbe867571	-0.26261476
67	0xbe29e72c	-0.16592091
68	0xbe0b55b0	-0.13606906
69	0xbd8773f4	-0.06613913
70	0xbe140d0d	-0.14458103
71	0x3dc75906	0.09733777
72	0x3cc38f22	0.023871962
73	0x3e8ab30b	0.27089724
74	0xbe81fc7f	-0.25387952
75	0xbe555e46	-0.20836744
76	0x3e41a38f	0.18910049
77	0x3e5f2f86	0.21795473
78	0x3e4cbd1f	0.19994019
79	0xbe26ab75	-0.16276343
80	0xbe4d30c7	-0.20038138
81	0x3dd0f4d9	0.10202951
82	0xbe69a6ae	-0.2281749
83	0xbe814efc	-0.25255573
84	0x3e29ecc3	0.16594224
85	0xbd5c30ec	-0.053757593
86	0xbc8ac163	-0.016937917
87	0xbcea887b	-0.028629532
88	0x3cf4e646	0.02989496
89	0x3e6b15c1	0.22957517
90	0x3dabbee2	0.083860174
91	0xbe67666e	-0.22597668
92	0x3e2981cd	0.16553421
93	0xbce3ac59	-0.027792143
94	0xbe6e040b	-0.2324373
95	0x3caccd15	0.021093884
96	0xbe2b2b0b	-0.16715638
97	0x3de814b4	0.11332074
98	0x3c3d51b8	0.011555128
99	0xbe8e036a	-0.2773698
100	0x3e4cb7d9	0.19992007
101	0x3e5ace6a	0.21367803
102	0xbe36802e	-0.17822334
103	0x3d9ca9dd	0.07649586
104	0x3e720bb2	0.23637274
105	0x3e843725	0.25823322
106	0xbe75cd08	-0.24003994
107	0xbe22ce29	-0.15898956
108	0xbe0c4a0e	-0.13700125
109	0xbe4d8967	-0.20071946
110	0xbe56dc43	-0.2098246
111	0x3e5d68e3	0.21622042
112	0x3e7ef268	0.24897158
113	0x3e1dab02	0.15397266
114	0x3d8e6bfe	0.069541916
115	0x3deda3fe	0.11603545
116	0x3e89ac98	0.2688949
117	0xbb0c8846	-0.002144353
118	0xbd8ff628	-0.070293725
119	0x3e8b7fd3	0.2724596
120	0xbdbd60c9	-0.09246976
121	0xbe8b6f3e	-0.2723331
122	0x3e51f316	0.20502886
123	0xbe7b2d3b	-0.24528973
124	0x3d11dac9	0.03560904
125	0xbe39a840	-0.18130589
126	0xbce4f4cd	-0.027948761
127	0x3e09fdee	0.13475773
128	0xbd525998	-0.051354975
129	0xbcaac6b7	-0.020846708
130	0x3e1fb77d	0.15597339
131	0xbe0e8ec2	-0.13921645
132	0xbcd9a6e3	-0.026568836
133	0x3e2351d9	0.15949191
134	0x3e52357c	0.20528215
135	0xbe24a8f1	-0.16080071
136	0xbe11cebe	-0.14239022
137	0x3e63089c	0.22171253
138	0xbe45b46d	-0.19307108
139	0xbe7ad3bf	-0.24494837
140	0x3e231527	0.15926038
141	0x3e6495e6	0.22322807
142	0xbe8be875	-0.27325788
143	0xbe8adcfa	-0.27121717

sequential_3/dense_7/BiasAdd/ReadVariableOp f4 [7]
0	0xbccff76f	-0.02538654
1	0x3b07e249	0.0020734242
2	0x3b6baa29	0.0035959578
3	0xbb6282dc	-0.0034562862
4	0x3bae09ef	0.005311243
5	0xbb9e5844	-0.0048322994
6	0x39276582	0.00015964176

sequential_3/dense_6/BiasAdd/ReadVariableOp f4 [64]
0	0xbb7ec732	-0.0038876054
1	0xbb28623e	-0.0025693323
2	0xbb85afa7	-0.0040797773
3	0xb8e1c780	-0.00010765996
4	0xbae7a6c8	-0.0017673606
5	0xbbc60a6d	-0.0060437233
6	0xbb7c5cc6	-0.0038507446
7	0x3b241af8	0.0025040489
8	0xbb0eb13a	-0.0021773116
9	0x3b485bd0	0.0030572303
10	0xb8dea66a	-0.00010616782
11	0xbabfb399	-0.0014625668
12	0xba08d15d	-0.0005219186
13	0xba724570	-0.00092419144
14	0xbb58bf36	-0.0033072955
15	0xbb155630	-0.0022786967
16	0xbbc08cdc	-0.0058761667
17	0xb9b36846	-0.0003421923
18	0xbb7769a9	-0.0037752187
19	0xbafc83e1	-0.0019265377
20	0x37c6d210	2.3701257e-05
21	0xb9525afa	-0.00020061052
22	0xba14c117	-0.00056745246
23	0xbac7b025	-0.001523499
24	0xbb534ef1	-0.0032243098
25	0x3b15ce3c	0.002285852
26	0xbb931364	-0.0044883955
27	0xbbcdf917	-0.0062857973
28	0x3993efb7	0.00028216626
29	0x3a8aa308	0.0010577152
30	0xbba6cefb	-0.005090592
31	0xbba8b926	-0.0051490245
32	0xbb8bf241	-0.0042708223
33	0xbba3db9d	-0.005000545
34	0xbb440e1e	-0.002991564
35	0xba7dbdf9	-0.0009679492
36	0xbab95c88	-0.0014141956
37	0xbb1c6a23	-0.0023866973
38	0xbb680292	-0.0035401923
39	0x3a6ce1f5	0.0009036356
40	0xbb3a5016	-0.0028429083
41	0xba1034c2	-0.00055010256
42	0xbaf17cce	-0.0018424036
43	0xba9c35a3	-0.001191784
44	0xbb175938	-0.002309395
45	0xbaaa433a	-0.0012990006
46	0xbae208be	-0.0017245037
47	0x3b7afc5f	0.0038297398
48	0x3ad82dad	0.0016493105
49	0x3aca5782	0.0015437456
50	0xbb444ba5	-0.0029952314
51	0xbbca66b7	-0.0061767953
52	0x3b268dff	0.0025414226
53	0xba7b854e	-0.0009594754
54	0xbb918b00	-0.004441619
55	0xbb6b9596	-0.0035947314
56	0xbb7fd07f	-0.0039034185
57	0xbbbe42d1	-0.005806305
58	0x3a1a0aec	0.0005876261
59	0x3af8f030	0.001899248
60	0xbaf4399c	-0.0018632892
61	0xbb6b2447	-0.0035879777
62	0xba08614a	-0.00052024855
63	0xbb880385	-0.00415081

sequential_3/batch_normalization_9/FusedBatchNormV3 f4 [4]
0	0x3bfe816a	0.007766892
1	0x3bb8f96e	0.0056449687
2	0x3c981107	0.018562807
3	0x3d412009	0.04714969

sequential_3/batch_normalization_9/FusedBatchNormV31 f4 [4]
0	0xbf2063dd	-0.6265238
1	0xbf23b433	-0.6394684
2	0xbf151217	-0.5823073
3	0xbf8203d0	-1.0157413

sequential_3/batch_normalization_10/FusedBatchNormV3 f4 [4]
0	0x3fc511cd	1.5396057
1	0x4088900a	4.267583
2	0x3fbf3bb2	1.4940093
3	0x3fcc9ad5	1.5984751

sequential_3/batch_normalization_10/FusedBatchNormV31 f4 [4]
0	0xbf28f823	-0.66003627
1	0xbf6f5dad	-0.9350231
2	0xbf1199f1	-0.5687552
3	0xbf289fbf	-0.65868753

sequential_3/batch_normalization_11/FusedBatchNormV3 f4 [4]
0	0x3f8c1a9a	1.0945618
1	0x4041c8b9	3.0278761
2	0x3f89642c	1.0733695
3	0x401f2523	2.4866416

sequential_3/batch_normalization_11/FusedBatchNormV31 f4 [4]
0	0xbf31ad86	-0.694054
1	0xbfa8629e	-1.3155096
2	0xbf8654ee	-1.0494668
3	0xbf7231b8	-0.94607115

sequential_3/dense_6/MatMul i1 [64, 6760] scale=0.0004009761 zero_point=0
0	0xfd	-0.0012029284
1	0x0e	0.0056136656
2	0x2a	0.016840996
3	0x17	0.009222451
4	0x31	0.01964783
5	0x49	0.029271256
6	0xff	-0.0004009761
7	0xf1	-0.0060146414
8	0xfb	-0.0020048805
9	0xd3	-0.018043924
10	0x0b	0.004410737
11	0x33	0.020449782
12	0x03	0.0012029284
13	0xe0	-0.012831235
14	0x14	0.008019522
15	0xde	-0.013633188
16	0xd5	-0.017241972
17	0xdb	-0.014836116
18	0x49	0.029271256
19	0x11	0.006816594
20	0xfb	-0.0020048805
21	0xe7	-0.010024402
22	0x01	0.0004009761
23	0xe2	-0.012029283
24	0x11	0.006816594
25	0xbb	-0.027667351
26	0xd4	-0.017642949
27	0x17	0.009222451
28	0xdd	-0.014034163
29	0x36	0.02165271
30	0x06	0.0024058567
31	0x25	0.014836116
32	0x41	0.026063446
33	0x38	0.022454662
34	0xab	-0.034082968
35	0x3f	0.025261495
36	0xd9	-0.015638068
37	0x0c	0.0048117135
38	0x0e	0.0056136656
39	0x22	0.013633188
40	0xf4	-0.0048117135
41	0xb9	-0.028469304
42	0xc1	-0.025261495
43	0xd2	-0.018444901
44	0xc5	-0.02365759
45	0x1d	0.011628307
46	0x27	0.015638068
47	0xc2	-0.024860518
48	0x44	0.027266376
49	0xff	-0.0004009761
50	0xb5	-0.030073207
51	0x02	0.0008019522
52	0x0d	0.0052126893
53	0xda	-0.015237092
54	0x45	0.027667351
55	0x0a	0.004009761
56	0xb6	-0.029672232
57	0xf4	-0.0048117135
58	0xe8	-0.009623427
59	0xdb	-0.014836116
60	0x10	0.0064156177
61	0x07	0.0028068328
62	0x06	0.0024058567
63	0xf7	-0.0036087849
64	0xfe	-0.0008019522
65	0x59	0.035686873
66	0xf2	-0.0056136656
67	0x2c	0.017642949
68	0xdd	-0.014034163
69	0xc0	-0.02566247
70	0x4d	0.03087516
71	0x39	0.022855638
72	0x1c	0.011227331
73	0xee	-0.0072175697
74	0x4c	0.030474184
75	0xdd	-0.014034163
76	0x4c	0.030474184
77	0xd3	-0.018043924
78	0xda	-0.015237092
79	0x2f	0.018845877
80	0x48	0.028870279
81	0x26	0.015237092
82	0xe0	-0.012831235
83	0x2d	0.018043924
84	0x3f	0.025261495
85	0x1d	0.011628307
86	0xb5	-0.030073207
87	0xe7	-0.010024402
88	0x1f	0.012430259
89	0xdf	-0.013232212
90	0xe2	-0.012029283
91	0x04	0.0016039044
92	0x3e	0.024860518
93	0xd7	-0.01644002
94	0xb3	-0.03087516
95	0xdf	-0.013232212
96	0x3d	0.024459543
97	0x1a	0.010425379
98	0x24	0.0144351395
99	0x0b	0.004410737
100	0x31	0.01964783
101	0xee	-0.0072175697
102	0xe3	-0.011628307
103	0xc6	-0.023256615
104	0xbb	-0.027667351
105	0x48	0.028870279
106	0x46	0.028068326
107	0xe2	-0.012029283
108	0x3d	0.024459543
109	0xe3	-0.011628307
110	0xf1	-0.0060146414
111	0xed	-0.007618546
112	0xb7	-0.029271256
113	0xe6	-0.010425379
114	0x40	0.02566247
115	0x33	0.020449782
116	0xec	-0.008019522
117	0x55	0.034082968
118	0x5b	0.036488824
119	0xd8	-0.016039044
120	0xfe	-0.0008019522
121	0xc4	-0.024058565
122	0x19	0.010024402
123	0x1a	0.010425379
124	0xcd	-0.020449782
125	0xae	-0.03288004
126	0x11	0.006816594
127	0x2c	0.017642949
128	0x0d	0.0052126893
129	0xc5	-0.02365759
130	0x42	0.026464423
131	0xf4	-0.0048117135
132	0x15	0.008420498
133	0x25	0.014836116
134	0xc7	-0.022855638
135	0xdb	-0.014836116
136	0xeb	-0.008420498
137	0x2d	0.018043924
138	0xc0	-0.02566247
139	0x24	0.0144351395
140	0x2b	0.017241972
141	0x16	0.008821474
142	0x1d	0.011628307
143	0xea	-0.008821474
144	0xe5	-0.010826355
145	0xee	-0.0072175697
146	0xbe	-0.026464423
147	0xeb	-0.008420498
148	0xcf	-0.01964783
149	0xc7	-0.022855638
150	0xd5	-0.017241972
151	0xc6	-0.023256615
152	0xcf	-0.01964783
153	0x32	0.020048805
154	0xbd	-0.026865399
155	0x27	0.015638068
156	0x30	0.019246854
157	0xe2	-0.012029283
158	0x35	0.021251734
159	0x47	0.028469304
160	0xf0	-0.0064156177
161	0xe9	-0.009222451
162	0xc9	-0.022053685
163	0x1e	0.012029283
164	0x05	0.0020048805
165	0x1e	0.012029283
166	0xef	-0.006816594
167	0xe2	-0.012029283
168	0xd2	-0.018444901
169	0x0d	0.0052126893
170	0x33	0.020449782
171	0xb9	-0.028469304
172	0x0c	0.0048117135
173	0x1e	0.012029283
174	0xfe	-0.0008019522
175	0x22	0.013633188
176	0x08	0.0032078088
177	0xef	-0.006816594
178	0xd9	-0.015638068
179	0xd2	-0.018444901
180	0x18	0.009623427
181	0xd5	-0.017241972
182	0xdd	-0.014034163
183	0xff	-0.0004009761
184	0x1d	0.011628307
185	0xd9	-0.015638068
186	0xc9	-0.022053685
187	0x08	0.0032078088
188	0x53	0.033281017
189	0xe0	-0.012831235
190	0xda	-0.015237092
191	0xe2	-0.012029283
192	0xcf	-0.01964783
193	0xbe	-0.026464423
194	0xd6	-0.016840996
195	0xdf	-0.013232212
196	0xde	-0.013633188
197	0x04	0.0016039044
198	0x23	0.014034163
199	0xe1	-0.012430259
200	0xea	-0.008821474
201	0xf4	-0.0048117135
202	0x2b	0.017241972
203	0x36	0.02165271
204	0xea	-0.008821474
205	0x1a	0.010425379
206	0xfd	-0.0012029284
207	0xb3	-0.03087516
208	0x11	0.006816594
209	0x18	0.009623427
210	0xf4	-0.0048117135
211	0x44	0.027266376
212	0xdc	-0.0144351395
213	0x19	0.010024402
214	0x36	0.02165271
215	0x14	0.008019522
216	0x31	0.01964783
217	0xf3	-0.0052126893
218	0x0e	0.0056136656
219	0xe5	-0.010826355
220	0x12	0.0072175697
221	0xcc	-0.020850757
222	0x48	0.028870279
223	0x37	0.022053685
224	0x18	0.009623427
225	0xb8	-0.028870279
226	0x4b	0.030073207
227	0x0a	0.004009761
228	0xb9	-0.028469304
229	0xe1	-0.012430259
230	0xdb	-0.014836116
231	0x35	0.021251734
232	0x0c	0.0048117135
233	0x33	0.020449782
234	0x54	0.033681992
235	0xc7	-0.022855638
236	0x31	0.01964783
237	0x1a	0.010425379
238	0x4b	0.030073207
239	0x01	0.0004009761
240	0x26	0.015237092
241	0x2b	0.017241972
242	0xbe	-0.026464423
243	0x36	0.02165271
244	0xfb	-0.0020048805
245	0x21	0.013232212
246	0xac	-0.033681992
247	0xd9	-0.015638068
248	0x18	0.009623427
249	0xfb	-0.0020048805
250	0x0f	0.0060146414
251	0x38	0.022454662
252	0x2d	0.018043924
253	0x3a	0.023256615
254	0xb2	-0.031276137
255	0xed	-0.007618546
