saved_model/quantized_models/layers3/trial2/paramcount758647.tflite (tflite, 769448 bytes, 16 tensors)

sequential_6/dense_13/MatMul f4 [7, 64]
0	0xbe905cc9	-0.2819579
1	0x3e8001a3	0.2500125
2	0x3cdbe59d	0.026842887
3	0xbe3fad5c	-0.18718475
4	0x3e4a497a	0.19754592
5	0xbe0db40d	-0.13838215
6	0x3ce38e31	0.027777763
7	0xbe731dcb	-0.23741834
8	0xbe92fa87	-0.28706762
9	0x3ca41b96	0.020032685
10	0xbe2e8a7b	-0.17045014
11	0x3e1637ae	0.14669678
12	0xbd785b85	-0.060634155
13	0x3cfebedf	0.031096874
14	0x3e539eb8	0.20666015
15	0xbe66967a	-0.2251834
16	0xbcaca68e	-0.021075513
17	0xbe743310	-0.23847604
18	0xbcb5c963	-0.022190755
19	0x3e307f12	0.17235973
20	0xbc9fc305	-0.019502172
21	0x3e4a5889	0.19760336
22	0x3d9373e2	0.07199837
23	0xbd1a1afb	-0.037623387
24	0xbca382d2	-0.01995984
25	0xbe7ac0f5	-0.2448767
26	0xbe45500c	-0.19268817
27	0xbd539a56	-0.051660858
28	0xbe936265	-0.28786007
29	0x3c314661	0.010820002
30	0xbcc9630a	-0.024583358
31	0xbe62ce2c	-0.22148961
32	0xbe69a081	-0.22815134
33	0x3e604c13	0.2190402
34	0x3e148983	0.14505582
35	0xbe4345ee	-0.19069645
36	0x3e51fff1	0.2050779
37	0xbdb83d7d	-0.08996103
38	0x3cbbc926	0.022923063
39	0x3c869fed	0.01643368
40	0xbe807080	-0.2508583
41	0x3e28fb62	0.16502145
42	0xbde83a35	-0.11339227
43	0xbe351be3	-0.17686419
44	0x3d02531f	0.03181755
45	0xbd0227cc	-0.031776235
46	0xbd2cbb2d	-0.042170692
47	0x3d7d5e3b	0.061857443
48	0x3d200913	0.039071154
49	0x3dfae458	0.12250584
50	0xbe555372	-0.20832613
51	0x3d4d21f1	0.050081197
52	0xbd529e79	-0.051420663
53	0x3e56edaa	0.20989099
54	0xbe5930fa	-0.2121009
55	0xbe86293e	-0.2620334
56	0x3d7497ce	0.059715085
57	0xbdb8f269	-0.09030611
58	0x3d50d49c	0.05098401
59	0x3e47b3f4	0.1950224
60	0xbe24d704	-0.16097647
61	0x3d6fa463	0.05850638
62	0xbe7987a8	-0.24368155
63	0xbe344567	-0.176046
64	0x3d3cfddb	0.046140533
65	0x3d1988b1	0.037483875
66	0x3e35640c	0.17713946
67	0xbdb34ec9	-0.087552615
68	0x3e0c3876	0.13693413
69	0x3d84d473	0.06485834
70	0xbdbd60a7	-0.092469506
71	0xbe444819	-0.19168128
72	0xbdbb951b	-0.09159299
73	0xbe7cdcc6	-0.24693593
74	0xbdb8bdb9	-0.09020562
75	0x3dd8dad7	0.105886154
76	0xbc929941	-0.017895343
77	0x3e1134ec	0.14180344
78	0xbd3a93b1	-0.045551006
79	0xbce58790	-0.028018743
80	0xbe4e4767	-0.20144425
81	0x3e72d284	0.23713118
82	0xbcaeb2af	-0.021325437
83	0xbc0ddf0a	-0.008659134
84	0x3d4abab0	0.049494445
85	0x3d89e97a	0.06733985
86	0x3e8f091f	0.27936646
87	0xbe71a3c2	-0.23597625
88	0xbe5d26c0	-0.21596813
89	0xbdc1e8d5	-0.09468237
90	0x3de75a09	0.1129647
91	0xbe918073	-0.2841831
92	0x3e588be0	0.21147108
93	0x3e8682b5	0.26271597
94	0x3e445b5d	0.19175477
95	0x3d6f2ac0	0.05839038
96	0xbc9df392	-0.019281182
97	0xbddc385a	-0.10752936
98	0x3d2a994d	0.041650105
99	0x3e8fd052	0.28088623
100	0xbdbd6a2b	-0.092487656
101	0xbd429916	-0.047509275
102	0x3d14312e	0.036179714
103	0x3e850872	0.25983006
104	0x3c10504d	0.008808208
105	0x3e80c096	0.2514693
106	0xbe3381a0	-0.17529917
107	0x3cf55b73	0.029950833
108	0x3dfe6b61	0.12422825
109	0xbe93bd73	-0.28855476
110	0xbcd338b4	-0.025783874
111	0x3d078cd2	0.03309328
112	0xbd1e6057	-0.038666096
113	0x3e172ab0	0.14762378
114	0xbd5c134e	-0.053729348
115	0x3e260cb1	0.16215779
116	0x3e576327	0.21033917
117	0xbe4c69e3	-0.19962268
118	0xbe4ca521	-0.19984867
119	0xbc941623	-0.018076962
120	0x3e304b7e	0.17216298
121	0xbd807299	-0.06271858
122	0xbe0b59c0	-0.13608456
123	0x3e86eb4b	0.2635139
124	0xbda9c0ef	-0.08288752
125	0xbe18e547	-0.14931212
126	0xbe40d852	-0.1883252
127	0xbc9e7016	-0.019340556
128	0xbe057684	-0.13033491
129	0x3e2b0fe8	0.16705287
130	0xbe83d7a4	-0.25750458
131	0x3e066ff8	0.1312865
132	0x3dd9644c	0.10614833
133	0x3e69e048	0.22839463
134	0xbd4db052	-0.05021698
135	0x3e3761d0	0.17908406
136	0x3e8e8f35	0.27843633
137	0xbe2ba472	-0.1676195
138	0x3e029537	0.12752233
139	0x3d818821	0.06324793
140	0xbe80a26c	-0.25123918
141	0x3dabd447	0.08390098
142	0xbe928cae	-0.28622955
143	0x3d9ff29f	0.07809948
144	0xbe3fc2be	-0.18726632
145	0x3e3835ad	0.17989226
146	0x3de2a13e	0.11065911
147	0xbd069a64	-0.032862082
148	0x3e829cff	0.25510404
149	0x3e8e0a2d	0.27742139
150	0xbe601aab	-0.21885173
151	0xbc9bbc5c	-0.019010715
152	0xbc8eec7b	-0.017446747
153	0x3e24304a	0.16034046
154	0xbd3fb58a	-0.04680399
155	0xbdf259a1	-0.118335016
156	0x3df5d2d9	0.120031066
157	0x3cb7d87d	0.022442097
158	0x3e81df22	0.2536555
159	0xbe16cf47	-0.14727508
160	0xbe17dc6a	-0.14830175
161	0xbcbddc02	-0.023176197
162	0xbdef22ec	-0.11676583
163	0xbe288e4b	-0.1646053
164	0xbd47a8db	-0.048745017
165	0x3e8b3bcb	0.27194056
166	0x3d4fb44d	0.050709058
167	0x3e71360e	0.23555776
168	0x3e900203	0.28126535
169	0xbd2c1529	-0.042012367
170	0x3ded6698	0.11591834
171	0xbe61cbcb	-0.22050397
172	0x3d687305	0.056750316
173	0x3e1af1c5	0.1513129
174	0xb947f390	-0.00019068853
175	0x3dbc2a30	0.09187734
176	0xbe800c35	-0.25009313
177	0x3b8b279a	0.0042466642
178	0xbdd5a6d1	-0.10432208
179	0xbc6495ac	-0.0139517
180	0xbe5ecc4a	-0.21757618
181	0xbdcca0b4	-0.09991589
182	0xbde7f89b	-0.113267146
183	0xbd5d12c0	-0.05397296
184	0xbd5de0a4	-0.054169312
185	0xbd84a9d3	-0.06477704
186	0xbe5851ac	-0.21124905
187	0x3e7ae2d5	0.24500592
188	0x3e191a7d	0.1495151
189	0x3dce84a0	0.1008389
190	0x3e7ce561	0.24696876
191	0x3def1854	0.11674562
192	0xbe35e78a	-0.17764106
193	0x3e4371d5	0.19086392
194	0xbe600212	-0.2187579
195	0x3e82ea17	0.2556922
196	0x3d25062a	0.04028908
197	0xbe09cf39	-0.13457955
198	0xbdeb8a4e	-0.11500989
199	0xbe5c1b77	-0.21494852
200	0x3d36f1c9	0.044664178
201	0x3df0602d	0.11737094
202	0xbd1b52e6	-0.037920855
203	0xbe0d844b	-0.13819997
204	0xbd211e93	-0.0393358
205	0x3e539f20	0.2066617
206	0xbcb00ef5	-0.021491507
207	0x3e036828	0.12832701
208	0x3d366490	0.044529498
209	0xbca08d58	-0.019598648
210	0xbe5900eb	-0.21191756
211	0xbe056ec2	-0.13030532
212	0xbe8297bd	-0.25506392
213	0x3d9d6dfe	0.07686995
214	0x3dc2a228	0.09503585
215	0xbc8171b6	-0.015801292
216	0x3df6a8f0	0.12043941
217	0x3e65e67f	0.22451209
218	0xbdd0d592	-0.10196985
219	0xbe003f0d	-0.12524052
220	0xbe687fe9	-0.22705044
221	0xbd22d506	-0.039753936
222	0x3dfa5510	0.12223256
223	0x3d5e8077	0.054321732
224	0xbe8e73c6	-0.27822703
225	0x3cab9630	0.020945638
226	0x3c4e56a9	0.012593904
227	0xbd853353	-0.0650393
228	0x3e09b12f	0.13446496
229	0x3e8fc9a0	0.28083515
230	0xbe179aac	-0.14805096
231	0x3d0bf7f3	0.03417201
232	0xbe900bca	-0.28133994
233	0x3e084862	0.13308862
234	0x3e0bab62	0.13639596
235	0xbe78a752	-0.24282578
236	0xbe189cc2	-0.14903548
237	0xbe2687f1	-0.16262795
238	0x3de0e5d8	0.10981339
239	0x3e575f9a	0.21032563
240	0xbe6f7b00	-0.23386765
241	0x3e8d3598	0.2757995
242	0x3dcfa67c	0.10139176
243	0xbc17a977	-0.009256712
244	0xbe8613fb	-0.2618712
245	0x3d6dda08	0.05806926
246	0x3e0546b1	0.13015248
247	0xbe79f723	-0.24410681
248	0xbbd6db33	-0.0065568923
249	0xbd906195	-0.07049862
250	0x3d9a6aa1	0.07539869
251	0x3e48f117	0.19623218
252	0xbd1de5a8	-0.038549095
253	0xbe92e123	-0.2868739
254	0x3d58ddcc	0.052945897
255	0x3e870d0e	0.26377147

sequential_6/conv2d_18/BiasAdd/ReadVariableOp f4 [7]
0	0x3c8a6269	0.016892629
1	0xbb8ff2c7	-0.004392955
2	0x3b090539	0.0020907654
3	0x3a5236a1	0.00080190046
4	0x3c396442	0.011315407
5	0xbb518412	-0.003196959
6	0x3bb8ac3d	0.005635767

sequential_6/conv2d_19/BiasAdd/ReadVariableOp f4 [7]
0	0xbaffbd3a	-0.001951135
1	0x3ac36a4e	0.0014909001
2	0x3b6bf0aa	0.0036001601
3	0x3c83f8b4	0.016109802
4	0x3a9544d5	0.0011388311
5	0x3b4505ac	0.0030063195
6	0x3c86f675	0.016474942

sequential_6/conv2d_20/BiasAdd/ReadVariableOp f4 [7]
0	0xbc26694f	-0.010156943
1	0x3c07dc90	0.008292332
2	0xbb593c0f	-0.003314737
3	0x3b87dbfe	0.004146098
4	0xbc011dae	-0.007880611
5	0xbc02043c	-0.00793558
6	0x3c3c4a11	0.011492268

sequential_6/conv2d_18/Conv2D f4 [7, 3, 3, 1]
0	0x3ded1563	0.11576345
1	0x3e0222c4	0.12708575
2	0x3d7e3c29	0.062069092
3	0xbe8604a3	-0.26175413
4	0xbd451f17	-0.048125353
5	0x3c306d2b	0.010768215
6	0x3db1eff6	0.08688347
7	0x3db6f828	0.08934051
8	0xbda5ee4d	-0.08102093
9	0xbd2f1f39	-0.042754386
10	0xbe052155	-0.13000996
11	0x3e056ce0	0.13029814
12	0x3e88d678	0.26726127
13	0xbe4583fd	-0.19288631
14	0xbe0db292	-0.1383765
15	0x3e74631d	0.23865934
16	0xbe7b7660	-0.24556875
17	0x3dc9b6ba	0.098493055
18	0xbddd720e	-0.1081277
19	0xbe8f4ff4	-0.27990687
20	0x3e53ccf8	0.20683658
21	0xbe370c08	-0.17875683
22	0x3e5944a4	0.2121759
23	0xbe930bf5	-0.2872006
24	0xbe2925ea	-0.1651837
25	0x3e6f8fc0	0.2339468
26	0x3ce12c7b	0.02748703
27	0x3e6627ea	0.22476164
28	0x3e24a071	0.16076829
29	0x3da4a2e2	0.0803888
30	0xbdf80c55	-0.12111727
31	0xbb5771c6	-0.003287421
32	0xbe2b3ca6	-0.16722354
33	0x3d942596	0.072337314
34	0x3decf9d0	0.115710855
35	0xbd49933f	-0.04921269
36	0x3e7e312e	0.24823448
37	0xbe00c8be	-0.12576577
38	0xbe182710	-0.14858651
39	0x3e21fefe	0.15819928
40	0x3e1d178b	0.15341012
41	0xbe051a14	-0.1299823
42	0xbe76b4fc	-0.24092478
43	0xbe4afc4d	-0.19822808
44	0xbd9836ee	-0.07432352
45	0x3daf00a4	0.08545044
46	0x3e823f5e	0.2543897
47	0xbd589ebb	-0.052885752
48	0xbdd8abfc	-0.105796784
49	0x3d3162ec	0.04330723
50	0x3e1116e0	0.14168882
51	0xbd8e0b35	-0.06935731
52	0xbdfd7229	-0.1237529
53	0xbe8670c4	-0.26257908
54	0x3e759f81	0.23986627
55	0xbc621328	-0.0137985125
56	0x3e857c78	0.26071525
57	0xbe24ace9	-0.16081585
58	0x3d939a99	0.072072215
59	0xbbcba686	-0.0062149195
60	0x3e243f94	0.16039878
61	0xbe30ead3	-0.17277078
62	0x3d98500b	0.07437142

sequential_6/conv2d_19/Conv2D f4 [7, 3, 3, 7]
0	0x3ca596cd	0.020213509
1	0x3e24e552	0.16103104
2	0xbd938f74	-0.07205096
3	0x3b76a413	0.0037634417
4	0xbdb44529	-0.08802254
5	0x3c918560	0.017763793
6	0x3be10b77	0.006867822
7	0x3e231772	0.15926912
8	0xbccfdb93	-0.025373256
9	0x3de3e4a7	0.11127596
10	0x3e35b19b	0.17743532
11	0x3cdccd3f	0.026953338
12	0x3d913a57	0.070912056
13	0xbd94a914	-0.072588116
14	0x3c239500	0.009984255
15	0x3e296267	0.16541444
16	0x3de9636e	0.11395918
17	0xbe099fdc	-0.13439888
18	0xbdfa8606	-0.12232594
19	0xbe523912	-0.20529583
20	0xbdadd4f7	-0.084878854
21	0x3ab36581	0.0013686867
22	0x3e553f0d	0.20824833
23	0xbda14180	-0.07873821
24	0xbe06df94	-0.13171226
25	0x3d6d65dd	0.057958473
26	0xbe4ed682	-0.20199016
27	0x3d8c5052	0.068512574
28	0x3e449e6f	0.19201063
29	0xbe32385c	-0.17404312
30	0x3e63a9ec	0.22232789
31	0xbdd168d5	-0.10225073
32	0x3e012e46	0.12615308
33	0x3c2e63e7	0.010643936
34	0xbe25401f	-0.16137742
35	0x3e0856b7	0.13314329
36	0xbdb52ed8	-0.08846825
37	0xbd6370e0	-0.055527568
38	0x3e49f199	0.19721068
39	0xbd851d49	-0.06499726
40	0xbc80e142	-0.015732411
41	0x3e4e7dba	0.20165148
42	0xbdcc0ca1	-0.09963346
43	0x3deb4b6a	0.114889935
44	0xbe15913c	-0.14606184
45	0xbe449b60	-0.19199896
46	0x3e0754a1	0.13215877
47	0xbdf1007e	-0.11767672
48	0x3e5ebe7f	0.21752356
49	0xbe1b3ee7	-0.15160714
50	0x3e0032d8	0.12519395
51	0x3e441385	0.19148071
52	0xbc808f78	-0.015693411
53	0x3dde0085	0.10839943
54	0x3d8ac4f9	0.06775851
55	0x3dc46bac	0.09590849
56	0xbc7efc14	-0.01556303
57	0xbdd067f2	-0.10176076
58	0x3e4f3248	0.20234025
59	0x3ca890c0	0.020576835
60	0xbdd026eb	-0.10163673
61	0x3e0fc115	0.14038499
62	0xbdede0e2	-0.116151586
63	0xbd2f125a	-0.04274211
64	0x3e4c4cf1	0.19951226
65	0xbdb0c7a6	-0.0863183
66	0x3db477e8	0.08811933
67	0x3d082970	0.033242643
68	0x3e4117f5	0.18856795
69	0xbd807bb3	-0.06273594
70	0x3e35375e	0.17696902
71	0xbe06a76a	-0.13149801
72	0xbe2fcc65	-0.17167814
73	0x3e414810	0.18875146
74	0xbc8d1ca8	-0.017225578
75	0x3e0a6551	0.13515212
76	0xbda376fb	-0.07981678
77	0x3d1ffb05	0.03905775
78	0x3d0bc18e	0.034120135
79	0xbe032837	-0.1280831
80	0x3d0b0ac1	0.033945803
81	0x3e446653	0.19179659
82	0x3db3a5ab	0.08771833
83	0x3deb0712	0.11475958
84	0xbd0cc00c	-0.034362838
85	0x3d5f391d	0.054497827
86	0x3de66c6d	0.11251149
87	0x3e13e397	0.14442287
88	0xbe4d3305	-0.20038994
89	0xbe100780	-0.14065361
90	0x3d799b7f	0.06093931
91	0x3e44517d	0.1917171
92	0x3d9d4e7c	0.07680985
93	0x3e2c8d06	0.16850671
94	0xbe538a58	-0.20658243
95	0xbc674394	-0.014115233
96	0xbd42af12	-0.04753024
97	0x3d901f9c	0.07037279
98	0xbe51016b	-0.20410697
99	0x3e01ed6d	0.12688227
100	0xbdbde51d	-0.092722155
101	0x3d9ae4aa	0.075631455
102	0xbe24e0ba	-0.16101351
103	0xbe4614f0	-0.19343925
104	0x3e2a7182	0.16644862
105	0x3df550c0	0.119782925
106	0xbcdf0d2a	-0.027227957
107	0x3c64feab	0.013976733
108	0x3e143942	0.14474967
109	0xbd89c80d	-0.0672761
110	0x3de107ab	0.10987791
111	0x3dba87b7	0.09107917
112	0x3de1cb13	0.110250615
113	0xbe2fc631	-0.17165448
114	0x3de4185b	0.11137458
115	0xbdbb566c	-0.09147343
116	0x3d8de104	0.06927684
117	0x3e0cfe43	0.13768868
118	0xbd71c229	-0.059023056
119	0xbd51602e	-0.051117115
120	0x3db99a93	0.09062686
121	0x3e27b719	0.1637844
122	0xbc720c60	-0.014773458
123	0x3e409acb	0.18809049
124	0x3c306bbb	0.010767872
125	0xbc4aa799	-0.01236906
126	0x3d4861f1	0.04892153
127	0x3d918b1a	0.0710661
128	0x3c3f451b	0.011674191
129	0x3c14db0c	0.009085428
130	0xbe2a997b	-0.1666011
131	0xbe485991	-0.19565417
132	0xbd137595	-0.036000807
133	0x3d3e8623	0.04651464
134	0xbb8738f9	-0.0041266647
135	0xbe0d7672	-0.13814715
136	0x3daf04d1	0.085458405
137	0xbc88f761	-0.016719522
138	0xbe3c6835	-0.18399127
139	0x3d0cae2a	0.034345783
140	0x3d979ad1	0.07402576
141	0xbd8774c2	-0.06614067
142	0xbd0ac817	-0.033882227
143	0x3debcdad	0.11513839
144	0xbb8ec5d8	-0.004357081
145	0xbe13eb10	-0.14445138
146	0xbe521040	-0.20514011
147	0x3e57b688	0.21065724
148	0xbdd75f99	-0.10516281
149	0xbe44f62d	-0.19234534
150	0xbe3fd85c	-0.18734878
151	0xbc3c8ca2	-0.011508139
152	0xbe1e43b5	-0.15455516
153	0x3e1908a8	0.14944708
154	0x3e55dd9e	0.20885321
155	0xbe5990cb	-0.2124664
156	0x3df597e6	0.11991863
157	0x3c7b1c85	0.015326624
158	0x3e0467a6	0.12930164
159	0x3cfacea8	0.03061612
160	0xbbf4b54d	-0.007467902
161	0xbd10bc86	-0.03533604
162	0x3e2c388a	0.16818443
163	0xbdef2a20	-0.116779566
164	0x3d49a967	0.04923382
165	0x3db176d9	0.086652465
166	0xbda6b389	-0.08139712
167	0xbdba592e	-0.09099041
168	0x3db07ca3	0.086175226
169	0x3c54f8fa	0.012998814
170	0x39a14620	0.0003076056
171	0xbe3e8005	-0.18603523
172	0xbce08d17	-0.027411027
173	0x3cdc5c92	0.02689961
174	0xbe5a434f	-0.21314739
175	0xbde11e07	-0.109920554
176	0x3e0a6011	0.13513209
177	0x3e29a4ca	0.16566768
178	0xbe303ded	-0.17211123
179	0x3e3cd440	0.18440342
180	0xbbdba9e7	-0.0067036035
181	0x3e3d3e57	0.18480812
182	0x3db330cd	0.087495424
183	0xbe1c5482	-0.15266612
184	0x3e1314e1	0.14363433
185	0xbde5cb13	-0.11220374
186	0xbc752f0d	-0.014964831
187	0x3e166eb6	0.1469067
188	0x3d2d4779	0.04230449
189	0x3d203b27	0.039118912
190	0xbd56e88d	-0.05246787
191	0xbd97c42b	-0.07410463
192	0xbd6b0836	-0.057380877
193	0x3e43ba74	0.19114095
194	0x3e3f3d19	0.1867565
195	0xbe34447e	-0.17604253
196	0x3e233eb8	0.15941894
197	0xbda6970b	-0.08134278
198	0xbd34f2f5	-0.044177014
199	0xbdf0b0f6	-0.117525026
200	0x3e2fc5fe	0.17165372
201	0xbd15fd83	-0.03661872
202	0x3cc711b1	0.024300428
203	0xbe4df9f0	-0.20114875
204	0xbe3a3fd9	-0.18188418
205	0xbe1ec48e	-0.15504667
206	0xbdd1d804	-0.1024628
207	0xbdfe8629	-0.12427933
208	0xbd253338	-0.04033205
209	0x3e4f445c	0.20240921
210	0xbe3c4c74	-0.1838854
211	0x3e49aa1c	0.19693798
212	0x3cd998ae	0.026562061
213	0x3e15ccd5	0.14628918
214	0xbe444ed1	-0.19170691
215	0xbe26709c	-0.16253895
216	0x3de2c955	0.11073557
217	0xbe037b81	-0.12840082
218	0x3d5f2bc6	0.054485105
219	0x3d666108	0.05624488
220	0x3e11d8f5	0.14242919
221	0xbcd9c6f0	-0.026584119
222	0x3e3c2ead	0.1837718
223	0x3dab43e3	0.08362558
224	0x3d923256	0.07138507
225	0xbd5bd6b4	-0.053671554
226	0xbdfa33fc	-0.122169465
227	0xbda6025a	-0.08105917
228	0x3dce1ecd	0.100644685
229	0x3e3cf060	0.18451071
230	0xbd0ef5c6	-0.034902357
231	0xbe424d1f	-0.18974732
232	0xbe02ce2a	-0.12773958
233	0xbb5a39d6	-0.0033298633
234	0x3dfd12e9	0.123571225
235	0x3d978ac9	0.07399518
236	0x3da98ebb	0.08279177
237	0x3bcf8ed0	0.0063341632
238	0x3d5072d4	0.05089076
239	0x3de004f9	0.109384485
240	0x3dd4f884	0.10398963
241	0x3de01d4d	0.10943089
242	0x3d33c359	0.04388747
243	0x3e00ef08	0.12591183
244	0x3dff472c	0.12464747
245	0x3dddc56a	0.10828669
246	0xbdceafed	-0.10092149
247	0x3de73f9b	0.11291429
248	0xbe2d3287	-0.16913806
249	0xbe0b4a70	-0.13602614
250	0x3d9733f4	0.07382956
251	0x3d2dae30	0.042402446
252	0xbde073ab	-0.10959562
253	0x3e518f9b	0.20464937
254	0xbbe49830	-0.00697615
255	0x3d4b9ef4	0.049712136

sequential_6/conv2d_20/Conv2D f4 [7, 3, 3, 7]
0	0x3e59366c	0.21212167
1	0xbc1d7c05	-0.009612088
2	0xbd31dd83	-0.04342414
3	0x3d6a2c73	0.057171296
4	0xbcef8bf1	-0.029241534
5	0xbd63b65e	-0.05559384
6	0x3d9ce09a	0.07660027
7	0xbda14b0b	-0.078756414
8	0x3dc59381	0.09647275
9	0xbe05c089	-0.13061728
10	0x3da732d4	0.081639916
11	0xbd6c4645	-0.0576842
12	0xbe1371d8	-0.14398897
13	0xbd31a6dd	-0.043372024
14	0x3e480c82	0.19536021
15	0x3d51f185	0.05125572
16	0xbe200133	-0.15625457
17	0x3e3d9e68	0.18517458
18	0xbe58a934	-0.21158296
19	0xbe528e8b	-0.20562188
20	0x3d1ddfae	0.038543396
21	0xbe51760c	-0.20455188
22	0x3bc6a73f	0.0060624178
23	0xbdc389d3	-0.09547772
24	0x3e4402d4	0.19141704
25	0xbe2aaa79	-0.16666593
26	0x3e4bb780	0.19894218
27	0x3e0a6927	0.13516675
28	0x3e2eacc3	0.17058091
29	0x3d6e4bd4	0.058177784
30	0xbe030c86	-0.12797746
31	0xbdce5055	-0.10073916
32	0xbe244885	-0.16043289
33	0xbcf8f906	-0.030392181
34	0xbcf8e083	-0.030380493
35	0xbd7b9179	-0.06141803
36	0xbe2ff424	-0.17182976
37	0x3e5d5166	0.21613082
38	0xbd40eb55	-0.04709943
39	0xbe1f9d97	-0.1558746
40	0xbde841b2	-0.113406554
41	0x3dbc4085	0.091919936
42	0xbd0ada0a	-0.033899345
43	0xbe5acc70	-0.21367049
44	0x3da68405	0.081306495
45	0x3d9e0a9c	0.07716867
46	0xbd96882c	-0.073501915
47	0x3e118634	0.1421135
48	0x3e528c3d	0.20561309
49	0xbca63e7c	-0.020293467
50	0xbe1eb963	-0.15500407
51	0xbe1a1ad1	-0.15049292
52	0xbe48c7d7	-0.19607483
53	0x3d7e08c3	0.062020075
54	0x3c6447be	0.01393312
55	0xbc6cc674	-0.014451612
56	0x3c31619d	0.0108264955
57	0x3d4fe226	0.05075278
58	0xbe594945	-0.21219356
59	0xbcea0625	-0.028567383
60	0xbd46d8da	-0.04854665
61	0x3e0a6783	0.13516049
62	0xbd182be2	-0.037151225
63	0x3e1c2740	0.15249348
64	0x3dace566	0.08442192
65	0x3dde935c	0.1086795
66	0xbdf7ce2b	-0.1209987
67	0x3e531056	0.206117
68	0x3e03b97d	0.12863727
69	0xbe002011	-0.12512232
70	0xbe26652e	-0.16249534
71	0xbd2d11f0	-0.042253435
72	0xbe5a9110	-0.213444
73	0xbe1b26e2	-0.15151551
74	0x3d8c2213	0.06842437
75	0xbda6e824	-0.08149746
76	0x3db989e2	0.09059502
77	0x3c021d44	0.007941548
78	0xbd9b36ff	-0.07578849
79	0xbe0343f5	-0.12818892
80	0x3e4027a5	0.18765123
81	0xbe1c7226	-0.15277919
82	0xbe3a69e6	-0.1820446
83	0x3ddef4f0	0.10886562
84	0xbd0ce969	-0.034402285
85	0xbe07d21a	-0.13263741
86	0x3ddd626f	0.1080979
87	0x3e1e37fa	0.15451041
88	0xbce0e439	-0.027452575
89	0xbc6a4384	-0.014298324
90	0xbe269513	-0.16267805
91	0xbc22be95	-0.009933134
92	0x3e19c8c6	0.15017995
93	0x3e560e17	0.20903812
94	0x3e37bd97	0.17943417
95	0x3d5dcd93	0.05415113
96	0xbe4c821c	-0.19971508
97	0xbd13883c	-0.036018595
98	0x3d9dfee6	0.07714634
99	0xbe2f1a63	-0.1709991
100	0x3e607a75	0.21921714
101	0x3ca587d5	0.020206371
102	0x3ca214e3	0.01978535
103	0x3cc7cd12	0.024389777
104	0xbd231ebc	-0.039824232
105	0xbdd88b77	-0.10573476
106	0xbe56fd27	-0.20995007
107	0xbe123084	-0.1427632
108	0x3db564e4	0.08857134
109	0x3e09016d	0.1337945
110	0x3dfe230c	0.124090284
111	0x3d7f67e0	0.062354922
112	0x3e58923d	0.21149535
113	0xbdb82f1e	-0.08993362
114	0xbd16cc1d	-0.03681575
115	0xbbdc5a6c	-0.0067246463
116	0x3c3be43d	0.01146799
117	0xbcd8bd69	-0.026457505
118	0x3d78037b	0.060550194
119	0x3dcdf992	0.100573674
120	0x3e0e9960	0.13925695
121	0x3dd83505	0.10556988
122	0xbe2a3bf1	-0.16624428
123	0x3e52edce	0.20598528
124	0x3e2dd739	0.16976632
125	0x3e45fb98	0.19334257
126	0xbe396648	-0.18105423
127	0x392cf476	0.00016494267
128	0x3da5f451	0.0810324
129	0xbd3f3e73	-0.046690416
130	0xbd76db68	-0.060267836
131	0xbe37ea13	-0.17960386
132	0xbe1c8003	-0.15283208
133	0x3e45cce5	0.19316442
134	0xbccff112	-0.025383506
135	0xbe0c8adb	-0.13724844
136	0x3e25f800	0.16207886
137	0xbe039eb1	-0.12853505
138	0x3e04d3dc	0.12971443
139	0x3a9f6b6b	0.001216275
140	0x3e068f14	0.13140517
141	0x3e48ec6a	0.19621435
142	0x3e31bb28	0.1735655
143	0xbe23fa14	-0.16013366
144	0xbdcea333	-0.100897215
145	0xbce7b726	-0.028285574
146	0x3e0c5c68	0.13707125
147	0xbde0dbdb	-0.10979434
148	0xbd014ec7	-0.03156927
149	0x3dc0d2c8	0.09415203
150	0xbd211f6e	-0.039336614
151	0x3e4cd7cc	0.20004195
152	0x3dea729c	0.11447641
153	0x3e6667ef	0.22500585
154	0x3e55eaef	0.20890401
155	0x3e2c048b	0.16798608
156	0x3e254a69	0.16141666
157	0x3de80a2a	0.11330064
158	0x3e2af74f	0.16695903
159	0xbe0423ed	-0.1290433
160	0xbdd1d0b5	-0.10244886
161	0x3c9139a5	0.017727682
162	0xbd9bd62d	-0.0760921
163	0xbe2d64f0	-0.16933036
164	0x3e03842d	0.1284339
165	0x3e4e4860	0.20144796
166	0xbe45131a	-0.19245568
167	0x3d599cf5	0.0531282
168	0x3c59f0d6	0.013302049
169	0xbdcd7b6b	-0.10033306
170	0x3e14771e	0.14498565
171	0x3c099ed0	0.00839968
172	0x3e6d95e3	0.23201708
173	0xbe4852bb	-0.19562809
174	0xbde7cfc6	-0.113189265
175	0x3e48272d	0.19546194
176	0xbe2bd90e	-0.16782019
177	0x3e3b9943	0.18320183
178	0xbdad1ee9	-0.08453161
179	0xbc8cd905	-0.017193327
180	0xbdd48e5c	-0.103787154
181	0x3db97504	0.09055522
182	0x3d18a325	0.03726496
183	0x3e1862a9	0.14881386
184	0x3d3bfe81	0.04589701
185	0x3d807dd0	0.06273997
186	0x3e49671f	0.19668244
187	0x3e2c4756	0.16824088
188	0x3d69e005	0.057098407
189	0x3e42f8ae	0.19040176
190	0x3c8dc4b3	0.017305708
191	0x3d114cb8	0.035473555
192	0xbe02664a	-0.12734333
193	0x3aca513c	0.0015435587
194	0x3e2a4ec3	0.16631608
195	0xbe2eb895	-0.170626
196	0xbd8f913f	-0.07010125
197	0xbcf7e2ea	-0.030259568
198	0xbe415533	-0.18880157
199	0x3daadc25	0.083427705
200	0xbc300564	-0.010743473
201	0xbdbad470	-0.091225505
202	0x3e530621	0.20607807
203	0x3dbc5a61	0.09196926
204	0xbe170fe1	-0.14752151
205	0x3d4f05b3	0.050542545
206	0xbd589aaa	-0.052881874
207	0xbe33c583	-0.17555813
208	0xbdfa842a	-0.122322395
209	0xbdb6eeb9	-0.089322515
210	0xbde8611a	-0.11346646
211	0xbe0a46a5	-0.13503511
212	0x3dcd3473	0.100197695
213	0x3dda8804	0.10670474
214	0x3d19d2b3	0.037554454
215	0x3e3c9da5	0.18419512
216	0x3e5f0e61	0.21782829
217	0x3e1b98d2	0.15195015
218	0xbe5784a6	-0.21046695
219	0x3d41f535	0.04735299
220	0xbe11de48	-0.1424495
221	0x3d9e8d3c	0.07741782
222	0xbe45695c	-0.19278473
223	0xbe19c131	-0.15015103
224	0x3de80f3c	0.11331031
225	0x3dbb90ea	0.091584995
226	0xbd7b0956	-0.0612882
227	0xbcda826e	-0.026673522
228	0xbda6f1d5	-0.081515945
229	0x3cc478bb	0.02398335
230	0xbd81c39f	-0.0633614
231	0xbda37bc7	-0.07982593
232	0x3ca0db43	0.019635802
233	0x3dae2929	0.085039444
234	0xbe47924e	-0.19489405
235	0x3e41b587	0.18916903
236	0xbd479b5c	-0.048732147
237	0x3e3d71f6	0.18500504
238	0xbd85b46f	-0.065285556
239	0xbcd70272	-0.026246283
240	0x3dcd9ed4	0.1004006
241	0x3dd74353	0.10510888
242	0xbe13e7cd	-0.14443894
243	0xbd71012c	-0.05883901
244	0x3e16a234	0.14710313
245	0x3d7ac038	0.06121847
246	0x3e40f4d1	0.1884339
247	0x3db034b5	0.08603803
248	0x3e4af77b	0.19820969
249	0x3e3df945	0.1855212
250	0xbe044340	-0.12916279
251	0xbe59a5ae	-0.21254608
252	0x3d881b36	0.06645815
253	0x3e0465e5	0.12929495
254	0x3daad431	0.083412535
255	0x3dcbdffb	0.0995483

sequential_6/dense_13/BiasAdd/ReadVariableOp f4 [7]
0	0xbce734ec	-0.028223477
1	0xbb1b16cd	-0.0023664713
2	0x3b94f7e6	0.0045461534
3	0x3ae07e2d	0.0017127447
4	0x3b4fafd6	0.00316905
5	0xbb896d8b	-0.0041939667
6	0xbb26fb0e	-0.002547923

sequential_6/dense_12/BiasAdd/ReadVariableOp f4 [64]
0	0xbbf5b8a1	-0.007498816
1	0xbb2704e6	-0.0025485097
2	0xbba3932c	-0.0049919095
3	0x3b363d7d	0.0027807646
4	0xb9f7c299	-0.00047256498
5	0xbb5ebc0a	-0.0033986592
6	0xba0f7e1a	-0.00054738077
7	0xbac4724e	-0.0014987679
8	0xbb157835	-0.0022807245
9	0xba61b48a	-0.0008609971
10	0xba9b1895	-0.0011832888
11	0x3a55866f	0.00081453373
12	0xbb77f3c0	-0.0037834495
13	0x3891aa4a	6.9458576e-05
14	0x3aadb55c	0.0013252902
15	0x3b46fc11	0.0030362646
16	0xb986d2c6	-0.0002571551
17	0x3ac11a48	0.0014732564
18	0xba5d4119	-0.0008440181
19	0xbaa57fa4	-0.0012626541
20	0xbb0444b1	-0.0020182545
21	0xbbb1ec07	-0.005429748
22	0xbb775f3d	-0.0037745975
23	0xbb50efe1	-0.003188126
24	0x3a7903a8	0.0009499141
25	0xbb8c2179	-0.004276451
26	0x3a5ab669	0.0008343221
27	0x39d18de6	0.0003996931
28	0xbb1bccbc	-0.0023773154
29	0xbba5f780	-0.0050649047
30	0xba120565	-0.0005570262
31	0xbb7e27bd	-0.003878101
32	0xba8e73da	-0.0010868267
33	0xba840206	-0.0010071404
34	0xba17a1c1	-0.0005784296
35	0xbba50f9c	-0.005037261
36	0xba60e5a3	-0.00085791404
37	0xbbb25f8b	-0.0054435185
38	0xbb7bbcec	-0.0038412167
39	0xb903d816	-0.00012573632
40	0xba72cd06	-0.0009262118
41	0xba3d4c5b	-0.00072211557
42	0x39d21153	0.0004006723
43	0xbb9ad981	-0.0047256355
44	0xbb9186f1	-0.004441135
45	0x3a36b2d0	0.0006969394
46	0xb91d9264	-0.00015027222
47	0xbb3401bc	-0.0027466854
48	0xba45a8d8	-0.00075401133
49	0xba757171	-0.00093629124
50	0x3a211fc8	0.00061463984
51	0xbb02feea	-0.0019988366
52	0xbad4fb04	-0.0016249125
53	0x3af219c9	0.0018470819
54	0xbb48aaf2	-0.003061947
55	0xba1d4fc8	-0.0006000963
56	0xbb499453	-0.0030758574
57	0xbaf52c7e	-0.0018705276
58	0xba8b2598	-0.0010616062
59	0xbb0eb050	-0.002177257
60	0xbb397c90	-0.0028303005
61	0xba4fea16	-0.0007931305
62	0xbb9309b3	-0.00448724
63	0xba1d1953	-0.00059928483

sequential_6/batch_normalization_18/FusedBatchNormV3 f4 [7]
0	0x3d480631	0.04883403
1	0x3c31cb8d	0.010851753
2	0x3c39984b	0.011327813
3	0x3de84110	0.11340535
4	0x3d40825e	0.046999328
5	0x3d1b83a2	0.03796733
6	0x3d06ce81	0.03291178

sequential_6/batch_normalization_18/FusedBatchNormV31 f4 [7]
0	0xbf480899	-0.7813812
1	0xbf268c9b	-0.65058297
2	0xbf230197	-0.636743
3	0xbf9741e8	-1.1816988
4	0xbf1f7dd3	-0.6230137
5	0xbf419158	-0.756124
6	0xbf74ba00	-0.95596313

sequential_6/batch_normalization_19/FusedBatchNormV3 f4 [7]
0	0x3f3df379	0.74199635
1	0x3f4d143a	0.8010899
2	0x401f8cd8	2.4929714
3	0x3fbb6999	1.4641601
4	0x403478f5	2.8198826
5	0x3f985a4d	1.1902558
6	0x402c09ff	2.68811

sequential_6/batch_normalization_19/FusedBatchNormV31 f4 [7]
0	0xbf155465	-0.583319
1	0xbf205cbf	-0.6264152
2	0xbf44b2b4	-0.7683518
3	0xbf1e0814	-0.61731076
4	0xbf5a0310	-0.85160923
5	0xbf32cd81	-0.69844824
6	0xbf81e37c	-1.0147548

sequential_6/batch_normalization_20/FusedBatchNormV3 f4 [7]
0	0x400eb7d5	2.2299702
1	0x3fc235bd	1.517265
2	0x3f3081fa	0.6894833
3	0x40024558	2.0354824
4	0x3fa15f22	1.2607157
5	0x3faee530	1.3663692
6	0x3fea7029	1.8315479

sequential_6/batch_normalization_20/FusedBatchNormV31 f4 [7]
0	0xbf90e08c	-1.1318526
1	0xbf42a221	-0.7602864
2	0xbf028ae5	-0.50993186
3	0xbf7da580	-0.9908066
4	0xbf5757df	-0.84118456
5	0xbf30b04c	-0.6901901
6	0xbf1cbf58	-0.6122947

sequential_6/dense_12/MatMul i1 [64, 11830] scale=0.00032500218 zero_point=0
0	0x0f	0.0048750327
1	0x10	0.005200035
2	0xd6	-0.013650091
3	0xbe	-0.021450143
4	0x2d	0.014625099
5	0x0b	0.003575024
6	0xdc	-0.011700079
7	0x29	0.01332509
8	0x20	0.01040007
9	0x04	0.0013000087
10	0x05	0.001625011
11	0x09	0.0029250197
12	0x3d	0.019825133
13	0x11	0.005525037
14	0x06	0.0019500131
15	0x1a	0.008450056
16	0xcf	-0.015925108
17	0xbd	-0.021775147
18	0xef	-0.005525037
19	0x02	0.00065000437
20	0xde	-0.011050074
21	0x2f	0.015275103
22	0xcb	-0.017225116
23	0xe0	-0.01040007
24	0x10	0.005200035
25	0xc6	-0.018850127
26	0x04	0.0013000087
27	0xd8	-0.013000088
28	0xe4	-0.009100061
29	0xd0	-0.015600105
30	0xe7	-0.008125055
31	0x28	0.013000088
32	0xe0	-0.01040007
33	0xe9	-0.00747505
34	0xdd	-0.011375076
35	0xcf	-0.015925108
36	0x08	0.0026000175
37	0x46	0.022750152
38	0xfe	-0.00065000437
39	0xc3	-0.019825133
40	0xed	-0.0061750417
41	0x30	0.015600105
42	0x40	0.02080014
43	0xf1	-0.0048750327
44	0xfe	-0.00065000437
45	0xce	-0.01625011
46	0xf6	-0.003250022
47	0x35	0.017225116
48	0xdf	-0.010725072
49	0xdc	-0.011700079
50	0x20	0.01040007
51	0x26	0.012350083
52	0x33	0.016575111
53	0xd5	-0.013975094
54	0xd9	-0.012675085
55	0xe7	-0.008125055
56	0x2a	0.013650091
57	0x17	0.00747505
58	0x4c	0.024700167
59	0x03	0.00097500655
60	0xe1	-0.010075068
61	0x48	0.023400158
62	0xf1	-0.0048750327
63	0xe0	-0.01040007
64	0xfb	-0.001625011
65	0xe0	-0.01040007
66	0x2c	0.014300096
67	0xfd	-0.00097500655
68	0x3c	0.01950013
69	0x51	0.026325177
70	0x11	0.005525037
71	0xdd	-0.011375076
72	0x0d	0.004225028
73	0x1f	0.010075068
74	0x27	0.012675085
75	0x2b	0.013975094
76	0x26	0.012350083
77	0xd9	-0.012675085
78	0x32	0.01625011
79	0x14	0.006500044
80	0xd7	-0.01332509
81	0x3c	0.01950013
82	0xf5	-0.003575024
83	0x32	0.01625011
84	0x32	0.01625011
85	0x40	0.02080014
86	0xf6	-0.003250022
87	0xd1	-0.015275103
88	0xe5	-0.008775059
89	0xb7	-0.02372516
90	0x5a	0.029250197
91	0xea	-0.007150048
92	0xdb	-0.012025081
93	0xd2	-0.0149501
94	0x09	0.0029250197
95	0x59	0.028925193
96	0x3e	0.020150136
97	0xde	-0.011050074
98	0xf3	-0.004225028
99	0x11	0.005525037
100	0x3d	0.019825133
101	0x0e	0.0045500305
102	0x1c	0.009100061
103	0x37	0.01787512
104	0xdc	-0.011700079
105	0xe0	-0.01040007
106	0x2d	0.014625099
107	0x2f	0.015275103
108	0xfa	-0.0019500131
109	0xd7	-0.01332509
110	0xf9	-0.0022750152
111	0x0b	0.003575024
112	0x39	0.018525124
113	0xfa	-0.0019500131
114	0xd4	-0.014300096
115	0xc4	-0.01950013
116	0x03	0.00097500655
117	0xe7	-0.008125055
118	0xd0	-0.015600105
119	0x33	0.016575111
120	0xc3	-0.019825133
121	0x1a	0.008450056
122	0x06	0.0019500131
123	0x3e	0.020150136
124	0x3b	0.019175129
125	0xec	-0.006500044
126	0x13	0.0061750417
127	0x17	0.00747505
128	0xef	-0.005525037
129	0x54	0.027300183
130	0x1c	0.009100061
131	0x03	0.00097500655
132	0xe5	-0.008775059
133	0xd5	-0.013975094
134	0x31	0.015925108
135	0xfc	-0.0013000087
136	0x42	0.021450143
137	0x34	0.016900113
138	0x3e	0.020150136
139	0xfe	-0.00065000437
140	0xb8	-0.023400158
141	0xc7	-0.018525124
142	0xec	-0.006500044
143	0xfc	-0.0013000087
144	0xe7	-0.008125055
145	0x25	0.012025081
146	0xcc	-0.016900113
147	0xb4	-0.024700167
148	0x21	0.010725072
149	0xd6	-0.013650091
150	0xde	-0.011050074
151	0x4f	0.025675172
152	0x29	0.01332509
153	0x02	0.00065000437
154	0xd4	-0.014300096
155	0x1d	0.009425064
156	0x1d	0.009425064
157	0xef	-0.005525037
158	0xf2	-0.0045500305
159	0xeb	-0.0068250457
160	0x23	0.011375076
161	0x03	0.00097500655
162	0xb6	-0.024050161
163	0x0b	0.003575024
164	0x45	0.02242515
165	0x45	0.02242515
166	0xec	-0.006500044
167	0x1a	0.008450056
168	0xea	-0.007150048
169	0xa8	-0.028600192
170	0xf5	-0.003575024
171	0xb9	-0.023075156
172	0xe9	-0.00747505
173	0xea	-0.007150048
174	0x42	0.021450143
175	0xc3	-0.019825133
176	0xbb	-0.02242515
177	0xff	-0.00032500218
178	0xf9	-0.0022750152
179	0x12	0.0058500394
180	0x2c	0.014300096
181	0xd7	-0.01332509
182	0xe8	-0.0078000524
183	0x34	0.016900113
184	0x33	0.016575111
185	0x47	0.023075156
186	0xdd	-0.011375076
187	0xda	-0.012350083
188	0xd3	-0.014625099
189	0xed	-0.0061750417
190	0x2a	0.013650091
191	0x06	0.0019500131
192	0x60	0.03120021
193	0x37	0.01787512
194	0x06	0.0019500131
195	0xe0	-0.01040007
196	0x15	0.0068250457
197	0xff	-0.00032500218
198	0x45	0.02242515
199	0x1f	0.010075068
200	0x16	0.007150048
201	0xfb	-0.001625011
202	0xbe	-0.021450143
203	0xde	-0.011050074
204	0xbe	-0.021450143
205	0x0a	0.003250022
206	0x2e	0.0149501
207	0x24	0.011700079
208	0xcb	-0.017225116
209	0x0f	0.0048750327
210	0x13	0.0061750417
211	0xfd	-0.00097500655
212	0xe5	-0.008775059
213	0x0f	0.0048750327
214	0xd6	-0.013650091
215	0xec	-0.006500044
216	0x58	0.028600192
217	0x09	0.0029250197
218	0x2d	0.014625099
219	0x58	0.028600192
220	0xfd	-0.00097500655
221	0x38	0.018200122
222	0x11	0.005525037
223	0x09	0.0029250197
224	0x38	0.018200122
225	0xff	-0.00032500218
226	0x48	0.023400158
227	0x24	0.011700079
228	0xe1	-0.010075068
229	0xd5	-0.013975094
230	0x3c	0.01950013
231	0xbc	-0.022100149
232	0x3b	0.019175129
233	0x22	0.011050074
234	0xc6	-0.018850127
235	0x3e	0.020150136
236	0x55	0.027625186
237	0xde	-0.011050074
238	0xe9	-0.00747505
239	0xec	-0.006500044
240	0x40	0.02080014
241	0x2c	0.014300096
242	0x06	0.0019500131
243	0xd2	-0.0149501
244	0xfa	-0.0019500131
245	0xce	-0.01625011
246	0x18	0.0078000524
247	0xd2	-0.0149501
248	0xfb	-0.001625011
249	0x15	0.0068250457
250	0xef	-0.005525037
251	0x3c	0.01950013
252	0x3d	0.019825133
253	0x11	0.005525037
254	0x12	0.0058500394
255	0xf0	-0.005200035
