saved_model/quantized_models/layers5/trial2/paramcount325395.tflite (tflite, 337032 bytes, 24 tensors)

sequential_2/dense_5/MatMul f4 [7, 64]
000000 e0 a3 93 be 24 0d 2c bd 4e a7 f8 bd bc 0d 8c be
       -0.28835964 -0.04200472 -0.12141286 -0.27354228
000010 84 5b 75 be 2f f3 c7 3d 67 88 2a 3e 6e fc 38 3e
       -0.23960692 0.097631805 0.16653596 0.18065044
000020 b4 d3 43 bb 51 8d 60 3e 84 40 66 3e c0 f2 42 3d
       -0.0029880824 0.21928908 0.22485548 0.047594786
000030 e6 68 2b be 44 1e 36 3e 6f 9b 46 be 79 8c 26 be
       -0.16739234 0.17784983 -0.1939523 -0.16264524
000040 a9 b3 65 3e 87 f2 13 3e f2 60 7f 3d e2 96 7a 3d
       0.22431816 0.14447986 0.062348314 0.06117905
000050 d7 95 ed bd 5d ea fb bb 4b 10 37 3e 53 4b 9b 3d
       -0.11600845 -0.0076878504 0.17877309 0.07582726
000060 dd e4 f1 bc 63 ca 92 bd 26 5e af 3d e0 d2 3c 3e
       -0.029528076 -0.071675085 0.08562879 0.18439817
000070 a3 40 2d 3e dc c6 02 3e 85 b9 a4 bb d8 ef 7b be
       0.16919188 0.12771171 -0.0050269985 -0.24603212
000080 2a b2 8e 3e 9e 87 2e be bc 6e 8a be 0d a2 c8 3d
       0.27870303 -0.17043921 -0.2703761 0.09796534
000090 b2 3f 91 be 92 62 90 be 50 17 0a be d1 01 a4 3d
       -0.28368908 -0.28200203 -0.13485456 0.08008159
0000a0 ee 4f 69 3e b3 2b 71 be 7f e5 f4 3c 48 b8 06 be
       0.22784397 -0.23551826 0.029894589 -0.13156235
0000b0 f5 60 df 3d 92 43 2d 3d 83 8a 5c bd 7f 7d f7 bd
       0.10907165 0.04230077 -0.053843033 -0.12084483
0000c0 a4 5a d7 3d 2f 89 22 3d a0 17 23 be c6 f1 78 bd
       0.10515335 0.03968161 -0.15926981 -0.060777448
0000d0 c6 da 61 be 4e b5 5b 3d 8f 1d 6c be fe 0f e1 3c
       -0.22056112 0.053639702 -0.2305815 0.027473446
0000e0 1d 5f 90 3d 06 0a d1 bd 56 10 fc bd b7 ac 6b be
       0.070493914 -0.1020699 -0.12307803 -0.23015104
0000f0 50 0a 81 3e 47 74 11 3e be 26 09 3e 8e 4e 93 bd
       0.2520318 0.14204513 0.13393685 -0.071927175
000100 1a 25 23 be 96 93 40 3e 5b d6 2a bd 44 30 1d 3d
       -0.15932122 0.188063 -0.04170833 0.038376108
000110 82 0e ee bd 4c ef 2b 3e d9 31 0d 3e 7b 19 0c 3d
       -0.11623861 0.16790503 0.13788547 0.034203988
000120 2e 86 81 be 9e 51 9a be eb 90 36 bb 42 79 01 bd
       -0.25297683 -0.30140394 -0.0027857374 -0.03160978
000130 47 86 59 3e a8 2c 09 bd af 37 fe 3d 68 2b 12 3e
       0.21242629 -0.033489853 0.124129646 0.1427437
000140 0a aa 52 bb ae 1a 10 3e 14 f7 c8 3d b9 72 50 3e
       -0.0032144808 0.14072677 0.098127514 0.20356263
000150 fa 93 0f be 58 91 84 3e a0 72 3f be b4 af 75 be
       -0.14021292 0.25892138 -0.1869607 -0.23992807
000160 c9 0a 0c 3e d4 60 52 3e 78 02 85 3e 07 bd 03 3e
       0.13675989 0.2054475 0.25978446 0.12865077
000170 47 a6 d6 3d 6c ba 59 3e d3 f7 63 3d b0 d4 8c be
       0.10480934 0.2126252 0.055656265 -0.27506018
000180 ae 7f 17 bb 8f c3 96 bd d2 68 c2 3d 2f 0e 18 bd
       -0.0023116875 -0.073615186 0.09492649 -0.0371229
000190 ed a9 3d 3e be a4 28 3e 12 46 51 3d 87 6d b2 bc
       0.18521853 0.16469094 0.051092215 -0.021780742
0001a0 52 5d 5e 3d 73 4c 20 3e 0f ef 65 be b8 eb 43 be
       0.054288216 0.15654163 -0.22454475 -0.19132888
0001b0 c6 e2 7e 3e 6e d3 94 3e bd b3 a1 3d 4b 8d b0 bd
       0.24891195 0.29067558 0.078956105 -0.086206995
0001c0 6f fb 06 be b9 f4 e4 bd db 5c 6c 3e ba cc 8c bd
       -0.13181852 -0.1117949 0.23082297 -0.06874986
0001d0 65 96 b9 bd 06 92 0e be 2f c8 84 be d4 21 69 3e
       -0.090618886 -0.13922891 -0.25933978 0.2276681
0001e0 2e 27 89 3e 24 10 2b bd 32 93 d6 bc 40 47 0b 3d
       0.26787704 -0.04176344 -0.026193235 0.034003496
0001f0 c5 01 2b be cf 9b 00 bd b8 67 82 3e 83 47 83 3d
       -0.16699894 -0.03139859 0.25469756 0.06410124
000200 83 e3 62 bc 8c ed 8a bd 51 cd a4 3d a7 8f 85 be
       -0.013848188 -0.0678359 0.080469735 -0.2608616
000210 91 8b db 3d 20 84 4c be 9a f7 01 be d4 a0 0c 3e
       0.107199796 -0.19972277 -0.12692109 0.13733226
000220 3f 2a 85 3e 27 c4 3d be 15 7d a8 bd 58 04 7a 3e
       0.26008794 -0.18531857 -0.082269825 0.2441572
000230 92 d6 81 bd e9 49 00 be 0f 9b 90 3e 56 c3 3b be
       -0.06339754 -0.12528194 0.282433 -0.18336233
000240 23 8a eb bd f6 5f 7e bd 68 dd 33 3e f8 8b 8c 3c
       -0.11500957 -0.062103234 0.17564929 0.017156586
000250 10 56 ef bd a3 e2 b0 3d 83 11 84 3e e9 0a 7f 3d
       -0.11686337 0.086369775 0.2579461 0.062266264
000260 f5 47 4f 3e e8 c0 97 3d a6 16 07 be 66 41 88 3d
       0.20242293 0.07409841 -0.13192233 0.06653099
000270 2b d5 ee bd 75 9d 0c 3c 8e 15 28 be 7b 93 83 3e
       -0.11661752 0.008582463 -0.16414472 0.25698456
000280 36 3e 8e bd 7a 32 21 be 59 10 84 be 0a 52 53 be
       -0.069454595 -0.15741912 -0.25793722 -0.20636764
000290 8e ec b2 bd 74 fd a1 bd d5 e6 7f be 0e b0 1a bd
       -0.087365255 -0.079096705 -0.24990399 -0.037765555
0002a0 79 08 ac 3d ea 74 e5 3c 3c 92 e6 bd 26 b4 6c be
       0.084000535 0.02800985 -0.11258361 -0.23115596
0002b0 40 eb 67 be 1f 3c 13 3e 84 9f 09 be 36 9c 79 be
       -0.22648335 0.14378403 -0.13439757 -0.24375996
0002c0 3e 29 d4 bd 66 92 32 3e 92 cf fc 3c e4 15 e7 bb
       -0.10359429 0.17438659 0.030860696 -0.00705217
0002d0 af 91 37 be b3 78 11 be bb 84 06 3e 69 c1 fd 3d
       -0.17926668 -0.142062 0.1313657 0.12390406
0002e0 69 05 f3 bd 47 f4 45 be e9 d2 95 3e d4 7e f5 bc
       -0.11866266 -0.19331466 0.29262474 -0.029967703
0002f0 c6 5f 21 3e 2c 9b 1e 3e 07 0f fe bd 01 70 95 3c
       0.15759191 0.15488881 -0.1240521 0.018241884
000300 17 57 2e 3e fc d7 83 be c9 c2 8e 3e 6f 74 2a 3e
       0.1702541 -0.2575072 0.27882984 0.16645978
000310 31 53 a7 3b 1a 9c 0b be 9e 20 c3 3d b4 f5 9d bd
       0.0051063527 -0.13633767 0.095277056 -0.0771288
000320 18 bf 1c 3e 3b 31 8d 3e 62 f7 a3 3d 1a 66 28 3e
       0.15307271 0.27576622 0.08006169 0.16445199
000330 e6 6f 17 3e 2e 10 6b be 32 66 8b be 5a 3b a9 3d
       0.1478878 -0.22955391 -0.27226406 0.082632735
000340 51 1e ec bd 03 7e 1b 3e cc 70 bc bd 5a ce a1 bd
       -0.1152922 0.15184788 -0.09201202 -0.079006866
000350 6e 6e a1 bd 16 a2 88 bd 21 a9 83 3e c0 b6 53 3e
       -0.07882391 -0.066715404 0.25714973 0.20675182
000360 52 62 04 be b3 4c 4c 3e d3 7b 8f be fa 11 53 3d
       -0.12928131 0.19951133 -0.28024158 0.051530816
000370 60 e4 1c bd 9b ce 50 3d 6c 6f 83 3e 15 10 7f be
       -0.038303733 0.050978284 0.25670946 -0.24908479
000380 7c 81 29 be 66 1c ba bd 0f 6a 52 3c 5f fd 1c 3e
       -0.165533 -0.09087448 0.012842669 0.15331028
000390 f9 c1 b9 3c 26 e9 4b be af a8 de 3d bf a1 42 3d
       0.022675501 -0.19913158 0.108720176 0.047517534
0003a0 ba 1b c4 bd be f3 01 be e4 69 a6 bb bf 0d 49 be
       -0.09575601 -0.12690637 -0.005078541 -0.1963415
0003b0 da e4 8b be 43 f0 69 3e 9a 5a f5 3b b5 98 6b 3e
       -0.27323037 0.22845559 0.007487607 0.23007472
0003c0 ed 1b 87 3e b8 c3 13 be 4b 2e 1b be 19 39 bb bc
       0.26388493 -0.1443013 -0.15154378 -0.022854375
0003d0 cd 4a 6d bc a1 2d 77 be d3 c7 42 be 26 9a 21 be
       -0.014483166 -0.241385 -0.1902154 -0.15781459
0003e0 7b 9a a9 3d 74 19 6f 3d e1 8a 8e 3e 72 99 1b be
       0.08281418 0.058373883 0.2784033 -0.15195253
0003f0 49 de 0b 3e 6c e9 05 3d e4 e7 71 be 94 06 c3 3d
       0.13659014 0.03269331 -0.23623616 0.09522739

sequential_2/conv2d_10/BiasAdd/ReadVariableOp f4 [3]
000000 6e 70 24 3c 62 53 aa bc e2 de 3a bc
       0.010036571 -0.020791713 -0.0114056785

sequential_2/conv2d_11/BiasAdd/ReadVariableOp f4 [3]
000000 0a 7f 1d bb b2 4b 86 3b 8b 80 60 bb
       -0.002403202 0.004098379 -0.0034256305

sequential_2/conv2d_12/BiasAdd/ReadVariableOp f4 [3]
000000 60 2d 10 3c dd e6 41 3c e4 a5 d3 3b
       0.008799881 0.011834827 0.0064589847

sequential_2/conv2d_13/BiasAdd/ReadVariableOp f4 [3]
000000 ef c0 ab bb 66 3e c4 3b e7 35 be ba
       -0.0052415053 0.005988884 -0.0014511914

sequential_2/conv2d_14/BiasAdd/ReadVariableOp f4 [3]
000000 c8 64 b0 bc ec 6b 75 3b e3 60 1b 3c
       -0.021532431 0.003744836 0.009483549

sequential_2/conv2d_10/Conv2D f4 [3, 3, 3, 1]
000000 b6 c7 63 bc d4 87 1b 3e 0e dd 2a 3d 60 5a 44 bd
       -0.013902595 0.15188533 0.04171472 -0.04793775
000010 de db 5f bc 15 d1 4c be 88 2a 1b be 31 02 2a be
       -0.01366326 -0.20001633 -0.15152943 -0.16602398
000020 0a 04 87 be a0 8e a9 be b5 68 cf be 29 54 87 3e
       -0.2637027 -0.33116627 -0.40509573 0.26431397
000030 cf cb 7b 3e cf 31 76 be 42 ea d8 b9 71 61 b6 be
       0.24589466 -0.24042438 -0.00041373266 -0.35621217
000040 de 3b d0 3d 23 5e 81 3e a3 06 9f bd 72 dc b7 3e
       0.10167669 0.25267133 -0.07764938 0.35910374
000050 19 08 f8 3d 34 2d 0a be 66 a4 82 3e 83 77 6a 3d
       0.121109195 -0.13493806 0.2551605 0.05724288
000060 b9 5c fe 3d c4 1d 4e bd 55 34 6d be
       0.12420029 -0.050321355 -0.23164494

sequential_2/conv2d_11/Conv2D f4 [3, 3, 3, 3]
000000 7f e9 7b bd a8 36 2a 3e 5f 98 6e 3e 67 71 ed bd
       -0.061501976 0.16622412 0.23300312 -0.115938954
000010 10 7a 7b 3d 8e 6f a5 be a7 61 7f 3d bf 5a 81 be
       0.061395705 -0.32311672 0.062348988 -0.25264546
000020 8c 97 db 3c 5b c1 82 be c9 99 52 be cb 10 92 3e
       0.026805662 -0.25538144 -0.20566477 0.28528437
000030 3b 34 3a 3d 65 21 85 be 27 d1 98 3e a6 a2 38 bd
       0.045459967 -0.2600204 0.2984707 -0.04507699
000040 2a 63 15 bd e2 2c 6e 3c 15 97 8f be 65 a4 8f 3e
       -0.036471523 0.014537068 -0.28044954 0.2805511
000050 24 c8 7a be 4f 71 52 3e a4 99 bf 3a 63 ad 56 be
       -0.2449041 0.20551036 0.0014617932 -0.2096458
000060 39 11 32 be 05 6a 9d 3e 2c 44 82 3e ee e7 26 3e
       -0.17389382 0.3074495 0.25442636 0.16299412
000070 51 0a 46 be 5b bf a0 be e8 f4 e1 bc 9b 62 8c 3d
       -0.19339873 -0.31395993 -0.0275826 0.06854745
000080 98 23 29 3e 14 e3 32 be bc aa 54 3d da 24 77 3e
       0.16517484 -0.17469436 0.051920637 0.24135152
000090 f1 0d 9c be 9b f0 a8 3b 8a 9b 9b be 1c ea 3b be
       -0.30479386 0.0051556355 -0.30392104 -0.18351024
0000a0 e4 74 67 3e aa cd 08 be e4 31 1d 3e 7a a8 02 3e
       0.22603184 -0.13359705 0.15351063 0.12759581
0000b0 ca de 4f be f2 c9 4d be 7d b2 5e be 64 75 a4 3e
       -0.20299831 -0.20096567 -0.21747775 0.32120812
0000c0 46 18 84 be 40 ed a1 3e 95 98 d4 bc 96 a2 3a 3e
       -0.2579977 0.3162632 -0.025951663 0.18226084
0000d0 a1 28 6c 3e 23 a7 be bd 47 a3 94 3e 38 55 2e 3d
       0.23062374 -0.093092225 0.2903082 0.04256174
0000e0 53 58 02 be 20 e5 9f 3e 33 82 90 3e fe 9f 19 be
       -0.12729006 0.31229496 0.28224334 -0.15002438
0000f0 72 22 a1 be 68 1a 6c be 94 9e 81 3d d7 15 64 bd
       -0.31471592 -0.23056948 0.063290745 -0.05568489
000100 6c e5 28 bd 81 dc 91 3e da 00 28 be bd 35 fb bb
       -0.04123442 0.28488544 -0.16406575 -0.007666318
000110 77 b0 04 3e 76 3b cd 3d 95 14 96 bd 5c ef 74 3c
       0.12957941 0.10021107 -0.073281445 0.014949646
000120 89 0e ae bd d3 f6 93 be eb 8a 72 be f3 98 c8 bb
       -0.08498866 -0.2889925 -0.23685805 -0.0061217486
000130 01 f4 b9 bd af a7 0a be 7b dc 8c be 65 f6 0b be
       -0.09079743 -0.13540529 -0.27511963 -0.13668211
000140 1b f6 4b be
       -0.199181

sequential_2/conv2d_12/Conv2D f4 [3, 3, 3, 3]
000000 3f c9 2f be 95 aa 00 be 6e d5 f3 3d 88 51 c9 3c
       -0.17166613 -0.12565072 0.11905943 0.02457501
000010 04 0d 2f be 5c fa 40 be aa a2 46 3e eb 71 aa be
       -0.17094809 -0.18845505 0.19397989 -0.33290038
000020 b0 a3 46 3e 72 a2 80 be 39 d8 e7 bc 92 2f ab 3e
       0.1939838 -0.25123936 -0.028301345 0.3343473
000030 14 a8 b0 bd 35 a7 63 3e e8 95 70 3e ec 6f 24 be
       -0.08625808 0.22231753 0.23494685 -0.1605832
000040 4d 54 c3 3d 4b 0d 87 bd 49 39 65 bd 17 df ab 3e
       0.095375635 -0.06594332 -0.055962835 0.33568642
000050 e3 d2 ac bd 89 4e 0a be a8 3d 9c be 62 f6 82 be
       -0.08438661 -0.13506521 -0.3051579 -0.255786
000060 7a 7d 58 3e 5b dd 4b 3d 37 89 63 be 1d 24 01 3e
       0.21141616 0.049771648 -0.22220312 0.12611432
000070 ec 06 3b be c8 0c 4f be bd 26 5c be ad 76 f0 3c
       -0.18264359 -0.2021972 -0.21499152 0.029353464
000080 60 80 77 be df 40 f1 3c 62 16 49 3e f8 8d 07 3d
       -0.24170065 0.029449878 0.19637445 0.033094376
000090 5a 38 1f 3e c7 48 19 be e0 04 b9 3d ae ac c4 3d
       0.1554884 -0.14969169 0.09034133 0.096032485
0000a0 3c e5 15 3e e6 c7 8b bd 50 31 e8 bc 4d 35 3f 3d
       0.14638227 -0.06825237 -0.028343827 0.04668169
0000b0 f3 3e 92 be 56 e4 65 3e 44 39 a0 be ef 54 ef 3d
       -0.2856365 0.22450384 -0.3129369 0.11686122
0000c0 73 74 2d 3e 5e 77 ed 3d 4a f1 b4 ba b1 0e 76 3d
       0.16938953 0.11595033 -0.001380482 0.060072605
0000d0 e4 05 d9 3d 1f 40 6e 3d 25 f1 15 bd f4 ee 28 3e
       0.10596827 0.05816662 -0.036606926 0.16497403
0000e0 0a 3b 71 be 75 74 84 3d 09 35 b5 3b b2 e5 35 3e
       -0.23557678 0.06467525 0.005530004 0.17763403
0000f0 30 e6 82 be d7 8e fa 3d 7e 45 52 3e e7 9b 51 be
       -0.25566244 0.12234276 0.20534322 -0.20469628
000100 2b 58 6a 3e 80 14 a9 be 1f fc a3 bd 78 a3 21 be
       0.22885196 -0.33023453 -0.08007073 -0.15785015
000110 21 05 58 3e 04 f5 65 3e 2f 83 8d 3e 1c 5a 9b bd
       0.21095707 0.22456747 0.27639148 -0.075855464
000120 97 75 1a be 9c c7 9a be 8b bf 49 be 27 06 5f bd
       -0.1508392 -0.30230415 -0.19701974 -0.054449227
000130 59 21 9f 3d 85 d5 94 be ce 4e ca 3d 95 1d 1f 3e
       0.077700324 -0.29069152 0.09878312 0.15538628
000140 04 88 50 be
       -0.20364386

sequential_2/conv2d_13/Conv2D f4 [3, 3, 3, 3]
000000 57 43 9c 3e f9 10 4e 3e 14 9e 07 3d 0d c3 5c 3d
       0.30520126 0.20123662 0.03310974 0.053896952
000010 b2 50 77 3e aa 76 a8 be 3a 4a 2c 3e 7b c0 b5 3d
       0.24151877 -0.32903033 0.1682519 0.08874603
000020 10 20 88 3b f4 17 83 be 9c 36 62 bc 38 7e 88 3d
       0.004154213 -0.25604212 -0.013806965 0.06664699
000030 71 78 94 be 1e 5b be 3d 17 5e 38 be 7d 2c 8c 3e
       -0.2899814 0.09294723 -0.18004642 0.27377692
000040 19 41 78 be ed 10 a8 3e 4a 8f ac 3e 4d 7a 8b be
       -0.24243583 0.32825413 0.3370307 -0.27241746
000050 5b 0b 6b be 81 82 79 3e 24 2f 98 be ca c7 84 be
       -0.2295355 0.2436619 -0.29723465 -0.25933677
000060 c3 31 f0 3d d6 a0 1e bd e7 a1 6c bd ce e9 8b 3e
       0.11728241 -0.038727604 -0.05777159 0.27326816
000070 9d 3c 2e bc 25 d5 ca bd db b2 6a 3e bf 68 9e be
       -0.0106345685 -0.09903935 0.2291979 -0.3093929
000080 4e 22 9a 3e eb 93 4d 3e c4 a8 0e 3b d2 86 27 be
       0.30104297 0.20075957 0.0021768073 -0.16360024
000090 4b 73 8f be a4 f5 ba bd c9 75 1c ba 14 1c 99 3c
       -0.2801765 -0.091288835 -0.0005968479 0.018690147
0000a0 fa ce a1 be 91 6e 93 be 86 65 c6 3d d7 33 9f be
       -0.31603223 -0.28795293 0.09687333 -0.31094238
0000b0 11 62 8b be 6d c7 b4 bd 2a 67 30 be be 6f 2a be
       -0.27223256 -0.088271 -0.17226854 -0.16644189
0000c0 2a d6 24 3d ae 79 46 be a6 df ff 3d 77 8f 5f 3e
       0.040243305 -0.19382355 0.124938294 0.21832071
0000d0 c1 3d 62 3e 17 de 89 3e 10 23 80 be cd 2f 8c 3d
       0.2209387 0.26927254 -0.2502675 0.06845055
0000e0 a0 80 2a be 1e 34 09 3e 39 d1 37 be e0 fd 9e 3e
       -0.16650629 0.13398787 -0.17950906 0.31053066
0000f0 44 cc a0 3e 5d 2d ee 3d f6 26 9f be 99 b6 33 be
       0.31405842 0.11629746 -0.31084412 -0.17550124
000100 e8 2d 82 be a8 5b 18 3e 16 4f 1a bd 34 b0 8f 3e
       -0.2542565 0.14878714 -0.03767308 0.2806412
000110 4e 1f 65 bc 77 12 22 3e ed 96 a4 3e 60 d3 71 3e
       -0.013984514 0.15827356 0.32146397 0.2361579
000120 19 0c 72 bc 16 35 1a 3d 25 67 72 3e 3e 3c c5 3d
       -0.014773392 0.037648283 0.23672159 0.09630631
000130 f1 f7 96 3e 85 2b 9c bd b0 81 d2 3d af 50 80 bd
       0.2948604 -0.07625488 0.10278642 -0.06265389
000140 fc e0 c1 3d
       0.094667405

sequential_2/conv2d_14/Conv2D f4 [3, 3, 3, 3]
000000 96 4d ad be 6a 0f 91 3d 78 83 16 3e 17 f0 11 3e
       -0.33848256 0.07083018 0.14698589 0.14251743
000010 49 9a 3b 3e f3 e3 84 be 14 61 a6 be 2c 19 b5 bd
       0.18320574 -0.2595516 -0.3249594 -0.08842692
000020 29 0f 8a bd 79 93 06 3e 13 33 09 3e 81 1a 77 3e
       -0.06741173 0.13142194 0.1339839 0.24131204
000030 0f 2d 17 39 c9 15 a8 be 29 b0 57 bd 57 9d 8e 3d
       0.00014417268 -0.3282912 -0.052658234 0.06963604
000040 14 7c a2 3c 81 70 df bc 36 2c c5 bd b0 aa 99 3e
       0.019834556 -0.027275326 -0.09627573 0.30013037
000050 3b 72 34 be 30 1e 75 3e c0 85 e6 bd 4a 94 72 3e
       -0.176217 0.23937297 -0.112559795 0.2368938
000060 90 fc 8b be ae 5e 85 3d 8b 02 b6 bb 69 7c 9e be
       -0.27341127 0.06512199 -0.0055545024 -0.30954292
000070 ad 61 4c 3d bf 0a 88 be 1c ac 5e 3d 10 2d 58 be
       0.04989784 -0.265707 0.054363355 -0.2111094
000080 88 4f 93 be eb 0b 9a 3c 15 ae fb 3d ee c8 4b be
       -0.28771615 0.018804511 0.12289063 -0.19900867
000090 42 c6 70 3e 24 2b 52 bd 81 53 42 bd 8b 54 40 3e
       0.2351313 -0.051310673 -0.047442917 0.1878225
0000a0 bf e9 a1 bd 71 80 7b 3e ee 3c 72 3e 78 bc 41 3e
       -0.07905912 0.24560715 0.23656055 0.18919551
0000b0 4d 4f 59 3e 58 6e 8b 3d a0 e0 d6 3c 86 4e 76 be
       0.21221657 0.06808156 0.026230156 -0.24053392
0000c0 d8 f2 a9 bd 35 ec 59 bd 69 34 56 bd f2 0e d4 bd
       -0.08298272 -0.05320378 -0.052296076 -0.10354413
0000d0 f0 bc a3 3e 06 f9 a3 3e d3 9a 8e be 2e 6e 83 3e
       0.31980085 0.32025927 -0.27852497 0.25669998
0000e0 b0 ad de bd 8f 73 a0 bd a9 39 08 bd 72 7f 53 be
       -0.10872972 -0.07834541 -0.033258114 -0.20654085
0000f0 b4 41 88 3e bc c0 8f be 90 02 9a 3e 14 b4 0c 3e
       0.26612628 -0.28076732 0.3008008 0.1374057
000100 6c 6b 40 3e b5 04 d1 bd 94 24 c0 3d bf d2 3b 3e
       0.18790978 -0.10205976 0.09381977 0.18342112
000110 62 fc 57 bd d9 1c 07 be 9a ad 23 3e 8a 56 d6 bc
       -0.052730925 -0.13194598 0.15984192 -0.026164312
000120 0b d6 0b bd e0 82 8a be 9f 2f 24 3d 1c 07 38 be
       -0.034139674 -0.27052975 0.040084478 -0.17971462
000130 8c 6b d5 3d 44 19 60 3e 52 b4 0c 3e 20 b2 6b be
       0.104209036 0.21884638 0.13740662 -0.23017168
000140 67 5c 1d bd
       -0.0384182

sequential_2/dense_5/BiasAdd/ReadVariableOp f4 [7]
000000 98 58 d4 bc cc 84 2a ba 28 48 ab 3b 5d e5 c9 3b
       -0.025921151 -0.00065047736 0.0052271076 0.0061613754
000010 72 f1 b6 39 25 bf de bb 7a ae 27 bb
       0.00034893636 -0.0067976885 -0.0025586174

sequential_2/dense_4/BiasAdd/ReadVariableOp f4 [64]
000000 99 8a 2d 3b bc 23 da bb c5 1d 0f 3b 56 ab 6b 3a
       0.0026480316 -0.006657092 0.0021837812 0.00089900696
000010 1a 7a f8 ba c5 81 fe bb 5b 2b 47 3a b3 d0 93 bb
       -0.0018957288 -0.0077669346 0.0007597708 -0.004510963
000020 ef c4 e3 3a 33 ad 59 3b c7 a9 70 bb 15 90 1b 3b
       0.0017377416 0.0033214807 -0.003672229 0.0023737003
000030 9a f5 b1 bb e0 de ec bb 9d 5d 39 3a 49 ec e9 bb
       -0.0054308893 -0.007228717 0.00070711394 -0.007138763
000040 a0 f2 47 bc 5a cf 8e 39 32 45 68 bb 26 67 89 bb
       -0.012203842 0.0002723884 -0.0035441634 -0.0041932045
000050 13 1b 69 bb b2 eb c8 b9 36 64 9e bb dd 6b 10 bb
       -0.0035569116 -0.0003832258 -0.0048337234 -0.0022036948
000060 3d 90 68 3b 57 1d 73 bb 73 0f eb bb 86 1f b1 bb
       0.0035486363 -0.0037096345 -0.0071734725 -0.005405369
000070 7b 73 1d bc 6e 39 aa bb 11 39 b1 3a 3a dc d2 bb
       -0.009610052 -0.0051948344 0.0013521035 -0.0064349445
000080 61 27 02 bc a7 54 99 bb 2a 5b 7b 3a 56 87 1a 3a
       -0.007943959 -0.004679281 0.00095884746 0.00058948004
000090 60 44 83 bb be 25 a3 ba 18 e7 a8 b8 da b0 f1 39
       -0.0040059537 -0.0012447161 -8.053909e-05 0.00046098867
0000a0 e9 e6 1e bb 69 a0 84 bb aa b8 94 b8 db d5 a9 bb
       -0.002424652 -0.0040474427 -7.091586e-05 -0.0051829643
0000b0 17 3f dc bb 23 2e 8e 3b 85 2d d7 bb 9a 34 ec bb
       -0.006721388 0.004338996 -0.0065667056 -0.007208419
0000c0 6d 9f 1b bb 12 5e e5 ba ad ac b8 3a f5 55 85 bb
       -0.0023746148 -0.0017499349 0.0014089547 -0.004069085
0000d0 c3 c4 57 bb 30 5b f5 bb f4 ec 2f bb 48 cb a0 3a
       -0.0032923676 -0.007487677 -0.0026844116 0.0012267614
0000e0 c2 80 c6 bb d4 5b 22 3b 71 63 d6 b9 ea 99 35 bb
       -0.0060578296 0.0024773972 -0.0004089135 -0.0027710148
0000f0 f0 75 e8 ba 7a 66 78 3a 52 57 88 ba bb 99 c4 3b
       -0.0017735343 0.00094757194 -0.0010402 0.0059997714

sequential_2/batch_normalization_10/FusedBatchNormV3 f4 [3]
000000 a4 5e c8 3c a8 59 16 3c fd 30 b5 3c
       0.02445919 0.009176649 0.022118086

sequential_2/batch_normalization_10/FusedBatchNormV31 f4 [3]
000000 ea 80 2b bf 48 fa 0f bf 50 93 59 bf
       -0.6699358 -0.56241274 -0.84990406

sequential_2/batch_normalization_11/FusedBatchNormV3 f4 [3]
000000 f3 0b a1 40 6f 87 de 3f f5 d1 65 40
       5.0327086 1.7385081 3.5909398

sequential_2/batch_normalization_11/FusedBatchNormV31 f4 [3]
000000 b6 31 55 bf 7b fd 4a bf 1b d3 f2 bf
       -0.8327898 -0.7929303 -1.8970674

sequential_2/batch_normalization_12/FusedBatchNormV3 f4 [3]
000000 a7 75 f8 3f 9a 37 8a 3f 77 e3 a4 3f
       1.9410905 1.0798218 1.2881917

sequential_2/batch_normalization_12/FusedBatchNormV31 f4 [3]
000000 de 22 54 bf 14 92 12 bf fd ce 3a bf
       -0.82865703 -0.5725415 -0.7297209

sequential_2/batch_normalization_13/FusedBatchNormV3 f4 [3]
000000 0d ed 0e 40 29 71 ee 3f 80 71 61 3f
       2.2332184 1.8628284 0.8806381

sequential_2/batch_normalization_13/FusedBatchNormV31 f4 [3]
000000 0e 32 58 bf 89 72 85 bf 2d 50 13 bf
       -0.8445138 -1.0425578 -0.57544214

sequential_2/batch_normalization_14/FusedBatchNormV3 f4 [3]
000000 d7 0f 17 40 b0 20 d7 3f c6 61 81 40
       2.3603418 1.680685 4.043185

sequential_2/batch_normalization_14/FusedBatchNormV31 f4 [3]
000000 40 c2 50 bf b4 5e 46 bf 7e 25 58 bf
       -0.815464 -0.77488256 -0.8443221

sequential_2/dense_4/MatMul i1 [64, 5070] scale=0.0004892494 zero_point=0
000000 2f d6 e9 d1 0f fc 07 33 cf b1 db e0 38 f5 2c fd
       0.022994723 -0.020548476 -0.011252737 -0.022994723 0.0073387413 -0.0019569977 0.003424746 0.02495172 -0.023973221 -0.038650703 -0.018102229 -0.015655981 0.027397968 -0.0053817434 0.021526974 -0.0014677483
000010 2b 0c 3e 16 e5 18 ea fd 26 3b 13 39 0b 1d de c3
       0.021037726 0.0058709932 0.030333463 0.010763487 -0.013209734 0.0117419865 -0.010763487 -0.0014677483 0.018591478 0.028865715 0.009295739 0.027887218 0.0053817434 0.014188233 -0.016634481 -0.029844215
000020 0e f2 d7 f9 0c 1a 1c d5 0d c7 40 2f 26 ad b7 17
       0.006849492 -0.006849492 -0.020059226 -0.003424746 0.0058709932 0.012720485 0.013698984 -0.021037726 0.0063602426 -0.027887218 0.031311963 0.022994723 0.018591478 -0.040607702 -0.035715207 0.011252737
000030 16 02 40 e7 1f cd f5 0c 3b 38 03 b4 db 33 09 2f
       0.010763487 0.0009784988 0.031311963 -0.012231235 0.015166732 -0.02495172 -0.0053817434 0.0058709932 0.028865715 0.027397968 0.0014677483 -0.037182957 -0.018102229 0.02495172 0.0044032447 0.022994723
000040 0d ba 0d 03 b6 d8 ed 3b fd 09 0c c7 14 de e1 13
       0.0063602426 -0.034247458 0.0063602426 0.0014677483 -0.036204457 -0.019569976 -0.009295739 0.028865715 -0.0014677483 0.0044032447 0.0058709932 -0.027887218 0.009784988 -0.016634481 -0.015166732 0.009295739
000050 1e de ed dc ac 0e e3 c2 d0 30 f4 f0 bd cb fb fa
       0.014677483 -0.016634481 -0.009295739 -0.017612979 -0.04109695 0.006849492 -0.014188233 -0.030333463 -0.023483973 0.023483973 -0.0058709932 -0.007827991 -0.032779712 -0.025930218 -0.002446247 -0.0029354966
000060 b4 cc c6 28 e9 20 d1 f3 b7 35 df f5 15 15 e9 03
       -0.037182957 -0.02544097 -0.028376466 0.019569976 -0.011252737 0.015655981 -0.022994723 -0.0063602426 -0.035715207 0.025930218 -0.016145231 -0.0053817434 0.010274238 0.010274238 -0.011252737 0.0014677483
000070 c4 c8 fc f7 da d9 e0 06 f7 19 0a 0f 43 fe 27 ed
       -0.029354965 -0.027397968 -0.0019569977 -0.0044032447 -0.018591478 -0.019080726 -0.015655981 0.0029354966 -0.0044032447 0.012231235 0.004892494 0.0073387413 0.032779712 -0.0009784988 0.019080726 -0.009295739
000080 17 29 1e 11 b4 ea 1f d2 19 e1 28 24 09 eb cf f4
       0.011252737 0.020059226 0.014677483 0.0083172405 -0.037182957 -0.010763487 0.015166732 -0.022505473 0.012231235 -0.015166732 0.019569976 0.017612979 0.0044032447 -0.010274238 -0.023973221 -0.0058709932
000090 be 0e c0 d3 26 c5 30 e0 10 2f 29 bc dc b8 f7 c9
       -0.032290462 0.006849492 -0.031311963 -0.022016224 0.018591478 -0.028865715 0.023483973 -0.015655981 0.007827991 0.022994723 0.020059226 -0.033268962 -0.017612979 -0.035225958 -0.0044032447 -0.026908718
0000a0 e3 24 18 16 17 c4 4d ee 08 db 15 e0 eb bb fd 1f
       -0.014188233 0.017612979 0.0117419865 0.010763487 0.011252737 -0.029354965 0.037672207 -0.008806489 0.0039139953 -0.018102229 0.010274238 -0.015655981 -0.010274238 -0.03375821 -0.0014677483 0.015166732
0000b0 db bf cd e4 f1 d0 3e 25 3a c3 35 3a b6 00 27 33
       -0.018102229 -0.031801213 -0.02495172 -0.013698984 -0.0073387413 -0.023483973 0.030333463 0.018102229 0.028376466 -0.029844215 0.025930218 0.028376466 -0.036204457 0.0 0.019080726 0.02495172
0000c0 3a 31 c2 cb 2a 28 1e 23 f1 d4 d6 f2 c4 3a d3 bf
       0.028376466 0.023973221 -0.030333463 -0.025930218 0.020548476 0.019569976 0.014677483 0.017123729 -0.0073387413 -0.021526974 -0.020548476 -0.006849492 -0.029354965 0.028376466 -0.022016224 -0.031801213
0000d0 e4 f7 02 39 fd 0f 28 d4 47 30 21 26 f1 d7 e7 df
       -0.013698984 -0.0044032447 0.0009784988 0.027887218 -0.0014677483 0.0073387413 0.019569976 -0.021526974 0.034736708 0.023483973 0.016145231 0.018591478 -0.0073387413 -0.020059226 -0.012231235 -0.016145231
0000e0 b4 33 fa d7 0a ee cf 3f 1e 2e 38 0a e5 f8 c6 ff
       -0.037182957 0.02495172 -0.0029354966 -0.020059226 0.004892494 -0.008806489 -0.023973221 0.030822713 0.014677483 0.022505473 0.027397968 0.004892494 -0.013209734 -0.0039139953 -0.028376466 -0.0004892494
0000f0 26 2d e7 c3 08 01 c7 d8 c0 f9 46 27 eb 2b 38 44
       0.018591478 0.022016224 -0.012231235 -0.029844215 0.0039139953 0.0004892494 -0.027887218 -0.019569976 -0.031311963 -0.003424746 0.034247458 0.019080726 -0.010274238 0.021037726 0.027397968 0.033268962
