saved_model/quantized_models/layers5/trial2/paramcount650919.tflite (tflite, 665712 bytes, 24 tensors)

sequential_5/dense_11/MatMul f4 [7, 64]
00000000: e3dd 963c 5ace 97be 2e44 863d 6601 03bd
00000010: 742e 19be 2523 c43d d8e3 42bd 9430 7f3e
00000020: ec48 393e 17ae 77bd ccd4 013e 1fa0 62be
00000030: 7468 713e 86fb e93d c901 af3d 755d aabd
00000040: 3f61 4b3e 7933 db3d 932c 41bd 96d3 693e
00000050: 225d 0a3e 3870 8fbe cdae 86be 8f5d a6bd
00000060: b105 57be 9d30 96bd e593 2ebe 222f 83be
00000070: f346 6cbe 254d 48be dc1c 88be f889 073e
00000080: a16a 3ebe a72a 653e 7bad 6b3c 4dd3 a83d
00000090: 3473 303e 7c45 60bd e536 8fbe 3fbd 063d
000000a0: 740f 213e f018 85be c7a2 503e c126 8c3e
000000b0: d769 2d3d 942a 72be 7151 05be 0719 cebd
000000c0: 8430 f93d cefb b43d ba84 f33d 8bdf adbd
000000d0: 14c5 9bbe 4b49 173d d63e c1ba cb0b 4e3e
000000e0: 2409 22be 922a 123e 29f0 9abc cd87 98be
000000f0: 6e05 46be a59d 8bbe 08c5 5dbe 69fe b53d
00000100: a83b 013e ab29 e23d 4b6a 9f3c 2c51 9cbd
00000110: 1a51 723e 047b 423e 1860 f7bc 7534 743d
00000120: fece 18be 6e31 8d3d c31e 8cbe 71a8 69be
00000130: 51ff bcbd 9402 18be 30f8 513c d548 2bbe
00000140: 543f b0bd 5a7c 2cbe fd89 873d 903f 4c3e
00000150: fd3c 1cbe 7c17 683e 27b2 3cbd 9536 d3bd
00000160: ce53 d63d a2b0 7bbe 05c3 03be ce07 7fbd
00000170: 967f 8b3d a650 70be a22d 153e fad3 5abe
00000180: 4fe5 2d3e c0c1 8fbe ed6a 923e 6b39 62be
00000190: 80bb 583e 3e22 bf3d 7f25 6d3d f86e cc3b
000001a0: 1bfe 94bd c233 15bd dcf2 603d 84f4 fc3d
000001b0: 77e9 edbd ca72 ffbd dd91 1dbe cde0 473e
000001c0: c4ea 6dbd f45a 103e 3f84 4cbe 4ab5 63be
000001d0: 0e5b d43d 3101 2dbe 8c89 4f3e fab8 273e
000001e0: 67bc 8cbe 4a81 223e c442 743e 86f5 5dbe
000001f0: 4e68 07be 6e95 c2bc eb64 6bbe dfa8 5b3e
00000200: 811f 4d3d 4fba 8d3e 37f7 94bc 36d0 d5bb
00000210: 806d 18be 406f ffbd a6b0 5b3e ed0c 09bd
00000220: 1bf7 633d 1f58 873e 9141 42bd 9245 50be
00000230: 0038 073e cc5f 343e 0315 073e d29d cc3d
00000240: 4311 ef3d 835e 603e 4ca0 39bd 43bf fcbd
00000250: 75ed fdbd d7ed 57be 622b 793d a912 56be
00000260: f386 6d3e 5419 5cbe fd2c 8cbe 22f7 f23d
00000270: 1a17 2e3e cfd0 e83d 10ff 75bc da35 edbd
00000280: 2872 e7bc a6e3 8ebe 3414 49bd eacf 83be
00000290: 2907 283e aa7a 3ebd 06d0 a33d db7c 4bbe
000002a0: 86a2 f63c 1974 363c a0d0 71bd a42f 0bbe
000002b0: 7dfb 943d 9f0c 9dbd 27d4 613e 1fa9 303e
000002c0: 4d08 e93d fce5 293d 125d 633d 8f18 2f3d
000002d0: ca36 753e b7b3 56bd 710f 0d3d 0d45 7bbe
000002e0: eabd 273e 41ec da3d 366b de3d 241f 863e
000002f0: 0e1f f3bd a53c 20be 604a 603e bdfd 46be
00000300: 7a91 30be 63b8 b63b db42 8dbe b322 913e
00000310: 748e 75be c4bf 92bd 4710 04be bcfd 913d
00000320: 00c6 ff3d 25a1 8fbe d08d b4bd 0f44 07be
00000330: 1e4e e8bc 720e f93c 2daf 083e cf24 c2bc
00000340: 5ac8 fbbd 4c53 1bbe 374d 3cbd b8a0 793c
00000350: 5776 73be 2305 0bbe 7c2b f33d a2aa 643e
00000360: 9b86 7ebe 50e2 dc3d 2d13 df3c 3a87 eb3d
00000370: 744b e1bd bc4c 743d a267 91be 7d43 a6bd
00000380: a502 16be b132 05be 1d26 b63d a923 873e
00000390: b109 4fbe 30e5 893c 2cb5 783e b3a6 06bd
000003a0: 3965 19be 73d9 bebc 90d6 8abe 9236 fcbd
000003b0: 20d6 0d3e b873 6abe d5e7 8dbe 3427 113d
000003c0: 05ae 55be 6a27 99bd bdac 13be 393e 3bbe
000003d0: 9804 75be f59b 46bd ac84 7e3e 1eac 6c3e
000003e0: ff1f c83d e074 aabd 4593 eabc 00f6 1f3e
000003f0: 7277 713e 0fa1 f6bd 4586 b43d d332 4a3e
0.01841635 -0.2964962 0.06555973 -0.031983756 -0.14959127 0.09577016 -0.04758057 0.24920875
0.18094224 -0.06046876 0.12678832 -0.22131394 0.23575002 0.114249274 0.08545262 -0.08318607
0.19861315 0.10703177 -0.04716165 0.2283462 0.1351209 -0.28015304 -0.26305237 -0.08123314
-0.20998265 -0.07333491 -0.17048605 -0.25621897 -0.2307394 -0.19560678 -0.26584518 0.13236225
-0.18595363 0.22379552 0.014384623 0.082434274 0.17231447 -0.054753765 -0.2797157 0.032895323
0.15728551 -0.25995588 0.20374595 0.27373317 0.042337265 -0.23649055 -0.13019349 -0.10063367
0.12167457 0.088370904 0.1189055 -0.08489903 -0.30423796 0.036935132 -0.0014743458 0.20121686
-0.158238 0.14274052 -0.018913345 -0.29791108 -0.19338009 -0.2726871 -0.21657193 0.088864155
0.12620413 0.11043104 0.019459864 -0.0763267 0.2366375 0.18992239 -0.030197188 0.05962034
-0.14922711 0.068941936 -0.2736722 -0.22818162 -0.09228385 -0.14844733 0.01281552 -0.16727002
-0.08605829 -0.16844311 0.06618116 0.19946122 -0.1525764 0.22665209 -0.046068337 -0.10313145
0.10465203 -0.24579099 -0.12867363 -0.062263303 0.068114445 -0.23468265 0.14568189 -0.21369925
0.16982006 -0.28077507 0.28597203 -0.22092216 0.21165276 0.09332703 0.057897087 0.0062388144
-0.07275029 -0.036426313 0.05491911 0.12351325 -0.116167955 -0.12473066 -0.15387674 0.19519348
-0.058085218 0.14097196 -0.19972323 -0.22237125 0.1036893 -0.16894986 0.20267314 0.16379157
-0.2748749 0.15869632 0.23853594 -0.21675691 -0.13223383 -0.023752894 -0.22987716 0.21451138
0.050078873 0.27681205 -0.018184287 -0.006525065 -0.14885521 -0.12472391 0.21454105 -0.033459593
0.05565558 0.2643442 -0.04742581 -0.20339039 0.13204956 0.17614669 0.13191609 0.09991039
0.11673214 0.21911053 -0.045318887 -0.12341168 -0.12398807 -0.21086822 0.06083239 -0.20905556
0.2319601 -0.21494037 -0.27378073 0.11863543 0.17001 0.11367952 -0.015014425 -0.11582537
-0.028252676 -0.27908057 -0.049091533 -0.25744563 0.16408981 -0.0465037 0.07998662 -0.19871847
0.030106794 0.011136078 -0.05903685 -0.13592392 0.0727453 -0.07668423 0.22053586 0.17252015
0.113785364 0.041479096 0.05550868 0.04274803 0.23946682 -0.052417483 0.034438554 -0.2453806
0.1638104 0.10689593 0.108602926 0.26195633 -0.118711576 -0.15648134 0.21903372 -0.19432731
-0.17242995 0.00557618 -0.2759007 0.28346786 -0.23980123 -0.07165483 -0.12896834 0.07128474
0.124889374 -0.2805263 -0.08816111 -0.13209556 -0.028357562 0.030402396 0.13348074 -0.023699192
-0.122940734 -0.15168494 -0.045972075 0.015236072 -0.23775612 -0.13576178 0.11873528 0.22330716
-0.24856035 0.10785353 0.027230823 0.11500402 -0.1100072 0.059643492 -0.28399378 -0.08118341
-0.14649446 -0.13007618 0.08893988 0.26394394 -0.2021854 0.016832918 0.24287862 -0.03287382
-0.1498002 -0.023297047 -0.27116823 -0.12315096 0.13851213 -0.22895706 -0.27715936 0.035437778
-0.20867164 -0.07478221 -0.14421363 -0.18285455 -0.23927534 -0.048488576 0.24855298 0.23112532
0.09771728 -0.083230734 -0.028634677 0.15621185 0.23580721 -0.12042438 0.088146724 0.1974595

sequential_5/conv2d_25/BiasAdd/ReadVariableOp f4 [6]
00000000: 1d48 c73a 3e18 bbba 44bb 07bb 6c09 823c
00000010: 56dd 14bb d197 a2bb
0.0015203987 -0.0014274193 -0.0020710984 0.015873633 -0.0022714934 -0.0049619456

sequential_5/conv2d_26/BiasAdd/ReadVariableOp f4 [6]
00000000: 1667 56bb 5518 ea3b 059d 3a3c 4c06 c23b
00000010: 366e a8bb 153b 45bc
-0.0032715253 0.007144014 0.011389975 0.005921161 -0.0051400913 -0.012038012

sequential_5/conv2d_27/BiasAdd/ReadVariableOp f4 [6]
00000000: 0b8d 4c3b 9475 423b 7f14 163c 5c9b f739
00000010: 058b 2e3b 4da6 06bc
0.0031211998 0.0029672133 0.00916016 0.00047227263 0.0026633155 -0.00821836

sequential_5/conv2d_28/BiasAdd/ReadVariableOp f4 [6]
00000000: 7fc3 08bc 3009 39bb 725b 533b 4e72 54ba
00000010: 3375 83bb f977 31bb
-0.008347391 -0.0028234236 0.003225055 -0.0008104191 -0.004011774 -0.0027079566

sequential_5/conv2d_29/BiasAdd/ReadVariableOp f4 [6]
00000000: 35ee 3ebc a425 513b 9045 4abc 795c fdbb
00000010: 12ad c83a c184 1ebc
-0.011653473 0.0031913305 -0.012345687 -0.007731971 0.0015310368 -0.009675206

sequential_5/conv2d_25/Conv2D f4 [6, 3, 3, 1]
00000000: f434 94be d7f1 9dbe 1e8a 943e b6fd 3a3e
00000010: e0e4 22bb a4f9 6f3d 5e55 273e ed51 773e
00000020: 0223 653e 8edf 76be ebc9 223e 888c 55be
00000030: 51ec 033d 434f 843e 84e2 713c 971f 5a3d
00000040: 5411 9f3e 3ac3 5b3e 9ee2 233e 6beb b43c
00000050: 1106 02be 2a61 75be 540f 24bd ea8e 3abd
00000060: 1eed 75bd 2e91 cf3c c77a f5bc fd38 8c3d
00000070: afbc 323d 00aa cb3d 1f29 8f3e e9eb 5c3c
00000080: 09a2 363c 7fc1 49be 4e7c cd3d dbc8 21be
00000090: d00e 55bc 0818 bcbd 7ad9 763b 0cc5 0e3e
000000a0: ba14 2d3e a2d1 383e 6f72 903e 35d2 303e
000000b0: bfb3 843e 2133 923e 4e9f 00be 59bb 673e
000000c0: e243 a1be b3c5 333e a0f0 223e a1f2 64bd
000000d0: d3d5 f0bd 79a3 c5bd
-0.2894665 -0.30848572 0.29011625 0.18260846 -0.0024855658 0.058587685 0.16341159 0.24152346
0.22376636 -0.24108717 0.15897338 -0.2085439 0.03220779 0.25841722 0.014763478 0.053252783
0.31067908 0.21461192 0.16004416 0.022084912 -0.12697627 -0.23962846 -0.04005368 -0.04554645
-0.060040586 0.025337782 -0.029965771 0.06846807 0.043636974 0.09944534 0.2796106 0.01348398
0.011147031 -0.19702719 0.10033475 -0.15799277 -0.01300402 -0.09184271 0.0037666247 0.13942355
0.16902438 0.18048719 0.28212306 0.17267688 0.25918385 0.28554633 -0.1256077 0.22630061
-0.31497103 0.17555885 0.15912104 -0.05589545 -0.11759534 -0.096503206

sequential_5/conv2d_26/Conv2D f4 [6, 3, 3, 6]
00000000: 50bb 993d f8f3 373e 0fe9 893c 61b4 9d3d
00000010: 0a6b 6b3c b929 b13d ca16 103e 89f6 033e
00000020: dfa9 13bd 7eca 123e 99c5 1a3d 81b9 6e3d
00000030: 4fd1 62be 20c7 623e ce51 88bd 8610 1ebe
00000040: 9d06 9abd 0e31 723d a7be 4cbc bcee d5bd
00000050: be7f 64be 0b5a f53d 812d 22be 2af8 1f3e
00000060: 4699 bf3d 5c26 1fbe 4b2f 1bbe 00eb a63b
00000070: 52a9 663e c51d 42be 40a2 18be 4f04 273e
00000080: eee1 0a3e 9d4e 00be f282 e73d 45c9 443d
00000090: 920c 4a3d 2947 95bd 1835 57be 1669 d3bc
000000a0: 6798 68bd 33f8 123e f512 6b3e 721c bb3d
000000b0: 5db0 5abd ae2d bfbd 62e2 c2bd ffc8 5abc
000000c0: 22c7 6d3c 8a3f 9bbd e87b 9f3c c517 5c3e
000000d0: 2606 e13d bc82 aa3d ffe9 abbd 2e6c 2b3e
000000e0: edd9 403e 694b 2c3d 6c5d 113e 4c7f cabb
000000f0: 83da e93d f433 17be 57ae 5d3e 71f2 863c
00000100: 8011 c93d f320 53be 6751 22be 022b ecbd
00000110: 5b5b 0dbe dac7 563e bd13 5ebc f6be 6cbe
00000120: b0e1 ec3c ca59 653e 02e1 dd3b 303f f5bd
00000130: c96a 533e f2d0 2ebd 9475 23be 6f9d 843d
00000140: 251c ffbc 4b4b 0ebe 0e70 703e 06c2 3bbe
00000150: 267d 63be 185c e8bd b71c 20be 4a9f 683e
00000160: 4ebc 1a3e c916 c7bc 8002 01be 780d 5c3e
00000170: 1bc6 61be 9c66 97bc 05be 82bd 6d73 2fbe
00000180: 88f7 53bc 4018 67bd ba2c 1e3d 6837 59be
00000190: 26f3 51be b9e4 babd 1422 a93d 33b6 043e
000001a0: 8a13 e73d 9bd4 ccbd e716 0fbc 5734 77bd
000001b0: ae7e aabc 68b7 193e 125c a33b 5f36 0d3e
000001c0: 54f8 673d 36ef 79be 349a 46be b04b 02be
000001d0: 1ef6 5e3c a3e4 0dbe 4bc8 7e3d bcf2 41be
000001e0: 359c 963d 9654 a3bd 1cd6 1d3e 825c 3e3e
000001f0: e0ac 16bd ea34 b03d a661 093e 2353 0fbe
00000200: bb46 383e 38ae fb3d 6d61 e53b 9749 36be
00000210: 767f 68be 331a 79bb c181 5e3e 0212 503c
00000220: 9113 87bd 5a4e 0ebd 91a2 2cbe d34a ef3d
00000230: 929f d43d 341d d3bd bb47 023e c250 8dbd
00000240: fe5d 27be da75 29be 754f e7bc 5506 f33d
00000250: e2ef 783d 3d73 42bd b690 17bd dfc0 7c3d
00000260: ec91 34bd 79e6 9cbd c3fb 1cbd f445 febd
00000270: ccc9 f93d 3e6b 643e 4a1c 3bbe b5ee 63bd
00000280: 62ee 133e cb36 19bd b623 3fbe 99c6 1d3e
00000290: 8f0c e43d 67ee 093e c6dc 8f3d 7e0a bf3d
000002a0: 7fcb 16be 03ea 9bbd 1377 eb3d fc37 9abd
000002b0: 7b98 f93c a3ad 353e 8779 8ebd eeb5 5abd
000002c0: 9043 3cbe 0108 29bd 8710 a93d 929d eebc
000002d0: 526e d43d 329a b0bd 0942 03be 11e3 bbbd
000002e0: 3f3b 5b3e b80a 043e 2bd8 1cbe 02de 25be
000002f0: 68fe 2c3d 0c69 2e3d 341a c03d 3c18 3bbe
00000300: 3369 cbbd 9fbe 1d3a 4a10 e63d 6a92 073c
00000310: 4632 54be 2d6a c3bd 3843 703e d142 28be
00000320: 608d e53c 10db bf3b 4cbc 583e 65a0 5c3d
00000330: 215d 11be da39 183e 4ad0 45be ffe0 d7bc
00000340: b154 0abe 306c 77be 47e1 49bd b2cc 883d
00000350: 0f15 e3bd 1d9c e1bd 5b25 423e 0a00 23be
00000360: d089 60be 0d3d 82bd cc07 33be 547e 0ebd
00000370: eeab 083d f822 09be 4aac 16be 84df 513e
00000380: 7a2e ed3c bef7 12be fe69 f9bd 3437 063e
00000390: 940f 493e 3384 c43d 9182 893d 669a 9c3d
000003a0: 72b1 b0bd 5e85 5ebe 5ba5 f63d 81e8 373e
000003b0: c527 b23d 3778 603e 8268 fd3a 57ec 52be
000003c0: 2291 88bb efb6 d2bd bb2f 393e b4e1 203e
000003d0: e091 673d c7ce 85bd caa8 49bd 4bf5 0ebe
000003e0: 02f5 dbbd 2cc1 25be 9d8e 073e 3f2e 3fbe
000003f0: 09a9 42bc 28f5 68be cc8e 5fbe 4058 52be
0.0750643 0.1796416 0.016834764 0.0770042 0.014368782 0.08650536 0.14071193 0.12887014
-0.036050674 0.14335057 0.0377861 0.05828238 -0.22150157 0.22146273 -0.06656228 -0.1543599
-0.07520793 0.059128813 -0.012496627 -0.104459256 -0.22314355 0.11980065 -0.15837671 0.15622011
0.093554065 -0.15541977 -0.1515476 0.005093932 0.22525528 -0.18956669 -0.14905643 0.16310237
0.13562748 -0.12529989 0.11304273 0.048043508 0.049328394 -0.07288963 -0.21016347 -0.025806945
-0.056785967 0.14352493 0.2295645 0.09136285 -0.05339085 -0.093348846 -0.09515835 -0.013353585
0.014512809 -0.075804785 0.019468263 0.21493442 0.10987501 0.08325717 -0.083942406 0.16740486
0.18833132 0.042064104 0.14195794 -0.0061797258 0.11418631 -0.14765912 0.21648537 0.016473027
0.09817791 -0.20618038 -0.15851365 -0.115316406 -0.1380438 0.20974675 -0.013554511 -0.23119721
0.02891621 0.22397533 0.006771208 -0.11974943 0.20646204 -0.042679735 -0.15962821 0.064753406
-0.03114135 -0.1389591 0.23480245 -0.18335733 -0.22215709 -0.113456905 -0.15635954 0.22717014
0.15110895 -0.024302857 -0.1259861 0.21489513 -0.22048227 -0.018481545 -0.063838996 -0.17133875
-0.012937434 -0.05641961 0.038616873 -0.21212542 -0.2050291 -0.09125657 0.08258453 0.12960128
0.11283024 -0.10001489 -0.008733488 -0.06035265 -0.020812359 0.1501137 0.004985341 0.13790272
0.05663331 -0.24407658 -0.19394761 -0.12724185 0.013608484 -0.13856749 0.062202733 -0.18940252
0.07354013 -0.07975118 0.15413707 0.18589976 -0.03678596 0.086038426 0.13416156 -0.13996558
0.17995732 0.12289089 0.0070001394 -0.1780151 -0.22704872 -0.003801 0.21729185 0.012699606
-0.06595529 -0.03474269 -0.16858889 0.116841935 0.10381998 -0.103083044 0.12722676 -0.06900169
-0.16344449 -0.16548863 -0.02823613 0.11866442 0.060775645 -0.04747318 -0.03700324 0.061707374
-0.044084474 -0.07661147 -0.038326036 -0.12415686 0.12196693 0.22306535 -0.1827251 -0.05564757
0.14446405 -0.03740577 -0.18665966 0.1540779 0.11135208 0.1346985 0.07024531 0.09328173
-0.14726065 -0.076129936 0.11497321 -0.075302094 0.030468216 0.17742018 -0.06956773 -0.053396158
-0.18385148 -0.0412674 0.082551055 -0.02912787 0.103726044 -0.086231604 -0.12818159 -0.09174169
0.2140932 0.12894714 -0.15316837 -0.1619797 0.04223481 0.04258065 0.09379998 -0.18270963
-0.099321745 0.00060174795 0.11233576 0.008274654 -0.20722303 -0.09541736 0.23463142 -0.16431738
0.028021514 0.0058549717 0.2116558 0.0538639 -0.14195682 0.14865819 -0.19317737 -0.026352404
-0.1350887 -0.24162364 -0.049287107 0.066796675 -0.11088001 -0.11016104 0.18959562 -0.15917984
-0.21927571 -0.06359301 -0.17483443 -0.034788445 0.03336709 -0.13392246 -0.1471416 0.2049542
0.028952826 -0.14352319 -0.121784195 0.13106996 0.19634849 0.095955275 0.06714357 0.07646637
-0.08627595 -0.21730563 0.12043258 0.17959787 0.08698992 0.21920858 0.0019333514 -0.20597969
-0.004167692 -0.10288798 0.18084614 0.15711099 0.0565356 -0.0653358 -0.049233235 -0.1396076
-0.10740091 -0.1618697 0.13237996 -0.18669985 -0.011881121 -0.2274977 -0.21831816 -0.20541477

sequential_5/conv2d_27/Conv2D f4 [6, 3, 3, 6]
00000000: 03a4 063e cd75 413e 84d9 7a3d 1594 4c3e
00000010: c3a7 393e adbe ffbd aca9 b6bd edec df3d
00000020: 29a4 99bd 173e 913d 18c0 613e 6da5 bf3d
00000030: 3072 6ebe 1bac ac3d f567 5fbe c0b8 5abd
00000040: db82 f0bc 34e8 0bbd 2c51 cdbd 8902 16be
00000050: afa0 19be 0f47 1fbe 4b44 59be ad75 3a3e
00000060: 0bb0 a6bd 8926 453e 09b0 bfbd 00ef 15be
00000070: e5ef ab3d e410 a8bd ff1f 45be 1468 443e
00000080: 29de 75bc 276d 44bd dffe 3fbe 300a 39bd
00000090: 65b3 47bd 123e 79bd 3dc4 74bd 1548 c63d
000000a0: 08b6 47be c4c1 d03d b57f 01bd 7efc 08be
000000b0: 6b5b cdbc 78f5 0a3e a0bd 323d ff70 0e3e
000000c0: c8b6 11bd e301 06be 35c2 5bbd fbce 833d
000000d0: 8058 ffbc 65ed 923d 3d54 473e 2150 cebd
000000e0: 576b e8bc b0b5 6a3e 5c59 683c 8510 043e
000000f0: 6656 b13d 53ae 343e 7543 9f3d a3aa 48bd
00000100: d085 f0bc 93be fabd f474 e03d dc52 5b3e
00000110: 0969 53be d7a4 543e b964 6bbe dd13 82bd
00000120: 2fec b13c 719f 9d3d 1485 883d 594b 333e
00000130: d95e 603e aa03 09be 04ff acbd 148a 533b
00000140: 4284 bbbb cce4 26bd 4518 0dbe f053 08be
00000150: a588 16be 748d 6b3e ca9b 643e f0f6 26be
00000160: dfa1 5c3e b780 303e 5b42 973d 7abf 6abe
00000170: b5d5 ed3d d4ec 96bd 6e86 3b3e cae7 823b
00000180: b8b0 3d3d 0099 753d 3dc7 16be 76b7 583c
00000190: 74d4 103d 6016 c23c 562e 28bb 8f6b 173e
000001a0: 6d71 ce3d e0c5 143e f0c2 b73d 23c4 023e
000001b0: 3a32 2bbe f949 eebd 7083 0fba 1416 19be
000001c0: 16ed 92bd c2ae f33d 44bf ab3d b36b babd
000001d0: 39ac 0e3e abf6 973d b0d6 073d f1b4 26be
000001e0: c67e 2fbe ee9d 16be f03e 54bd e788 693c
000001f0: fa56 aebb c0fe d03a ed9a 54bd 4164 82bd
00000200: ff4c 0cbe 42db 683d d8ab 533d 19e3 183d
00000210: e1c0 21be 48c7 5e3e d2b6 023e 81d2 52be
00000220: e595 103c 534c 6d3e 9ef5 c93d fa92 56be
00000230: 4a3f 193e d0db 78bd 8998 08bc b8d6 b83d
00000240: eaa8 0e3e e7a7 e2bc 922c c3ba 2d19 53be
00000250: d5db 0f3e 2816 13be 2068 733d 02cd 343e
00000260: 9a45 413d 6000 00be de91 2dbe dd65 82bd
00000270: bb48 223e c299 10be 1788 66be d3df 65be
00000280: 0702 283e f9d6 873a 0ed1 44ba 7211 e73d
00000290: 667d 453d 5051 0e3d 4d8e 3cbe 4bfc 993c
000002a0: 7af1 193d 7f2c 57be f7d8 21be d528 99bd
000002b0: d3ea 833d 4793 1ebe 5c44 2ebe 00a0 3ebe
000002c0: e67a 323e be61 913d 06d1 ea3d 242e b0bb
000002d0: 4fd2 3e3d 91c5 ccba 71b8 2bbe a365 82bc
000002e0: 16c3 ad3d 95ce 223e 4222 17be 6f09 80bd
000002f0: 9519 54bd 18f7 ec3d 0cc8 593e 4fcf 55be
00000300: 88b3 f73d 997c 45be a94a 4ebe 487b 88bd
00000310: 88f0 603d 1940 133e b7a6 93bd a917 ff3d
00000320: 224b 1b3e 90c0 d43d 2552 23be 7aae 913b
00000330: 696d 05be bd03 563d b7d9 5f3e d3bc 17be
00000340: d803 c3bd ab56 90bc 11b3 5bbe b75d 143e
00000350: 371b 543e 2529 0c3e c29d cebd 057e 253e
00000360: 1ccd 79bd ae19 6e3d b4a7 873d d553 6b3e
00000370: 1933 b8bd 62ea 01be 6fb6 69be d4ba 913d
00000380: 48f2 b4bd 1410 99bd f7db bfbc adea d73d
00000390: 15f8 96bd 412f 44be c6ae 36be d80d cebd
000003a0: c7d3 143e 887b 68be 0dec 163e 99a5 1fbe
000003b0: 38c1 1ebe aada a6bd e337 6abd 218f d2bd
000003c0: 204a 33bd 8bf9 133e 69d9 1f3e 3660 34be
000003d0: b4e8 40be 49bc 29be 33d7 03bb 4c99 dc3c
000003e0: b7c2 bc3d f585 0cbe b326 9a3c bcdd c33d
000003f0: 2656 0dbe f5a5 6b3e 6f29 54be 474f 83bc
0.13148503 0.18892594 0.061242595 0.19978364 0.18130402 -0.124875404 -0.08919081 0.10933862
-0.07502014 0.07091921 0.22045934 0.09357724 -0.23285747 0.08431264 -0.21817 -0.053398848
-0.029359272 -0.034156993 -0.10025248 -0.14649405 -0.15002702 -0.1555445 -0.21217458 0.18208952
-0.08139046 0.19252981 -0.09359748 -0.14641953 0.083953656 -0.08206347 -0.19250487 0.19180328
-0.01500658 -0.04795566 -0.1874957 -0.04517573 -0.04875507 -0.06085021 -0.05975746 0.09681717
-0.19503033 0.10193208 -0.03161593 -0.13377568 -0.025068006 0.13570201 0.04363787 0.13910292
-0.035574704 -0.13086657 -0.053652007 0.06435963 -0.03117013 0.07174186 0.19465728 -0.10073877
-0.028371496 0.22920871 0.014181461 0.12896927 0.08659057 0.17644624 0.07776538 -0.048990857
-0.029360682 -0.122433804 0.10959807 0.21418327 -0.20645536 0.20766006 -0.22987641 -0.06351445
0.021719066 0.07696427 0.06666008 0.17509212 0.21911182 -0.13380304 -0.08447078 0.0032278346
-0.0057225535 -0.04074554 -0.1377879 -0.1331327 -0.14700563 0.23003179 0.22325054 -0.16305137
0.21546124 0.17236601 0.07385703 -0.22924605 0.11613027 -0.0736939 0.18313 0.0039949166
0.04631111 0.059960365 -0.14724441 0.013227334 0.03535886 0.02369231 -0.0025662384 0.14787124
0.10080228 0.14528608 0.08972728 0.12770133 -0.16718379 -0.11635203 -0.0005474603 -0.14949828
-0.07174127 0.11898567 0.083860904 -0.09102573 0.13932885 0.07420095 0.033163726 -0.16279961
-0.17138204 -0.14708683 -0.051817834 0.0142538315 -0.005320427 0.0015945062 -0.05190556 -0.06366778
-0.13701247 0.056849726 0.051677555 0.037325952 -0.15796234 0.21755707 0.12765053 -0.20588113
0.0088248 0.23173647 0.09861301 -0.20954505 0.14965549 -0.060756505 -0.008337148 0.09025329
0.13931623 -0.027667953 -0.0014890602 -0.20615073 0.14048703 -0.1436392 0.059425473 0.1765633
0.047185518 -0.12500143 -0.16950175 -0.06367085 0.15848057 -0.14121154 -0.22512852 -0.22448663
0.16407023 0.001036375 -0.0007507958 0.11282624 0.048215292 0.034745514 -0.18413658 0.01879706
0.037583806 -0.21013068 -0.15805422 -0.07478491 0.064412735 -0.1548587 -0.17018265 -0.18615723
0.17429695 0.07098721 0.11465649 -0.005376594 0.046587285 -0.0015622844 -0.16769578 -0.015917605
0.08484475 0.15899117 -0.14759162 -0.06251799 -0.05178221 0.11570567 0.21267718 -0.20879863
0.1209479 -0.19285811 -0.20145668 -0.06664139 0.05491689 0.1437992 -0.07209533 0.12455685
0.1516538 0.10388291 -0.15949304 0.004445848 -0.13030018 0.05224966 0.21860395 -0.14818124
-0.095222175 -0.017619452 -0.21455027 0.14488874 0.20713507 0.1368757 -0.10088684 0.16161354
-0.060986623 0.05812996 0.06623784 0.22981198 -0.08994121 -0.12687066 -0.22823499 0.07115713
-0.08835274 -0.0747377 -0.023420317 0.10542808 -0.07371537 -0.19158651 -0.17840108 -0.10061234
0.14533912 -0.22703373 0.14738484 -0.15590514 -0.15503395 -0.081471756 -0.057182204 -0.10281206
-0.043771863 0.14450662 0.15610279 -0.17614827 -0.18838769 -0.16575731 -0.0020117282 0.026928566
0.092168264 -0.13722976 0.018817281 0.09563777 -0.13802394 0.23012526 -0.2071893 -0.016029013

sequential_5/conv2d_28/Conv2D f4 [6, 3, 3, 6]
00000000: 53a2 25be f000 f43d 8411 42be 8db8 193d
00000010: ab57 48be f920 f1bd 90ec 41be 2297 9ebd
00000020: 322b 00be 9947 fa3d c1b4 523d 7248 28be
00000030: b961 503e b6ec d83d 9c33 19be 17b9 adbd
00000040: 9f33 db3d 3314 cbbd fa0b 303e 3a30 19bd
00000050: 3b8c 363e 570f 153e 0924 5bbe 6785 ca3d
00000060: 4877 b5bd 4a90 9ebd 8ab1 f9bd b10d 3b3e
00000070: f041 38be d9e1 a0bd 0ccd d33d 18c7 5abe
00000080: 4ab0 55be e982 1c3e b3dd 8d3d b8f6 ecbd
00000090: eb6c dcbd a14b 52be 73b5 3ebe 490f 0a3d
000000a0: 73cb 08bd 0ae3 063e 4f86 e23d 9756 6abe
000000b0: 74e9 193d 8617 273e 4d0d fc3d a4a0 7a3e
000000c0: 90d2 d3bd 8f1d 573e b613 f5bd 16dc 4c3e
000000d0: 4fce 0d3e 1ed1 d03d 80bc 52be 8616 b73d
000000e0: 8663 503e fe4a b0bd b265 d2bd 3959 83bd
000000f0: 5ca9 e2bd 9620 213e e915 0cbe a224 f53a
00000100: 0836 92bd 1fcc 0cbe e179 40bc 6c59 2b3e
00000110: ea84 d13d d24d 1b3e c2f3 103e 7b64 acbd
00000120: 00e3 93bd 8db5 543e 90cf 0bbe 333a 983b
00000130: 537a 6d3d 26c3 4cbd 9c9b 183e dd85 de3d
00000140: 3537 14be 4606 473e b58c 65be cde6 3a3d
00000150: 924c 123d 0e84 1e3e a82a 963d 5d2e b13d
00000160: 195b fdbd dc38 9bbb edf3 6ebe 1d26 ce3d
00000170: 95be bf3d 23cf 193e 5171 533e 4010 34be
00000180: 2d27 b9bc 2cbf 3c3e 7ea6 df3d 3e59 c83d
00000190: 9dfd 213e d210 55be be2f 6a3e 0004 1fbe
000001a0: ea55 53be 2926 0c3e 37e9 67be f67b de3d
000001b0: 21c8 563e 64a9 063e 87ef 09be 0278 8e3c
000001c0: 1453 85bd ac9f c4bd fd24 263e 9235 f53c
000001d0: 4bdc 1d3e f613 2a3b 7125 9bbd 9fe1 05be
000001e0: 0c22 483a 39fe 703e cad6 d7bc 2e22 ab3d
000001f0: dea8 25be 9ede 63bd ac47 f4bd cb50 ee3d
00000200: 198f 80bd f516 cc3d 81e4 b83d ca47 603e
00000210: e543 18be 035d 343d a011 2dbe df99 133d
00000220: 2a27 1cbe 3254 053e f89d 1c3e 4811 743e
00000230: 6b19 73be 9bab d33d 9688 17be e1f2 203e
00000240: bd28 c63d a5b5 6f3e 3d36 653e 27d5 ebbd
00000250: 5930 b93d 172a 003e 48e9 54be 293a 63be
00000260: 0e3f 6b3e 6fe0 133e 4650 c4bd 5e93 123e
00000270: 6e6a 3d3e b71c 573e 96fa c23c 966a 293e
00000280: 20ca 5fbe 6a73 e9bd fd69 6f3e 0f64 1abe
00000290: 87c0 ea3c 8775 a43d aa1b a7bd c996 483d
000002a0: 600b 6dbe 7327 fe3d 0b6b 89bb 9dfc ddbb
000002b0: 256b f13b 6dda 33be 4f3f a03c 7bd7 2fbd
000002c0: 14e0 5e3e cb65 413d 617a 2d3e f463 ccbd
000002d0: f372 703e abe2 adbd cf02 fb3d d7fd 48be
000002e0: 6177 d7bc 8b36 3abe fbda e5bd 9c7b 33be
000002f0: 3569 48be 8ee6 173e 6970 b13d 2428 193e
00000300: b912 eebd f669 263e 37a2 59be b6f0 fdba
00000310: 5cb6 eb3d 62e3 fd3c 805d 60be 9601 f93d
00000320: 3bdb 7dbd ea46 4dbe d9d0 50bd df3d 183e
00000330: aa81 90bd 2da5 793c 449d f7bd 52d1 9cbd
00000340: 4715 0cbd 888b 383e 78ae f1bd 4a42 dbbb
00000350: c3a5 8bbc 8c5a 5ebe 481e 5f3d d77d 22be
00000360: f11e f73d 28aa 9b3d 4617 d43d 0f23 6bbe
00000370: 18b1 febd d2f1 dbbd 94db 2b3d d659 1d3e
00000380: 031a 4b3e db43 5abd 8d86 c03c e86d 9f3d
00000390: dcd6 1b3e 1c61 003e 6b37 e53a 33b7 0b3e
000003a0: d96e 853d ce35 e43d ded7 58be 359c f6bd
000003b0: 91c4 35be 76a0 28bd 7b59 6cbe 0ca2 1d3e
000003c0: 9db2 1fbe b61b 423e 4fa0 403c abc4 463e
000003d0: db6f f63d 8290 333e 7349 4abe 4d8b e53d
000003e0: d7c8 5f3e aa7a 4bbe 13be 2bbd d74b 12be
000003f0: f1a3 36be b8b0 c13d 7991 0b3e 417d 5cbe
-0.16175203 0.11914241 -0.18951994 0.037529517 -0.19564693 -0.11773867 -0.18937898 -0.0774367
-0.12516478 0.122206874 0.05144191 -0.16433886 0.20349778 0.10592024 -0.14961094 -0.08482569
0.10703205 -0.09915962 0.17192069 -0.037399508 0.17826931 0.14556633 -0.21400465 0.09888726
-0.08860642 -0.07742365 -0.12192066 0.18266942 -0.17993903 -0.07855577 0.10341844 -0.2136501
-0.2086803 0.15284313 0.069270514 -0.11570495 -0.10762962 -0.20536663 -0.18623905 0.033705983
-0.03339715 0.13172546 0.110607736 -0.22884594 0.037576154 0.16317567 0.123072244 0.24475342
-0.10342896 0.2100737 -0.1196665 0.20005831 0.13848232 0.10196136 -0.2057972 0.08939843
0.20350465 -0.086080536 -0.10273303 -0.06413502 -0.11067459 0.15735087 -0.13680233 0.0018702934
-0.07139212 -0.13749741 -0.011747808 0.1673333 0.102304295 0.15166405 0.14155486 -0.08417603
-0.07221031 0.20772381 -0.13653398 0.0046456098 0.057977986 -0.049990796 0.1490311 0.10865376
-0.14474185 0.19435987 -0.22416957 0.045630265 0.035717554 0.15480062 0.07332355 0.08651421
-0.12370891 -0.004737003 -0.23335238 0.10065863 0.093625225 0.15020423 0.20648696 -0.17584324
-0.022601688 0.18432301 0.10920428 0.097826466 0.15819402 -0.20807198 0.22869775 -0.1552887
-0.20638242 0.13686432 -0.22647558 0.108634874 0.2097478 0.13150555 -0.13470279 0.017391209
-0.065099865 -0.096007675 0.16225047 0.02993277 0.15416066 0.002595184 -0.07575501 -0.13074349
0.0007634468 0.23534478 -0.026347537 0.08356129 -0.16177699 -0.055632226 -0.11927733 0.11636504
-0.06277294 0.09965316 0.09027959 0.21902385 -0.1486965 0.044034015 -0.16901255 0.036035415
-0.15249315 0.13020399 0.15294635 0.23834717 -0.23740165 0.103354655 -0.14798197 0.15717651
0.09675739 0.23409136 0.22383972 -0.11515265 0.09042425 0.12516056 -0.20792115 -0.22190155
0.22973272 0.14441083 -0.095856234 0.14314029 0.18497631 0.21007048 0.02380113 0.16544566
-0.21854448 -0.113989666 0.23380275 -0.15077232 0.028656257 0.08030229 -0.081595734 0.048971925
-0.2314887 0.12409868 -0.0041936687 -0.0067744986 0.007367509 -0.17563792 0.019561438 -0.042930108
0.21765167 0.047216218 0.16941215 -0.09980002 0.2348135 -0.08490499 0.12256395 -0.19628082
-0.026302041 -0.18184869 -0.11223408 -0.17527622 -0.19571383 0.14834043 0.08664019 0.14956719
-0.11624665 0.16251358 -0.21253286 -0.0019374106 0.11509392 0.030992214 -0.21910667 0.121585056
-0.061976653 -0.20046583 -0.050980423 0.14867352 -0.070559815 0.015237135 -0.12090543 -0.07657112
-0.03419998 0.18021977 -0.118008554 -0.006691252 -0.017046815 -0.21714228 0.054472238 -0.15868317
0.120664485 0.07600814 0.103560016 -0.22962593 -0.12436122 -0.10739483 0.041957453 0.15366301
0.19834141 -0.05328737 0.023501659 0.07784635 0.15218681 0.12537044 0.0017487829 0.13644104
0.06515283 0.11143075 -0.21176097 -0.12041513 -0.17750765 -0.041168652 -0.23081009 0.15393847
-0.1559548 0.18955883 0.011756971 0.1941096 0.120330535 0.17535594 -0.19754581 0.1120821
0.21853958 -0.19871011 -0.041929316 -0.14286743 -0.17835976 0.094575346 0.13629712 -0.21532156

sequential_5/conv2d_29/Conv2D f4 [6, 3, 3, 6]
00000000: 9259 46be c45c c1bd 06e9 523a 0bb0 f9bd
00000010: 11a5 2e3e 1468 073e 0335 643d 2e11 4f3e
00000020: e4ef 24be 10d8 b7bc d31c 62be 926a a7ba
00000030: 1654 00be 0e78 0fbd cd26 6d3e 96cd 263e
00000040: 0607 7cbd d42f 853c db91 313e 9d4d 1cbc
00000050: 426a 013e fdd6 59be a7e2 1fbd f913 2b3e
00000060: 6cf8 2ebe 5dad 40be 17c4 323e 2758 ebbd
00000070: 5731 82bd 76b5 dabd 36fb 913b a5ef 4ebc
00000080: f3cf 2a3e ba94 85bd fcac ad3d 16f4 fabd
00000090: adb0 c9bd 494f 593e 1698 4a3e a2b5 5a3e
000000a0: f196 1ebe 4ca1 08bd 927b 85bd b9ce abbd
000000b0: bb46 14be 1e83 ee3d 93fd 2f3e 5107 733d
000000c0: 0112 26be ab4e 4abe 1590 0dbe fb45 313d
000000d0: f518 f6bd 7b5a 09be 8a30 56be d12c 3dbe
000000e0: 62b9 e33c 9610 e7bd 0e2f 66be 9d4b 643e
000000f0: 62e4 5fbe 5d24 2a3e e97a bbbd 1e14 1f3e
00000100: 58fe 84bd db49 303e d6eb 4e3e 8a77 16bc
00000110: 7413 05bd a540 003e c8d6 87bd dcdd 75be
00000120: 22eb 263e eef2 36be f7df fe3c 8d46 193e
00000130: e58a 033e 0503 333e 3bb8 6ebe c2db 543e
00000140: c8fa 69be 8575 d23d 2f67 51be 7b19 73be
00000150: 41c1 8f3d 3b94 143e b71f 0b3d 097e 223c
00000160: 171f 423e 6157 f1bd c49b e9bb 5627 bcbd
00000170: 72dc aebd 7590 083d eaf2 f6bc 04a3 c4bd
00000180: 30d1 4b3e ff71 053d 190e ff3d d759 fc3d
00000190: 389b 37be 9160 493e c794 513d 3860 283e
000001a0: feaf 70bd be4d afbc 159c d1bd 66ef 3d3d
000001b0: c4cf 4dbc 0bba aa3c 246d c5bd eb4e c53d
000001c0: 42ef 3fbe b7cf 3dbe 589b 033d bec9 903d
000001d0: 4f0d 3dbe f62b 14be 2a25 3abe b41a 233e
000001e0: cd53 1dbe 0112 933c 9180 2abe a2cb ccbd
000001f0: 1126 20be 5d08 23be 86d2 0a3e 0d49 2f3e
00000200: c10e 633e b0e0 f2bd e111 6dbe 45be 57be
00000210: 6c24 063e dd1a b8bd 6d6c 863d 0ed2 f53d
00000220: 4737 c43b 0344 50be 9550 f93d d533 363e
00000230: d9a1 e4bc f577 50bd 44f3 8d3d f360 e4bd
00000240: 616d a33d 1f1f 37be f202 393d a6b9 8c3d
00000250: b7c8 0ebd d671 623e 33a4 eb3c dfa3 943c
00000260: 9854 253e 2aa9 1abe a196 e73d b004 64bd
00000270: 8a50 c13d f601 a1bd 6a7f 003e 6e1a 363e
00000280: ea5e afbd fcc8 063e 8199 1c3e 0982 58be
00000290: 7e21 fd3d b18d 0a3c ef49 99bd 9cb9 44be
000002a0: 4efc 423e ceff 153e e847 323d caca 8ebd
000002b0: 6773 54bc 4e37 763d 1dc8 9e3d d37a 783d
000002c0: 24ba 7bbd f09e cabd c9f7 e23d fe9c 263e
000002d0: 0b89 d8bd 6176 e63d 855d 27be 1862 a4bc
000002e0: 50a3 cf3d 9850 4c3e 14ee 2f3e 2889 b2bd
000002f0: 8247 66be 570f b23d 9fb2 14be 890b a33d
00000300: 057c 1b3e bc52 b63b 038b 81bd e3e4 02be
00000310: f263 b5bd 2c48 16be 098c d5bc 6a34 7abd
00000320: 4899 713e a5e4 e8bc 08c0 a6bc 1bbf 523e
00000330: 0d58 adbd 569f 283e 3622 5ebe af9a 0abe
00000340: 7520 583e 0fad 05bd d54d 0c3d eb76 e1bd
00000350: 1644 573e 6100 4cbe 2e88 4ebe e0de 453e
00000360: fb64 26bd 2149 c53d f673 663e 5d64 4e3d
00000370: 48c8 2bbd 309e 2e3e e9eb 5e3e 5dce a0bd
00000380: 52e6 29be 794e d4bd c792 043e 7d26 41be
00000390: 9ca2 21be 2e3b 51bc cc5f b63d 528c 6fbe
000003a0: 1a5f 1dbe 55a4 e2bd da64 53be 7846 dbbb
000003b0: fc9c 3fbc 2c26 183e 9e10 103e e561 3fbd
000003c0: f2b1 37be 674a 72be 904d 5bbd 36af 04be
000003d0: b6f0 f03d 8718 7ebd 4fcb c4bd 26ae a7bd
000003e0: 4c87 f73d bd2f 4a3e 12a4 0bbe c318 143d
000003f0: 263a 5fbe 7495 34be 11ad 453e 8408 86bd
-0.19370106 -0.09441522 0.00080455875 -0.12191781 0.17055155 0.13223296 0.05571462 0.20221397
-0.16107136 -0.022441894 -0.22081308 -0.0012772849 -0.12532076 -0.035026602 0.23159333 0.16289362
-0.061530136 0.016258158 0.17340796 -0.009539989 0.1263819 -0.21273418 -0.039034512 0.16706838
-0.17086953 -0.18816133 0.17457615 -0.11491423 -0.06357067 -0.10679142 0.0044549955 -0.012630378
0.16680889 -0.06522508 0.0848026 -0.12253587 -0.09848151 0.21221651 0.19784579 0.2135835
-0.15487267 -0.03335695 -0.0651771 -0.083890386 -0.14480107 0.11646102 0.17186575 0.05933315
-0.16217805 -0.19756572 -0.13824494 0.04327963 -0.12016479 -0.13413422 -0.20916954 -0.18474127
0.027798358 -0.112824604 -0.22478887 0.22294469 -0.21864465 0.16615434 -0.091543026 0.15535018
-0.06493825 0.17215674 0.20207152 -0.009183774 -0.032489255 0.1252466 -0.06632763 -0.24010414
0.16300634 -0.17866108 0.031112654 0.14968319 0.12845953 0.1748162 -0.23312466 0.20786956
-0.22849572 0.10276321 -0.20449518 -0.23740189 0.07019282 0.1450967 0.033965793 0.009917744
0.18957172 -0.11784244 -0.0071291644 -0.0918719 -0.0853814 0.03334089 -0.030145127 -0.09601405
0.19904017 0.03257942 0.12453861 0.12321823 -0.17930305 0.19665743 0.051167276 0.16442955
-0.05876159 -0.021399375 -0.102348484 0.046370886 -0.012561742 0.020840665 -0.096399575 0.09634193
-0.18743613 -0.18536268 0.03213057 0.07069729 -0.18462108 -0.14469895 -0.1817824 0.15928155
-0.15363999 0.01795292 -0.16650607 -0.099997774 -0.15639521 -0.15921159 0.13556871 0.1711771
0.22173597 -0.11859262 -0.23151352 -0.21068676 0.13099831 -0.08989499 0.06563649 0.120029554
0.005988035 -0.20338444 0.12173573 0.1779321 -0.027909206 -0.05089565 0.06931165 -0.11151304
0.07979847 -0.17882966 0.045168824 0.06871347 -0.034859385 0.22113737 0.02876482 0.018144546
0.16145551 -0.15103593 0.11308027 -0.055668533 0.0943919 -0.07861702 0.12548605 0.1778352
-0.08563025 0.13162607 0.15292932 -0.21143354 0.12359904 0.008456633 -0.07484805 -0.1921143
0.19041559 0.14648363 0.043525606 -0.06972273 -0.012966967 0.060111336 0.07753012 0.06066401
-0.061456814 -0.09893596 0.110824175 0.16270825 -0.10573014 0.11253048 -0.16344269 -0.020066306
0.10138571 0.19952619 0.17180663 -0.08717567 -0.22488216 0.08694332 -0.14521264 0.079611845
0.15184028 0.005564062 -0.063253425 -0.12782626 -0.08856954 -0.14675969 -0.02606775 -0.061085142
0.23593628 -0.028429339 -0.02035524 0.20580713 -0.0846406 0.16467032 -0.21692738 -0.1353557
0.21106131 -0.032635745 0.034253914 -0.1100901 0.21022066 -0.1992202 -0.20169136 0.19323301
-0.040623646 0.09633089 0.22505173 0.050388683 -0.04193905 0.17052531 0.2176968 -0.07851861
-0.16591766 -0.1036653 0.12946616 -0.18862338 -0.15784687 -0.012770457 0.089049906 -0.23393372
-0.1536831 -0.110665 -0.2064394 -0.00669175 -0.011695143 0.14858311 0.14068839 -0.04672422
-0.17938974 -0.23661195 -0.053540766 -0.12957463 0.11764662 -0.06203511 -0.096090905 -0.08187513
0.12086353 0.19744773 -0.13636807 0.036156427 -0.21799526 -0.17635137 0.19304301 -0.06544593

sequential_5/dense_11/BiasAdd/ReadVariableOp f4 [7]
00000000: 7133 97bc adfe fa3a a02b 32bb 557e c03b
00000010: eec5 083a aac4 f7bb 99a1 77ba
-0.018457146 0.0019149386 -0.0027186647 0.005874435 0.0005217482 -0.007561286 -0.0009446382

sequential_5/dense_10/BiasAdd/ReadVariableOp f4 [64]
00000000: 5609 83bb 2032 b939 8f52 23ba 323d e43a
00000010: c5fd b4bb 7e5f 0ebb bab3 3dbb 74dd 233b
00000020: b605 2439 7a97 83bb 8ae9 4ebb 8480 f9ba
00000030: e9ca f1bb fa02 60bb e805 23bc fb5d 90bb
00000040: 1c85 bdbb f5fa 51bb e5b6 67bb 8897 87bb
00000050: ab18 49bb cba3 053a 64c8 72ba 10bf 573b
00000060: 2d28 0cbc 29f4 363a e27b 1bbb ef24 dc3a
00000070: 5535 1abb 9c67 d5ba 2ed0 1f3a 4c5c afbb
00000080: f7b9 cbba c156 643a a005 503a a56b 86bb
00000090: 7da5 3ebb c16c 4fbb dd3a 8a3b 518f 5cbb
000000a0: 14f9 c7ba 3c1f ebbb d7e6 2bbc adaf 09bb
000000b0: 6306 09bb 410a beb9 642f 5bbb e60e 393b
000000c0: 6533 b2ba 90d2 30bc acf0 d1ba 99b0 8cbb
000000d0: 7c6d 47bb f88a 6eba 6c1d 933b 21db 003b
000000e0: 49b2 2bbb 4c24 c4bb 23be 70ba a8be 4bba
000000f0: e0db 81bb 2c7e a03a 21f9 04bc b0ca 8d39
-0.0039989157 0.00035323296 -0.0006230259 0.0017413257 -0.0055234157 -0.0021724398 -0.0028946237 0.0025003823
0.00015642386 -0.00401586 -0.0031572306 -0.0019035493 -0.007378925 -0.0034181462 -0.009950139 -0.0044057346
-0.00578369 -0.0032040451 -0.0035356816 -0.004137937 -0.003068487 0.00050979544 -0.0009261428 0.0032920279
-0.0085545005 0.0006979132 -0.0023724963 0.0016795675 -0.0023530324 -0.0016281488 0.000609639 -0.005351579
-0.0015543093 0.0008710437 0.00079354085 -0.0041021877 -0.0029090338 -0.0031650516 0.004218443 -0.003365476
-0.0015256726 -0.0071753543 -0.010492048 -0.0021009252 -0.0020908348 -0.00036247264 -0.0033444995 0.002823764
-0.0013595639 -0.0107923895 -0.001601716 -0.004293513 -0.0030430248 -0.00090996874 0.0044895913 0.001966186
-0.0026198796 -0.0059857722 -0.0009183606 -0.00077722454 -0.0039629787 0.0012244633 -0.008116038 0.0002704463

sequential_5/batch_normalization_25/FusedBatchNormV3 f4 [6]
00000000: 4644 f13c d433 883c e56f 103d eecf 0f3e
00000010: eed5 153d 160b 233d
0.0294515 0.016626276 0.03526296 0.14044163 0.036580972 0.039805494

sequential_5/batch_normalization_25/FusedBatchNormV31 f4 [6]
00000000: 5ad0 66bf ce0c 5abf c0e7 26bf aa3a 87bf
00000010: 2013 85bf 26f4 39bf
-0.9016167 -0.8517579 -0.6519737 -1.0564778 -1.0396461 -0.72638166

sequential_5/batch_normalization_26/FusedBatchNormV3 f4 [6]
00000000: 2c3b a03f 7cdc d13f acb9 2740 efbf fb3f
00000010: 2739 1140 02d9 293f
1.2518058 1.6395411 2.6207075 1.9667948 2.2691133 0.6634675

sequential_5/batch_normalization_26/FusedBatchNormV31 f4 [6]
00000000: cac5 15bf 786b 90bf 2884 86bf 3055 bdbf
00000010: 9398 b2bf a1ca 0bbf
-0.5850493 -1.1282797 -1.0509081 -1.4791622 -1.3952812 -0.5460606

sequential_5/batch_normalization_27/FusedBatchNormV3 f4 [6]
00000000: 540d f93f aa6d 973f 01e5 0740 4f4c 2f40
00000010: 2a18 0840 f258 e63f
1.9457192 1.1830342 2.1233523 2.7390325 2.1264749 1.7995894

sequential_5/batch_normalization_27/FusedBatchNormV31 f4 [6]
00000000: 1921 72bf e063 31bf d07d 7ebf ad9b b2bf
00000010: 36b9 a1bf d1e5 66bf
-0.94581753 -0.6929302 -0.99410725 -1.3953758 -1.2634647 -0.9019442

sequential_5/batch_normalization_28/FusedBatchNormV3 f4 [6]
00000000: ce56 a23f 8bb4 503f 9db4 923f 336e ec3f
00000010: 9f79 983f cf73 0040
1.2682741 0.81525487 1.1461369 1.847113 1.1912116 2.0070684

sequential_5/batch_normalization_28/FusedBatchNormV31 f4 [6]
00000000: 761c 5dbf d13a 29bf e9db 41bf d3ce 73bf
00000010: 078b 53bf 9973 87bf
-0.8637155 -0.6610537 -0.7572618 -0.95237464 -0.82634014 -1.0582153

sequential_5/batch_normalization_29/FusedBatchNormV3 f4 [6]
00000000: 5648 1040 7278 e93f 949b e63f 2845 8e3f
00000010: ff3b af3f 8bbc c83f
2.254415 1.8239882 1.8016229 1.1114855 1.3690184 1.5682539

sequential_5/batch_normalization_29/FusedBatchNormV31 f4 [6]
00000000: 620a 8abf 0ae2 75bf 8e6b 56bf 8f6c 49bf
00000010: acb7 6abf 3ec0 96bf
-1.0784419 -0.96048033 -0.83757865 -0.7868127 -0.9168651 -1.1777418

sequential_5/dense_10/MatMul i1 [64, 10140] scale=0.0003328729 zero_point=0
00000000: de35 2c46 fdc5 23fb e0d9 c9d1 5506 ddea
00000010: d5cb 08d9 0302 db17 eb15 c5e8 cbfc dce3
00000020: 2cc2 131f b8d5 f108 c6d2 cace 263e e2ae
00000030: 32d6 f93e aac3 c32c 2cd0 add3 295e d1d2
00000040: 0336 ac61 3ce5 c7ed c5f4 d5fd f84d fad7
00000050: f320 30d7 f6d2 cf0b 1bbc 1ace 33f2 efcf
00000060: 03f4 05dd 2fc5 fdd6 1ed7 2ee2 f0dc 3614
00000070: f036 f3d1 bc39 2809 b441 0451 fe0e 03ed
00000080: 1005 d3e1 a8e1 ae01 db0a cb34 cedf eb2e
00000090: b5f5 f9f2 47a8 3546 e9bf 0922 c837 e140
000000a0: e8bb fdbe 4a1a 12f9 c6e3 5342 e8f0 33d9
000000b0: ffcd e9b7 213b b101 19ca 1c36 3f35 1a4a
000000c0: bc13 fcc8 b410 1915 e80c 04d0 e6d1 2727
000000d0: d038 be3d 3cb8 da07 ace1 39c2 0ed6 1828
000000e0: ecd8 c9fd e5d2 2029 bfb2 f90c be09 d733
000000f0: e12b 21f0 b4bc e6c2 2fd7 bfc9 ec32 f50c
-0.011317679 0.017642263 0.014646408 0.023301104 -0.0009986188 -0.019639501 0.011650552 -0.0016643645
-0.010651933 -0.012982043 -0.01830801 -0.015645027 0.028294196 0.0019972376 -0.011650552 -0.007323204
-0.014313535 -0.017642263 0.0026629833 -0.012982043 0.0009986188 0.0006657458 -0.012316298 0.007656077
-0.006990331 0.006990331 -0.019639501 -0.00798895 -0.017642263 -0.0013314916 -0.011983424 -0.009653314
0.014646408 -0.02063812 0.006324585 0.01031906 -0.023966849 -0.014313535 -0.0049930937 0.0026629833
-0.019306628 -0.015312154 -0.017975137 -0.016643645 0.01264917 0.02063812 -0.009986187 -0.027295578
0.016643645 -0.013980662 -0.0023301104 0.02063812 -0.02862707 -0.020305248 -0.020305248 0.014646408
0.014646408 -0.0159779 -0.027628452 -0.0149792805 0.013647789 0.031290054 -0.015645027 -0.015312154
0.0009986188 0.017975137 -0.027961325 0.03228867 0.019972375 -0.008987568 -0.018973757 -0.006324585
-0.019639501 -0.003994475 -0.014313535 -0.0009986188 -0.0026629833 0.025631214 -0.0019972376 -0.013647789
-0.004327348 0.010651933 0.0159779 -0.013647789 -0.003328729 -0.015312154 -0.016310772 0.003661602
0.008987568 -0.022635357 0.008654696 -0.016643645 0.016976519 -0.004660221 -0.0056588394 -0.016310772
0.0009986188 -0.003994475 0.0016643645 -0.011650552 0.015645027 -0.019639501 -0.0009986188 -0.013980662
0.009986187 -0.013647789 0.015312154 -0.009986187 -0.0053259665 -0.011983424 0.017975137 0.006657458
-0.0053259665 0.017975137 -0.004327348 -0.015645027 -0.022635357 0.018973757 0.013314916 0.002995856
-0.02529834 0.02163674 0.0013314916 0.026962705 -0.0006657458 0.004660221 0.0009986188 -0.006324585
0.0053259665 0.0016643645 -0.0149792805 -0.01031906 -0.029292816 -0.01031906 -0.027295578 0.0003328729
-0.012316298 0.003328729 -0.017642263 0.017309392 -0.016643645 -0.010984806 -0.006990331 0.015312154
-0.024965469 -0.003661602 -0.0023301104 -0.004660221 0.023633976 -0.029292816 0.017642263 0.023301104
-0.007656077 -0.02163674 0.002995856 0.011317679 -0.018640883 0.01830801 -0.01031906 0.021303866
-0.00798895 -0.02296823 -0.0009986188 -0.021969613 0.024632595 0.008654696 0.005991712 -0.0023301104
-0.019306628 -0.009653314 0.027628452 0.021969613 -0.00798895 -0.0053259665 0.016976519 -0.012982043
-0.0003328729 -0.016976519 -0.007656077 -0.024299722 0.010984806 0.019639501 -0.02629696 0.0003328729
0.008321823 -0.017975137 0.009320442 0.017975137 0.020970993 0.017642263 0.008654696 0.024632595
-0.022635357 0.006324585 -0.0013314916 -0.018640883 -0.02529834 0.0053259665 0.008321823 0.006990331
-0.00798895 0.003994475 0.0013314916 -0.0159779 -0.008654696 -0.015645027 0.012982043 0.012982043
-0.0159779 0.018640883 -0.021969613 0.020305248 0.019972375 -0.023966849 -0.01264917 0.0023301104
-0.027961325 -0.01031906 0.018973757 -0.02063812 0.004660221 -0.013980662 0.00798895 0.013314916
-0.006657458 -0.013314916 -0.01830801 -0.0009986188 -0.008987568 -0.015312154 0.010651933 0.013647789
-0.02163674 -0.025964087 -0.0023301104 0.003994475 -0.021969613 0.002995856 -0.013647789 0.016976519
-0.01031906 0.014313535 0.010984806 -0.0053259665 -0.02529834 -0.022635357 -0.008654696 -0.02063812
0.015645027 -0.013647789 -0.02163674 -0.01830801 -0.006657458 0.016643645 -0.003661602 0.003994475
