saved_model/quantized_models/layers5/trial2/paramcount217031.tflite (tflite, 228008 bytes, 24 tensors)

sequential_1/dense_3/MatMul f4 [7, 64]
00000000: 63e5 7cbe 7edf 2bbe 6301 8abd f4f1 3a3d
00000010: cab6 4bbe 4f04 75be e224 d33c 2767 023e
00000020: 8e7e 483e 3206 56be 4937 2f3e 9d71 673e
00000030: 4921 13be 8213 f93d df7b 23be 96fd bb3d
00000040: 8530 4c3e df4d 0dbe 5c66 34bd 2438 80bd
00000050: 48eb cfb8 6c76 463e 8e05 f5bd c3e5 743d
00000060: 062b 68be afd4 2cbe efe4 143e 579d 92be
00000070: 0582 413d 3a28 c33d e488 4a3d fcbc 403e
00000080: cd60 18bc 2e73 2ebd 7e95 723e 9b00 2abe
00000090: 79a8 78be f521 cfbd d6fc 2abe dd7d 8c3e
000000a0: 371a 613e 745c 90be baa8 313e 683b c8bd
000000b0: 420e 713d 4a09 433e 3ae2 55be 8dee 50be
000000c0: bfcc 9abe 7fed e5bd b8ff 873e 5ba9 0c3c
000000d0: 8601 783d bbb6 723e 141f 0f3e 1f33 fd3d
000000e0: 7791 f53d 4d2f 6cbe c188 033e ed9a 81bd
000000f0: e144 9fbd 4bab 77be dc25 57be fe1f 4cbe
00000100: a76d 723e ef0d 0f3e a80c f53d 51b2 6e3e
00000110: 8739 f13d 2284 4fbe 6ebe 9fbd 4514 95be
00000120: dfab 273e 8720 c43d 05f2 2cbe 467a 853c
00000130: 0383 0cbe 5e4b 9bbe 7984 2f3e c52a 3f3e
00000140: 8dfa 593e a3cb 5bbe 009f 073d 4d75 83be
00000150: ddfb 93bd a989 423e 4dbb 433e 0a77 25be
00000160: 3b11 b33d bbc3 51be 584b 763d 2e3c 0f3d
00000170: 58b1 4f3e 2137 58be f5ee 8cbd 9255 7a3c
00000180: c6ea 7e3e 2216 fdbd cbcc 573e f0ba 943c
00000190: 42de 2e3e 8fb0 29be 5a14 8b3d 98ee 89be
000001a0: 8159 563e 24c2 8c3c 522c eb3c a553 91be
000001b0: a3f8 173d 4045 013e 3179 6ebe a062 8f3d
000001c0: f1de b13c f775 303e 239a 883e 9fdc b03d
000001d0: 9f6c 243e ec89 823e a0f2 403e 5489 57be
000001e0: 3482 713d d704 f13c ee9f 00be a42a d53d
000001f0: 4488 4abe fe04 78bd 7bdf 6f3e 6da6 2a3e
00000200: 1091 9a3d b51c 1e3d d427 14be f14a d83c
00000210: d7e0 a93d f5a7 233e 6365 0cbd 215d 513d
00000220: 93b0 193d fb7f 91bd 0539 703e f182 f9bd
00000230: cf43 bd3d b5fd 68be 9213 8e3d 9bf8 d8bd
00000240: a596 003e 2ca3 8a3e 8c75 93be 397f 563e
00000250: c166 42bc ef28 22be 186e 833e ef12 a33d
00000260: 9ebb f4bc 435b 76be 2498 e23d def1 25be
00000270: cdc7 7ebe a406 e13c 617e ccbc ba59 a93c
00000280: a10f 823d a5ff 5c3e 1a8a 12be 45a8 89be
00000290: a679 22be 9a38 2bbe 742c 7ebd ba34 593e
000002a0: d03d 293e 4881 29be 0252 30be a92c bdbd
000002b0: f808 50be 85eb 34be 9f1b ee3d 2466 bcbc
000002c0: 474c 94bc fbd6 f8bc b8e7 3abe 5461 8cbd
000002d0: 6a71 29be 63a0 003e d70c 45be 5434 ca3d
000002e0: 3bbd 3f3d b93d 64be ae87 e738 6115 0e3e
000002f0: eff7 af3d 829a 58be 156e 073d 3de9 be3d
00000300: e7b2 273e 1af3 32bd b7ad 0abe 8a97 72be
00000310: 0711 2d3c 316f 7ebe 9817 ca3d 2d96 2c3e
00000320: b4a3 913e b30b 24be e2ef 843e 1280 80be
00000330: 5a9f 43be 93be 6a3e 52e6 a03d e7aa 23be
00000340: 5ee3 72be e032 c13d b61e 983e a9ed 7ebe
00000350: 8afe 1dbe 676c 0a3e 5f60 d93d 0c4d 58be
00000360: 8f59 8dbe 8a9f 873e b57d 093e fcbf 3d39
00000370: e034 733e 47cd 763e 8114 693d cfe2 4c3d
00000380: 5e28 0dbe 4eaa 25bd 7d1e 8fbe 25da 613e
00000390: c5c3 873e 021e 793e 5579 b7bd 65ca 8d3d
000003a0: 3d57 5b3e 834d 233e 237e 1dbe ec14 42be
000003b0: 1236 38be 0fea 733e d637 dbbd 360f 5a3e
000003c0: 90ac a9bb 8a1c 85be 91d9 8ebe cd4b 153e
000003d0: 247c 263e fe61 63be 2334 8b3e 3955 8b3c
000003e0: c5e5 7d3e 187a 5bbc ea1c 07bb ab08 4b3b
000003f0: 72ad 08bd b700 52be 714c bc3c f0f1 49be
-0.24696879 -0.16784474 -0.06738546 0.0456409 -0.19893947 -0.23927425 0.025774423 0.12734662
0.19579527 -0.20900801 0.17110933 0.22601934 -0.14368166 0.12161924 -0.15965222 0.09179227
0.19940384 -0.13799237 -0.04404293 -0.06260708 -9.914354e-05 0.19381112 -0.1196395 0.05978943
-0.22672662 -0.16878007 0.14540456 -0.28635666 0.047243137 0.09529157 0.049446955 0.18822092
-0.009300423 -0.042590313 0.23689839 -0.16601793 -0.24283017 -0.10113899 -0.16698012 0.27439776
0.21982656 -0.28195536 0.1734952 -0.09776956 0.058851488 0.19046512 -0.2088708 -0.204035
-0.30234334 -0.112269394 0.26562285 0.008585299 0.060548328 0.23702519 0.13976699 0.12363266
0.11990636 -0.23064919 0.12845136 -0.06328378 -0.077768095 -0.24186437 -0.21010536 -0.19934079
0.23674642 0.13970159 0.119653046 0.2331021 0.117785506 -0.20265248 -0.077999935 -0.29117027
0.16374157 0.095765166 -0.16889198 0.016293656 -0.13721852 -0.30330938 0.17140378 0.18668659
0.21286984 -0.214644 0.03311062 -0.2567543 -0.072257735 0.18997826 0.19114418 -0.16158691
0.08743521 -0.20484821 0.060130447 0.0349695 0.20282495 -0.2111478 -0.06881515 0.015279191
0.24894246 -0.12357737 0.21074216 0.018155545 0.17076972 -0.16571258 0.06790991 -0.26939845
0.2093258 0.017182417 0.028707657 -0.28384128 0.037102353 0.12624073 -0.23288418 0.07001233
0.021712752 0.172325 0.26680097 0.0863583 0.1605706 0.2549585 0.18842554 -0.2104848
0.058962062 0.029421253 -0.12561008 0.10408524 -0.19778544 -0.060551636 0.23425095 0.16665049
0.075472 0.038601596 -0.14468318 0.026402922 0.08294838 0.1598204 -0.034276377 0.051114205
0.03752191 -0.071044885 0.23459251 -0.12183178 0.09241449 -0.22753032 0.069373265 -0.10594293
0.12557466 0.27077615 -0.2880062 0.20946969 -0.011865319 -0.15835927 0.25669932 0.07962596
-0.02987462 -0.24058251 0.11064175 -0.16205546 -0.24880905 0.027468987 -0.024962606 0.020672668
0.06350637 0.21581896 -0.14310494 -0.26886192 -0.15866718 -0.1672081 -0.062054113 0.2121152
0.16527486 -0.16553223 -0.17218783 -0.09237034 -0.20315921 -0.17667969 0.11626362 -0.022997923
-0.018102778 -0.030375948 -0.18252456 -0.06854501 -0.1654717 0.12561183 -0.1924318 0.09873262
0.046811324 -0.2228917 0.00011040211 0.13875343 0.085922115 -0.2115269 0.033063967 0.093218304
0.1637684 -0.04368887 -0.1354283 -0.2369062 0.010563142 -0.24847104 0.098677814 0.16854163
0.28445208 -0.16020088 0.25964266 -0.2509771 -0.19103757 0.22924261 0.0785643 -0.15983163
-0.23719546 0.09433532 0.2971093 -0.24895348 -0.1542913 0.13517915 0.106140845 -0.21123141
-0.2760739 0.26488906 0.1342686 0.00018095964 0.23750639 0.24101745 0.05690432 0.05002099
-0.1378493 -0.04044562 -0.27952948 0.22055872 0.26516548 0.24327853 -0.08958689 0.06923369
0.21419998 0.15947537 -0.15380149 -0.18953294 -0.17989376 0.23819755 -0.10704009 0.21294865
-0.0051780418 -0.25998336 -0.27900365 0.14579697 0.16258293 -0.2220535 0.27188215 0.01700841
0.24794681 -0.013395809 -0.00206166 0.0030980508 -0.033368535 -0.20508085 0.022985669 -0.19721198

sequential_1/conv2d_5/BiasAdd/ReadVariableOp f4 [2]
00000000: 98a2 e2b9 257d 0c3d
-0.0004322722 0.034299035

sequential_1/conv2d_6/BiasAdd/ReadVariableOp f4 [2]
00000000: aa52 14bc 1522 cb3c
-0.009052912 0.024796525

sequential_1/conv2d_7/BiasAdd/ReadVariableOp f4 [2]
00000000: 32c8 61bb 3a11 8b3c
-0.00344516 0.016975988

sequential_1/conv2d_8/BiasAdd/ReadVariableOp f4 [2]
00000000: e72a be3c 5985 5cbb
0.023213817 -0.0033648817

sequential_1/conv2d_9/BiasAdd/ReadVariableOp f4 [2]
00000000: 8a03 213c 75af b33c
0.009827504 0.02193425

sequential_1/conv2d_5/Conv2D f4 [2, 3, 3, 1]
00000000: 1542 efbd dd06 203e 97fe a63a 1cc6 98be
00000010: 2ce2 a4be 3411 d6be 458c bebd bd66 a93e
00000020: 4fb5 c2be be03 d8be 3a26 e7be a322 c83d
00000030: 1947 e8bd 14d9 be3d cf0b 613e 28e8 c33e
00000040: 4af5 2bbe c410 e03e
-0.11682526 0.15627618 0.0012740669 -0.29838645 -0.32203805 -0.4181 -0.09304098 0.33086196
-0.38028952 -0.42190355 -0.45146352 0.097722314 -0.11341686 0.09318748 0.21977161 0.3826306
-0.16792789 0.4376279

sequential_1/conv2d_6/Conv2D f4 [2, 3, 3, 2]
00000000: 70da 123e 69aa 1c3e 474e a53e a227 09bc
00000010: f98b 05bd 35d8 b43e 8735 853d 1746 9c3d
00000020: c48f c73d 3c72 d23e 3328 873d 991f 4dbe
00000030: 19e9 90be e2ed 86be 6421 9e3e 2f48 2d3d
00000040: 0c1f d43e bb44 4abe 3b17 01be f131 d53e
00000050: 5a8e 073d 490b 433e fa3a 0e3e e904 1f3e
00000060: 002f 873e 040f d0bd d75d 87be 1ef1 b6be
00000070: 1ffd bb3d 6eb1 1f3e 6426 fdbd 0418 66be
00000080: d25b 9abe 5cee c6be 9667 083e cd97 8bbd
0.1434114 0.15299381 0.32286283 -0.008371266 -0.03260419 0.35321203 0.0650435 0.07630556
0.09744218 0.4110278 0.06599464 -0.20031585 -0.2830284 -0.26353365 0.3088485 0.042305168
0.41429937 -0.19752781 -0.12606518 0.41639665 0.03309474 0.19047274 0.13889685 0.15529217
0.26403046 -0.10159114 -0.26438782 -0.35730833 0.091791384 0.15595028 -0.12360838 -0.22470099
-0.30148178 -0.3885373 0.13320765 -0.06816063

sequential_1/conv2d_7/Conv2D f4 [2, 3, 3, 2]
00000000: a80d c83e 687b bf3e 30ec 9fbd 7cd0 62bc
00000010: 3bd0 c73c 1459 a63e 878a dcbc c10c bfbe
00000020: 59cb 91be f148 d93b 7a1d 513e 1167 a73e
00000030: df2f 2e3e e3ec 6fbe 2136 a8be fec0 b8be
00000040: baa1 393e 1324 af3e 0c89 363d 292c 2dbe
00000050: 6b21 623e 8758 4fbe cc5e c43c c958 d83e
00000060: 2521 26be d015 8f3d 364c ebbc 8545 ab3e
00000070: bab8 45be 5253 01be 0cbc 87be 1cc1 38be
00000080: 4591 09bd 2b90 b2be 8e12 aabd 952b 93be
0.3907292 0.3739884 -0.07808721 -0.013843652 0.024391284 0.32489836 -0.026921524 -0.37314418
-0.28475454 0.0066310097 0.204214 0.3269582 0.17010449 -0.23430209 -0.32853797 -0.3608474
0.181281 0.3420721 0.04456429 -0.16911377 0.2208306 -0.20248614 0.023970984 0.42255238
-0.16223581 0.06986582 -0.028722864 0.33451477 -0.19308749 -0.1262944 -0.26510656 -0.18042415
-0.033585805 -0.34875616 -0.0830432 -0.28744188

sequential_1/conv2d_8/Conv2D f4 [2, 3, 3, 2]
00000000: bc1c 1e3e e8e2 53bc afb0 a4be 9e47 023c
00000010: d0de a63d 837a c5bd 7a87 c6bd ff5e 753e
00000020: ceb1 71be ac5e a3bd b3d8 72bd 404d f53d
00000030: 91d9 d53b e38f 3c3e 5db3 143e 9ffc 443e
00000040: 8ede 233e 48ed 073e 2134 8b3e d952 b93e
00000050: e76b 3f3e 13a0 b83e 2aed 4c3e c2be bb3e
00000060: 5066 ad3e 3dda 863e 51ea 27be 0355 e3bd
00000070: 82df 3bbd 70ae d2be b728 a4be f5b8 123d
00000080: fed0 52be c8ed c1be 11af 8cbe 2c3d 13bd
0.15440649 -0.012932517 -0.3216605 0.007951645 0.08147967 -0.09642508 -0.09693809 0.2396202
-0.23602983 -0.079770416 -0.05928869 0.11977625 0.00652618 0.18414263 0.14521547 0.19236992
0.16002867 0.1327411 0.2718821 0.3619602 0.18693505 0.36059627 0.20012346 0.36668974
0.3386712 0.26338378 -0.16397978 -0.11100199 -0.04586745 -0.4114871 -0.32062313 0.03582092
-0.20587537 -0.37876725 -0.27477315 -0.03594701

sequential_1/conv2d_9/Conv2D f4 [2, 3, 3, 2]
00000000: d363 323e c68d 483e 3178 a8bd 67a2 82be
00000010: 74cd ccbe f0cd 8a3e fa8d b03d 478c 8bbe
00000020: 99c9 a63e a7f4 d93e 0538 2e3e 6d7e d93d
00000030: 070f 933e 2a61 a03e 9c5a 9dbd 5eff 37bd
00000040: cc66 aabe 6a0d 143e 5fed 533e b398 493b
00000050: 7ec5 b03b b81d c23e 683c e9bd 535e 9fbe
00000060: 94f4 373e 10c5 b4be 7c77 873e 4c78 7c3c
00000070: 4ce6 30be 73a5 cd3e 7b42 933e c30d 083d
00000080: 2b0f 843e 0b3f febc fa29 ce3e c530 a73d
0.17420892 0.19585332 -0.0822605 -0.25514528 -0.40000498 0.27110243 0.0862083 -0.2725546
0.32575682 0.42569467 0.17013557 0.10619817 0.28722402 0.3132413 -0.07683298 -0.04492127
-0.33281553 0.14458242 0.20696019 0.0030761182 0.0053946367 0.379133 -0.11388475 -0.3112665
0.17964393 -0.35306597 0.26458347 0.01540954 -0.17275351 0.4016529 0.28761658 0.03321625
0.25792822 -0.03103592 0.402664 0.08163599

sequential_1/dense_3/BiasAdd/ReadVariableOp f4 [7]
00000000: 01ae bebc 3bc0 973a e54a ed3a 8651 c139
00000010: ef52 3f39 ecb4 1aba b5f9 f3b7
-0.02327633 0.0011577675 0.0018103985 0.00036872568 0.00018246075 -0.0005901593 -2.9084136e-05

sequential_1/dense_2/BiasAdd/ReadVariableOp f4 [64]
00000000: 1f1f 7b3b 583a 8ebb de74 8db8 4d43 86bb
00000010: 0624 9e3b 34c6 d4b9 0b88 07bc 926a c7ba
00000020: af44 bdb9 4bb0 04bc e1ad cc3a 00ed 91bb
00000030: 126b 2dbb 7733 ab3a eaa1 bbbb 01cc ccbb
00000040: 0798 8fbb cf91 2f3a 6f2c 2bbb b958 5abb
00000050: 7df4 03ba 08c8 daba 3e18 fb3a 3cd7 4ebb
00000060: 9b01 e239 8837 c33a 3cbf bbba 2dac 21bb
00000070: 3844 66bb 4af7 58bb 9be8 b9ba 404f 32bb
00000080: cdcd 603a 1e17 bfbb 260f c4b9 e2a5 a9bb
00000090: 7252 6cbb badc d3ba c848 adba 9239 86b8
000000a0: d8d5 19bb 4c2b 12bb 6076 3d3a 3222 50b9
000000b0: 2464 43bb fdfe acbb f6e8 90ba c177 5a3b
000000c0: f9f8 9039 767d 09bb c486 b1bb 5c7b 2fbb
000000d0: ca79 86bb a248 62bb e8a5 4139 cc88 83ba
000000e0: 40e2 2f3b 312f 8e3a 3da9 45ba 8697 f7ba
000000f0: cf51 c43a 6e9b 19bb 8536 343b 2bb0 84bb
0.003831811 -0.004340451 -6.745172e-05 -0.0040973783 0.0048260717 -0.00040583464 -0.008272181 -0.0015214256
-0.00036100062 -0.008098672 0.0015615785 -0.0044533014 -0.0026461524 0.0013061602 -0.005726089 -0.006249905
-0.0043821367 0.00066974474 -0.0026119014 -0.0033317043 -0.0005033685 -0.0016691694 0.0019157005 -0.0031561395
0.00043107275 0.0014893869 -0.001432396 -0.0024669275 -0.0035135876 -0.003310638 -0.0014183702 -0.0027207881
0.00085755886 -0.005831613 -0.0003739532 -0.0051772455 -0.0036059883 -0.0016163804 -0.0013220543 -6.400341e-05
-0.0023473408 -0.002230364 0.0007227417 -0.00019849165 -0.0029814327 -0.0052794204 -0.0011055756 0.003333554
0.0002765132 -0.0020979322 -0.0054176766 -0.0026776409 -0.004103874 -0.0034528156 0.00018467719 -0.0010035275
0.0026837736 0.0010847804 -0.0007540172 -0.0018889762 0.0014977994 -0.002343859 0.0027498316 -0.004049321

sequential_1/batch_normalization_5/FusedBatchNormV3 f4 [2]
00000000: ef21 173c 2daf 103c
0.009224399 0.008830828

sequential_1/batch_normalization_5/FusedBatchNormV31 f4 [2]
00000000: cace 29bf e93a 1cbf
-0.6633116 -0.6102739

sequential_1/batch_normalization_6/FusedBatchNormV3 f4 [2]
00000000: 4089 4a3f 13ca 8340
0.79115677 4.1184173

sequential_1/batch_normalization_6/FusedBatchNormV31 f4 [2]
00000000: 2dbb 13bf ed72 8dbf
-0.5770748 -1.1050698

sequential_1/batch_normalization_7/FusedBatchNormV3 f4 [2]
00000000: ae56 b83f 1116 6940
1.4401453 3.6419718

sequential_1/batch_normalization_7/FusedBatchNormV31 f4 [2]
00000000: b0f0 96bf 591e 94bf
-1.1792202 -1.1571761

sequential_1/batch_normalization_8/FusedBatchNormV3 f4 [2]
00000000: dcce cd3f 3e3f b13f
1.6078753 1.3847425

sequential_1/batch_normalization_8/FusedBatchNormV31 f4 [2]
00000000: 40e8 4fbf 0dda 41bf
-0.8121376 -0.75723344

sequential_1/batch_normalization_9/FusedBatchNormV3 f4 [2]
00000000: da5b 7e3f 48ee 523f
0.99358904 0.8239484

sequential_1/batch_normalization_9/FusedBatchNormV31 f4 [2]
00000000: 7e66 20bf 7687 2ebf
-0.6265639 -0.68175447

sequential_1/dense_2/MatMul i1 [64, 3380] scale=0.00052353233 zero_point=0
00000000: 27d7 dc2d dc55 3a68 5ad2 e8dd e73e eae7
00000010: 0353 cb21 bf2c 3b01 4709 522e f9b5 0208
00000020: 0b54 3b56 302f 15f9 d3f7 fe4d d0eb 5716
00000030: 1bc3 ecc5 ea0c 0f00 4a23 e5ec edd5 4be2
00000040: 5f4e 3bdb d300 ff06 e708 5253 3cf8 cd2f
00000050: 4dd0 dbea 2d15 2ed8 640f 30fb d527 5049
00000060: 0420 38d1 c2be 31c7 eb58 57ae c1d2 45f2
00000070: 3000 535a 1c59 c22b e707 e333 0ac0 2110
00000080: 521d 1704 4b00 38d9 ee51 e643 4b10 0f35
00000090: 1f4d ed4f 12c5 ee4d f121 f4e6 2c09 e42b
000000a0: 283a 0dd1 ccd7 3f2c cd12 51d8 d4bd 2bf7
000000b0: becd 42db 2c40 53b2 fad7 0d25 1b1c 0ffd
000000c0: dc45 2a18 c9de f726 fadf 20dd c149 d7f8
000000d0: d0c8 d31b bcf9 bcc9 d914 e3e7 c921 c005
000000e0: fd4a 1638 f109 0df4 41f7 e6f2 31d7 aded
000000f0: f840 3d26 1dc7 3b19 3521 1821 1b47 0a55
0.020417761 -0.021464827 -0.018847164 0.023558956 -0.018847164 0.044500247 0.030364875 0.054447364
0.04711791 -0.024082487 -0.012564776 -0.018323632 -0.013088308 0.032459006 -0.011517711 -0.013088308
0.001570597 0.043453183 -0.027747214 0.017276566 -0.034029603 0.023035422 0.030888408 0.00052353233
0.037170794 0.004711791 0.042929653 0.024082487 -0.0036647264 -0.039264925 0.0010470647 0.0041882587
0.0057588555 0.043976717 0.030888408 0.04502378 0.025129553 0.02460602 0.010994179 -0.0036647264
-0.023558956 -0.004711791 -0.0010470647 0.04031199 -0.025129553 -0.010994179 0.045547314 0.011517711
0.014135373 -0.031935472 -0.010470646 -0.030888408 -0.011517711 0.006282388 0.007852985 0.0
0.03874139 0.018323632 -0.014135373 -0.010470646 -0.009947115 -0.02251189 0.039264925 -0.01570597
0.049735572 0.040835522 0.030888408 -0.019370696 -0.023558956 0.0 -0.00052353233 0.003141194
-0.013088308 0.0041882587 0.042929653 0.043453183 0.03141194 -0.0041882587 -0.026700148 0.02460602
0.04031199 -0.025129553 -0.019370696 -0.011517711 0.023558956 0.010994179 0.024082487 -0.020941293
0.052353233 0.007852985 0.025129553 -0.0026176616 -0.02251189 0.020417761 0.041882586 0.03821786
0.0020941293 0.016753035 0.029317811 -0.02460602 -0.032459006 -0.034553133 0.025653085 -0.029841343
-0.010994179 0.046070844 0.045547314 -0.042929653 -0.032982536 -0.024082487 0.03612373 -0.007329453
0.025129553 0.0 0.043453183 0.04711791 0.014658906 0.046594378 -0.032459006 0.02251189
-0.013088308 0.0036647264 -0.015182437 0.026700148 0.005235323 -0.03350607 0.017276566 0.008376517
0.042929653 0.015182437 0.012041244 0.0020941293 0.039264925 0.0 0.029317811 -0.020417761
-0.009423582 0.04240612 -0.013611841 0.035076667 0.039264925 0.008376517 0.007852985 0.027747214
0.016229503 0.04031199 -0.009947115 0.041359056 0.009423582 -0.030888408 -0.009423582 0.04031199
-0.007852985 0.017276566 -0.006282388 -0.013611841 0.023035422 0.004711791 -0.014658906 0.02251189
0.020941293 0.030364875 0.0068059205 -0.02460602 -0.027223682 -0.021464827 0.032982536 0.023035422
-0.026700148 0.009423582 0.04240612 -0.020941293 -0.023035422 -0.035076667 0.02251189 -0.004711791
-0.034553133 -0.026700148 0.034553133 -0.019370696 0.023035422 0.03350607 0.043453183 -0.040835522
-0.003141194 -0.021464827 0.0068059205 0.019370696 0.014135373 0.014658906 0.007852985 -0.001570597
-0.018847164 0.03612373 0.021988358 0.012564776 -0.028794277 -0.0178001 -0.004711791 0.01989423
-0.003141194 -0.017276566 0.016753035 -0.018323632 -0.032982536 0.03821786 -0.021464827 -0.0041882587
-0.025129553 -0.029317811 -0.023558956 0.014135373 -0.0356002 -0.0036647264 -0.0356002 -0.028794277
-0.020417761 0.010470646 -0.015182437 -0.013088308 -0.028794277 0.017276566 -0.03350607 0.0026176616
-0.001570597 0.03874139 0.011517711 0.029317811 -0.007852985 0.004711791 0.0068059205 -0.006282388
0.034029603 -0.004711791 -0.013611841 -0.007329453 0.025653085 -0.021464827 -0.043453183 -0.009947115
-0.0041882587 0.03350607 0.031935472 0.01989423 0.015182437 -0.029841343 0.030888408 0.013088308
0.027747214 0.017276566 0.012564776 0.017276566 0.014135373 0.037170794 0.005235323 0.044500247
