saved_model/quantized_models/layers5/trial2/paramcount759571.tflite (tflite, 775840 bytes, 24 tensors)

sequential_6/dense_13/MatMul f4 [7, 64]
0	0xbe2069e0	-0.15665388
1	0xbcb6680a	-0.022266407
2	0xbea1be25	-0.3159038
3	0x3e0ccefa	0.1375083
4	0x3c3618a4	0.011114273
5	0xbe481513	-0.19539289
6	0x3e1fd2cc	0.15607756
7	0x3e5e0169	0.21680225
8	0x3e2f251e	0.17104003
9	0xbe989375	-0.298
10	0x3e2cd95f	0.16879795
11	0xbdb69e7a	-0.08916946
12	0xbdcc270b	-0.09968384
13	0xbe025edc	-0.12731498
14	0xbe05949f	-0.13044976
15	0x3d97cb6a	0.07411845
16	0x3e817ba3	0.2528964
17	0xbe82a111	-0.2551351
18	0xbe3aa7f1	-0.18228127
19	0xbe3778f8	-0.1791724
20	0x3e0e90c1	0.13922407
21	0xbda3f43e	-0.0800557
22	0x3d0afd19	0.03393278
23	0xbe23f463	-0.16011195
24	0xbe142f8c	-0.14471263
25	0x3e1a54d3	0.1507142
26	0x3e7db52b	0.24776141
27	0xbd9c2545	-0.07624296
28	0x3e25f494	0.1620658
29	0xbe65ed72	-0.2245386
30	0x3e46b9d8	0.19406831
31	0xbe1e5bc1	-0.15464689
32	0xbd991b46	-0.07475905
33	0x3de8f0fb	0.113740884
34	0xbda4aab9	-0.08040375
35	0x3e122a75	0.14274009
36	0xbe2c96e9	-0.16854443
37	0xbe27823c	-0.16358274
38	0xbe6b1f6b	-0.22961204
39	0xbe681986	-0.22665986
40	0x3d9b0401	0.07569123
41	0x3e8a7a91	0.27046636
42	0xbe5cb376	-0.21552834
43	0x3e0c19cb	0.13681714
44	0xbe70adf1	-0.23503853
45	0x3e65ad1c	0.22429317
46	0x3dae644b	0.08515223
47	0xbe6bdaef	-0.23032735
48	0xbe41e82d	-0.18936224
49	0x3e846fa4	0.25866425
50	0x3e523dc5	0.20531376
51	0xbd56442c	-0.052311108
52	0xbd53c3fd	-0.05170058
53	0xbe11cf44	-0.14239222
54	0x3e1e219e	0.15442511
55	0xbd909295	-0.07059208
56	0x3e5333e5	0.20625265
57	0x3cff71ba	0.031182159
58	0x3d07108f	0.032974776
59	0xbe85899c	-0.2608155
60	0xbe5ba768	-0.21450579
61	0xbb73c7a3	-0.003719785
62	0xbe303517	-0.17207752
63	0xbdd4ba53	-0.10387101
64	0xbe3cce9c	-0.1843819
65	0xbe07f213	-0.13275938
66	0x3e5a3582	0.21309474
67	0x3e471b5a	0.19444028
68	0x3e18b46f	0.1491258
69	0x3da84e1e	0.08218025
70	0xbe9067d0	-0.28204203
71	0x3e6c53b5	0.23078807
72	0xbd0964d5	-0.033543427
73	0x3e1d46b8	0.15359008
74	0x3db207a0	0.086928606
75	0x3dca2bcf	0.09871637
76	0xbe4b4c5a	-0.19853345
77	0xbde993b6	-0.11405127
78	0xbe12c679	-0.14333524
79	0xbdfe254a	-0.12409456
80	0xbe71be46	-0.2360774
81	0x3d51e6de	0.051245563
82	0xbbaa566d	-0.005198291
83	0x3e127a0e	0.14304373
84	0x3e74492e	0.23856041
85	0xbe9006d8	-0.2813022
86	0x3d9ae91d	0.07563994
87	0x3dd47836	0.10374491
88	0xbe2fa3f6	-0.1715239
89	0xbe6c142d	-0.23054571
90	0x3e33550e	0.17512915
91	0xbe12c74a	-0.14333835
92	0x3e6e6661	0.23281242
93	0x3e8a0811	0.2695928
94	0xbd366f91	-0.04453999
95	0x3e377d56	0.17918906
96	0x3c9090d8	0.017647192
97	0x3c746d92	0.014918702
98	0xbe2fc7fe	-0.17166135
99	0x3e77f43a	0.24214259
100	0xbe5ce11c	-0.21570247
101	0x3e0118f4	0.12607175
102	0xbdedc1ac	-0.116092056
103	0xbca044e3	-0.019564098
104	0x3e12b0e0	0.14325285
105	0xbe6f8681	-0.23391153
106	0x3dcb24f4	0.099191576
107	0xbde750b2	-0.11294688
108	0xbdfec15d	-0.12439225
109	0xbe7484c0	-0.23878765
110	0x3df3c733	0.119032286
111	0xbd863f9e	-0.06555103
112	0x3dc8e72b	0.09809717
113	0x3e4425ac	0.19154996
114	0xbd8b20bd	-0.06793354
115	0xbe6aae14	-0.22917968
116	0xbe79e358	-0.24403131
117	0xbbd6538a	-0.0065407204
118	0x3e89867d	0.2686042
119	0xbad1a958	-0.0015995903
120	0xbe749bf8	-0.23887622
121	0x3e03ab6e	0.12858364
122	0xbe04b39c	-0.1295914
123	0x3d94c6a4	0.0726445
124	0xbdff331c	-0.1246092
125	0x3e5653aa	0.20930353
126	0xbe814d62	-0.2525435
127	0x3e52c780	0.20583916
128	0xbc0942d7	-0.008377752
129	0x3e050394	0.12989646
130	0xbe260437	-0.16212545
131	0xbe856455	-0.2605311
132	0xbdc01f48	-0.093809664
133	0x3e06813a	0.13135234
134	0x3e17d5ff	0.14827727
135	0x3e1d9e7f	0.15392493
136	0xbe77d152	-0.24200943
137	0x3e07709d	0.13226552
138	0xbe84c8d7	-0.2593448
139	0x3e8cc117	0.27491066
140	0x3e829f8d	0.25512353
141	0xbe12f8aa	-0.1435267
142	0xbdfd64c5	-0.12372736
143	0x3e8a2417	0.2698066
144	0x3cbaf929	0.022823887
145	0xbc419797	-0.011815927
146	0x3e8cbc1a	0.2748726
147	0xbe8a1aa9	-0.26973465
148	0x3c753d9c	0.014968302
149	0xbe695e35	-0.22789843
150	0xbe63340f	-0.22187828
151	0x3de5d00d	0.11221323
152	0x3d162e09	0.036664996
153	0xbd6edb3e	-0.058314554
154	0x3e73e5d9	0.23818149
155	0x3e2fbe57	0.17162453
156	0x3e9519dd	0.29121295
157	0xbddc9c37	-0.10771983
158	0xbe7b9184	-0.24567229
159	0x3e0017f6	0.1250914
160	0xbddf3705	-0.10899166
161	0xbe1a060e	-0.15041372
162	0xbd676e09	-0.056501422
163	0x3e046ef4	0.1293295
164	0x3e18fb84	0.14939696
165	0xbe0ebb1d	-0.13938566
166	0xbdd57a49	-0.10423715
167	0xbbbf1623	-0.0058314963
168	0x3db8417a	0.08996864
169	0x3dd0e246	0.10199408
170	0xbe6eed1f	-0.23332642
171	0xbc76e15c	-0.015068378
172	0xbe1086f7	-0.14113985
173	0xbd1e1af0	-0.03859991
174	0xbe0087b6	-0.1255177
175	0x3ce2a430	0.027666181
176	0x3cd9c0c9	0.026581185
177	0xbe8afb6a	-0.2714494
178	0x3cef84bc	0.029238097
179	0xbe83aa36	-0.25715798
180	0xbd78def1	-0.06075949
181	0xbc011916	-0.007879516
182	0x3e56d12a	0.20978227
183	0x3d84e850	0.064896226
184	0x3e5d29e3	0.2159801
185	0x3d363caf	0.044491466
186	0x3d8bdf05	0.06829647
187	0xbe4b562b	-0.19857089
188	0x3e83c009	0.2573245
189	0x3e7beb08	0.24601376
190	0x3dab4a01	0.083637245
191	0xbe533075	-0.20623954
192	0x3d24e8d3	0.0402611
193	0x3dd13179	0.10214514
194	0x3ddce6a8	0.10786182
195	0x3e43cefa	0.19121924
196	0xbe60c556	-0.21950278
197	0xbe001aee	-0.12510273
198	0x3e569ed1	0.20959021
199	0xbe214f16	-0.15752825
200	0x3e3c8841	0.18411352
201	0xbe190ae8	-0.14945567
202	0x3c42e42c	0.011895221
203	0xbe8fb9db	-0.28071484
204	0xbe898ada	-0.26863748
205	0x3e8a814a	0.27051765
206	0xbe0d9bc6	-0.13828954
207	0xbe6dcbad	-0.23222227
208	0xbe69a736	-0.22817692
209	0xbe92932a	-0.28627902
210	0xbc0b21d0	-0.008491948
211	0xbcb84961	-0.022495927
212	0xbe6b73a6	-0.22993335
213	0xbd496813	-0.04917152
214	0xbe69a5bc	-0.22817129
215	0x3c0939a3	0.008375558
216	0x3cb45e92	0.02201775
217	0xbd41336b	-0.047168177
218	0x3d9f784c	0.07786617
219	0xbdc6a7bf	-0.09699964
220	0xbd8db1a6	-0.069186494
221	0xbe127a90	-0.14304566
222	0xbe10fd86	-0.14159212
223	0xbe8c19c4	-0.27363408
224	0x3e63cadc	0.22245353
225	0xbe750f31	-0.23931576
226	0xbc2f8eb2	-0.010715174
227	0xbe7b5ef5	-0.24547942
228	0x3e877930	0.26459646
229	0xbe8086fe	-0.2510299
230	0x3bef7e39	0.007308748
231	0xbd03625f	-0.032076236
232	0x3e75df25	0.24010904
233	0x3da96257	0.0827071
234	0x3d2e1f03	0.042510044
235	0x3d3822bf	0.04495501
236	0x3d665c36	0.056240283
237	0xbdb47423	-0.08811214
238	0xbdb589c1	-0.08864165
239	0x3e8aaa32	0.27082974
240	0xbe745bb7	-0.23863111
241	0xbe802234	-0.25026095
242	0xbe261711	-0.16219737
243	0xbd1c6d4c	-0.03819017
244	0xbe8bfd1e	-0.2734155
245	0xbe39c298	-0.18140638
246	0x3e09f4f5	0.1347235
247	0xbe87b0bd	-0.26502028
248	0x3e742354	0.23841602
249	0xbe2e7682	-0.17037395
250	0xbd1670aa	-0.03672854
251	0xbe233852	-0.15939453
252	0xbe5b795e	-0.21433017
253	0x3e2dbf11	0.16967417
254	0xbe81b4aa	-0.25333148
255	0x3e3bbee0	0.18334532

sequential_6/conv2d_30/BiasAdd/ReadVariableOp f4 [7]
0	0x3c0a4ccd	0.008441162
1	0x3c4d4afe	0.012530087
2	0x3c29d662	0.010366054
3	0x3bbf722c	0.005842468
4	0xbc0cb991	-0.008589164
5	0x3c4ee632	0.012628125
6	0x3b508f3d	0.0031823658

sequential_6/conv2d_31/BiasAdd/ReadVariableOp f4 [7]
0	0xbc1acd4a	-0.009448359
1	0x3c311cf7	0.010810128
2	0x3c22b492	0.009930747
3	0x3b10e982	0.0022111838
4	0x3a5ae48a	0.0008350095
5	0x3afb2dda	0.0019163445
6	0xbb906c01	-0.0044074063

sequential_6/conv2d_32/BiasAdd/ReadVariableOp f4 [7]
0	0xba95753f	-0.001140274
1	0x3bd73705	0.006567838
2	0xbc2da087	-0.010597355
3	0x3bb74688	0.005593125
4	0xbb08dd12	-0.0020883721
5	0xbb9ca6ce	-0.004780627
6	0x3c5550f2	0.013019787

sequential_6/conv2d_33/BiasAdd/ReadVariableOp f4 [7]
0	0xbc23b191	-0.009991066
1	0xbaeef080	-0.0018229634
2	0xbb28b51c	-0.0025742715
3	0xbbed1bb9	-0.007235971
4	0x3aa11207	0.0012288698
5	0x3c2c1c5c	0.010504808
6	0x38f1a0b2	0.00011521707

sequential_6/conv2d_34/BiasAdd/ReadVariableOp f4 [7]
0	0x3af3a316	0.0018588032
1	0xbc22285f	-0.0098973205
2	0xbb8b840c	-0.0042576846
3	0xbbe04a44	-0.0068447907
4	0xba1ad3f8	-0.00059062196
5	0xbbb0c3b3	-0.005394423
6	0x3bbfe3f2	0.0058560306

sequential_6/conv2d_30/Conv2D f4 [7, 3, 3, 1]
0	0xbe048d4c	-0.12944525
1	0x3e8c39a1	0.27387717
2	0xbc49c0b0	-0.012314007
3	0x3c5d0608	0.0134902075
4	0xbe91a2ac	-0.2844442
5	0xbe232a9a	-0.1593422
6	0xbd957740	-0.07298136
7	0xbe5e933c	-0.21735853
8	0x3e033eab	0.12816875
9	0x3e90c39b	0.28274235
10	0x3dd9290c	0.10603532
11	0x3dd4c482	0.103890434
12	0xbd211e54	-0.039335564
13	0x3e32f5cd	0.17476578
14	0x3d05b951	0.032647435
15	0x3e6ed64a	0.23323932
16	0x3e03d7df	0.12875317
17	0xbe8a3c0f	-0.26998946
18	0xbbedb60e	-0.0072543686
19	0x3c99487c	0.018711321
20	0x3e4ffc38	0.20311058
21	0x3e8218da	0.25409585
22	0xbe0eb84a	-0.13937488
23	0xbd2a6e42	-0.041609056
24	0xbe81b933	-0.25336608
25	0xbdd509e2	-0.104022756
26	0x3e2565bc	0.1615209
27	0xbcb58cf8	-0.022161946
28	0xbe31e01b	-0.17370646
29	0x3e3fd311	0.18732859
30	0x3e814f8f	0.2525601
31	0x3dfc1d85	0.12310318
32	0x3e8a5811	0.27020314
33	0xbd7b3ae4	-0.06133546
34	0xbe3be630	-0.18349528
35	0x3e53c464	0.20680386
36	0xbd84ab3e	-0.06477974
37	0x3e36f5fb	0.17867272
38	0x3d151684	0.036398426
39	0x3c8c01f8	0.017090783
40	0x3e8d7425	0.27627674
41	0xbe5077d8	-0.20358217
42	0xbde99930	-0.11406171
43	0xbd4ca823	-0.049965035
44	0xbe8d5541	-0.27604106
45	0x3e0af65e	0.13570544
46	0x3d8ec35a	0.06970854
47	0x3d89a769	0.06721384
48	0xbe40573c	-0.18783277
49	0x3e4a535d	0.19758363
50	0x3e61eea6	0.22063693
51	0xbde55495	-0.11197773
52	0xbe4927aa	-0.19644037
53	0x39bd8794	0.00036149903
54	0x3d72056e	0.05908721
55	0xbd2d7a17	-0.042352762
56	0x3db891aa	0.09012158
57	0x3dfafc6c	0.12255177
58	0xbe24ecb0	-0.16105914
59	0xbe867baa	-0.26266223
60	0xbc8c7ad7	-0.017148418
61	0xbe3134a5	-0.17305239
62	0x3e3c1d69	0.18370594

sequential_6/conv2d_31/Conv2D f4 [7, 3, 3, 7]
0	0x3dab6549	0.08368928
1	0xbe0fbdc9	-0.14037241
2	0xbd4c8ff6	-0.04994198
3	0xbcc15906	-0.02360202
4	0x3d81c501	0.06336404
5	0xbccf6172	-0.02531502
6	0x3c94d275	0.01816676
7	0x3d57e406	0.052707694
8	0x3db64433	0.08899727
9	0xbd20de30	-0.039274395
10	0x3c2a1fb6	0.010383537
11	0xbde6275b	-0.11237975
12	0x3d61573b	0.05501483
13	0xbd917919	-0.07103176
14	0xbdcb149c	-0.0991604
15	0xbe570b41	-0.21000387
16	0xbb9533df	-0.0045533027
17	0xbe488111	-0.19580485
18	0x3dcd444a	0.10022791
19	0x3bfd70d6	0.0077343984
20	0xbc158893	-0.0091268
21	0x3c3015d9	0.010747396
22	0x3e1c2fa6	0.15252551
23	0x3dde826a	0.10864718
24	0xbcbcd545	-0.023050914
25	0xbca13b61	-0.019681634
26	0x3da54667	0.08070069
27	0x3e5684ae	0.20949051
28	0xbdeb1f57	-0.11480587
29	0x3e5a737d	0.21333118
30	0x3e4a1120	0.19733095
31	0x3e10d58d	0.14143963
32	0x3dfef1d8	0.12448472
33	0x3e1839a8	0.14865744
34	0xbe0457fc	-0.12924188
35	0x3e379c32	0.17930678
36	0xbdc3f11f	-0.095674746
37	0x3c92469c	0.017855935
38	0x3e22fcd9	0.15916766
39	0x3dfe17d7	0.12406891
40	0x3e275023	0.16339163
41	0xbe16995b	-0.14706938
42	0x3b924097	0.004463266
43	0x3e14bb02	0.14524463
44	0xbddf5b2f	-0.10906064
45	0x3d646031	0.055755798
46	0xbdbbf2db	-0.091771804
47	0xbe5aeb44	-0.21378809
48	0xbd1ad8bf	-0.03780436
49	0xbe4a3533	-0.19746856
50	0x3d9eb4e6	0.077493474
51	0xbe154146	-0.14575681
52	0xbe30b536	-0.17256626
53	0x3cef10b2	0.029182766
54	0xbdab6915	-0.08369652
55	0xbde4ced3	-0.11172261
56	0xbdf926ab	-0.121655785
57	0xbe129dd0	-0.14318013
58	0xbe3bbb7c	-0.18333238
59	0xbdcc3ff8	-0.099731386
60	0xbcd4fcf7	-0.02599953
61	0x3d181578	0.03712985
62	0x3ce77ea4	0.02825863
63	0xbe000578	-0.12502086
64	0xbdc19f02	-0.094541565
65	0xbe5193fc	-0.20466608
66	0xbe12696a	-0.14298025
67	0xbe461aef	-0.19346212
68	0xbe2d5ce6	-0.16929969
69	0xbd18ba3e	-0.03728699
70	0x3e5936d3	0.2121232
71	0xbdde6e68	-0.10860902
72	0xbe4f0101	-0.20215227
73	0xbe3e7fa3	-0.18603377
74	0x3d44d4b4	0.048054412
75	0x3e084b85	0.13310058
76	0xbe54e1a8	-0.20789206
77	0x3e091555	0.13387044
78	0x3e07a413	0.13246183
79	0xbd582f48	-0.052779466
80	0xbe320755	-0.1738561
81	0xbe2bca66	-0.16776428
82	0x3e07792e	0.1322982
83	0x3e393f82	0.18090633
84	0x3e46e818	0.19424474
85	0x3e0dd9ec	0.13852662
86	0x3cc6602c	0.02421578
87	0xbe23a7ba	-0.15981951
88	0x3e39741f	0.18110703
89	0x3cfba4ef	0.030718295
90	0xbd90499f	-0.07045292
91	0xbe37d62f	-0.17952798
92	0x3e40dae7	0.18833505
93	0x3e111c3b	0.14170925
94	0x3d3d617b	0.046235543
95	0xbd52bf10	-0.051451743
96	0xbc997fac	-0.018737637
97	0x3dc94f5f	0.09829592
98	0xbe2644ab	-0.16237132
99	0x3e2080d3	0.15674143
100	0xbd83234b	-0.06403216
101	0xbe4a21f1	-0.1973951
102	0xbd30eec7	-0.043196466
103	0x3dafa332	0.08576049
104	0xbe5803d0	-0.21095204
105	0x3b7d0499	0.0038607477
106	0x3d9b1e96	0.07574193
107	0x3e3d276b	0.18472068
108	0x3e31141b	0.17292826
109	0xbe311a4e	-0.1729519
110	0xbe0988bc	-0.13431066
111	0xbcb012b1	-0.021493288
112	0x3d7afd08	0.061276466
113	0x3d68654e	0.056737237
114	0x3db837b2	0.08994998
115	0x3dcae518	0.099069774
116	0x3e5354a7	0.20637761
117	0x3e1862b3	0.14881401
118	0xbcd8d691	-0.0264695
119	0xbd6166db	-0.05502973
120	0xbe1bfab1	-0.1523235
121	0x3e30ece6	0.1727787
122	0x3e35a1fe	0.17737576
123	0xbd65dced	-0.056118894
124	0xbdd5d761	-0.10441471
125	0x3e17ab00	0.14811325
126	0xbe53e811	-0.20693995
127	0xbd832482	-0.06403448
128	0xbe2f7320	-0.1713376
129	0xbd21bf25	-0.03948893
130	0x3e44c882	0.19217113
131	0xbd3faeb9	-0.046797488
132	0xbe03811f	-0.12842225
133	0x3da723fe	0.08161162
134	0x3da3a762	0.0799091
135	0x3e02f79d	0.1278977
136	0x3e048cda	0.12944356
137	0x3caf13b4	0.0213717
138	0xbc9fcf4b	-0.019508025
139	0xbe199e72	-0.15001848
140	0xbe366038	-0.17810142
141	0x3d858da3	0.06521156
142	0x3cdfa9d9	0.02730267
143	0xbdc0a82d	-0.09407077
144	0x3b139b43	0.0022522963
145	0xbd522630	-0.05130595
146	0x3d084e5a	0.033277847
147	0xbe3d50a6	-0.18487796
148	0x3e32a71b	0.17446558
149	0xbdcb4317	-0.09924906
150	0x3e619da3	0.2203279
151	0x3e41a54a	0.18910709
152	0x3d85e794	0.06538311
153	0x3cac984d	0.021068716
154	0x3dfb4f6c	0.12271008
155	0x3e067f41	0.13134481
156	0xbdf7bd8a	-0.120966986
157	0xbe165c61	-0.14683677
158	0xbe4a9442	-0.19783118
159	0xbdd39558	-0.103312194
160	0xbe444e20	-0.19170427
161	0xbe167070	-0.14691329
162	0x3dc14e23	0.094387315
163	0x3e4fbbe5	0.2028652
164	0x3e36e998	0.17862546
165	0xbccd6f14	-0.02507738
166	0xbddef08a	-0.10885723
167	0x3dc21c58	0.094780624
168	0xbe384133	-0.17993622
169	0x3dace49a	0.0844204
170	0x3e1218a7	0.14267217
171	0xbd51c6b2	-0.05121488
172	0x3e49fb33	0.19724731
173	0x3d8abd5b	0.06774398
174	0x3c1bcdba	0.009509498
175	0x3db77f3a	0.089598134
176	0x3e021583	0.12703519
177	0x3c9453ba	0.01810633
178	0x3d64cb06	0.05585768
179	0xbe3f575b	-0.18685667
180	0xbdd04781	-0.10169888
181	0xbde45676	-0.111493036
182	0x3e48a713	0.19594984
183	0xbe452174	-0.19251043
184	0x3cc9469b	0.0245698
185	0xbd02d390	-0.031940043
186	0xbe407e85	-0.18798263
187	0xbd99ff42	-0.0751939
188	0x3e2cd738	0.16878974
189	0xbddb2110	-0.106996655
190	0xbdb7eb9b	-0.08980485
191	0x3d707e7c	0.058714375
192	0xbd8d06d4	-0.06886068
193	0xbd712b92	-0.058879443
194	0x3e1defa3	0.15423445
195	0x3e16ba06	0.147194
196	0x3e59722e	0.21234962
197	0xbdc3500d	-0.09536753
198	0x3d343c35	0.04400273
199	0x3e66b96c	0.2253167
200	0x3d3d3c25	0.046199936
201	0x3d5cd53c	0.053914294
202	0x3e2f4180	0.1711483
203	0xbd124558	-0.035710663
204	0x3dad694b	0.08467349
205	0x3d916f02	0.07101251
206	0x3b4fa1cf	0.0031682139
207	0x3e2c023d	0.16797729
208	0xbc88f09c	-0.016716294
209	0xbd6ce346	-0.057833932
210	0x3c2afc4d	0.01043613
211	0xbe2313a9	-0.15925469
212	0x3da5198e	0.08061515
213	0x3dfd57c1	0.12370253
214	0xbdc59bc2	-0.09648849
215	0xbe5e0da3	-0.2168489
216	0x3e12c62d	0.1433341
217	0xbe00b103	-0.12567525
218	0x3e0b2e5b	0.13591902
219	0x3d26d8ee	0.040734224
220	0xbc21d163	-0.009876582
221	0xbcb3e358	-0.021958992
222	0xbddb9a6c	-0.10722813
223	0xbafb25f8	-0.0019161096
224	0xbe25e25e	-0.16199633
225	0x3d036734	0.032080844
226	0x3e475e1d	0.19469495
227	0x3e115bf8	0.1419524
228	0xbe07fda0	-0.13280344
229	0x3e21fc77	0.15818964
230	0xbe1aa4a4	-0.15101868
231	0x3dd90855	0.10597292
232	0x3d34d681	0.04414988
233	0xbd433060	-0.047653556
234	0x3cf4e1cf	0.02989283
235	0xbd74e81f	-0.05979168
236	0x3e0cbb36	0.1374329
237	0xbc8d5cb8	-0.017256126
238	0xbe475d19	-0.19469108
239	0xbde87620	-0.113506556
240	0xbd88ba4b	-0.066761576
241	0xbcc77761	-0.024348916
242	0xbe56ac22	-0.20964101
243	0x3d9a68ce	0.07539521
244	0xbd4ec44d	-0.050480176
245	0xbdf95a05	-0.12175373
246	0x3df40128	0.11914283
247	0x3907b526	0.00012942086
248	0xbddfbf1b	-0.10925122
249	0x3e56ccd0	0.20976567
250	0xbd5ec312	-0.054385252
251	0x3e216c85	0.15764053
252	0xbe084e2b	-0.13311069
253	0xbe61bc05	-0.2204438
254	0xbe373cca	-0.17894283
255	0xbe2d6353	-0.1693242

sequential_6/conv2d_32/Conv2D f4 [7, 3, 3, 7]
0	0xbd7faa14	-0.06241806
1	0xbe0465c2	-0.12929443
2	0x3e193a31	0.14963605
3	0x3d5fbc24	0.054622784
4	0xbe3555bc	-0.17708486
5	0x3e5baf45	0.21453579
6	0x3de00d4d	0.10940037
7	0xbe3da3a0	-0.18519449
8	0x3d4f2e19	0.05058107
9	0x3e4940af	0.19653581
10	0x3e3aae05	0.18230446
11	0x3e4fb968	0.2028557
12	0xbd31aaa7	-0.043375637
13	0x3df38e77	0.118924074
14	0xbdc422e7	-0.095769696
15	0xbd24e2fc	-0.04025553
16	0xbd7fac02	-0.0624199
17	0x3e489fcc	0.19592208
18	0xbd8cd7c7	-0.06877094
19	0xbde53999	-0.111926265
20	0xbe510f7c	-0.20416063
21	0xbd1f20b2	-0.03884954
22	0xbe0ba3da	-0.13636723
23	0x3b7bb7ab	0.0038409035
24	0xbe44db98	-0.19224393
25	0xbd3c9aad	-0.046045948
26	0xbda04a3e	-0.078266606
27	0x3e1de393	0.15418844
28	0x3ca75adf	0.020429073
29	0xbd8ace56	-0.06777637
30	0x3e2cf71a	0.16891137
31	0x3df925a8	0.121653855
32	0xbe38e133	-0.18054657
33	0x3e1d8a22	0.15384725
34	0xbdc9e069	-0.09857256
35	0xbd91f04d	-0.07125912
36	0xbcaafb1a	-0.020871688
37	0x3e410724	0.1885038
38	0x3c83d956	0.016094845
39	0x3deac3a5	0.114630975
40	0xbe4b23e6	-0.19837913
41	0xbcefcbf4	-0.029272057
42	0x3df4c17c	0.11950967
43	0x3c887ad1	0.016660126
44	0xbdd52838	-0.10408062
45	0x3d74e50b	0.059788745
46	0xbd80fd4c	-0.062983125
47	0xbe200fac	-0.15630978
48	0x3db98f71	0.090605624
49	0x3df5bc6c	0.11998829
50	0xbdb6c2c0	-0.08923864
51	0x3e3d8ffa	0.18511954
52	0xbd427657	-0.04747614
53	0x3e3f36c8	0.18673241
54	0xbe0beb6d	-0.13664027
55	0xbd50c8de	-0.050972812
56	0xbdac3594	-0.08408657
57	0xbd3955ef	-0.04524797
58	0x3d95ad24	0.073084146
59	0x3e4e99a1	0.20175792
60	0x3e36c27c	0.17847627
61	0xbdb6ae4b	-0.089199625
62	0xbd52e849	-0.051491056
63	0xbe1ef108	-0.15521634
64	0x3caa2967	0.020771695
65	0x3d7cda17	0.061731424
66	0xbdafd114	-0.085848
67	0x3d967ea9	0.07348377
68	0xbe5875b8	-0.21138656
69	0xbe06ee3a	-0.13176814
70	0x3e22d245	0.15900524
71	0xbc1a1168	-0.009403564
72	0xbcf25bf0	-0.029584855
73	0x3dcb4621	0.099254854
74	0xbe0c2d3e	-0.13689134
75	0x3d79d372	0.060992666
76	0x3debbd9d	0.11510775
77	0xbd308050	-0.04309112
78	0xbe541da7	-0.20714436
79	0xbe5eb6e2	-0.21749452
80	0x3e40830e	0.18799993
81	0x3df574e3	0.11985185
82	0xbdc75496	-0.0973293
83	0xbc4643f6	-0.012101164
84	0x3e0e9e04	0.13927466
85	0x3c082b5e	0.008311121
86	0x3dc4cf25	0.09609822
87	0x3daf5478	0.08561033
88	0xbd2becd5	-0.041973908
89	0x3c9f82f7	0.019471629
90	0xbc0fd4d7	-0.008778772
91	0xbd747b51	-0.059687916
92	0xbd9e8bd7	-0.07741516
93	0xbdc8c6a2	-0.09803511
94	0xbd19d484	-0.037556186
95	0x3e4eea01	0.20206453
96	0xbe134cea	-0.14384809
97	0x3d164fec	0.036697313
98	0xbe3133dc	-0.17304939
99	0xbe36ae16	-0.17839846
100	0xbdeaab9b	-0.114585124
101	0xbd4bf762	-0.04979647
102	0xbe00e06e	-0.12585613
103	0x3d92a48d	0.07160292
104	0x3d3df959	0.046380375
105	0xbe559278	-0.20856655
106	0xbd8b346e	-0.067971095
107	0xbe19c23d	-0.15015502
108	0x3cf6505c	0.030067615
109	0x3e36a4d0	0.17836308
110	0x3e07e983	0.13272671
111	0xbb1066e3	-0.0022033982
112	0x3e353f7e	0.17700002
113	0x3e023994	0.12717277
114	0xbdb0fdd5	-0.086421646
115	0xbd7d64b1	-0.061863605
116	0x3d51bad8	0.05120358
117	0xbe4cd1f0	-0.2000196
118	0x3c575eae	0.013145132
119	0xbe0e41f4	-0.13892347
120	0xbe42a3d1	-0.19007803
121	0xbca3b3c4	-0.01998318
122	0xbe52682b	-0.2054755
123	0xbc68c366	-0.014206743
124	0x3c5811f9	0.013187879
125	0xbe4ca020	-0.19982958
126	0x3d53f6ff	0.051749226
127	0xbdd6510d	-0.10464678
128	0xbd7a60f1	-0.061127607
129	0x3e5541fc	0.20825952
130	0x3d534568	0.051579863
131	0x3c271e8c	0.010200154
132	0xbe15b4ba	-0.14619723
133	0x3e5c6dc4	0.21526247
134	0xbd5ac622	-0.05341161
135	0xbd451238	-0.048113078
136	0xbc4abdec	-0.0123743825
137	0x3e406d90	0.18791795
138	0x3d3879e2	0.04503811
139	0x3d845489	0.06461436
140	0x3d943e74	0.072384745
141	0x3d35900e	0.044326834
142	0xbc9dcd5c	-0.019262962
143	0x3d9adbda	0.075614646
144	0xbe174a04	-0.14774328
145	0xbd7e1fda	-0.062042095
146	0xbd96b185	-0.07358078
147	0xbd96e5ea	-0.073680714
148	0xbd618807	-0.055061366
149	0xbe40c493	-0.18824987
150	0x3e4263b8	0.18983352
151	0x3e5a088b	0.21292321
152	0xbc345892	-0.011007445
153	0x3cf7d8ae	0.030254688
154	0x3cec2530	0.028826326
155	0x3e2236ce	0.15841219
156	0xbe3239c3	-0.17404847
157	0x3e23436f	0.15943693
158	0x3e4d87c4	0.20071322
159	0xbd5a51d0	-0.05330068
160	0xbd94a340	-0.072577
161	0x3e2c1809	0.16806044
162	0xbde8e27b	-0.11371323
163	0x3cc6f3f2	0.024286244
164	0x3d9402e8	0.07227117
165	0x3e197218	0.1498493
166	0xbd1063ef	-0.035251554
167	0x3e3d25c6	0.1847144
168	0xbd869c0f	-0.065727346
169	0xbe23cfd9	-0.15997256
170	0x3d961bea	0.07329543
171	0xbb2dd0be	-0.0026522125
172	0x3e1b26ef	0.1515157
173	0xbe3974ec	-0.18111008
174	0xbdef3789	-0.11680514
175	0x3e256ac6	0.16154012
176	0xbce6fb50	-0.028196007
177	0xbe4c9dc1	-0.19982053
178	0x3dbe82dd	0.09302304
179	0xbe05ca6a	-0.13065496
180	0x3e4e8871	0.20169236
181	0xbd8ec998	-0.06972045
182	0xbdd7435d	-0.105108954
183	0x3d3d347c	0.04619263
184	0xbd03b32e	-0.0321533
185	0x3de997e6	0.114059255
186	0xbe3a24a4	-0.1817804
187	0xbd357d44	-0.044308916
188	0x3e0c9588	0.13728917
189	0xbe0b1b11	-0.13584544
190	0xbdd51095	-0.104035534
191	0xbdc498c2	-0.09599449
192	0x3d98959c	0.07450411
193	0xbe39090d	-0.18069859
194	0x3df3ea5f	0.11909937
195	0x3e53181c	0.20614666
196	0xbd3fb601	-0.04680443
197	0x3e345299	0.17609634
198	0x3dad5fba	0.08465524
199	0x3e44f1f2	0.1923292
200	0x3dfd0ffb	0.12356564
201	0x3d05927a	0.032610394
202	0xbe4a6c7b	-0.19767945
203	0x3c86639d	0.016404921
204	0x3cb51586	0.02210499
205	0x3dcb3e86	0.09924035
206	0xbd8c5e49	-0.06853921
207	0x3dcc8f7c	0.09988305
208	0xbe5053e3	-0.203445
209	0x3c875cc8	0.016523734
210	0xbe2ad7b4	-0.16683847
211	0x3ddbc6eb	0.107313
212	0x3e01790f	0.12643836
213	0xbc96d585	-0.01841236
214	0x3e5e6d6c	0.21721429
215	0x3dc8f8d4	0.09813085
216	0xbe451df5	-0.19249709
217	0x3d9edbd2	0.07756771
218	0xbe61dfe3	-0.22058062
219	0x3d51008e	0.05102592
220	0x3da7a6a7	0.08186083
221	0xbe508ac3	-0.20365433
222	0x3c4c0605	0.012452607
223	0xbe279d1b	-0.16368525
224	0x3e36e658	0.17861307
225	0x3d87b473	0.06626215
226	0x3d8ae65a	0.06782217
227	0xbd59c066	-0.053162
228	0x3d4ef90e	0.050530486
229	0xbd84bac4	-0.06480935
230	0xbdd9d563	-0.106364034
231	0x3e1d698f	0.15372299
232	0x3e15cdd3	0.14629297
233	0xbce0c58d	-0.02743795
234	0x3e4cc81f	0.19998215
235	0xbc09ae7a	-0.008403415
236	0xbe43d496	-0.19124064
237	0x3e15e155	0.14636739
238	0x3cac11f6	0.021004658
239	0xbe596e13	-0.21233396
240	0x3cec0098	0.028808877
241	0xbdadaa97	-0.08479803
242	0xbdece123	-0.11566379
243	0xbe4071a2	-0.18793347
244	0xbcc8a49b	-0.024492553
245	0x3e0f3326	0.13984355
246	0xbdd53e00	-0.10412216
247	0x3e1c3a9d	0.15256734
248	0x3d8cf8ff	0.0688343
249	0x3dbe3c2f	0.09288823
250	0x3d501591	0.050801817
251	0xbe487453	-0.19575624
252	0x3df43220	0.11923623
253	0xbdda5e12	-0.10662474
254	0xbdb471f4	-0.08810797
255	0xbe418798	-0.18899381

sequential_6/conv2d_33/Conv2D f4 [7, 3, 3, 7]
0	0x3cdcc407	0.026948942
1	0xbdb79ecd	-0.08965836
2	0x3e24db95	0.16099389
3	0xbe54b92f	-0.20773767
4	0x3e16b931	0.14719082
5	0xbdcebc91	-0.1009456
6	0xbe040b4a	-0.12894931
7	0xbd279804	-0.040916458
8	0x3e5ac7e7	0.21365319
9	0xbe431492	-0.19050816
10	0xbe3a5857	-0.18197761
11	0x3a741cf1	0.0009312174
12	0xbdd72af3	-0.10506239
13	0x3cabf057	0.020988626
14	0xbe2ff3cd	-0.17182846
15	0x3e3ca234	0.1842125
16	0x3ce74b10	0.028234035
17	0xbd7c67d0	-0.06162244
18	0x3e24af55	0.16082509
19	0xbdd7b912	-0.10533346
20	0x3cb2b9c9	0.021817105
21	0x3d65d01c	0.05610667
22	0xbd0a80f2	-0.033814378
23	0x3e3b15ea	0.18270078
24	0x3e296a18	0.16544378
25	0x3df1108d	0.11770735
26	0x3e34b219	0.17646064
27	0xbd0116e8	-0.031515986
28	0x3ddb659c	0.1071274
29	0x3e5be47a	0.21473876
30	0xbda55099	-0.080720134
31	0xbe35ed33	-0.17766266
32	0xbddfd41d	-0.10929129
33	0x3db14374	0.08655444
34	0x3dbf74f0	0.09348476
35	0xbc3cffa1	-0.011535556
36	0xbd3b4789	-0.045722518
37	0xbe064836	-0.13113484
38	0xbd42c505	-0.047551174
39	0x3dbfa1ad	0.09357009
40	0x3e10d086	0.14142045
41	0x3ca3edb9	0.020010816
42	0xbb7c9a45	-0.00385441
43	0x3d8c80cb	0.06860503
44	0xbe19265c	-0.14956039
45	0x3e3fa087	0.1871358
46	0x3d892c9c	0.06697962
47	0xbdf807f2	-0.121108904
48	0xbe2000bc	-0.1562528
49	0x3d3b5157	0.04573187
50	0x3ceb22b0	0.028703064
51	0x3e3cdf35	0.18444522
52	0x3c2e8da8	0.010653891
53	0xbe3f8264	-0.18702084
54	0xbd75155b	-0.05983482
55	0x3d9267b4	0.07148686
56	0xbe4232e5	-0.18964727
57	0xbc8e894d	-0.017399454
58	0x3e5cd642	0.21566108
59	0xbdbc2f21	-0.091886766
60	0x3d302451	0.043003384
61	0xbcb00ff8	-0.02149199
62	0x3e5de3e2	0.21668962
63	0x3e54380d	0.20724507
64	0x3ba2a650	0.0049636737
65	0xbd176b79	-0.03696773
66	0x3e1ab195	0.15106805
67	0x3e0c82d6	0.13721785
68	0x3e3cfc47	0.18455611
69	0xbdca4c14	-0.09877792
70	0xbe3f6f7f	-0.18694876
71	0xbcbdc16f	-0.023163525
72	0x3d8eb010	0.06967175
73	0xbdde262a	-0.10847123
74	0x3dde0ce1	0.108423
75	0xbe0ef624	-0.13961083
76	0x3dafb900	0.08580208
77	0xbdbe95f8	-0.09305948
78	0xbe1c4ff8	-0.1526488
79	0xbcc58fe1	-0.024116458
80	0xbe49def8	-0.19713962
81	0xbe249d5e	-0.16075656
82	0xbdf655dc	-0.12028095
83	0xbd93b651	-0.072125085
84	0x3cf135c7	0.029444588
85	0x3d9c68bc	0.07637164
86	0x3e38b356	0.18037161
87	0x3d65e39e	0.056125276
88	0xbe43bd67	-0.1911522
89	0x3da11647	0.07865577
90	0x3e49d831	0.19711377
91	0xbe34fdc3	-0.17674927
92	0xbdd0e920	-0.10200715
93	0xbce7ac7a	-0.028280485
94	0x3d8a2c5e	0.067467436
95	0x3c9aefcc	0.018913172
96	0x3b9cfabd	0.0047906325
97	0xbe477147	-0.19476806
98	0x3d8b4c4c	0.06801662
99	0xbe4802a0	-0.19532251
100	0xbd4ea0c2	-0.05044628
101	0x3d9a068b	0.07520779
102	0x3e09b336	0.1344727
103	0xbd98a736	-0.07453768
104	0x3d7bd2e0	0.061480403
105	0x3d102b4a	0.035197534
106	0x3e2c9632	0.1685417
107	0xbdb5650b	-0.08857163
108	0xbe57a33c	-0.21058363
109	0x3da068bb	0.07832476
110	0xbe0f0a14	-0.13968688
111	0xbe52454b	-0.20534246
112	0xbd9f17de	-0.07768224
113	0x3e0eac53	0.13932924
114	0xbe017340	-0.1264162
115	0x3c801b03	0.01563788
116	0xbe54784c	-0.20749015
117	0xbdef0ba7	-0.116721444
118	0x3e22d567	0.15901719
119	0x3b8c92e9	0.004289974
120	0x3e01f439	0.1269082
121	0xbe1740e1	-0.14770843
122	0x3e177069	0.14788975
123	0xbdec83e4	-0.11548594
124	0x3d23bbd0	0.039974034
125	0xbdf729fd	-0.120685555
126	0x3e5f8419	0.21827735
127	0xbbc184d3	-0.0059057265
128	0xbe28ae5f	-0.16472767
129	0xbdf39f2a	-0.118955925
130	0x3dda8489	0.1066981
131	0xbe178974	-0.14798528
132	0x3cff3f7f	0.031158207
133	0x3dc5b7e8	0.09654218
134	0x3cf153d1	0.029458912
135	0xbdcebae7	-0.100942425
136	0x3dd97457	0.10617893
137	0xbdea3c90	-0.11437333
138	0xbe1fe025	-0.15612848
139	0x3e46fbfb	0.1943206
140	0x3b96f142	0.004606397
141	0x3e4dc762	0.2009559
142	0xbd062195	-0.03274687
143	0x3ab43b2e	0.0013750547
144	0x3e17edc1	0.1483679
145	0xbe0e9481	-0.13923837
146	0xbd46357a	-0.048390843
147	0x3e347d59	0.17625941
148	0x3e4fb57b	0.20284073
149	0x3d8ef4ad	0.06980262
150	0xbdb93e33	-0.09045067
151	0xbdb43d05	-0.08800701
152	0x3d612915	0.05497082
153	0xbdccc5bc	-0.09998652
154	0xbdc3479a	-0.09535141
155	0xbe33e0a4	-0.17566162
156	0xbe0b920f	-0.13629936
157	0xbe194d54	-0.14970905
158	0xbddf3921	-0.10899568
159	0x3a372e44	0.000698779
160	0xbe086b2f	-0.13322137
161	0x3daed904	0.08537486
162	0xbd64cb46	-0.05585792
163	0x3d5cc292	0.053896494
164	0x3e3ac181	0.18237878
165	0xbe4aa632	-0.19789961
166	0x3e5afa94	0.2138465
167	0xba6d5191	-0.0009052987
168	0x3d832d77	0.06405156
169	0x3adee28c	0.0017004772
170	0xbe126c9a	-0.1429924
171	0xbe07d2d1	-0.13264014
172	0xbd6e171e	-0.058127515
173	0xbc0f9c58	-0.008765303
174	0xbe446b56	-0.1918157
175	0x3be7351f	0.007055893
176	0xbd80885b	-0.06276008
177	0xbd6272e3	-0.055285346
178	0x3d47d8ed	0.04879086
179	0x3cb4bec2	0.022063617
180	0xbdef1152	-0.116732255
181	0xbdbf94ee	-0.09354578
182	0x3e067903	0.131321
183	0xbe2f0675	-0.17092307
184	0x3e61ac46	0.22038373
185	0xbdc28ff7	-0.09500115
186	0xbe539e79	-0.20665921
187	0x3e1579f1	0.14597298
188	0x3e12bf81	0.14330865
189	0xbe465dfa	-0.19371787
190	0x3e330e0c	0.17485827
191	0x3e4a2a4b	0.19742696
192	0xbe2946be	-0.16530892
193	0x3e3215f4	0.17391187
194	0xbd81c6dd	-0.06336758
195	0x3e3e5cd9	0.18590106
196	0xbe3cb816	-0.18429598
197	0xbe130e67	-0.14360963
198	0x3e12e764	0.14346081
199	0xbe0ab0ec	-0.13544053
200	0xbd609947	-0.054833677
201	0x3e006ae7	0.1254078
202	0x3c1e6f2e	0.009670062
203	0x3de7210b	0.11285599
204	0x3e5321aa	0.2061831
205	0x3e4debae	0.20109436
206	0x3e0184a6	0.12648258
207	0x3e388e5b	0.18023054
208	0x3d2a8b54	0.04163678
209	0xbc2f5ae0	-0.010702819
210	0xbd5d7055	-0.054062206
211	0x3e2534dd	0.16133447
212	0x3dc547a1	0.09632803
213	0xbe4f9d74	-0.20274907
214	0xbd9552d5	-0.072911896
215	0x3d81f843	0.0634618
216	0x3da9863f	0.082775585
217	0xbdc99bea	-0.09844191
218	0xbe2c7201	-0.16840364
219	0x3d154866	0.036445998
220	0x3e0c2d91	0.13689257
221	0xbcf7cf1f	-0.03025013
222	0xbe15e18a	-0.14636818
223	0x3e62c599	0.2214569
224	0x3cd3dd90	0.025862485
225	0xbdeba653	-0.11506333
226	0x3d3045e5	0.043035407
227	0x3d9b4c24	0.07582882
228	0xbe10f5c9	-0.1415626
229	0xbd72b0ea	-0.05925075
230	0xbd3aca19	-0.04560289
231	0x3d9ccd25	0.07656316
232	0x3d484301	0.048892025
233	0xbbb0d36f	-0.0053962986
234	0xbd2addd5	-0.04171546
235	0xbe073d26	-0.1320692
236	0x3e516764	0.20449597
237	0xbc327b21	-0.010893614
238	0x3e406373	0.18787937
239	0x3d7fd152	0.062455483
240	0xbbc17860	-0.0059042424
241	0x398371ae	0.00025070965
242	0x3dfb8bbf	0.12282514
243	0xbcd51f85	-0.026016006
244	0x3e4409f9	0.1914443
245	0xbce78c26	-0.02826507
246	0xbdd5dc47	-0.10442405
247	0x3d22c294	0.039736345
248	0xbdb037f9	-0.08604426
249	0x3dc41f9b	0.09576341
250	0xbe23f377	-0.16010843
251	0xbd9182f2	-0.07105054
252	0x3c858e65	0.01630325
253	0xbe46ddc5	-0.19420536
254	0x3daf87dd	0.08570836
255	0xbe303dde	-0.172111

sequential_6/conv2d_34/Conv2D f4 [7, 3, 3, 7]
0	0x3c05f174	0.008175243
1	0x3e02e1f6	0.1278151
2	0x3e3202e9	0.17383923
3	0x3e2f9f2c	0.17150563
4	0x3e1c3317	0.15253864
5	0x3e1f6e15	0.15569337
6	0xbe0646be	-0.13112924
7	0x3df13359	0.11777372
8	0x3d905f9e	0.070494875
9	0xbdda7eee	-0.10668741
10	0x3de75f06	0.11297421
11	0xbda47a6b	-0.08031162
12	0xbdaac710	-0.083387494
13	0xbe34eb7a	-0.17667952
14	0x3e444311	0.19166209
15	0x3d540b7a	0.051768757
16	0xbd41db5a	-0.04732833
17	0x3e1b3b13	0.15159254
18	0x3ccc674b	0.024951598
19	0xbd1ea06c	-0.03872721
20	0x3e23d65e	0.15999743
21	0x3de948c5	0.11390833
22	0xbd9084d2	-0.070565835
23	0x3ddfe186	0.10931687
24	0xbe2d8d68	-0.16948473
25	0xbd79245a	-0.060825683
26	0x3d73f890	0.05956322
27	0xbe235dbb	-0.15953724
28	0xbddac442	-0.106819645
29	0xbe4a49c3	-0.197547
30	0xbe3543d4	-0.17701656
31	0x3e21c4b0	0.15797687
32	0x3d922c18	0.071373165
33	0xbe44762e	-0.19185707
34	0xbe3422b1	-0.17591359
35	0xbe23c7a1	-0.15994121
36	0x3e41b207	0.18915568
37	0xbe4da53a	-0.2008256
38	0xbc2b9f3c	-0.010474976
39	0xbdcd86a9	-0.1003545
40	0x3d6d9c9f	0.058010694
41	0xbd17cda0	-0.037061334
42	0x3e366898	0.17813337
43	0xbdb2c8b2	-0.08729686
44	0x3d157d2b	0.036496323
45	0x3ddf94d3	0.10917058
46	0xba915f43	-0.0011091012
47	0x3daf60ff	0.085634224
48	0xbe52e866	-0.20596465
49	0x3d5503e5	0.052005667
50	0x3e22940e	0.15876791
51	0xbbcff666	-0.0063465117
52	0x3e29ce48	0.16582596
53	0x3dc4636a	0.09589274
54	0xbd707d04	-0.058712974
55	0xbd6b8a32	-0.05750484
56	0x3e1ad942	0.1512194
57	0x3e507640	0.20357609
58	0x3e4fb76c	0.20284814
59	0x3e60e04f	0.21960567
60	0xbe3425d8	-0.17592561
61	0x3da88f50	0.0823046
62	0x3dfdfa0a	0.12401207
63	0x3d9b28ff	0.07576179
64	0x3e5dd724	0.21664101
65	0xbe00aa40	-0.12564945
66	0x3e3a2483	0.1817799
67	0xbd80b9de	-0.06285451
68	0x3e2faf9d	0.17156835
69	0xbd75db92	-0.06002385
70	0x3e58a873	0.21158008
71	0x3d3db9be	0.046319716
72	0xbdf2f308	-0.11862761
73	0x3b0ee319	0.0021802841
74	0x3dfa85eb	0.12232574
75	0xbe33adf7	-0.17546831
76	0xbd9759c4	-0.07390168
77	0x3e3a377a	0.18185225
78	0x3e4aea5c	0.19815964
79	0x3e53ba80	0.20676613
80	0x3e297c28	0.16551268
81	0x3d5f0eb3	0.054457378
82	0xbc7ad0bd	-0.015308556
83	0x3ddc0034	0.10742226
84	0xbe4f85ff	-0.20265959
85	0xbd9cab2f	-0.07649838
86	0xbe1aabbb	-0.15104572
87	0xbe2feb89	-0.17179693
88	0x3e03c10d	0.12866612
89	0x3e34728d	0.17621823
90	0x3dd5f99b	0.10447999
91	0xbda38ec5	-0.079862155
92	0xbe0f4d52	-0.13994339
93	0x3e1e40cf	0.1545441
94	0x3dbf58a2	0.09343077
95	0xbe24d343	-0.16096215
96	0xbdb3cdb8	-0.08779472
97	0xbe2ef409	-0.1708528
98	0x3d9e480e	0.07728587
99	0xbb8e2d9e	-0.004338934
100	0xbe05059b	-0.1299042
101	0xbe3bdea4	-0.1834665
102	0x3de9460e	0.11390315
103	0xbd99f03e	-0.07516526
104	0x3e0df97b	0.138647
105	0x3d994cd6	0.074853584
106	0xbdab20ff	-0.08355903
107	0x3beebe68	0.007285882
108	0x3e1e6c2f	0.15470956
109	0xbd47cee6	-0.048781298
110	0xbe38de66	-0.18053588
111	0x3e13a5bd	0.14418693
112	0xbe36779c	-0.17819065
113	0x3d8b6711	0.06806768
114	0x3da249da	0.07924242
115	0xbdaf0052	-0.08544983
116	0xbe37f8ed	-0.17966051
117	0xbdd12569	-0.102122135
118	0x3e43ca9b	0.19120257
119	0x3e2a5bcb	0.16636579
120	0xbe4a4770	-0.19753814
121	0x3c8d67e4	0.017261453
122	0x3e0b0646	0.13576612
123	0xbbcc316d	-0.006231478
124	0x3e2d48fd	0.16922374
125	0xbe156b07	-0.14591609
126	0xbe4ae50b	-0.19813935
127	0x3d90f8dd	0.07078717
128	0x3e3f0269	0.18653263
129	0x3e33b609	0.1754991
130	0xbc718985	-0.01474226
131	0x3df9901d	0.121856906
132	0x3d74a633	0.059728812
133	0xbca9c717	-0.020724816
134	0xbe440ae4	-0.1914478
135	0xbe334ac6	-0.17508993
136	0xbe1c5300	-0.15266037
137	0xbde4923a	-0.11160703
138	0xbdf72189	-0.12066943
139	0x3d374b9f	0.044749852
140	0x3e094e12	0.13408688
141	0x3c2d72c8	0.010586448
142	0xbda85131	-0.08218611
143	0x3e29c53c	0.16579145
144	0xbd8deeee	-0.06930338
145	0x3dcc96b0	0.09989679
146	0xbdc80bd7	-0.09767883
147	0xbe2a71ed	-0.16645022
148	0x3cdcdc0a	0.026960392
149	0x3e16a607	0.14711772
150	0x3d95433d	0.07288215
151	0xbe119f81	-0.14221002
152	0x3d8e7538	0.069559515
153	0x3e1a67d3	0.15078668
154	0x3d151c41	0.0364039
155	0xbd1b0aae	-0.03785198
156	0x3c5aee0e	0.013362421
157	0xbe027dc7	-0.12743293
158	0x3e3c8d51	0.18413283
159	0x3e4b7764	0.19869763
160	0xbd4ddbba	-0.050258376
161	0x3dfdd56a	0.12394221
162	0x3e0b963a	0.13631526
163	0x3e4b3196	0.19843134
164	0x3dd4efa0	0.10397267
165	0x3e444fed	0.19171114
166	0xbe585e22	-0.21129659
167	0xbdebd13d	-0.115145184
168	0xbe1c48fa	-0.15262213
169	0xbd80c4be	-0.062875256
170	0x3c4ec41a	0.012619996
171	0xbca3001d	-0.019897515
172	0xbd8c8593	-0.06861415
173	0x3e0df9e6	0.1386486
174	0x3e58581e	0.21127364
175	0xbd9cef08	-0.07662779
176	0x3e348782	0.17629817
177	0x3b2b058c	0.0026095835
178	0x3bad08b6	0.0052805794
179	0x3e42ae9a	0.19011918
180	0xbd56abbf	-0.052409884
181	0x3e057b11	0.13035227
182	0x3e5a8565	0.21339948
183	0x3e0aa837	0.13540731
184	0xbe36140d	-0.17781086
185	0xbe310ae4	-0.1728931
186	0x3e28922d	0.16462012
187	0x3be76cff	0.007062554
188	0xbc40d7a6	-0.011770165
189	0xbd91f477	-0.07126706
190	0x3de4c8fa	0.11171146
191	0xbd866b1b	-0.065633975
192	0x3d3b412a	0.045716442
193	0x3d8c1ace	0.0684105
194	0x3d11a628	0.03555885
195	0x3e01fcff	0.12694167
196	0xbd57939a	-0.052631
197	0xbe233558	-0.15938318
198	0xbe0c0921	-0.13675357
199	0x3d40a02a	0.047027744
200	0x3e46039c	0.19337314
201	0xbd265da2	-0.04061664
202	0x3cba4e99	0.022742556
203	0x3d9ed0d6	0.07754676
204	0x3e355323	0.17707495
205	0x3cbc40dc	0.022980146
206	0x3e3c180a	0.18368545
207	0x3d75a508	0.05997184
208	0xbdb21c23	-0.08696773
209	0xbd23173d	-0.039817084
210	0xbe58342a	-0.21113649
211	0xbd226092	-0.039642878
212	0x3df219f7	0.11821359
213	0xbb6d3008	-0.003619196
214	0xbe32b01e	-0.17449996
215	0xbe57918c	-0.21051615
216	0x3e0f874a	0.14016452
217	0x3e2e46b0	0.17019153
218	0x3e2a0d3c	0.16606611
219	0x3e12c0ca	0.14331356
220	0xbd25742c	-0.040393993
221	0xbe588c47	-0.21147262
222	0xbe3581d2	-0.17725304
223	0xbd2b5d20	-0.041836858
224	0xbe019c6e	-0.1265733
225	0x3e539654	0.20662814
226	0xbe1ea0d7	-0.15491043
227	0xbdf42428	-0.11920959
228	0xbdcdca85	-0.10048393
229	0x3d943a76	0.07237713
230	0x3debfbbc	0.11522624
231	0xbc86c33f	-0.016450522
232	0x3e4ee622	0.20204976
233	0x3cc2a177	0.023758633
234	0x3e46bbcc	0.19407576
235	0xbe039aba	-0.12851992
236	0x3cded971	0.027203294
237	0xbe45dff5	-0.19323714
238	0xbd4c8bd0	-0.049938023
239	0x3e3a4036	0.18188557
240	0x3e3f8334	0.18702394
241	0x3dc93982	0.09825422
242	0x3d7ebd6e	0.062192373
243	0xbc99505b	-0.018715074
244	0xbde7bfa1	-0.11315847
245	0xbc2ca586	-0.010537511
246	0xbc0ecca8	-0.008715786
247	0xbe54ccf0	-0.20781302
248	0x3e54f420	0.20796251
249	0xbdc6202d	-0.09674106
250	0x3e30f244	0.17279917
251	0xbd982a41	-0.07429934
252	0x3d884e7c	0.06655595
253	0xbcc9b92c	-0.02462443
254	0x3e43e9a8	0.19132102
255	0xbe23e4e5	-0.16005285

sequential_6/dense_13/BiasAdd/ReadVariableOp f4 [7]
0	0xbc9650ea	-0.01834913
1	0xba06980d	-0.00051343517
2	0x3b41841a	0.0029528202
3	0x3be0eb23	0.006863968
4	0x3b0762e5	0.002065831
5	0xbb8caccd	-0.0042930604
6	0xb92308d3	-0.00015548179

sequential_6/dense_12/BiasAdd/ReadVariableOp f4 [64]
0	0xbbb5b4de	-0.0055452427
1	0x3a9d4dc8	0.001200133
2	0xba57f71b	-0.00082384207
3	0xbabe6d1e	-0.0014528369
4	0xbb8861d7	-0.004162054
5	0xbaa46a99	-0.0012543976
6	0x3b26c9ee	0.002544995
7	0xbafe88f9	-0.0019419483
8	0xbbe1aab9	-0.006886807
9	0xbae9821a	-0.0017815263
10	0xba90ffc0	-0.0011062548
11	0xbb13687c	-0.0022492697
12	0xbb297a5e	-0.002586029
13	0x3b3cc8b4	0.0028806152
14	0xbb5e97be	-0.0033964957
15	0xbb2d25e6	-0.0026420294
16	0x39dec6f0	0.0004249136
17	0xbb10ee5b	-0.0022114727
18	0xba93ce36	-0.0011276666
19	0xbb4ebdd9	-0.0031546263
20	0xbbc33d0a	-0.005958204
21	0x3a38daa1	0.0007051621
22	0xbbabd02e	-0.005243323
23	0xbafa5fe3	-0.0019102063
24	0xb982dc00	-0.00024959445
25	0xbb5ebe16	-0.0033987812
26	0xba1d5e5d	-0.0006003136
27	0x39a300fd	0.0003109052
28	0xbb0af561	-0.0021203386
29	0xbb966c84	-0.004590573
30	0xbb7d94e2	-0.0038693477
31	0xbae0856a	-0.0017129604
32	0x38bb3f95	8.928698e-05
33	0xbb7b3cd2	-0.0038335812
34	0x3ab9855f	0.0014154128
35	0x39953800	0.00028461218
36	0xba28cf58	-0.0006439588
37	0xbb7bcce5	-0.0038421687
38	0xba07fd8f	-0.00051876245
39	0x3adcdfcf	0.0016851368
40	0xbb4a1c8e	-0.0030839774
41	0xbb126f6d	-0.0022344247
42	0xbbb7cf34	-0.0056094173
43	0xba30ae80	-0.000673987
44	0xbad9ab38	-0.0016606813
45	0xbb5ca763	-0.0033669106
46	0xbbbd15f8	-0.005770441
47	0xb86fd7a3	-5.7182868e-05
48	0xbb8cf544	-0.004301699
49	0xbb45bdad	-0.003017287
50	0xbb25cf6b	-0.0025300633
51	0x37bd54ac	2.2569984e-05
52	0xbb02ccb5	-0.001995844
53	0xbb583ccf	-0.003299523
54	0xbb2d46ae	-0.0026439833
55	0xbaf37ac1	-0.0018576012
56	0x3b24378c	0.0025057523
57	0xbb1a3178	-0.002352802
58	0xb6c2fd30	-5.8111254e-06
59	0xbbd1894c	-0.006394541
60	0xbaf3fb03	-0.0018614236
61	0xba7b6472	-0.00095898577
62	0xbb479c12	-0.0030458015
63	0x38e3d613	0.00010864078

sequential_6/batch_normalization_30/FusedBatchNormV3 f4 [7]
0	0x3cdb9690	0.026805192
1	0x3d3f4f68	0.046706587
2	0x3ca5ae63	0.020224756
3	0x3c7ffa2e	0.015623612
4	0x3c8f88e5	0.017521331
5	0x3cf64c3d	0.03006565
6	0x3c8b6f97	0.017020984

sequential_6/batch_normalization_30/FusedBatchNormV31 f4 [7]
0	0xbf0adc97	-0.54242843
1	0xbf7d6e29	-0.98996216
2	0xbf1466d4	-0.57969403
3	0xbf435857	-0.7630667
4	0xbf3c5f89	-0.73583275
5	0xbf27c477	-0.65534157
6	0xbf171dcf	-0.5902986

sequential_6/batch_normalization_31/FusedBatchNormV3 f4 [7]
0	0x40467d0a	3.1013818
1	0x40372b08	2.8620014
2	0x3fbc46ef	1.4709147
3	0x3faa550c	1.3307204
4	0x4019e6a1	2.4047015
5	0x3f4b0007	0.79296917
6	0x40060581	2.094086

sequential_6/batch_normalization_31/FusedBatchNormV31 f4 [7]
0	0xbf90a9a8	-1.1301775
1	0xbf4cc7f9	-0.79992634
2	0xbf3ee39d	-0.7456606
3	0xbf0bf9fd	-0.54678327
4	0xbf10e1ae	-0.5659436
5	0xbef1a131	-0.47193292
6	0xbfb256bb	-1.3932718

sequential_6/batch_normalization_32/FusedBatchNormV3 f4 [7]
0	0x3fda1265	1.7036864
1	0x4000ce60	2.0125961
2	0x3f357c1e	0.7089251
3	0x3f5bd8cb	0.85877675
4	0x401e26ee	2.471126
5	0x3fd113b1	1.6334134
6	0x3fda2e5f	1.7045401

sequential_6/batch_normalization_32/FusedBatchNormV31 f4 [7]
0	0xbefafd4b	-0.49021372
1	0xbf87e645	-1.0617148
2	0xbf222848	-0.63342714
3	0xbf22c863	-0.63587016
4	0xbf94bd01	-1.162018
5	0xbf137cd4	-0.5761235
6	0xbf5a458f	-0.8526239

sequential_6/batch_normalization_33/FusedBatchNormV3 f4 [7]
0	0x400fcdca	2.2469354
1	0x40392fcd	2.8935425
2	0x4003ee33	2.0614135
3	0x3fc0eeef	1.5072917
4	0x3faf66fd	1.3703305
5	0x3f9327c3	1.1496509
6	0x3fda134d	1.703714

sequential_6/batch_normalization_33/FusedBatchNormV31 f4 [7]
0	0xbf9a7e60	-1.2069817
1	0xbf9e8f82	-1.2387545
2	0xbf831128	-1.0239611
3	0xbf1acf04	-0.6047213
4	0xbf7bb2e3	-0.98319834
5	0xbf11c4e0	-0.5694103
6	0xbf2ae9c6	-0.6676296

sequential_6/batch_normalization_34/FusedBatchNormV3 f4 [7]
0	0x3fca750f	1.5816973
1	0x4001ecb4	2.0300722
2	0x3f52b7bc	0.82311606
3	0x3fec5f73	1.8466629
4	0x3f918542	1.1368792
5	0x3ff7a64d	1.9347626
6	0x40584037	3.3789194

sequential_6/batch_normalization_34/FusedBatchNormV31 f4 [7]
0	0xbf49aa39	-0.78775364
1	0xbf298353	-0.6621601
2	0xbf2d7752	-0.67760193
3	0xbf5374a2	-0.8259984
4	0xbf999174	-1.1997514
5	0xbf779ca7	-0.9672341
6	0xbf8675ca	-1.0504696

sequential_6/dense_12/MatMul i1 [64, 11830] scale=0.00033763048 zero_point=0
0	0x08	0.0027010438
1	0x19	0.008440762
2	0xc4	-0.020257829
3	0x12	0.0060773487
4	0x39	0.019244937
5	0xbe	-0.022283612
6	0x17	0.0077655013
7	0xe4	-0.009453653
8	0xe1	-0.010466545
9	0x0e	0.0047268267
10	0x24	0.012154697
11	0xfa	-0.0020257828
12	0xc4	-0.020257829
13	0xea	-0.0074278708
14	0xc2	-0.02093309
15	0x0b	0.0037139354
16	0x06	0.0020257828
17	0xc9	-0.018569676
18	0xd6	-0.0141804805
19	0xd8	-0.0135052195
20	0xfe	-0.00067526096
21	0x3a	0.019582568
22	0x29	0.01384285
23	0xd8	-0.0135052195
24	0x17	0.0077655013
25	0x0c	0.0040515657
26	0xdd	-0.011817067
27	0x23	0.011817067
28	0x35	0.017894415
29	0xbf	-0.021945981
30	0x18	0.008103131
31	0x0a	0.0033763049
32	0x31	0.016543893
33	0xdd	-0.011817067
34	0x3b	0.019920198
35	0xf1	-0.005064457
36	0x08	0.0027010438
37	0x12	0.0060773487
38	0xf9	-0.0023634133
39	0xfd	-0.0010128914
40	0xd3	-0.015193372
41	0x37	0.018569676
42	0xfc	-0.0013505219
43	0x25	0.012492328
44	0xd0	-0.016206263
45	0x0e	0.0047268267
46	0x05	0.0016881524
47	0xca	-0.018232046
48	0x16	0.0074278708
49	0x2d	0.015193372
50	0x2c	0.0148557415
51	0xdb	-0.012492328
52	0xcc	-0.017556785
53	0xaa	-0.029036222
54	0x0a	0.0033763049
55	0x04	0.0013505219
56	0x32	0.016881524
57	0x34	0.017556785
58	0x19	0.008440762
59	0x00	0.0
60	0x15	0.0070902403
61	0x33	0.017219154
62	0xf8	-0.0027010438
63	0xfa	-0.0020257828
64	0xfc	-0.0013505219
65	0x48	0.024309395
66	0xc2	-0.02093309
67	0xc9	-0.018569676
68	0x2c	0.0148557415
69	0xe5	-0.009116023
70	0xe7	-0.008440762
71	0x04	0.0013505219
72	0xef	-0.005739718
73	0xfe	-0.00067526096
74	0xc8	-0.018907307
75	0x1b	0.009116023
76	0x27	0.013167589
77	0xd7	-0.01384285
78	0xdc	-0.012154697
79	0xec	-0.0067526097
80	0x20	0.010804175
81	0xfb	-0.0016881524
82	0x37	0.018569676
83	0x3d	0.02059546
84	0xfb	-0.0016881524
85	0x18	0.008103131
86	0x3b	0.019920198
87	0xeb	-0.0070902403
88	0xb6	-0.024984656
89	0x14	0.0067526097
90	0x04	0.0013505219
91	0x32	0.016881524
92	0xd8	-0.0135052195
93	0x16	0.0074278708
94	0xdf	-0.011141806
95	0x33	0.017219154
96	0xea	-0.0074278708
97	0x18	0.008103131
98	0x1d	0.009791284
99	0xdf	-0.011141806
100	0xa9	-0.029373853
101	0x37	0.018569676
102	0xf9	-0.0023634133
103	0xb2	-0.026335178
104	0x39	0.019244937
105	0xf6	-0.0033763049
106	0xba	-0.023634134
107	0xd2	-0.015531003
108	0x39	0.019244937
109	0xef	-0.005739718
110	0xfe	-0.00067526096
111	0x23	0.011817067
112	0xe1	-0.010466545
113	0xc7	-0.019244937
114	0x24	0.012154697
115	0xba	-0.023634134
116	0x41	0.021945981
117	0x07	0.0023634133
118	0xd9	-0.013167589
119	0xf6	-0.0033763049
120	0xcf	-0.016543893
121	0xd4	-0.0148557415
122	0x2b	0.014518111
123	0x28	0.0135052195
124	0xd4	-0.0148557415
125	0xc5	-0.019920198
126	0xea	-0.0074278708
127	0x01	0.00033763048
128	0xeb	-0.0070902403
129	0xea	-0.0074278708
130	0xd1	-0.015868632
131	0xfd	-0.0010128914
132	0x0b	0.0037139354
133	0xdc	-0.012154697
134	0x1e	0.010128914
135	0x0f	0.005064457
136	0xef	-0.005739718
137	0xdc	-0.012154697
138	0xeb	-0.0070902403
139	0xeb	-0.0070902403
140	0xeb	-0.0070902403
141	0xe8	-0.008103131
142	0x23	0.011817067
143	0x31	0.016543893
144	0xe4	-0.009453653
145	0x09	0.0030386744
146	0xff	-0.00033763048
147	0xcd	-0.017219154
148	0x21	0.011141806
149	0x0c	0.0040515657
150	0xd0	-0.016206263
151	0xfe	-0.00067526096
152	0xf6	-0.0033763049
153	0x2a	0.0141804805
154	0x04	0.0013505219
155	0x20	0.010804175
156	0x2b	0.014518111
157	0xda	-0.012829958
158	0xbb	-0.023296503
159	0xfb	-0.0016881524
160	0x1e	0.010128914
161	0xea	-0.0074278708
162	0xf4	-0.0040515657
163	0x0d	0.004389196
164	0xce	-0.016881524
165	0xf7	-0.0030386744
166	0x2b	0.014518111
167	0xf9	-0.0023634133
168	0x14	0.0067526097
169	0xdd	-0.011817067
170	0xcd	-0.017219154
171	0x0f	0.005064457
172	0x06	0.0020257828
173	0x18	0.008103131
174	0xf5	-0.0037139354
175	0x14	0.0067526097
176	0xd2	-0.015531003
177	0x47	0.023971764
178	0xe8	-0.008103131
179	0xc4	-0.020257829
180	0xf1	-0.005064457
181	0x22	0.011479436
182	0x01	0.00033763048
183	0x1a	0.008778392
184	0xf6	-0.0033763049
185	0xea	-0.0074278708
186	0x2f	0.015868632
187	0x55	0.028698592
188	0xc7	-0.019244937
189	0x0d	0.004389196
190	0xda	-0.012829958
191	0xe7	-0.008440762
192	0x1c	0.009453653
193	0x3d	0.02059546
194	0xd7	-0.01384285
195	0x26	0.012829958
196	0xee	-0.0060773487
197	0x26	0.012829958
198	0xb3	-0.025997547
199	0xe5	-0.009116023
200	0xe0	-0.010804175
201	0xff	-0.00033763048
202	0xd6	-0.0141804805
203	0xed	-0.006414979
204	0xe6	-0.008778392
205	0xc0	-0.02160835
206	0x00	0.0
207	0x42	0.022283612
208	0xf0	-0.0054020877
209	0xb5	-0.025322286
210	0x30	0.016206263
211	0x1e	0.010128914
212	0xd2	-0.015531003
213	0x3c	0.020257829
214	0x22	0.011479436
215	0xb9	-0.023971764
216	0xec	-0.0067526097
217	0x35	0.017894415
218	0x09	0.0030386744
219	0x17	0.0077655013
220	0x05	0.0016881524
221	0x1c	0.009453653
222	0x42	0.022283612
223	0x0b	0.0037139354
224	0x18	0.008103131
225	0xac	-0.028360961
226	0x46	0.023634134
227	0x1b	0.009116023
228	0xd6	-0.0141804805
229	0x02	0.00067526096
230	0x2d	0.015193372
231	0xd8	-0.0135052195
232	0xc6	-0.019582568
233	0xcc	-0.017556785
234	0x56	0.029036222
235	0xc4	-0.020257829
236	0x53	0.02802333
237	0x38	0.018907307
238	0x22	0.011479436
239	0xf2	-0.0047268267
240	0xf3	-0.004389196
241	0xea	-0.0074278708
242	0xc1	-0.02127072
243	0xe1	-0.010466545
244	0x11	0.005739718
245	0x43	0.022621242
246	0xfc	-0.0013505219
247	0xd6	-0.0141804805
248	0x38	0.018907307
249	0xe4	-0.009453653
250	0x45	0.023296503
251	0xe7	-0.008440762
252	0xbf	-0.021945981
253	0x40	0.02160835
254	0x17	0.0077655013
255	0xf4	-0.0040515657
