saved_model/quantized_models/layers7/trial2/paramcount108763.tflite (tflite, 121816 bytes, 11 tensors)

sequential/dense_1/MatMul f4 [7, 64]
-0.06646769 0.2412001 -0.26360187 0.18043678 -0.1608462 -0.112039335 -0.24194561 0.26614892
0.14611214 0.002394777 -0.26767376 -0.08853856 0.17172018 0.16820282 0.07249278 0.0558274
0.018249156 0.2453721 -0.15752713 -0.04434198 -0.318812 0.21728556 -0.21313885 0.0980106
0.025448782 0.17294627 0.05950849 0.105961636 0.0691643 -0.22084816 -0.02287342 0.24257575
-0.25401407 0.044040333 -0.17580305 0.23186025 -0.29840207 0.18235503 0.021896776 0.22736393
-0.01155256 -0.2635477 -0.013129193 -0.17782673 -0.032767665 -0.2540713 -0.120819815 0.08359081
0.1069815 -0.122633085 0.14903684 -0.30447334 -0.018983372 0.1502592 0.09844388 0.11082536
0.038928565 -0.13822077 -0.27765432 -0.11263814 -0.17708975 0.17663142 0.014413619 -0.033363976
0.23551364 0.13260528 -0.004171059 0.07976042 -0.1211297 -0.14076191 -0.23203482 0.09200732
-0.1170161 0.19660205 -0.19316517 -0.0031224203 -0.14044674 0.052264996 -0.016093295 -0.10639913
0.24257623 0.13558061 0.19021556 0.07083973 0.121526256 -0.1129855 0.20871189 -0.26691028
-0.18353724 0.07131503 -0.11071532 0.12366785 0.2793179 -0.012931446 -0.024601616 0.25282013
0.08596895 -0.24090809 0.1428123 -0.016657606 0.09120511 -0.21476027 0.16735017 -0.20500039
-0.071437895 -0.08360858 0.05126589 0.2764839 -0.052032776 0.20859507 -0.22199698 0.21515666
-0.20398228 -0.18254195 -0.18282706 0.15688066 -0.19105387 -0.08977468 0.18140177 -0.032624166
0.07628129 -0.044794448 0.17599675 -0.16153875 0.06305845 -0.055695776 -0.19596837 -0.28838202
0.14938423 0.017076392 0.16064975 -0.15177538 0.15594238 -0.11476449 0.068128176 -0.2639139
0.20601556 -0.2445951 -0.18593945 -0.28329563 0.009119558 0.105530575 0.26476637 -0.12720387
-0.059115354 0.04182276 0.13282305 0.11885154 -0.13985837 -0.23082776 -0.27426347 -0.24166232
0.164051 0.1373031 0.22674207 0.023612816 -0.17399485 -0.034258727 0.16123436 0.1701427
0.13466114 0.04580102 0.065745376 -0.20360175 0.12914178 0.2903353 -0.23410758 0.19679609
-0.20257975 -0.033024278 -0.09522746 -0.20707215 0.030924309 0.12461399 0.07453449 -0.14104478
0.14232229 0.048213735 0.27161774 -0.2932845 -0.2572267 -0.13635333 0.121901095 -0.008967402
0.1542988 0.20651226 -0.12989503 0.064210355 0.012365413 0.038655765 -0.052391533 -0.21091853
0.1164731 -0.18679966 0.091432795 0.07179119 -0.07482412 0.052480567 0.08590757 0.2571457
0.07858955 0.23653467 -0.07064926 0.11329471 -0.0698024 0.16808034 -0.121078596 0.07719931
0.22588149 -0.02530922 0.21560583 -0.2337437 0.24706806 -0.1580506 0.26735747 -0.142734
-0.2641523 -0.055941384 0.12584402 0.19551842 -0.0821256 0.21548735 -0.07731457 0.16704348
-0.21479027 -0.29874313 -0.025954915 0.28885105 -0.17461221 -0.045701254 -0.2775734 -0.17494498
0.1267387 -0.28895953 -0.16486143 0.15525185 0.16181588 0.13911344 -0.18192357 0.21244176
0.12230839 0.1941794 -0.019678155 0.087720774 -0.17567049 0.067353584 -0.22908081 0.26410922
-0.21526508 0.102934636 -0.24932799 0.17772532 0.13149337 0.27578926 0.22160247 -0.08573036
00000000: 3620 88bd 29fd 763e d3f6 86be 6bc4 383e
00000010: deb4 24be e174 e5bd 97c0 77be ac44 883e
00000020: 6c9e 153e b1f1 1c3b 890c 89be b453 b5bd
00000030: 6ad7 2f3e 5c3d 2c3e 1877 943d 46ab 643d
00000040: 417f 953c d342 7b3e cb4e 21be f09f 35bd
00000050: 543b a3be 1b80 5e3e 1241 5abe c8b9 c83d
00000060: f779 d03c d418 313e 2dbf 733d 6a02 d93d
00000070: 03a6 8d3d 0526 62be 0a61 bbbc c765 783e
00000080: 220e 82be a363 343d b705 34be c66c 6d3e
00000090: 28c8 98be 47bb 3a3e de60 b33c 17d2 683e
000000a0: f346 3dbc b9ef 86be d41b 57bc 3618 36be
000000b0: 6337 06bd a215 82be 6170 f7bd a931 ab3d
000000c0: 1e19 db3d 0e27 fbbd 1d9d 183e eee3 9bbe
000000d0: 0483 9bbc 8cdd 193e f29c c93d 68f8 e23d
000000e0: 8f73 1f3d bf89 0dbe b528 8ebe d3ae e6bd
000000f0: 0457 35be dede 343e 1a27 6c3c aaa8 08bd
00000100: 7d2a 713e aec9 073e 61ad 88bb 6e59 a33d
00000110: d912 f8bd e423 10be 899a 6dbe 556e bc3d
00000120: 23a6 efbd 0c52 493e 17cd 45be 85a1 4cbb
00000130: 45d1 0fbe d213 563d 16d6 83bc c9e7 d9bd
00000140: e765 783e a5d5 0a3e dec7 423e 6c14 913d
00000150: c2e2 f83d f164 e7bd 92b8 553e 77a8 88be
00000160: 30f1 3bbe 9d0d 923d b7be e2bd 9245 fd3d
00000170: c102 8f3e 6ade 53bc 5489 c9bc a471 813e
00000180: 7d10 b03d 9cb0 76be 633d 123e 8875 88bc
00000190: bfc9 ba3d 1eea 5bbe d85d 2b3e 9feb 51be
000001a0: 084e 92bd fa3a abbd 2ffc 513d 4c8f 8d3e
000001b0: 5220 55bd f299 553e 2d53 63be 0752 5c3e
000001c0: bbe0 50be 47ec 3abe 0437 3bbe 53a5 203e
000001d0: a0a3 43be cadb b7bd 63c1 393e eba0 05bd
000001e0: 5d39 9c3d 627a 37bd 7e38 343e 6a6a 25be
000001f0: ca24 813d 4121 64bd efab 48be cfa6 93be
00000200: 2ef8 183e cae3 8b3c 5e81 243e 016b 1bbe
00000210: 5caf 1f3e a509 ebbd c986 8b3d b91f 87be
00000220: bef5 523e 2377 7abe e966 3ebe 200c 91be
00000230: 336a 153c 6a20 d83d 758f 873e bb41 02be
00000240: f122 72bd 584e 2b3d c402 083e 7068 f33d
00000250: 0837 0fbe 1d5e 6cbe 436c 8cbe 5476 77be
00000260: fcfc 273e 2f99 0c3e 132f 683e aa6f c13c
00000270: b52b 32be e152 0cbd 9f1a 253e e339 2e3e
00000280: 9ce4 093e da99 3b3d 83a5 863d fa7c 50be
00000290: be3d 043e d4a6 943e e6b9 6fbe ea84 493e
000002a0: 1171 4fbe 7744 07bd 9d06 c3bd b90a 54be
000002b0: fa54 fd3c 9f35 ff3d 8aa5 983d 0b6e 10be
000002c0: efbc 113e c47b 453d 7b11 8b3e 6329 96be
000002d0: 38b3 83be 35a0 0bbe 48a7 f93d 03ec 12bc
000002e0: 8100 1e3e f377 533e 3403 05be b880 833d
000002f0: 4d98 4a3c 8255 1e3d 8198 56bd 07fb 57be
00000300: 7389 ee3d 6948 3fbe 1e41 bb3d 4207 933d
00000310: 633d 99bd ddf5 563d 4ff0 af3d 9aa8 833e
00000320: 8ff3 a03d 2536 723e 8fb0 90bd 0f07 e83d
00000330: 90f4 8ebd 411d 2c3e 0ef8 f7bd ac1a 9e3d
00000340: 7a4d 673e 4855 cfbc c6c7 5c3e 825a 6fbe
00000350: 69ff 7c3e 04d8 21be 14e3 883e dd28 12be
00000360: f83e 87be cb22 65bd 41dd 003e fb35 483e
00000370: 7731 a8bd b7a8 5c3e 1a57 9ebd 720d 2b3e
00000380: fbf1 5bbe dcf4 98be 679f d4bc 49e4 933e
00000390: 8bcd 32be 3d31 3bbd 1a1e 8ebe c724 33be
000003a0: cac7 013e 81f2 93be 6fd1 28be 57fa 1e3e
000003b0: 10b3 253e c173 0e3e 2c4a 3abe 558a 593e
000003c0: d27c fa3d f7d6 463e 1534 a1bc f3a6 b33d
000003d0: f7e2 33be adf0 893d 2994 6abe 5339 873e
000003e0: 736e 5cbe 65cf d23d d64f 7fbe a0fd 353e
000003f0: 33a6 063e 4034 8d3e c2eb 623e 6693 afbd

sequential/conv2d/Conv2D f4 [1, 3, 3, 1]
-0.069315195 0.41926247 -0.34947172 -0.0073420675 -0.032311205 0.5068687 0.03805236 -0.331105
0.35708407
00000000: 20f5 8dbd 92a9 d63e f5ed b2be ba95 f0bb
00000010: c158 04bd 26c2 013f cbdc 1b3d 9886 a9be
00000020: b9d3 b63e

sequential/conv2d_1/Conv2D f4 [1, 3, 3, 1]
0.54921633 0.03503424 0.33369386 -0.11983586 -0.16905138 -0.31648892 -0.18922517 0.5505163
0.013932319
00000000: 7199 0c3f 1080 0f3d ecd9 aa3e 816c f5bd
00000010: ce1b 2dbe d60a a2be 3ec4 41be a3ee 0c3f
00000020: 6244 643c

sequential/conv2d_2/Conv2D f4 [1, 3, 3, 1]
0.538492 -0.10722177 -0.18082725 0.47376588 -0.4395943 -0.37370387 0.2831337 0.23062326
-0.23429056
00000000: 9dda 093f 1697 dbbd c72a 39be 7191 f23e
00000010: 8112 e1be 1d56 bfbe e6f6 903e 8128 6c3e
00000020: dde9 6fbe

sequential/conv2d_3/Conv2D f4 [1, 3, 3, 1]
0.5404301 -0.0236367 0.49455506 0.1430301 0.22778955 0.2437542 -0.38903698 0.046295654
0.5149586
00000000: a159 0a3f c1a1 c1bc 5236 fd3e 7c76 123e
00000010: aa41 693e b39a 793e db2f c7be 83a0 3d3d
00000020: 54d4 033f

sequential/conv2d_4/Conv2D f4 [1, 3, 3, 1]
0.25044027 -0.20986615 0.06772591 0.38507402 0.4056422 -0.40473446 -0.3747439 -0.174724
-0.46129322
00000000: b539 803e 27e7 56be e2b3 8a3d 6c28 c53e
00000010: 56b0 cf3e 5b39 cfbe 6fde bfbe d9ea 32be
00000020: a02e ecbe

sequential/conv2d_5/Conv2D f4 [1, 3, 3, 1]
0.54503566 0.3186418 -0.06851006 -0.27364257 0.24082597 0.024076428 0.24527118 -0.43574437
0.4193167
00000000: 7587 0b3f 0525 a33e 014f 8cbd e11a 8cbe
00000010: 159b 763e ee3b c53c 5e28 7b3e e319 dfbe
00000020: aeb0 d63e

sequential/conv2d_6/Conv2D f4 [1, 3, 3, 1]
-0.39333573 -0.22907235 0.19321872 0.18813854 -0.21173674 0.13196634 0.22247621 -0.45049113
0.04549459
00000000: 4d63 c9be f191 6abe 21db 453e 64a7 403e
00000010: 84d1 58be 2f22 073e ced0 633e c6a6 e6be
00000020: 8958 3a3d

sequential/dense/BiasAdd/ReadVariableOp f4 [64]
0.0030840926 0.0029344747 0.0010940449 -0.005863598 0.0036165272 -0.006862938 0.007252095 -0.0051753763
-0.00073863746 0.00040712327 0.00042694304 -0.00018030833 -0.0023158453 -0.00044527705 0.001343882 0.00097583066
0.0009114819 -0.0036310554 -0.002484987 0.0 0.003493606 -0.0029316687 -0.001040134 0.00083010184
-0.00026859218 -0.0014972824 0.0019459828 -0.0016931343 -0.005781178 -0.001035686 -0.00429426 0.0019239895
-0.0062108506 0.002197096 0.0013074074 -0.00127256 0.0077610095 0.0038884068 -0.0014779164 0.0010379276
-0.0033818656 0.0027443892 -0.0019455435 -0.0003024353 0.004286815 0.0036591657 0.004593851 -0.0027132693
0.0008627709 -0.0009917082 -0.004049964 -0.0023042958 0.0010553091 0.0019114001 -0.0077989106 0.0026570656
-4.5252615e-05 -0.00060141715 -0.0013983458 0.001305008 0.0035361 -0.0011678032 -0.0077299355 -0.006804188
00000000: 7d1e 4a3b 5150 403b 0e66 8f3a 6d23 c0bb
00000010: 4203 6d3b 7fe2 e0bb fba2 ed3b 3496 a9bb
00000020: 1fa1 41ba 2973 d539 53d7 df39 2611 3db9
00000030: 70c5 17bb 1374 e9b9 3225 b03a e3ce 7f3a
00000040: 84f0 6e3a 00f7 6dbb 2adb 22bb 0000 0000
00000050: fcf4 643b 3d21 40bb 1b55 88ba 319b 593a
00000060: d5d1 8cb9 7640 c4ba 5910 ff3a 29ec ddba
00000070: 0970 bdbb dbbf 87ba ddb6 8cbb 602e fc3a
00000080: 6484 cbbb 27fd 0f3b 505d ab3a 07cc a6ba
00000090: 1150 fe3b a4d4 7e3b a5b6 c1ba 120b 883a
000000a0: 4aa2 5dbb 36db 333b 9b01 ffba 2e90 9eb9
000000b0: 6978 8c3b 9dce 6f3b 0488 963b 1bd1 31bb
000000c0: 932b 623a 35fc 81ba 8fb5 84bb ab03 17bb
000000d0: 4c52 8a3a f287 fa3a 018e ffbb 2a22 2e3b
000000e0: a0cd 3db8 6ca8 1dba b348 b7ba cd0c ab3a
000000f0: eabd 673b f910 99ba 664b fdbb aaf5 debb

sequential/dense_1/BiasAdd/ReadVariableOp f4 [7]
-0.02478546 0.00045844476 0.005040708 -0.003723174 -0.00043406797 0.0029763384 -0.003313318
00000000: e10a cbbc 6a5b f039 862c a53b 7f00 74bb
00000010: 9e93 e3b9 ac0e 433b 4024 59bb

sequential/dense/MatMul i1 [64, 1690] scale=0.0007111921 zero_point=0
0.03058126 -0.03982676 0.049783446 0.041960333 -0.03484841 -0.007111921 0.029870067 -0.03058126
-0.031292453 0.046227485 -0.032714836 0.035559606 -0.018490994 -0.007111921 -0.0042671524 0.0007111921
0.043382715 -0.02062457 0.004978345 0.02062457 -0.018490994 -0.04124914 0.045516293 -0.05760656
-0.025602914 -0.0014223842 0.06471848 -0.03698199 0.044805102 -0.023469338 -0.036270797 0.03698199
0.024180532 0.04409391 0.0014223842 0.05120583 -0.033426028 -0.0028447683 0.016357418 -0.046938676
0.049783446 0.056184176 0.0035559605 0.007823113 -0.04409391 0.016357418 -0.0021335762 0.017779803
-0.019202186 0.029870067 -0.042671524 0.007111921 0.007823113 0.046227485 -0.018490994 0.02062457
-0.066852055 -0.0540506 0.029158875 0.04764987 -0.048361063 -0.017779803 -0.04124914 -0.03484841
0.012090266 -0.0007111921 0.042671524 0.019202186 0.015646227 0.02773649 -0.014223842 0.053339407
-0.03769318 0.03769318 -0.0540506 0.0540506 -0.014935033 0.050494637 0.004978345 0.016357418
0.05831775 -0.03769318 0.0007111921 -0.03769318 -0.04124914 0.049072254 0.016357418 -0.014223842
-0.029870067 0.046938676 0.017779803 0.05831775 0.035559606 -0.022046955 0.008534305 -0.046938676
0.053339407 -0.03058126 -0.007823113 0.026314108 -0.050494637 -0.007111921 0.056895368 0.0
0.024180532 0.025602914 -0.049783446 0.03840437 -0.03484841 -0.0028447683 0.009245497 0.007111921
-0.046227485 0.049783446 -0.06258491 0.017779803 0.066852055 -0.014935033 -0.035559606 0.017779803
0.059028942 -0.032003645 0.018490994 0.018490994 -0.053339407 0.0042671524 -0.05476179 0.00995669
0.044805102 -0.004978345 0.056895368 -0.007111921 0.007111921 -0.045516293 0.012801457 -0.026314108
-0.007823113 0.023469338 0.039115563 -0.026314108 -0.026314108 0.024180532 0.06542967 0.05547298
0.011379073 -0.022046955 -0.029158875 0.015646227 -0.009245497 -0.017779803 -0.042671524 -0.04124914
0.03840437 -0.021335762 -0.021335762 0.043382715 0.026314108 -0.004978345 0.04124914 -0.031292453
0.03698199 0.032714836 -0.035559606 0.025602914 -0.022046955 0.04764987 0.03840437 0.036270797
0.0035559605 0.022046955 0.043382715 -0.050494637 0.03058126 -0.0007111921 0.0270253 -0.049072254
0.042671524 -0.02062457 0.041960333 -0.032003645 0.01351265 0.033426028 -0.010667881 0.04764987
0.032003645 0.023469338 0.056895368 -0.03840437 -0.0035559605 0.012801457 0.04124914 0.046938676
0.025602914 0.06045133 0.031292453 -0.049783446 0.01991338 0.011379073 0.05831775 -0.007823113
-0.031292453 -0.01351265 -0.022046955 -0.029870067 0.053339407 -0.051917024 -0.029158875 0.05547298
-0.035559606 -0.05476179 0.010667881 0.01991338 0.03058126 0.035559606 0.010667881 0.03840437
0.007823113 0.023469338 -0.066852055 0.007111921 -0.015646227 -0.049072254 -0.014223842 0.0021335762
-0.048361063 -0.008534305 0.0035559605 0.024180532 -0.06116252 0.025602914 0.016357418 -0.03484841
-0.017779803 -0.0056895367 0.0 0.0014223842 0.059028942 -0.0540506 0.0540506 -0.0035559605
0.049783446 0.025602914 -0.04124914 -0.036270797 -0.031292453 0.053339407 0.0 -0.025602914
-0.036270797 -0.033426028 0.06045133 -0.04124914 0.041960333 0.01351265 0.0270253 -0.018490994
00000000: 2bc8 463b cff6 2ad5 d441 d232 e6f6 fa01
00000010: 3de3 071d e6c6 40af dcfe 5bcc 3fdf cd34
00000020: 223e 0248 d1fc 17be 464f 050b c217 fd19
00000030: e52a c40a 0b41 e61d a2b4 2943 bce7 c6cf
00000040: 11ff 3c1b 1627 ec4b cb35 b44c eb47 0717
00000050: 52cb 01cb c645 17ec d642 1952 32e1 0cbe
00000060: 4bd5 f525 b9f6 5000 2224 ba36 cffc 0d0a
00000070: bf46 a819 5eeb ce19 53d3 1a1a b506 b30e
00000080: 3ff9 50f6 0ac0 12db f521 37db db22 5c4e
00000090: 10e1 d716 f3e7 c4c6 36e2 e23d 25f9 3ad4
000000a0: 342e ce24 e143 3633 051f 3db9 2bff 26bb
000000b0: 3ce3 3bd3 132f f143 2d21 50ca fb12 3a42
000000c0: 2455 2cba 1c10 52f5 d4ed e1d6 4bb7 d74e
000000d0: ceb3 0f1c 2b32 0f36 0b21 a20a eabb ec03
000000e0: bcf4 0522 aa24 17cf e7f8 0002 53b4 4cfb
000000f0: 4624 c6cd d44b 00dc cdd1 55c6 3b13 26e6
