saved_model/quantized_models/layers7/trial2/paramcount869495.tflite (tflite, 893752 bytes, 32 tensors)

sequential_7/dense_15/MatMul f4 [7, 64]
00000000: bd23 23be 118f 10be afb5 81bd d3dd 4cbe
00000010: 6f98 90be 60c4 8b3e afad 253e d22a f03c
00000020: fb47 6abe 5e0b f9bd db89 96ba d3db d33d
00000030: ac97 91bd 241e 1bbe 74ec c1bd dbd5 143e
00000040: 23ef 9bbd 0243 1d3e 24db da3c 662d d8bd
00000050: d68d 6b3e 92ab 0fbe 86c5 5ebe 0295 c13d
00000060: df1e c73d bdfe dd3d 2706 9e3d 52dc 343d
00000070: b4d5 7e3d 5ebb 92be 65b9 87be 6bfc 763e
00000080: e4aa 65be 232f 4bbe 6356 b93d 1caa 613e
00000090: 2eb4 973c def2 c0bd 3de5 5cbd 527a 833e
000000a0: ce5a 1abe 236f 1dbe 7694 8fbe 018c 623d
000000b0: 1edc 633e c627 263d 137f 853c 1418 1fbe
000000c0: 7b4b 403e e825 ed3d d7cc 743c d297 90be
000000d0: 7ed2 643e 8587 fabc 1c1d 91be 00ba 433e
000000e0: 5dd5 2abe 42b8 80be 33f6 2abe 6585 8fbe
000000f0: d01f b4bc 0bdc 77bd 5a76 573d 110b 8e3e
00000100: 072c 8a3c 98f7 5dbe 45a1 1c3e bd52 893e
00000110: c311 123e 34d0 f93d c8ee bcbd ec74 18be
00000120: b9cb d7bd bdd2 833e 9000 213e 187f 5a3e
00000130: 2446 8f3e 2811 89be 46e3 2c3e 00f6 84be
00000140: 92fb d7bd 821b d3bd fc31 63be 040a 303c
00000150: b8d0 643c 6f32 763e 9397 803e 8a97 aabc
00000160: f1a1 ef3d e88b 8cbe 4e8c 3bbe 342b 833e
00000170: a662 5cbe 3383 a0bc 7cc0 8f3c 4a55 593e
00000180: 0319 d8bc 5d61 0e3e 727c 9fbd be08 69bd
00000190: 3472 753d 1da7 73be 3e72 02bd ebe9 513b
000001a0: 3fdc 8abe 706a 20be c98b 89be 3271 ca3d
000001b0: d467 143d 44f6 17be 0fc2 943d d2b2 d13c
000001c0: 03c6 23bc cb79 073e ab99 0b3e 140e 343c
000001d0: 4a7f d7bd b460 89be 5746 55be 978f 3cbe
000001e0: 84d3 16be 4231 59bd 866e 8e3d dacb aa3d
000001f0: b32f 803e 3e45 52be 1a58 d63d 3e67 8fbe
00000200: a761 5f3e bd86 ccbd 95af 81be 2f70 433c
00000210: 3e36 32bd b91e 5bbe 970c 80be 7be8 8d3e
00000220: d4be 06be d8e3 70be 7d72 ba3d d3bb 61bd
00000230: 4ab4 663e fa81 8bbd 1979 ad3d bc5f 573e
00000240: 56bf 54be 2e42 89be eee3 8b3e 9b12 f1bd
00000250: a8bc 3d3e 7b1c 273e ccfd c1bd c10d 873e
00000260: 9be2 823e 6d43 fd3d 7f15 68be dfe5 37be
00000270: d1d2 1d3e 5e6b 85be 84c1 dd3d fb33 86be
00000280: 476a 5dbd 4f67 c1bd 472c 39be 7a8c 353e
00000290: 8db9 78be 4750 38be 8818 7abd 264b 05be
000002a0: 640d 883c 519c 0f3e d137 1e3e e0a6 15be
000002b0: 9cd8 343e e032 543e 4a73 b3bd c226 8d3c
000002c0: 799a b5bc 8824 843d cacc ca3d d54b 99bb
000002d0: c55c 913e 6c74 cebd f58c 79be 31f7 e13d
000002e0: 0c33 02be 572f 553e 7402 5dbe c04d dfbd
000002f0: 6cbe 223e 9523 41be 334f 69bd aeb7 6e3e
00000300: aff2 01be aea7 a2bd f216 dd3c 7c65 1f3e
00000310: 4bc9 7abd 4ec8 83bd 9560 25be 1c1a 5d3e
00000320: 847e cf3b 25b0 7dbe d491 30be e699 80be
00000330: 0bea 793e 008c b1bd eeec 65be 6e77 e0bd
00000340: f72f 2dbd f89a 6fbe b7e3 7cbd fc24 423e
00000350: 3f97 213e 69ba 3abe 6702 73be 0034 6bbd
00000360: 59a2 923e ffb9 55be 3bd7 bd3d e7c2 4bbd
00000370: d1ef 1dbe 9823 833e c61d 20be 92c2 803e
00000380: ad25 f73d fb18 653e bff3 403d 1cf4 de3c
00000390: c5d2 88be b7f4 5cbe 9529 a83d 983e 7ebd
000003a0: bea9 b8bd 7b34 8e3e c674 01be 650c 85be
000003b0: 91a9 823e c477 f53d e3e9 33be 746c 54be
000003c0: dd00 423e 9c67 2d3e 3df2 283e 640f 293e
000003d0: a4f1 2bbe 1c3f 563e f8ba 7abe 1a7f 433c
000003e0: 7f63 69be 3828 39bd 157d 923e c781 c2bc
000003f0: 5ce5 233d e46d 763e 2d95 203e cecf 4cbe
-0.15931602 -0.14117076 -0.063334815 -0.20006494 -0.28241298 0.2729826 0.16179536 0.029317293
-0.22879021 -0.12160371 -0.0011485176 0.103446625 -0.07109007 -0.15148216 -0.09468928 0.14534704
-0.07613971 0.15357593 0.026715823 -0.10555534 0.23003325 -0.14030293 -0.21755037 0.09452249
0.09722685 0.10839603 0.07716017 0.044155426 0.062215522 -0.28658575 -0.26508632 0.24119727
-0.22428471 -0.198422 0.0904968 0.22037548 0.018518534 -0.09421323 -0.053929556 0.2567926
-0.15073702 -0.15374427 -0.28042954 0.0553093 0.22251937 0.040565275 0.016295945 -0.15536529
0.18778794 0.11579496 0.014941416 -0.2824083 0.22345921 -0.030582199 -0.2834252 0.19113922
-0.16682954 -0.25140578 -0.1669548 -0.2803146 -0.021987826 -0.060512584 0.052603103 0.27742818
0.016866697 -0.21676481 0.15295894 0.26820937 0.14264588 0.12197915 -0.092252314 -0.14888352
-0.10536904 0.25746718 0.15722871 0.21337545 0.279832 -0.26770902 0.16883573 -0.25968933
-0.1054603 -0.10307981 -0.22187036 0.010744575 0.013965778 0.24042676 0.25115642 -0.020824213
0.1170081 -0.2745049 -0.1831524 0.256189 -0.21522006 -0.01959381 0.017547838 0.21223941
-0.026379114 0.13904329 -0.07787408 -0.056893103 0.059923366 -0.23794217 -0.03184723 0.0032030295
-0.2712116 -0.15665603 -0.2686446 0.098848715 0.03623183 -0.14840037 0.07263576 0.025597963
-0.00999594 0.13230054 0.13632838 0.010989685 -0.10522325 -0.2683159 -0.20827614 -0.1841415
-0.14729124 -0.05302549 0.069546744 0.08339663 0.25036392 -0.20534226 0.10466023 -0.28008455
0.21814595 -0.09986637 -0.2532927 0.011928602 -0.04350876 -0.21398439 -0.25009605 0.2771643
-0.13158733 -0.23524415 0.09103868 -0.055110764 0.22529712 -0.068119004 0.08470363 0.21032614
-0.20776114 -0.26808304 0.27322334 -0.11771127 0.18528998 0.16319458 -0.09472236 0.2637768
0.2556351 0.12366376 -0.2266445 -0.17958783 0.15412451 -0.26058477 0.10827926 -0.26211533
-0.054056432 -0.09443533 -0.18083297 0.17729369 -0.24289532 -0.17999373 -0.06105855 -0.13016948
0.016607948 0.14024474 0.1545098 -0.14614439 0.17660755 0.20722532 -0.08762224 0.017230395
-0.022168385 0.0645228 0.09902342 -0.0046782293 0.2839109 -0.100807995 -0.24370177 0.11033476
-0.12714785 0.2081884 -0.21582967 -0.109035015 0.15892953 -0.1886123 -0.056960296 0.23312256
-0.12690233 -0.079421386 0.02698848 0.15566057 -0.061227124 -0.064346895 -0.16150124 0.21591991
0.0063322205 -0.24774225 -0.17243129 -0.25117415 0.24405687 -0.08669281 -0.22453663 -0.109602794
-0.04228207 -0.2339896 -0.061740603 0.18959421 0.15780352 -0.18235172 -0.23731385 -0.057422638
0.28639486 -0.20871733 0.092695676 -0.04974642 -0.15423514 0.25613093 -0.15636358 0.25148445
0.12067733 0.2237281 0.047107454 0.02721601 -0.26723304 -0.21577726 0.08211056 -0.062071413
-0.09016751 0.27774414 -0.12642202 -0.2598602 0.25519994 0.11985734 -0.1756969 -0.20744497
0.18945642 0.16934055 0.16498657 0.16509777 -0.16791397 0.20922512 -0.24485385 0.011932159
-0.22791861 -0.04520437 0.28611055 -0.023743523 0.040013656 0.24065357 0.15681906 -0.20001146

sequential_7/conv2d_49/BiasAdd/ReadVariableOp f4 [8]
00000000: 812b 613b 77e9 bd3b 557b 3a3c 3e37 d8ba
00000010: 02e5 0b3c 9816 37bc 2ec1 40bc 435b 84ba
0.0034358206 0.0057956534 0.011381944 -0.0016495956 0.008538486 -0.01117482 -0.011764808 -0.0010097999

sequential_7/conv2d_50/BiasAdd/ReadVariableOp f4 [8]
00000000: 30cb 803b 7b22 ab3b 64b6 38bb 1838 09b8
00000010: 1b01 7a3b 9434 1e3a 4c86 04bb b93f 0a3a
0.003930472 0.0052226163 -0.0028184885 -3.2715587e-05 0.0038147632 0.00060350564 -0.0020221649 0.00052737776

sequential_7/conv2d_51/BiasAdd/ReadVariableOp f4 [8]
00000000: ed6f bf3b c00f afb7 37b7 ddba ef0c 913a
00000010: d6de a53b 4727 a73b 2c41 4b3c 6ef1 273b
0.0058422 -2.086896e-05 -0.0016915564 0.0011066477 0.0050619645 0.005101118 0.012405675 0.002562608

sequential_7/conv2d_52/BiasAdd/ReadVariableOp f4 [8]
00000000: d4f2 2439 5c58 8dba cb9c a2bb 4cad ea3b
00000010: 65b0 88bc 3a63 a2bb 3c68 e13a 1764 40bb
0.0001573072 -0.001078378 -0.004962539 0.007161772 -0.016685674 -0.0049556764 0.0017197202 -0.0029356533

sequential_7/conv2d_53/BiasAdd/ReadVariableOp f4 [8]
00000000: b44f fb3b 8ea3 21ba 564e 0cbb 617c 2639
00000010: 570c 58bb 6aeb 31bc e14c ec3a e693 85ba
0.0076694135 -0.0006166034 -0.0021408997 0.00015877328 -0.003296634 -0.01085935 0.0018028283 -0.0010191172

sequential_7/conv2d_54/BiasAdd/ReadVariableOp f4 [8]
00000000: 3801 61b9 56ff 3a3b 3918 03bc 31cd c3ba
00000010: 564d 61ba 1f80 083a f076 d03b c82c b3bb
-0.00021458126 0.002853354 -0.008001381 -0.0014938471 -0.0008594593 0.000520708 0.0063618347 -0.005467985

sequential_7/conv2d_55/BiasAdd/ReadVariableOp f4 [8]
00000000: afd3 45ba 38eb 2bbb ef7a ddbb 4488 57bc
00000010: 3614 043c 7393 03bc cbd3 0a3b 01ff 11bc
-0.0007546497 -0.002623273 -0.0067590396 -0.013155047 0.008061459 -0.00803076 0.0021183367 -0.008910895

sequential_7/conv2d_49/Conv2D f4 [8, 3, 3, 1]
00000000: 0bf9 533e 8732 b23d aae1 83bd 8f1f 583e
00000010: 375e a5bb daf2 423e 4931 55bd 60b5 c03d
00000020: 039a e1bd 6d1b 683e 76ba b5bd 2222 cbbd
00000030: 691f b03b dcba a0bd 7804 e93d 775c 203e
00000040: b4bc 6cbe 97f0 64bd 3ebc 7f3e 96bd 36be
00000050: a4a3 823e 67fb 0fbe 7646 c9bc ecd6 a4bd
00000060: be63 053c e50b 7f3e 1f9b 6f3d 7e1a 393e
00000070: 5d59 aa3d 2f15 e03d c377 eb3d f017 383e
00000080: e310 3abd 9b07 5a3e 4ac9 bc3d e1e5 aeba
00000090: 4e88 fcbd 2803 d6bd 3245 0f3d d7a1 863e
000000a0: 0544 60be 9602 9e3d 3a39 7ebc 416f 7e3e
000000b0: 27b4 85be 56d9 cfbd 413b bf3b 5d4f b33c
000000c0: 6a48 173e 7de8 9e3d d561 86bd e5a2 253d
000000d0: 9c95 1f3e 523b 9abd 71ab 653e 0ccd 6dbd
000000e0: 5fe2 aa3c 612a 1abe a1f5 7bbe 607e 6dbe
000000f0: c869 843e 1c1b 6fbe 9b7b 133e 3dc4 503e
00000100: 48c7 76bd 4dc3 093e f0f5 1cbd bb0b 1fbc
00000110: 4504 3bbe a9ef 873e 0b47 2e3d 8a85 a2bc
0.20700471 0.087010436 -0.064395264 0.21105789 -0.0050466317 0.19037953 -0.052048955 0.094095945
-0.110157035 0.22666712 -0.08873455 -0.0991862 0.005374838 -0.078481406 0.113778055 0.15660273
-0.2311886 -0.055893507 0.24974152 -0.17845759 0.25515473 -0.14060746 -0.024569731 -0.080488056
0.008141456 0.24906881 0.058497544 0.18076512 0.08317826 0.109415404 0.11497452 0.17977881
-0.04542626 0.21291964 0.0921808 -0.0013343656 -0.123306856 -0.10449821 0.0349781 0.2629535
-0.21900947 0.07715337 -0.015516574 0.24847127 -0.26114008 -0.101488754 0.005835921 0.02188843
0.14773718 0.07759187 -0.06561629 0.04043855 0.15584415 -0.07530846 0.22428681 -0.058056876
0.020859895 -0.15055229 -0.24605419 -0.2319274 0.25861955 -0.23350185 0.1440262 0.20387359
-0.060248643 0.13453408 -0.03832048 -0.009707387 -0.18263347 0.26550034 0.04254822 -0.019839067

sequential_7/conv2d_50/Conv2D f4 [8, 3, 3, 8]
00000000: dc07 203e 8393 bfbd c76d 07be d8a5 dbbd
00000010: ef7c 21be 6d64 253e ebb4 103d 63ef c33d
00000020: 3110 42bc b0c3 303e 9523 1fbe 2537 42be
00000030: ab65 1e3c 28af 1f3d 007c 05bb 1d0c 09bd
00000040: 8028 11be 8bd0 0cbc 8c3a f1bd 01f3 08be
00000050: b263 2bbe 9418 41be 60e3 2b3e 6761 d6bd
00000060: 7567 ba3c 1649 193d ff06 2bbd f312 ffbd
00000070: 5279 03bd fa9c 063e 62a5 553d d86c 40be
00000080: c184 efbc 1caf 5bbc 081e 2fbe 19db 3d3e
00000090: 71ef 013e 6dcf 47bd 034f 153e 19a2 443d
000000a0: 68ee 00bd 5dfd 313e 07c1 933d 789b e4bd
000000b0: afd0 83bc e3ee d9bd 7d70 ee3d bc4d 9b3d
000000c0: aec0 46ba c354 213e 7ae6 d7bd 4848 9dbd
000000d0: 0ba1 193c 7ed6 ee3d 056a 023e 0d82 d23b
000000e0: 2aef 203e b75a 0b3d 9f60 353e 2980 1c3e
000000f0: 6dd1 46be 8d2c 393e 4570 47bd f387 2b3e
00000100: 5ac8 113e 81ac dcbd a734 233e e678 36be
00000110: 433f 99bd 38b6 9f3d f67d 03be bab9 a63d
00000120: 6ec7 1ebc 8bee 33bd 7a9c 043e 27f8 c63d
00000130: 932c 20be b4e6 e73d 9f06 c53c 0c08 e43b
00000140: fb0f 253e cf36 0cbe 1605 413e 9be3 cb3d
00000150: e212 8bbd 138d e53c 3b88 d83d fc6b 2fbe
00000160: 07bc e23d 9c56 41bc 971d 133e 9ce8 20be
00000170: fd01 cd3c 1ae4 4bbe 0d99 a03d c2b0 0dbd
00000180: 52fb dcbd 0433 86bb 3ade 48be 9c89 16be
00000190: e95f 3c3d 05a4 34be 7f9c 3bbe 41f9 c63b
000001a0: fe1b 193d e0e8 8c3d d5c3 0abd 07e7 a7bd
000001b0: 02e9 fa3d fff8 fb3c 3977 443e 2c83 f43d
000001c0: aac4 2dbe f515 18be 56f6 63bd 8005 243e
000001d0: 8e73 4abe fdda 3fbe 5acc f23d 6850 3f3e
000001e0: 2bd6 123e 71ec ac3d f1aa 883d 53de 493d
000001f0: 7d95 1d3e e2f0 143d 6057 48be 0e0a debb
00000200: 671f 33be 945c dcbc 4fd0 3a3e 2307 aabb
00000210: ba17 333c 8549 05be ce5f 373e e45b 2abe
00000220: 0e7b e73c 525f 4ebe 3146 d23d 9900 12be
00000230: 371a 53bd b92d 2abe 6ec9 32be f5fb 2abe
00000240: 8989 f13b 9c17 d03d bcae f6bc 1fc6 d3bd
00000250: 3b35 493e da1b a6bd 1dfb 2ebd b728 3a3e
00000260: 058f 9d3d 75d7 18be ea70 4ebe 8df2 173e
00000270: f112 62bd 1ee4 36be c522 343e aeb8 4d3e
00000280: 528c d9bc 166b 43be ecd1 14be d751 a0bd
00000290: 0e03 2fbe fb8c b3bc 202d 12be a92b 83bc
000002a0: d5bc a4bc 9c9b 213e b41f 413e 8b6f 63bd
000002b0: b325 85bd 6907 13bd eb85 ddbd a0a8 8f3d
000002c0: 9db9 833d 9e16 10be b48f 2f3e e24e c23d
000002d0: 31d0 50bc 718d 223e 1981 513e c393 26be
000002e0: 8dab a3bd 2a0e 46be 1739 b9bd f09a 3fbe
000002f0: 0104 753b d008 afbd fe46 93bd 85a7 7d3d
00000300: c02d c23c 765a 383e 73c9 4ebe 8917 943c
00000310: 1838 053e 0423 d33d 4b44 35be 1cb6 28be
00000320: 7e0b 3e3e 3a1e d43d d9ed 183e e7e9 4f3e
00000330: 0a4e c0bc 46f0 7fbd e0f2 e13c 1572 24be
00000340: 5ce9 01be 6a1d 49be cf69 a6bd c219 543e
00000350: efc9 84bd 357a 923c b9dc 8abb cdd0 d1bd
00000360: f348 42be 5269 51bd 8765 0dbd 764a 2e3d
00000370: 82d3 f1bc a4d5 133e 938f 053d edf1 a7bc
00000380: 5768 d83c 4bb1 de3c 93cb 993b 2f1c c93a
00000390: 95d8 333e 4f3c 0cbd 02bb fe3b 2132 38bd
000003a0: cf02 7f3c aa2c 053d 6236 f93d c983 093e
000003b0: 78c6 21be 080a df3c d6ec f4bc d1fa 2cbe
000003c0: a79f 59bd 4a09 e239 c699 c43d 6f20 4ebe
000003d0: 7e25 4c3e 26bf a43c ab5e a2bd 6b09 d63b
000003e0: ecb8 2c3d 554c 253e 7305 163e 6c15 83bd
000003f0: 45fe 3cbe d621 19be fe6c 4bbe 868d 26be
0.15627998 -0.093543075 -0.1322547 -0.107249916 -0.15770315 0.1615159 0.035328787 0.09567144
-0.011844681 0.17262149 -0.15540917 -0.18966348 0.009667794 0.0389854 -0.00203681 -0.033458818
-0.14175606 -0.008594642 -0.11778745 -0.13373949 -0.1673725 -0.18857032 0.16785955 -0.10467797
0.02275441 0.037423216 -0.04175472 -0.12454786 -0.032098122 0.1314582 0.052159674 -0.1879152
-0.029238107 -0.013408449 -0.171013 0.1854061 0.12688996 -0.0487818 0.14580922 0.04800615
-0.031477362 0.17381807 0.072145514 -0.11162466 -0.016090719 -0.10641267 0.11642549 0.07583186
-0.0007581812 0.1575499 -0.10542007 -0.07679802 0.009376775 0.11662005 0.12735756 0.0064241947
0.15716234 0.03402206 0.1771264 0.15283264 -0.19415827 0.18083401 -0.048691053 0.1675108
0.14236584 -0.1077509 0.15938054 -0.17819557 -0.07482769 0.07798427 -0.12841019 0.08140893
-0.009691102 -0.043928664 0.12950316 0.097153 -0.15642004 0.113233 0.024051009 0.006958967
0.16119377 -0.13692783 0.18849596 0.09955522 -0.06790711 0.028021371 0.10572859 -0.17131037
0.110710196 -0.011800434 0.14366756 -0.15713733 0.025025362 -0.19911233 0.07841692 -0.034592398
-0.10790123 -0.004095437 -0.19616023 -0.14700931 0.045989905 -0.17640693 -0.18321417 0.006072194
0.03738021 0.06880355 -0.033878166 -0.08198362 0.12251474 0.030758379 0.19186105 0.119390815
-0.16969553 -0.14852126 -0.055654846 0.16017723 -0.19770643 -0.18735881 0.11855383 0.18683016
0.14339511 0.08443535 0.066732295 0.04928429 0.15389057 0.036362536 -0.19564581 -0.006776101
-0.17492448 -0.026899613 0.18243526 -0.005188839 0.01093095 -0.13016327 0.1790764 -0.16636616
0.02825692 -0.2015355 0.10267294 -0.1425804 -0.051538672 -0.16619004 -0.17459652 -0.16697676
0.007371132 0.10160753 -0.030112617 -0.10340523 0.19649212 -0.08110781 -0.04271995 0.18179594
0.076932944 -0.1492594 -0.20160261 0.1483862 -0.055193845 -0.17860457 0.17591389 0.20089981
-0.026556168 -0.19083819 -0.14533204 -0.0782811 -0.17091009 -0.02191781 -0.14275026 -0.01601203
-0.020109573 0.15782017 0.1885975 -0.055526298 -0.06501331 -0.03589574 -0.108165585 0.070145845
0.06431887 -0.14071128 0.17144662 0.09487702 -0.012744949 0.15874268 0.20459403 -0.16267304
-0.07991705 -0.1934134 -0.09044092 -0.18711448 0.003738642 -0.08546603 -0.07191275 0.061927337
0.023703456 0.18003258 -0.20194034 0.018077629 0.1300968 0.10309413 -0.17701833 -0.16475719
0.18559071 0.10357328 0.14934482 0.2030407 -0.023474712 -0.062485002 0.027581632 -0.16059144
-0.12686676 -0.19640127 -0.0812565 0.20712951 -0.06483828 0.017880538 -0.004237738 -0.10244904
-0.1897314 -0.051125832 -0.034520652 0.04255148 -0.0295198 0.14436966 0.032607626 -0.020501101
0.02641694 0.02718415 0.0046934574 0.0015343482 0.17563088 -0.034237202 0.007773758 -0.04496968
0.015564634 0.032513298 0.12168576 0.13429178 -0.15798366 0.027226463 -0.029898088 -0.16892554
-0.053130772 0.00043113 0.095996425 -0.2012956 0.19936177 0.020110678 -0.07928213 0.0065318844
0.042168543 0.161424 0.14650516 -0.0640057 -0.18456371 -0.14954314 -0.19865796 -0.16264924

sequential_7/conv2d_51/Conv2D f4 [8, 3, 3, 8]
00000000: a8e3 42be 3f0c 173e aa93 023e b38a 25bd
00000010: e3b6 973d d94f 4fbc 4ac6 3f3e 3b3b f0bc
00000020: 93eb d23d 1c19 37be 5069 e0bd ccbe f3bd
00000030: e77c 4d3e 3038 e73c 7ae4 613c 4ee8 d7bd
00000040: a77e 4cbe abed eebd adf8 3dbe ef5c 40bc
00000050: a910 073d ff1a b9bd 8013 3fbe 17a0 d93c
00000060: 0b29 38be 3e7a f83c 1ac9 aa3d 1ff1 f83d
00000070: b421 493e 6a0a 87bd d74c 20be 9921 ffbd
00000080: 4d61 1ebe e767 05be d27e 333e bea6 033d
00000090: 21de 353e 663c 89bd dd05 0a3d 90e1 413d
000000a0: 749c ddbd 079c d53d dd90 51bd 4208 333c
000000b0: 3bd2 123e dd5b 5b3d c20d c13c 9376 203e
000000c0: 780a 0a3d a293 63bd b347 4cbd 9890 193e
000000d0: 4c64 b33d 4c44 29bd 9ca6 643d 756e 033d
000000e0: 6d7c 853d 131e 403e 2a81 1f3e 6aba bebc
000000f0: f1ca 1a3e f007 2ebe c0de b33d a000 4d3d
00000100: 27c8 9a3d 9bfb 49be a031 ab3d 26a3 febc
00000110: 47db f93d 4ee3 463d a2bf 413e f9a9 0d3e
00000120: f4d6 893d 07d6 9ebd d516 33be d289 6fbd
00000130: 25c5 0a3c e5df 50be 1aba 49be 682c 20bd
00000140: 3595 4fbd e457 0b3e ae2e ea3d c9f7 9dbd
00000150: 9280 433d 21b3 bfbc 58dd 16be fd0f 093d
00000160: 139b 223d e44d 7d3d 2ceb 2d3e b4a5 fabd
00000170: f362 67bd c3a3 fb3d d0a3 95bd cb56 02bd
00000180: a17c 153e 8ed8 85bd bcd4 efbb ea8a 3cbe
00000190: 14ce 2ebc d7f1 0bbe 712c 0fbe 4696 f0bc
000001a0: 4c0a 4c3e d071 a0bd 777f 51bb 1f3e c33d
000001b0: 8ea4 e13d 6c31 863c dbad 47be d2fd a43d
000001c0: af3b 3abe 500d fc3d eb47 0d3e db47 2c3e
000001d0: 3edd 4b3e ae20 15be 2af5 3fbe 8380 debd
000001e0: 1deb 42bd acb6 a4bd 7053 c7bd 7ae2 90bd
000001f0: aa0d d6bd e0ee 2d3e a201 493e 4ab5 39be
00000200: 2a06 41be 3d9e d23d 15ad edbd 0a0d 3d3e
00000210: dadc 523e 002e 263e 2cc6 0b3e 311b 9fbd
00000220: 22ab 18be 06f3 4bbe aeb0 2c3d 1190 343b
00000230: 0585 2c3e 3d79 953d 77d4 1ebe 7115 e7bc
00000240: 3b7a 243e c5ef b4bc dca3 19be 6116 003e
00000250: b76f 3c3e 5b39 c73b 59e4 9c3d 86e9 f8bb
00000260: ea03 e4bd 827f 5e3c 9460 8fbd 073c 18bd
00000270: 4ab5 483e f281 19be 77c7 cf3c 09b7 d5bd
00000280: 52eb 4cbe 764b ae3d a351 3fbd 65e7 13be
00000290: 3e56 d63d 1d58 14be d330 1abe 5d55 a3bc
000002a0: 949f a43d a8bf b23d ccba a3bd 04b4 a2bb
000002b0: 2ff7 513e ec26 d3bd ad42 53bd c973 393e
000002c0: 3e2e 37be fb5a 37be 1fed ac3d 4b8c f4bd
000002d0: 980f 0bbe 2f19 023e f1fa 45be 8f33 333e
000002e0: 93cb d7bd dd80 a33d 9134 4ebe e1d1 d23d
000002f0: 2b71 423e 49a0 0a3d b067 173e b629 f0bb
00000300: 19dc 50be 894d 373d 33c8 47be 3b55 e6bc
00000310: adc9 34be 9285 d83d 0181 853d a6e1 20bd
00000320: 9f83 44be 00ff 453b f4be 88bd 201c 41be
00000330: 987f a4bd cb8d 8fbd 1c49 40be 70ef 6d3c
00000340: 478e 123d 9264 34bd ac97 c93d 57ce a9bc
00000350: a498 1f3c adbd 18bd 4b56 c13d f5d1 9fbd
00000360: 1486 353e c503 483c 62fc f03d e091 e6bd
00000370: f2b1 413e 85a8 d63d 22d6 28bd be49 133e
00000380: 6599 7ebd 64fe 3e3e 4099 f0bd fa15 7ebd
00000390: 60e2 35be e6a9 2bbe 3db2 53be 88bc 2e3c
000003a0: ec0d 343e fc99 9abd 3148 c43c 5072 b4bd
000003b0: 51e8 103d 3af2 c6bd c1ae cbbd 6ab7 fdbd
000003c0: 7023 ed3d 6b7e 153e 671c 643d 916b ed3d
000003d0: f67e 74bd 8be6 8cbd 231d 37be 3518 1bbe
000003e0: 3a4a dc3c f563 08bd 56a7 163e 9358 163d
000003f0: ad56 0a3e 0ebd 893d c726 b53d 6055 a43d
-0.19032156 0.14750765 0.12751642 -0.040415477 0.0740793 -0.0126533145 0.18727985 -0.029325118
0.102988385 -0.17880672 -0.10957587 -0.11901626 0.20067178 0.028225034 0.013787383 -0.105423555
-0.19970189 -0.11666425 -0.18551894 -0.011740907 0.032974873 -0.09038352 -0.18659782 0.026565595
-0.17984407 0.030331727 0.08339138 0.12155365 0.19641763 -0.06593783 -0.15654312 -0.1245758
-0.15466805 -0.13027917 0.17528847 0.03214144 0.17760517 -0.06700973 0.033696998 0.047334254
-0.10820857 0.104301505 -0.051163543 0.010927262 0.14338009 0.053554405 0.02356613 0.15670232
0.03370139 -0.055560715 -0.049873065 0.14996564 0.087593645 -0.0413249 0.055822954 0.032087762
0.06517873 0.18761472 0.15576616 -0.023282249 0.15116479 -0.16995215 0.087827206 0.050049424
0.07557707 -0.19724886 0.083590746 -0.031083655 0.12200027 0.04855662 0.18920758 0.1383437
0.06730452 -0.07755666 -0.17489178 -0.058481045 0.0084698545 -0.20397909 -0.19699898 -0.03910485
-0.050679404 0.13607746 0.11434685 -0.07713277 0.047730036 -0.023400845 -0.14732873 0.033462513
0.03969867 0.06184186 0.16984242 -0.122386366 -0.05649085 0.122870944 -0.073066354 -0.031821053
0.14598323 -0.06535445 -0.007319061 -0.18412367 -0.01066925 -0.13666473 -0.13981797 -0.029368531
0.19925803 -0.07834208 -0.0031966844 0.09533333 0.110177144 0.016380988 -0.19499914 0.08056225
-0.1818683 0.12307227 0.13796966 0.16824286 0.19908616 -0.14563248 -0.18745866 -0.108643554
-0.047587503 -0.080426544 -0.09732711 -0.07074447 -0.10451825 0.16985655 0.19629529 -0.18135563
-0.18850008 0.10284088 -0.116052784 0.18462005 0.2059206 0.16228485 0.13649815 -0.07768858
-0.14909032 -0.19916925 0.042160682 0.002755169 0.16847618 0.07298515 -0.15510736 -0.028208466
0.16062252 -0.022086987 -0.15003914 0.12508537 0.18401991 0.0060798354 0.07660741 -0.0075961975
-0.11133559 0.013580205 -0.07000843 -0.03716662 0.19600406 -0.14990976 0.025363667 -0.10435302
-0.20011643 0.08510487 -0.046708714 -0.14443739 0.10465668 -0.14486738 -0.15057687 -0.019938165
0.080382496 0.08727962 -0.07994613 -0.004965307 0.2050445 -0.10310158 -0.05157726 0.18110575
-0.17888734 -0.179058 0.08443665 -0.11940821 -0.13580167 0.1270492 -0.19334008 0.17500137
-0.105368756 0.07983563 -0.2013724 0.102939375 0.18988483 0.033844266 0.14785647 -0.007329191
-0.2039646 0.044751678 -0.19509964 -0.028116813 -0.17655058 0.105723515 0.06518746 -0.039277695
-0.19190834 0.0030211806 -0.066770464 -0.18858385 -0.08032149 -0.07009467 -0.18777889 0.014522418
0.035780217 -0.044041224 0.09843382 -0.020728273 0.009740982 -0.037290264 0.09440287 -0.07803718
0.17726928 0.01220793 0.11766888 -0.11258292 0.18915537 0.10481361 -0.041219838 0.14383599
-0.062158007 0.1865173 -0.1174798 -0.062032677 -0.17762136 -0.1676403 -0.20673461 0.010665067
0.17583436 -0.075489014 0.023960205 -0.08810866 0.035377804 -0.0971417 -0.09945441 -0.12388499
0.11579025 0.14599006 0.05569115 0.11592782 -0.059691392 -0.0687991 -0.17882209 -0.15145953
0.026890863 -0.03329845 0.14712271 0.036705565 0.13509627 0.067255124 0.08845287 0.080240965

sequential_7/conv2d_52/Conv2D f4 [8, 3, 3, 8]
00000000: 0ef7 27be fef6 64bd 268a 6d3d 58f3 023e
00000010: e2f6 6bbd a5a7 31be fb80 2abc 0cf8 8b3d
00000020: 5280 483c 12e9 30be 621f 463e 3df6 32be
00000030: cde9 033e 4d45 f0bd 2787 eebd 3a34 0f3e
00000040: 58f0 3e3e 82ed db3d 241d e33c 9a65 d53d
00000050: 95bd 0bbd fa0b 27be 8efc b93d 50e7 0ebd
00000060: 3c7e 19be 89b9 31be e961 2d3e 7b1c 07be
00000070: 09b6 b03d 20de 8abd e890 5f3a 8998 2e3e
00000080: 037d 94bc 7520 3d3e e635 0d3e 0889 1f3e
00000090: a592 e33d f041 1fbd 5537 e7bd 53c2 2cbe
000000a0: 1463 f93d 4e2b 1ebd dc67 52bd d7aa 26bd
000000b0: 8d08 c33d 44fb e53d 9218 e9bd 1f38 763d
000000c0: b305 f7bd c953 0a3e 8d9f 08be d73c f13d
000000d0: c54c debd 6a8a f1bd 43b1 e93d 30d9 b0bd
000000e0: 89c8 09be b670 313e a8db 303e eb17 97bd
000000f0: 05a8 3cbe 99e9 ab3d 6ee8 cebd 1e02 943c
00000100: 83ac 64bc 3c90 663d 2b4d 003e 5023 4b3e
00000110: d6b2 da3d d925 49be dc64 a7bd ec4f 9c3d
00000120: df56 1f3d 2990 053e 9d3c 89bd 8f79 45be
00000130: 115e 07be 745f 2cbe 53dd f33d b1a6 ae3d
00000140: b3af c6bd 8e8a 763d 29e4 123e da46 903d
00000150: dca6 0dbe 3786 2cbd 5c63 653d 282d 43bd
00000160: 2506 b33d 40e8 08be 2254 e33b 1f76 c1bd
00000170: 9ba3 613d a0d8 40bd 9725 193d faf2 f3bd
00000180: e5f4 49bd 6c94 ffbd 48b6 d43d 48c9 413e
00000190: ed68 59bd 03e1 ea3d fceb 49be 3c91 75bd
000001a0: f169 1a3e f974 85bd 00a4 313d eb9f a1bd
000001b0: 9570 9c3a b236 383d d54e c63b 1dfb d73d
000001c0: b9cb 313d 2a07 073e eba7 28be 930b 2fbb
000001d0: 5ba1 2abe 30b0 fb3a 1fbd d6bc 0919 4ebe
000001e0: 4e89 e83d 7aa9 07be 741f d93d 1918 1bbe
000001f0: 1842 07bd 24f4 393e d5f1 e5bd 08db 16be
00000200: 3db6 2abe 55a0 24be fdd1 c83d 41ba 5b3c
00000210: 218f d83d 46cf 423e 1a85 34be 07de 8cbd
00000220: 096f 023e 3ff2 2ebe ee7f 0c3d 7672 b03c
00000230: 5cc2 e3bd 4822 a43d 038e 403c 94e3 953c
00000240: 0286 44be adf3 213e d680 d43d 70c8 07be
00000250: 127d d83c 9a30 b93d 83d6 ac3d a5ab 503e
00000260: dfd8 463d 246a f83d 8b04 d3bd e195 e83d
00000270: 7f1b 033e 9107 3e3e 6db3 b43c af0d 01be
00000280: 10fd 37bb 50a6 403e 2e1e be3d cc5b 3abe
00000290: f389 a0bb d7ef d3bd f28a bb3d 77c6 eabd
000002a0: 1b92 06bd 2ce8 46be f23f ec3d e53e a93d
000002b0: 28e5 033e 8689 16bc 4aa5 a6bc a8b1 10be
000002c0: 6a20 4a3e ca49 39be 9adb 053e 4432 073b
000002d0: e473 243d 0051 eb3b 3d67 4d3e 315d dd3d
000002e0: d7d9 a93d e7f8 323e 05e0 513d d1c1 483e
000002f0: c127 cc3d c192 3a3e 05c1 32be 63e4 443e
00000300: f63f 91bd 4883 e5bd b948 423e d6bd 903d
00000310: 5fe7 00be c109 423d 4604 4bbe 11cb 123d
00000320: c513 abbd c622 b5bd 29ad 44bd 3164 533e
00000330: d6f3 9e3c 5dfb 4abd 3dbb b3bd c9a2 3cbe
00000340: 22a3 15be 8263 133e f53b 29be fd30 40bd
00000350: dc72 223e 3eb0 183e 5728 133e 5064 babd
00000360: db22 093e bd94 ff3d c4dc 9ebd 6f3b 83bd
00000370: 2ca0 203e d2ba e8bc 0f47 3c3e 84fb 4e3d
00000380: fad4 d63d 91f6 453e c97b d7bc 8e25 a2bd
00000390: e05b 23be e2a7 843d 955f d93d 2da2 0fbe
000003a0: f6cf 23b9 02cf ac3d eea0 0cbe 90ea ff3d
000003b0: e82f 11be af9d 083d 3265 aabc 6135 dc3c
000003c0: ef6c 0cbe a49a f6bd 6c63 a3bc 977e 2bbe
000003d0: c7e4 12be 642d 52be 1c3a 253d ad3b cebd
000003e0: eb19 d93d c06d babc 1a35 563d 58a3 513e
000003f0: f699 65bd dd0d f73d 6f18 42be ae2a 4ebd
-0.16402838 -0.055899613 0.057993077 0.12788141 -0.057608493 -0.17349108 -0.010406728 0.068344206
0.012237625 -0.1727641 0.19347909 -0.17476745 0.12882157 -0.11731968 -0.11646872 0.13984767
0.18646371 0.107386604 0.027723856 0.104197696 -0.034116346 -0.16313162 0.09081374 -0.034888566
-0.14989561 -0.17355932 0.16931881 -0.13194458 0.086284705 -0.06780648 0.00085283676 0.17050375
-0.018126016 0.18469413 0.13790092 0.15579617 0.111119546 -0.038881242 -0.112898506 -0.16871004
0.12177101 -0.038615517 -0.05136858 -0.04069027 0.09523115 0.11229566 -0.113816395 0.060112115
-0.12061634 0.13508524 -0.13342114 0.117791824 -0.108544864 -0.117939785 0.11410763 -0.08635175
-0.13455404 0.17328152 0.17271292 -0.07377609 -0.1842347 0.083941646 -0.10102926 0.018067416
-0.013957146 0.056289896 0.12529437 0.1983769 0.106786415 -0.19643344 -0.08173534 0.076324314
0.038901206 0.13043274 -0.06701014 -0.19284652 -0.13219477 -0.16833287 0.119074486 0.085278876
-0.09701481 0.06019073 0.14344849 0.07044764 -0.13833183 -0.042120185 0.05600296 -0.047650486
0.08741406 -0.13369846 0.0069375196 -0.09446358 0.055087667 -0.04708159 0.037389364 -0.119115785
-0.049305815 -0.12479481 0.1038633 0.18924439 -0.05307858 0.11468699 -0.19718927 -0.05995296
0.15079476 -0.065164514 0.043369293 -0.0789183 0.0011935408 0.044974037 0.006051878 0.10545943
0.043407176 0.13186327 -0.16470306 -0.002670978 -0.16663115 0.0019202288 -0.026213227 -0.20126738
0.11354314 -0.13248244 0.10601702 -0.15145911 -0.033022016 0.18159539 -0.112277664 -0.14731991
-0.16671081 -0.16076787 0.09805677 0.013411106 0.10574175 0.19024381 -0.17628899 -0.06878286
0.12737669 -0.17084597 0.03430169 0.021538954 -0.111210555 0.08014351 0.011752608 0.018296994
-0.19191745 0.15815611 0.10376136 -0.13260055 0.026426826 0.09042473 0.08439352 0.20377977
0.04854667 0.1212962 -0.10303601 0.11356712 0.12803458 0.18557574 0.022058213 -0.12602876
-0.002807442 0.18813443 0.092831 -0.1819908 -0.0048992573 -0.1034848 0.09157361 -0.114636354
-0.03285418 -0.19424504 0.11535634 0.08263949 0.12880385 -0.009188062 -0.020342488 -0.1413027
0.19738927 -0.18094555 0.13072053 0.0020629326 0.040149584 0.007181287 0.20058914 0.108087905
0.08293503 0.17477761 0.051239032 0.19605185 0.0996852 0.18220045 -0.17456444 0.19227748
-0.07092278 -0.112066805 0.18973054 0.07067458 -0.12588261 0.047372583 -0.19825849 0.03583819
-0.0835338 -0.08844523 -0.0480167 0.20643689 0.01940338 -0.049556125 -0.08775947 -0.18421473
-0.14613011 0.14393428 -0.16526778 -0.04692172 0.15864128 0.14910981 0.14370857 -0.09101164
0.13392203 0.124795415 -0.077569515 -0.064078204 0.156861 -0.028409395 0.18386482 0.050532833
0.10489841 0.19332339 -0.026304143 -0.07917319 -0.15953016 0.064773336 0.10613934 -0.14026709
-0.00015622363 0.08437921 -0.13733265 0.12495911 -0.14178431 0.033353504 -0.020800207 0.026880922
-0.1371343 -0.12041214 -0.019944869 -0.16747509 -0.14345084 -0.20525128 0.04033862 -0.10069976
0.106006466 -0.022757411 0.052296735 0.20472467 -0.05605503 0.12063191 -0.18954633 -0.05033367

sequential_7/conv2d_53/Conv2D f4 [8, 3, 3, 8]
00000000: 86a9 34be b876 c7bd 4f93 1cbe fa9f 6bbc
00000010: f707 153e 0c61 1bbd 3ca5 063e 5614 c9bd
00000020: 6e7b 7d3d b1c6 803d 6ce7 24be 4c5f 4e3d
00000030: 7ab2 0f3e d17f c6bb 8237 38be 2535 7fbd
00000040: fae0 94bc 14a0 37be 6cb5 14be 666e ecbd
00000050: cd5d 183e 8078 0f3e fd2e 20be 15a3 023c
00000060: 7bc3 74bd 10dd 34be 4dc1 1cbd fae0 eabc
00000070: fbd0 15be bf71 2d3e a0e7 633d aca5 4bbe
00000080: 9707 fe3c 0d28 6dbd 2e4e 20bd 0ac1 4b3e
00000090: f2d4 43be a9f5 953c eda4 ef3d f770 563d
000000a0: 77bd 2d3d ee76 fb3d aad9 30be 2b16 d93d
000000b0: 28bd 853d df57 093e 81db 3bbe cb0e ff3d
000000c0: a140 45be fe8e eabd cf58 3d3e fff3 a63d
000000d0: 1215 ebbd 9640 c53d 203b 1bbe 6287 61bd
000000e0: 6f50 31be b6e5 9d3c 7e55 1bbd 9b0b 3b3e
000000f0: 0676 1cbe 3320 b6bd a387 12bc aa0b 34be
00000100: 14d2 abbd 5a5d cb3d b031 013e 9786 033e
00000110: 11c0 d03d 8b11 d43d 15e9 c53d ccc7 573e
00000120: c9c6 2abe 0b4e 0bbe 86ac 3f3d 03d1 fabd
00000130: a3bf 413e 1db2 20be 6b9a a0bd 2d15 433c
00000140: 09e0 30be 7e2c 33be 8fa9 07be da47 c33c
00000150: 148c 85bd 9b08 10be dd73 27be 9979 8c3d
00000160: 9b0c 773d fd86 acbc f2ca 79bd 415e b6bd
00000170: 3a2c 2dbe 67d4 bdbc b2f7 9d3d 58d1 06be
00000180: c467 2ebe 72ae b4bd 60df ec3d 15a9 a6bd
00000190: 759a 1ebe 9348 163d 8b62 4a3d 7107 1bbe
000001a0: d302 403c 0957 09be a851 cbbd 33fa 223e
000001b0: 91f1 4bbe 8a26 94bd 23b0 e0bd 7624 d83d
000001c0: 1391 8abd 0c44 483e b46a a6bc 534e a4bd
000001d0: fb3e 0b3e 7ebc 9a3d 5a2f 78bd 9ca7 313b
000001e0: a111 a8bd d00e 0f3e 6c36 043e ba58 39be
000001f0: 83d2 bebd 48df 0a3d 90f8 61bd e31c 813d
00000200: 1184 6bbd c231 213e b037 253e 098d 9c3d
00000210: c378 4a3e d387 e53c a490 21bd f0d5 05be
00000220: 0fa1 703d 268e 293e 89ff 82bc 5556 20be
00000230: 5130 1cbe 330f 33bd fcbf 17be e945 f9bd
00000240: 408b c3bd d030 c33d 675c c03d a65d fc3d
00000250: eb08 a0bd 1b3b 47be 513e 23be 0f3f e53d
00000260: 7ecc 02be fa8f 303e 4cc3 af3b 1da0 b1bd
00000270: 8727 0d3e 2645 12be d6ea 083d bec2 153e
00000280: 3861 2d3d 9535 283d 4273 923d acf9 27be
00000290: d05b 503d 4bce 02be 4998 ad3d 56f0 f1bd
000002a0: 782c 2cbe 9590 833d 348f 23be b143 063e
000002b0: c2ac 3abd eadf c03d e9b7 303e 6941 343e
000002c0: d27c e73c 68e3 0ebe a33e 27bd ad78 063e
000002d0: 3574 cd3c fe69 ec3d 3bfd 9dbc ee53 d7bc
000002e0: bb1e 3abe 5550 983c 9431 0bbe 03d7 35be
000002f0: 210c 2fbe 230c 7b3c b758 6ebd 46b2 3f3e
00000300: be34 c9bd 5863 1f3e 67c5 a6bc 4518 15be
00000310: ce34 a53d 226e a9bd 0548 c5bd 9a93 a5bc
00000320: e5df 333e 69ee 493e 4654 02be 43be 37be
00000330: 9437 7f3c eb44 4bbe a782 e8bd d216 f2bd
00000340: 5cec b53d 5389 02bd 4474 e4bc 4ee2 993d
00000350: 3f78 b2bb d1c8 afbd ebc6 efbd 56d6 1e3e
00000360: 869b b1bd 28c6 063e f880 b3bc 7fae 38be
00000370: 4484 a5bd 6c6e c0bc 1961 b93d f5f5 403c
00000380: d4c7 af3d d840 28bd af84 0b3e b9d6 1e3e
00000390: 2e67 43be 1566 02be e010 5dbc 2e2d 453c
000003a0: 3552 2ebe cf70 d83d b44a 47be 281d 213e
000003b0: 2b45 4aba 09ea d33c 9966 eabd b01f e53d
000003c0: f940 993c efd5 f43d e6d0 1a3e cb90 30be
000003d0: 8659 d3bd 3a0e b6bd 8a21 043e f5a8 d4bd
000003e0: 282d 42be e5dc 43be c203 063d 88a8 873c
000003f0: ef8e 48bd c4cd b03d e988 d5bd 8540 fabd
-0.17642793 -0.09739441 -0.15290569 -0.014381403 0.1455382 -0.037934348 0.1314897 -0.09818332
0.06188529 0.062878974 -0.16103905 0.05038385 0.14032927 -0.0060577174 -0.17989925 -0.062306542
-0.018173683 -0.17932159 -0.14522332 -0.11544494 0.14879532 0.14010811 -0.15642925 0.007973452
-0.059756737 -0.17662454 -0.038270283 -0.02867173 -0.14630501 0.16937922 0.055640817 -0.19887418
0.031009478 -0.057899524 -0.039137058 0.19897857 -0.19124201 0.018305616 0.11701379 0.052353825
0.042417016 0.122785434 -0.17270532 0.10599931 0.06530219 0.13412426 -0.18345453 0.124539934
-0.19262935 -0.11453055 0.18490909 0.08152007 -0.11478628 0.096314594 -0.15159273 -0.05506075
-0.17315839 0.019274574 -0.03792333 0.18266146 -0.15279397 -0.0889286 -0.008943471 -0.17582574
-0.083896786 0.09929915 0.1261661 0.1284431 0.10192884 0.103549086 0.096635975 0.2107231
-0.16677393 -0.1360399 0.04679539 -0.12246897 0.1892076 -0.15692945 -0.07841953 0.011906904
-0.17272963 -0.17497441 -0.13248275 0.023837972 -0.065208584 -0.14065783 -0.16352792 0.068591304
0.060314756 -0.021060461 -0.06098456 -0.08904696 -0.16911402 -0.02317257 0.0771326 -0.13165796
-0.17031771 -0.08822335 0.11566043 -0.081377186 -0.15488608 0.036690306 0.049410384 -0.15139557
0.011719423 -0.13412108 -0.09927684 0.15915756 -0.19916369 -0.07233913 -0.109710954 0.10553829
-0.06765952 0.19557208 -0.020314552 -0.08022752 0.13598244 0.07555483 -0.060592033 0.002710796
-0.082064874 0.13970494 0.12911385 -0.18100253 -0.09317496 0.033904344 -0.05516869 0.06304338
-0.057498995 0.15741637 0.16134524 0.07644088 0.1977263 0.028018868 -0.03944458 -0.13069892
0.058747347 0.16558132 -0.01599099 -0.15657933 -0.15252806 -0.043715667 -0.1481933 -0.121715374
-0.09548044 0.095307946 0.09392624 0.123225495 -0.07814201 -0.1945614 -0.1594174 0.11193668
-0.1277332 0.17242423 0.0053638574 -0.08673117 0.1378461 -0.1428419 0.033427082 0.1462507
0.042329043 0.041066725 0.0715089 -0.16403836 0.05086881 -0.12774007 0.08476312 -0.118134186
-0.16813838 0.06424061 -0.15972596 0.1311176 -0.04557491 0.09417708 0.17257656 0.17603077
0.028257761 -0.13953936 -0.04083122 0.13131972 0.025079826 0.11543654 -0.019285789 -0.026285138
-0.18175785 0.018592993 -0.13593131 -0.17757802 -0.1709447 0.015322718 -0.058190074 0.1872035
-0.09824513 0.1556524 -0.0203578 -0.1456004 0.08066712 -0.08272959 -0.09632877 -0.020211983
0.17565878 0.19719853 -0.1272746 -0.17943673 0.015577216 -0.19850509 -0.11353045 -0.11820759
0.088829726 -0.031869244 -0.027887471 0.07513867 -0.0054464634 -0.085832246 -0.117078625 0.1551145
-0.08672242 0.13161528 -0.021912083 -0.18035315 -0.08081868 -0.023490153 0.09051723 0.011777391
0.08583036 -0.041077465 0.13624834 0.15511598 -0.19082329 -0.12734254 -0.013492793 0.012034697
-0.17023547 0.105683915 -0.1946209 0.15733778 -0.00077159953 0.025868433 -0.1144535 0.111876845
0.01870774 0.11954867 0.15118751 -0.17242734 -0.103198096 -0.08889432 0.12903419 -0.103837885
-0.18962538 -0.19127233 0.032718427 0.016559854 -0.048964437 0.08632997 -0.10426504 -0.122193374

sequential_7/conv2d_54/Conv2D f4 [8, 3, 3, 8]
00000000: 6630 3b3d 2e32 473e 6614 293c 3810 2c3e
00000010: d385 b83c e32b 2f3e 4437 e9bc 577f 69bd
00000020: 312c 453a 6e40 0ebe f765 013d c4b1 3c3e
00000030: 8971 61bb e830 f83d 8335 3c3e 8881 debd
00000040: be50 dcbc 46ee 37be 3f52 bc3d 96da 1dbe
00000050: 5fdc 10be 8881 043e 1286 e4bd 10d1 5d3d
00000060: 63cd 3e3d 4211 bdb9 b149 343e 47d8 51bd
00000070: db08 91bd 0872 b1bc 53dd d5bd b92d 2cbe
00000080: 81d4 2abd 848d 273e 63bc 8a3c 5fa6 51bb
00000090: 4610 c3bd e6e9 64bd 4ec7 21bd 4f3e 273e
000000a0: d81f 1bbe f647 d43d 048d 71bc 7e22 98bd
000000b0: a290 1c3e d222 91bc 5d28 a9bd 5dc4 163d
000000c0: 5f2c d7bc 0aff f8bc 9d6f 98bd e003 a2bd
000000d0: c7bf 9cbd 66c2 91bc 3969 3abe 7533 343d
000000e0: ed0d eabd cae0 ac3c fbf5 0c3d 59d1 dd3d
000000f0: fe03 13be 74f7 97bd 8261 3c3e 4035 953d
00000100: 68ee aebd 7095 b0bd 6b66 3abc 68e2 0e3e
00000110: 4925 853d 3755 25be 2edc 563d d2cb 183c
00000120: 1cf9 e9bc 40ea 0fbe 7f1e 0fbd aee0 d8bd
00000130: d16c 4d3d 77ac e13d 2ab3 11be ea22 dabd
00000140: 177f bebd 06d2 8bbc 27c2 413e ef54 6c3d
00000150: 1e81 3bbe 046d 913d 5277 fa3a 6344 b2bd
00000160: 15ef 03be bda6 1dbd 60e3 123d 717d 24bc
00000170: fd7d 1a3e d862 263e ec60 2d3e 97b7 a63d
00000180: 5af1 763d 970d a33d 902f cdbd 46e3 e43d
00000190: 6874 2bbe 69df 4a3d 2c05 183e be9b efbd
000001a0: 691e dbbd 8241 9b3d c3c8 c83d 6066 3abe
000001b0: 0133 803a df50 c23d 27ef 3abe 9099 0ebe
000001c0: 637a 0f3e c9a3 323e cdc1 f6bc caf4 ae3d
000001d0: 03f9 123e 218d 2fbe 6da1 b43d 427e 60bd
000001e0: 835e 353e f0d4 363e e714 21be 2480 a53d
000001f0: bb4f c4bd 8a16 33be d978 34be 8bc9 b3bd
00000200: 1e07 513c 2a77 023e c210 0a3e 5781 4abe
00000210: 654a 9dbd 09ee debd e94e 453d cf2f 2a3d
00000220: ea6c 29be c82a 013e 7006 66bd 2f8a f5bd
00000230: a1ff 6f3d 3580 053e d899 063e f011 513e
00000240: a7db 9abd c840 3d3c 8788 3f3e 04e4 e6bd
00000250: e065 c3bd 92a7 093e fe48 103e e852 8c3d
00000260: 60e2 1cbe 2829 b7bd 7a01 45be 4d99 16be
00000270: 66a2 10bd a8e3 123e 2c13 ccbc 3bb8 31be
00000280: 60e6 3ebd 949b 023e 75f5 cf3d 583a ef3d
00000290: 60b8 f3bd cc7a c63c f6d9 023e 4a2b 1abd
000002a0: de65 1c3e 3600 08be 1349 b83d 4acd e4bb
000002b0: 9383 f3bd bfeb 2a3e bf78 d83d 398b cc3d
000002c0: cb02 c23d fea0 c13d 91bb 85bd 4c1f ba3d
000002d0: 1819 f0bd 8881 c0bd 4b71 593d b248 90bd
000002e0: 740a 1cbe 0f56 9dbd ec75 0cbc cf6d 80bd
000002f0: 824c 263e a43a f83d 97ee c4bd 74d1 eb3d
00000300: 50fb c6bd b804 23be 140a 1ebe cd45 3bbe
00000310: ad79 a4bc 0953 f8bd 84b0 813d b63a 42be
00000320: b518 72bd 3a1a 32be 8454 dfbd 64aa f73d
00000330: 0de4 4e3e c2cb ebbd d050 98bd 2340 523e
00000340: aced b4bd 34fd 44bd bd7e 91bd f3f2 d0bd
00000350: d048 4c3e 52e5 7a3c 0920 933c f2bb a43d
00000360: 6a98 aa3d a075 e33d edcc 633d 4e48 383d
00000370: 111a 4abe 3eff c9bd bf80 4f3e 631b 363e
00000380: 8cb0 f6bd 8330 47be b29d 073e f61d e8bd
00000390: 4848 dbbd d896 32be 9a81 2c3e 713a bebd
000003a0: 3339 ceba 8254 53be 97ea 1cbe 8add ef3d
000003b0: 3ac3 333e d2ce 0d3d bdfb 933d af66 1cbe
000003c0: 7ee3 6c3c 934a 083c 2be5 78bc 5f8f 493e
000003d0: a77f 9e3d 01dd 043e f088 0dbc 5eba 96bd
000003e0: 39a0 63bd f869 31be 3d46 773d c34b 1f3e
000003f0: 253f 123e 283b b7bd f68f a3bd 8e29 483e
0.045700453 0.19452736 0.010319805 0.16803062 0.02252475 0.17106585 -0.028468736 -0.057006206
0.00075215386 -0.13891765 0.031591382 0.18427187 -0.0034399948 0.12118703 0.18379788 -0.1086455
-0.02689397 -0.17961988 0.09195375 -0.15415415 -0.14146565 0.12940037 -0.111583844 0.054154456
0.04658259 -0.00036061747 0.17606236 -0.05123165 -0.07081767 -0.02166082 -0.10442605 -0.16814317
-0.041706566 0.16362578 0.016935533 -0.0031990034 -0.09524588 -0.055887125 -0.039496712 0.16332363
-0.15148866 0.10365288 -0.014743093 -0.07428454 0.15289548 -0.017716799 -0.08259652 0.03680836
-0.026266275 -0.03039505 -0.074431635 -0.07910895 -0.07653766 -0.017792892 -0.18204202 0.043994386
-0.114284374 0.021103282 0.034414273 0.108309455 -0.14356992 -0.07420245 0.18396571 0.07285547
-0.08541566 -0.08622253 -0.011376957 0.13953555 0.06501252 -0.16145788 0.052456073 0.009325938
-0.028561167 -0.14054203 -0.034941193 -0.10589729 0.050152604 0.11019223 -0.14228502 -0.106511906
-0.09301584 -0.01706792 0.1892172 0.057698186 -0.18310973 0.07100871 0.0019109047 -0.0870445
-0.12884171 -0.038489092 0.035861373 -0.010039673 0.15087123 0.16248643 0.16931504 0.08140486
0.060288765 0.079615764 -0.100188375 0.111761615 -0.16743624 0.049529467 0.14845723 -0.11699627
-0.1069916 0.07580854 0.09803917 -0.18203115 0.0009780825 0.09488081 -0.18255292 -0.13925767
0.1401153 0.17445292 -0.030121708 0.085427836 0.14352803 -0.1714368 0.08819852 -0.05480791
0.17711835 0.17854667 -0.1573063 0.080810815 -0.0958552 -0.17489067 -0.17624225 -0.08778676
0.0127580445 0.1274077 0.13482955 -0.19775902 -0.07680205 -0.10885245 0.048170958 0.0415495
-0.16545454 0.12613976 -0.056158483 -0.11989247 0.058593396 0.13037188 0.13144624 0.20416999
-0.075614266 0.01155109 0.18704425 -0.11273959 -0.095409155 0.13442829 0.14090344 0.068517506
-0.1532073 -0.08943397 -0.19238845 -0.14706917 -0.035311125 0.14344656 -0.024911486 -0.17355435
-0.04660642 0.12754661 0.10154239 0.1168105 -0.11900401 0.024228476 0.12778458 -0.03763894
0.15273234 -0.1328133 0.08998313 -0.00698248 -0.1189033 0.16691492 0.105699055 0.09987492
0.09473189 0.09454535 -0.06529916 0.09088001 -0.11723536 -0.09399706 0.05308656 -0.070451155
-0.15238363 -0.0768243 -0.008573037 -0.06270944 0.16240123 0.1212056 -0.0961582 0.115145594
-0.09715903 -0.15919769 -0.15433532 -0.18288346 -0.02007755 -0.12125213 0.06332496 -0.18967709
-0.059105594 -0.17392817 -0.10904792 0.12093046 0.20204182 -0.11513473 -0.07437289 0.20532279
-0.08834395 -0.048093036 -0.071042515 -0.10202589 0.19949651 0.015313463 0.017959611 0.0804366
0.08329852 0.111064196 0.055615354 0.04499083 -0.19736506 -0.09863137 0.20263956 0.17783885
-0.120453924 -0.194521 0.1324375 -0.113338396 -0.10707146 -0.17440355 0.16846314 -0.092884906
-0.00157336 -0.20637706 -0.15323864 0.11712177 0.17554942 0.034621067 0.0722575 -0.15273546
0.014458535 0.008318561 -0.015191357 0.19683598 0.077391915 0.12974931 -0.0086386055 -0.073597655
-0.055572722 -0.1732558 0.06036972 0.15556245 0.142819 -0.0894683 -0.07986443 0.19547102

sequential_7/conv2d_55/Conv2D f4 [8, 3, 3, 8]
00000000: 3bf1 c7bd 928b dd3c ee0d b9bd 615f 2b3d
00000010: 8f27 26be 7b9b 873d a996 c63b f054 c1bd
00000020: b621 ec3d c07d 493e abdb 1a3e 30bf 24bc
00000030: c2c7 9dbd 44a6 90bc bbf7 253d 12ad 243e
00000040: 3115 74bd 9e90 4d3e 66ee 263e 69fb 24bd
00000050: 120d 943c 46f0 0c3d 5271 60bd f3b6 3bbe
00000060: 09c4 18be 5e0c 8e3d 7312 26be bf21 36bc
00000070: 9276 fa3d 5768 d13d 4cc2 133e 41f0 573d
00000080: 2dcc 213d 4560 3d3b eddc a3bd 7d95 86bd
00000090: ae7f 2b3e 4351 343e 4f1a b23d 2a58 5ebe
000000a0: 8332 443e d136 ff3d f144 033e 3e9d 0b3d
000000b0: 0a3b 6f3a de69 b63d 9eea 4a3e 63c8 8b3d
000000c0: 44df 2fbd 0963 b6bd 70cf b2bd 261b 213e
000000d0: 7f3d 0f3e d3b3 35bd ef08 1d3e 0a6e 133e
000000e0: 510b be3d d77e 3ebe ec4a a9bd 1e99 973d
000000f0: 323f 343e 3821 06be 8b7e c03c 3287 41be
00000100: 933b 343e 790f 023e b455 12be 70e9 14be
00000110: 0827 c5b8 f267 a03c 0009 133e 4916 f93b
00000120: 88ca bdbd 230b 28be 77fd 293d ae31 c0bd
00000130: 3ab2 903d ceaf 24be e14e 743d 0c98 45be
00000140: 4625 093e 3f18 a9bc c02d 733d 169b ca3c
00000150: b20d 613d 072f 733d c8e4 44be a06b 89bd
00000160: 0b37 34be 461b 04be 0c29 9b3a fafc 03be
00000170: aa89 efbd 15b6 733c 15d2 efbc 89fd 313e
00000180: 705a 4e3e 6c9c 2cbe ce23 963d f4e5 5d3b
00000190: 3a5f abbd e6ae a43d 4fdb cf3d b41f 41bd
000001a0: 2c0e 9b3d 7230 92bc bcf7 25be 9b47 133e
000001b0: 199b 6a3d 0d50 263e 6e76 d33d 3f3f 19be
000001c0: 8753 a2bb f3fa 2c3e 9780 e1bc ca1b 4c3e
000001d0: 0403 c6bd af84 fe3d f473 37be e5bc 483b
000001e0: 8268 1f3e 7824 34be 7a12 8ebd 4990 cc3c
000001f0: 3ccb 2a3e 3513 d93d e1f6 1c3e 79f5 103e
00000200: d1aa 06bd ef54 0d3e 7965 1b3c 302f 12be
00000210: f86d e03d fce6 48be ea9a f33d 2dae 393e
00000220: 2dd0 8b3d a85c a23d 996a c83a ba5c 25be
00000230: 71e2 3fbe 63aa 0b3e 0c9d 36be b908 d73d
00000240: 1633 4a3e 1138 05be 8d9a c63d b9a5 063d
00000250: fec6 2e3d e9dd c43c 142e 54bd 5a45 91bc
00000260: 26db be3d 85f3 11be 47cc b2bd 990b db3d
00000270: f999 d83d 0edc 133d 410d d2bc 906f 8a3d
00000280: 399d 8c3d f94a a03d 32f3 ec3d 0012 b33d
00000290: ae54 333d b60c 463e 6bd1 193c 3be7 233e
000002a0: e0ef af3d 178d 473e 50db 19be 245c 743d
000002b0: 1671 1b3e a2e2 7e3d e331 393e 40ef f6bd
000002c0: 5277 553e 3d8d 2f3d 1225 363d 4906 903c
000002d0: a763 823d dfcf dd3d 275a a4bd ec4e 533d
000002e0: 3bab 24be 4bc5 2f3e 4def 593d cc99 94bd
000002f0: 5ba1 9fbd 50ec 3f3e 75be 9bbd 1c63 32be
00000300: 0063 453d 8ed5 b43d 6999 443e e89c 05be
00000310: 4de3 11be 342a 24be 953e 40be 6b7b e33d
00000320: 4349 0dbe 3ad5 42be 95a8 ed3d fd54 61bc
00000330: 59a6 d0bc 29fd 773c 4fed f2bd cf8e e6bd
00000340: da67 09be bbaa 763d e789 19bc 29e3 31bd
00000350: 3499 243d 7f2e febc 0ef5 05be cfba 213d
00000360: ce48 5ebd 14a9 8ebd 2bf7 973d 45cb 413e
00000370: f2b6 cebc 9b17 653d 3eda 26be 9356 40be
00000380: 9d22 f2bd ebb9 3cbe 6004 323d d867 783c
00000390: 1578 42bd dc47 9bbd 7d37 eebd f33d 1fbe
000003a0: 9a50 00bd c757 513d e2f0 d1bc 9a3e 8b3d
000003b0: adfd 88bd e579 dbbc 428f 4ebe bfbe 1abe
000003c0: 4229 973d 450b ddbd 1672 3e3d 3866 583d
000003d0: 5b0a 473e 18ad 96bd 35d3 313e d878 14be
000003e0: 00ce c73d 58a9 01be 19fd 8f3d a521 07be
000003f0: e63a 41be debe 18be 7438 23be 700b a03d
-0.09762808 0.027044091 -0.0903586 0.041839007 -0.16226028 0.066214524 0.0060604406 -0.09440029
0.11529867 0.19676876 0.15122859 -0.010055348 -0.077041164 -0.017657407 0.040519457 0.16081646
-0.059590522 0.20074698 0.1630188 -0.040278826 0.018072639 0.03440883 -0.05479557 -0.18331508
-0.14918531 0.069359526 -0.16217975 -0.011116444 0.12229647 0.10224979 0.14429587 0.05271936
0.039501358 0.0028896492 -0.080011226 -0.065714814 0.16747925 0.17609124 0.08696424 -0.2171332
0.19159894 0.12461627 0.12819268 0.034085505 0.0009125924 0.08906911 0.19816062 0.0682533
-0.042937532 -0.08905608 -0.08730972 0.15733013 0.13988303 -0.044360947 0.15335439 0.14397445
0.09279502 -0.18603073 -0.08266243 0.07402252 0.17602232 -0.1309861 0.02349784 -0.18899229
0.17600851 0.12701215 -0.14290506 -0.14542174 -9.400962e-05 0.019580815 0.14358902 0.0076015336
-0.092671454 -0.16410498 0.04150149 -0.09384476 0.07065244 -0.16082689 0.059645537 -0.19296283
0.13393125 -0.020641444 0.059369802 0.024732154 0.0549447 0.05937102 -0.19227898 -0.06709981
-0.17599122 -0.12901029 0.0011837794 -0.12889472 -0.11696179 0.014874955 -0.02927498 0.17381872
0.20151687 -0.16856545 0.07331048 0.0033858987 -0.083677724 0.08041172 0.10149252 -0.047149375
0.075710624 -0.017845366 -0.16207784 0.14382784 0.05727682 0.16241474 0.10325323 -0.14965533
-0.004953805 0.16892605 -0.027527137 0.19932476 -0.09668544 0.12427651 -0.17915326 0.0030630168
0.1556721 -0.17592037 -0.06937118 0.024971144 0.1667909 0.105993666 0.15328552 0.1415614
-0.032877747 0.13801931 0.009484642 -0.14275813 0.10958475 -0.19619364 0.11894782 0.18132849
0.06826816 0.07927829 0.0015290558 -0.16148654 -0.18738724 0.13639216 -0.17833346 0.104997106
0.1974605 -0.13009669 0.09697447 0.03287289 0.042670242 0.024031596 -0.051801756 -0.017733265
0.09319143 -0.14253052 -0.08730369 0.106955715 0.10576243 0.036098532 -0.025641086 0.0675956
0.06865925 0.078268 0.11569823 0.087436676 0.04378193 0.19340786 0.009388308 0.16006176
0.085906744 0.19487415 -0.15025067 0.059658185 0.15179858 0.062227853 0.18085437 -0.12057352
0.20846298 0.042859305 0.044468947 0.017581122 0.063666634 0.10830664 -0.08025008 0.051588938
-0.16080944 0.17165105 0.05320673 -0.07255897 -0.07794448 0.1874249 -0.07604686 -0.1742062
0.048190117 0.08829795 0.19199146 -0.13048136 -0.14246865 -0.16031724 -0.18773873 0.111075245
-0.13797478 -0.19026652 0.1160442 -0.013753173 -0.025469946 0.015136042 -0.11861669 -0.11257707
-0.13418522 0.060221415 -0.009371257 -0.043429527 0.04018517 -0.03102803 -0.13081762 0.039484795
-0.05426865 -0.06965843 0.074201904 0.18925197 -0.02523372 0.055930715 -0.1629419 -0.18783025
-0.11823008 -0.18430297 0.043461204 0.015161477 -0.0474778 -0.075820655 -0.11631677 -0.15550976
-0.031326868 0.0511091 -0.025627557 0.0679905 -0.0668901 -0.026791522 -0.20171836 -0.15111826
0.07380916 -0.10793165 0.04649552 0.05283186 0.19437544 -0.07357234 0.17365725 -0.14499223
0.09756088 -0.12662256 0.070306964 -0.13196428 -0.18870124 -0.1491656 -0.15939504 0.078146815

sequential_7/dense_15/BiasAdd/ReadVariableOp f4 [7]
00000000: c20b 90bc 5306 df3a 81df 9e3b c8c7 323a
00000010: be29 1dba 6156 d0bb a842 e3bb
-0.017583732 0.0017015435 0.004848421 0.0006819931 -0.0005995295 -0.0063579534 -0.0069354363

sequential_7/dense_14/BiasAdd/ReadVariableOp f4 [64]
00000000: ed8d 8eba c9dc a8bb 7830 dcbb b6f9 29bb
00000010: 1849 9ebb e56f 0fbb b64b 06bc 18a9 4f3b
00000020: 6484 fbba 1031 cebb 6a5c 96bb e4b7 29bb
00000030: 1bbe f6ba e8bc a1bb f6fa 0cb9 9a6a 283b
00000040: 105a debb c22b a2bb 3db8 8dbb 4dfb 8e3a
00000050: 9d8c 3b3a 515f a63a c727 a6bb 8fe6 eaba
00000060: aa35 8dba 2b59 e0b9 53bf 30bb 05b2 82bb
00000070: 69a2 3f3b 1a94 47bb 63e3 b63b a16a 5fbb
00000080: 765f 25bb 43c0 3ebb efcf 27bb e0d0 0b38
00000090: 9ea2 7dbb 4c10 b2b9 1854 70b8 21fb c63a
000000a0: 56d3 23ba 0204 e33a fa18 daba bf38 81bb
000000b0: 4edf 82ba 0821 4bbb 2b5d 26ba 07a6 21bb
000000c0: bf50 06bc d8ef 07bc 9829 e1b9 4620 cfba
000000d0: 2702 7aba 978f aabb eb3c 05bb f228 22bb
000000e0: a3c1 b6bb c32c 803a b732 6eba c148 4b3a
000000f0: bcf3 b6ba 3c30 2cbb 5868 bf3a 1cef e5bb
-0.0010876037 -0.0051532728 -0.006719645 -0.0025936193 -0.004830491 -0.0021886763 -0.008196762 0.003168648
-0.0019189236 -0.00629247 -0.0045886533 -0.002589696 -0.0018824966 -0.0049358495 -0.0001344493 0.0025698305
-0.0067856386 -0.004949064 -0.0043249414 0.0010908634 0.0007154437 0.0012693201 -0.00507066 -0.0017921495
-0.001077344 -0.00042791045 -0.0026969507 -0.0039885067 0.002924109 -0.0030453266 0.005581306 -0.0034090655
-0.00252339 -0.0029106296 -0.0025606116 3.3334712e-05 -0.0038701664 -0.00033962948 -5.7298777e-05 0.0015181043
-0.0006249448 0.001731992 -0.0016639524 -0.0039435322 -0.0009984763 -0.003099503 -0.00063462806 -0.002466561
-0.008197962 -0.008296929 -0.00042946334 -0.0015802465 -0.0009537064 -0.0052051055 -0.00203305 -0.0024743644
-0.0055772825 0.0009778965 -0.00090865366 0.00077546766 -0.0013958137 -0.0026273867 0.001460324 -0.0070170294

sequential_7/batch_normalization_49/FusedBatchNormV3 f4 [8]
00000000: ef22 553d f751 863c fc18 a03d e494 1f3d
00000010: 9a4e a03d d65f e43d cb46 4d3c 482d 363d
0.05203527 0.016396506 0.078172654 0.038960353 0.07827492 0.11151092 0.012529085 0.044476777

sequential_7/batch_normalization_49/FusedBatchNormV31 f4 [8]
00000000: a2fb 75bf f826 2fbf 240e 85bf 0a64 79bf
00000010: b601 2abf 5d28 89bf 4b59 1dbf e14b 68bf
-0.96087086 -0.68418837 -1.039494 -0.9741827 -0.6640886 -1.0715443 -0.61464375 -0.9074078

sequential_7/batch_normalization_50/FusedBatchNormV3 f4 [8]
00000000: 23de cf3f 65ab 2740 7d2e a13f e752 1d40
00000010: af72 9b3f e3bb 1640 68fc d23f 0642 e03f
1.6239666 2.619836 1.2592312 2.458185 1.2144374 2.3552177 1.6483278 1.7520149

sequential_7/batch_normalization_50/FusedBatchNormV31 f4 [8]
00000000: b614 37bf c47d 92bf f43b 91bf 7a23 0abf
00000010: d1d4 4abf 9628 8bbf c619 3cbf 4472 23bf
-0.7151598 -1.1444631 -1.1346421 -0.5396038 -0.7923098 -1.0871761 -0.7347683 -0.6384623

sequential_7/batch_normalization_51/FusedBatchNormV3 f4 [8]
00000000: 7aba 453f f331 cc3f 0881 0c40 04fa 9d3f
00000010: f391 a93f d6a8 9e3f ad31 1440 09ad 8d3f
0.77237666 1.5952743 2.1953754 1.2341924 1.3247665 1.2395275 2.315532 1.1068431

sequential_7/batch_normalization_51/FusedBatchNormV31 f4 [8]
00000000: 75b9 33bf 3b56 73bf a53e 99bf 3305 1abf
00000010: 1bc4 35bf 369e edbe 732f aebf a75a 0cbf
-0.7020486 -0.9505345 -1.1972243 -0.60164183 -0.7100236 -0.46409768 -1.360823 -0.54825824

sequential_7/batch_normalization_52/FusedBatchNormV3 f4 [8]
00000000: 96ca c93f 010f 2840 3976 893f 683c b93f
00000010: 5038 853f 0c84 a73f 734d 8b3f 7660 c33f
1.5764949 2.6259158 1.0739204 1.447156 1.040781 1.3087173 1.0883011 1.5263813

sequential_7/batch_normalization_52/FusedBatchNormV31 f4 [8]
00000000: f755 47bf 7be2 7cbf 7ded ffbe 4dc7 0bbf
00000010: aa36 2bbf bb17 45bf ea57 31bf d955 38bf
-0.77865547 -0.9878308 -0.49985877 -0.54600984 -0.66880286 -0.76989335 -0.6927477 -0.72005993
