saved_model/quantized_models/layers7/trial2/paramcount434143.tflite (tflite, 450240 bytes, 32 tensors)

sequential_3/dense_7/MatMul f4 [7, 64]
000000 7f 6b f8 bd 79 08 80 3e 16 25 8f bd f4 d0 12 be
       -0.12129878 0.25006464 -0.069894955 -0.14337522
000010 91 25 1f bc 62 d0 0d 3d 0b 1c 50 be 80 0a f6 3d
       -0.009713546 0.034622557 -0.20323198 0.120137215
000020 85 96 96 bc c6 0d 04 3e 85 65 6e be da 1d 10 bd
       -0.01838232 0.12895879 -0.23280914 -0.03518472
000030 ef 71 52 3e 0a 91 40 be 1d ea fa 3d 5b 57 1f be
       0.20551275 -0.18805328 0.12251685 -0.15560667
000040 c5 e6 52 3d ef ac 93 3d 03 98 9b bc 10 4c 24 3e
       0.05148961 0.07210719 -0.018993383 0.1604464
000050 40 af c4 bd 9b 06 4f 3e ff 34 87 bc bd 8f 92 3e
       -0.09603739 0.20217364 -0.016504763 0.2862529
000060 51 a0 39 3e 86 92 1d bb 00 f6 1a be 77 4f 2b 3e
       0.18127562 -0.0024043634 -0.15132904 0.16729532
000070 d7 e6 3f 3e f4 03 f3 3d 8a de f6 bd f0 df 48 3e
       0.18740402 0.118659884 -0.12054165 0.19616675
000080 16 89 8b 3e f2 27 3b 3e 7a 33 b9 bd c5 53 68 3e
       0.27253026 0.18276957 -0.090430215 0.22688206
000090 4a fd 74 3d 50 7f 5b be 70 6a 25 3e 40 e8 79 be
       0.059811868 -0.21435285 0.16153884 -0.24405003
0000a0 fe c4 d8 bd e8 36 1a 3e 67 91 83 bd 1b 08 ff bd
       -0.10584448 0.15060008 -0.06424218 -0.12452718
0000b0 17 da 54 be 45 1f 8c 3e cd a8 2d be 75 49 41 3e
       -0.2078632 0.27367607 -0.16958924 0.18875678
0000c0 f5 10 73 bd d4 21 82 3d 3a f0 7e be cc 9c d2 bd
       -0.059342343 0.063541085 -0.24896327 -0.10283813
0000d0 48 01 2b 3e 38 2d 4d 3e 30 05 50 bd b7 4f 71 3e
       0.16699708 0.20036781 -0.050786197 0.23565565
0000e0 dd 1c 00 3e 61 9b 96 3b 02 a7 d4 bc de de 9b be
       0.1251101 0.0045961593 -0.025958542 -0.30443472
0000f0 e2 e6 7f be 60 31 09 3d 58 0b d7 bc bf c9 12 3d
       -0.24990419 0.033494353 -0.026250526 0.03583693
000100 c7 fc 82 be 8b c0 73 be 21 3e d1 bd d4 f7 dd bd
       -0.2558348 -0.23803918 -0.10216928 -0.10838285
000110 91 88 84 be 41 ec 13 be 38 8e 97 bc d1 f3 0d 3d
       -0.25885442 -0.14445592 -0.018500432 0.03465635
000120 ae a2 c7 3d 0c 04 87 bd f0 fb 01 3e f2 40 be bb
       0.097478256 -0.06592569 0.12693763 -0.005806082
000130 75 dc 92 3d 48 1e 38 3e 6f de 3f be e0 7b 3f 3e
       0.07170955 0.17980301 -0.18737195 0.18699598
000140 b2 47 12 3e 4d df 85 3e fb ef 2e be e9 e9 58 be
       0.14285162 0.26146927 -0.17083733 -0.2118298
000150 8e d0 35 3e 76 b9 63 be 71 a0 42 3e 82 35 62 3e
       0.17755339 -0.22238716 0.19006516 0.22090724
000160 56 12 8c bc 19 68 18 3c 8a 21 0b 3e e7 5e db bd
       -0.017098587 0.009302163 0.13587013 -0.107114606
000170 90 34 c9 bd 62 ed 47 3e ea ec ee 3d f9 d1 b8 bd
       -0.098244786 0.19524148 0.116662815 -0.09024424
000180 c2 ff 4b be f1 d7 75 bd 8c a6 36 3d c5 83 a1 3c
       -0.19921783 -0.06002039 0.044592425 0.019716153
000190 68 8d 2c 3e 35 e5 32 be eb 08 ad 3d 1b aa 73 bc
       0.16850817 -0.17470248 0.084489666 -0.014872099
0001a0 7e 2f 12 3e 11 c2 ab bd 59 97 c9 3d f4 4d 37 3c
       0.1427593 -0.083866246 0.098433204 0.011188019
0001b0 09 f7 59 be 21 9c c9 bd b8 2f 6d bd 2e db 51 be
       -0.21285643 -0.09844232 -0.057906836 -0.20493767
0001c0 34 70 30 3e f4 d5 48 be cd 1e a4 3d 8f 5b 82 bc
       0.17230302 -0.19612867 0.08013687 -0.0159128
0001d0 5b c9 45 3e d0 50 90 be 23 0e 8c be ad 14 1c bc
       0.19315092 -0.28186655 -0.27354535 -0.009526414
0001e0 95 20 78 be bb 30 34 bd ee 82 08 3e f4 af 88 be
       -0.24231179 -0.043991785 0.13331196 -0.26696742
0001f0 9a 4d df 3d 0d 83 16 3e b2 2e 9c 3d b5 1a 62 3b
       0.10903473 0.1469843 0.07626094 0.0034500782
000200 7c 3c 21 bd 45 5c 32 bd 01 f3 73 3e bc c1 68 3d
       -0.039364323 -0.043545026 0.23823167 0.056825384
000210 85 b2 69 3e 9b b7 30 3d 4c 0c 2c bb 2c 43 86 be
       0.22822006 0.04314385 -0.0026252447 -0.26223123
000220 52 a2 f5 3d f6 00 75 bd e1 2c b6 3d 3a ea 0f be
       0.11993851 -0.05981537 0.08895279 -0.14054194
000230 0c df 65 bd 86 18 a4 bb b4 5b f8 3d 88 80 84 be
       -0.056120917 -0.0050078062 0.12126866 -0.25879312
000240 02 56 3f 3e 6c 50 3a 3e d9 39 b1 bd 00 9b 78 be
       0.18685153 0.18194741 -0.08653612 -0.24277878
000250 93 6f 57 be 56 a8 c8 bb 45 5a 90 3e 37 75 3e 3e
       -0.21038656 -0.006123583 0.2819387 0.18599401
000260 ab b4 0a 3e 91 8f 1f 3e fb c3 35 be c4 e9 16 3e
       0.13545482 0.1558211 -0.17750542 0.14737612
000270 15 92 91 3e 4c 0d ee 3d 43 3c 08 be 35 5a cb 3d
       0.28431764 0.1162363 -0.13304238 0.09929315
000280 87 3f 5e 3d bf 04 70 be 7d b4 00 3d 50 61 2a be
       0.054259803 -0.2343931 0.031422127 -0.16638684
000290 34 76 6d be a8 e3 3e 3e dd 48 68 be 7a a4 d6 bd
       -0.23189622 0.18641531 -0.22684045 -0.1048059
0002a0 c0 42 7e be ed e8 69 3e 9c 3b 4b 3e 74 7f 16 3e
       -0.2483015 0.2284276 0.19846958 0.14697057
0002b0 a8 18 82 3e fe 4e 16 be bd 34 54 3e f1 f0 66 3e
       0.25409436 -0.1467857 0.20723243 0.2255285
0002c0 d2 14 72 be 39 9d 33 bd 2b ed 7b be 72 39 7e 3e
       -0.23640755 -0.04385111 -0.24602191 0.24826601
0002d0 58 2e e2 3d 54 73 77 be 1c f5 46 be 29 50 8d 3d
       0.110439956 -0.24165088 -0.1942944 0.06900055
0002e0 6b e6 73 be e1 98 6b 3d ee 99 0b 3e a6 c4 63 3e
       -0.23818366 0.057518844 0.13632938 0.22242984
0002f0 f2 7e de bb 0c 9e a2 3d e3 b1 8c be 15 4f f9 bd
       -0.0067900354 0.07940301 -0.27479467 -0.12173287
000300 14 09 47 bc 5c 36 e5 3d 80 aa 6d be 90 e8 9e bc
       -0.0121481605 0.11192009 -0.23209572 -0.019398004
000310 b1 d2 8c bd 2e 9b 36 be bd 35 8b 3c 40 1a 91 3c
       -0.06876124 -0.17832634 0.016993398 0.017712712
000320 89 4f 9c bd be 0c 45 be c7 b8 d8 bc d1 83 43 3e
       -0.076323576 -0.19243142 -0.026455296 0.19093253
000330 96 8a fd 3d aa 3b f6 3c a7 a8 07 3e c6 68 18 be
       0.12379949 0.030057747 0.1324793 -0.14883718
000340 de a3 16 3e b9 73 26 3e ea 1b 3c 3e 92 18 00 3e
       0.14710948 0.16255082 0.18370023 0.12509373
000350 ca 93 8b be a3 4d 57 bc f2 9f 87 3e c0 99 b9 bd
       -0.27261192 -0.013141069 0.26489216 -0.090625286
000360 19 eb c8 bd 60 ee 9b 3d cd 18 24 3e 94 ee 88 bd
       -0.09810466 0.07613826 0.16025086 -0.0668613
000370 29 13 8d 3e ab 40 37 3e 27 26 20 3e fb 75 89 be
       0.2755368 0.17895763 0.15639554 -0.26847824
000380 28 e5 8b bd 2b c4 6c 3e 12 78 ff bd d7 61 94 bc
       -0.068308175 0.23121707 -0.124740735 -0.01811306
000390 56 12 b1 3d 38 c1 27 ba 29 ef 87 3e 1b be 60 3e
       0.086460754 -0.0006399336 0.26549652 0.2194752
0003a0 77 eb 75 3e 91 e1 1b be a8 23 0f 3d 8a b8 84 bd
       0.24015604 -0.15222766 0.034946114 -0.064805105
0003b0 6d 59 6e 3e 02 49 9f bd 90 b6 18 3e 7c cd 6e 3d
       0.232763 -0.07777597 0.14913392 0.058301434
0003c0 f4 fc f8 3d e4 25 cb 3d 03 ae 80 3e 89 a0 5c be
       0.12157622 0.099193364 0.2513276 -0.21545614
0003d0 9d af 48 be cf 36 0c 3e 00 e1 28 bd 9e 08 a6 3d
       -0.19598241 0.13692783 -0.0412302 0.08107112
0003e0 c1 95 50 3e 42 b3 8d bd b4 4b 2f be 59 74 08 be
       0.20369627 -0.06918956 -0.17118722 -0.13325633
0003f0 59 d3 98 3d 0c 24 b1 bc 9a 1a 82 be 46 9f 84 be
       0.07462186 -0.021623634 -0.2541092 -0.25902766

sequential_3/conv2d_21/BiasAdd/ReadVariableOp f4 [4]
000000 e9 4e 59 bc 4d 40 6e 3c 8f b1 d1 bb ea 3c 19 bb
       -0.013263443 0.014541698 -0.0063993405 -0.0023382255

sequential_3/conv2d_22/BiasAdd/ReadVariableOp f4 [4]
000000 69 8d 05 3a 0c 11 78 b9 2c ae ae b9 52 a3 0c bb
       0.0005094619 -0.00023657474 -0.00033317634 -0.0021459651

sequential_3/conv2d_23/BiasAdd/ReadVariableOp f4 [4]
000000 e5 78 34 ba a7 50 c8 bb a8 41 99 3b 80 0d 0b b6
       -0.000688447 -0.00611313 0.0046770163 -2.0720472e-06

sequential_3/conv2d_24/BiasAdd/ReadVariableOp f4 [4]
000000 5a 96 8e 3a fe 24 a3 3b 16 71 a3 b9 39 d4 80 39
       0.0010878548 0.004978775 -0.00031174038 0.0002457218

sequential_3/conv2d_25/BiasAdd/ReadVariableOp f4 [4]
000000 0d 4b 4d 3b 02 74 91 3a 28 4a b0 3b 77 dc 18 bc
       0.0031325251 0.0011097195 0.005379934 -0.009329907

sequential_3/conv2d_26/BiasAdd/ReadVariableOp f4 [4]
000000 d2 73 0b 3a c7 57 c6 3a a1 08 50 3c 74 ae ae b7
       0.0005319688 0.0015132361 0.01269737 -2.0823652e-05

sequential_3/conv2d_27/BiasAdd/ReadVariableOp f4 [4]
000000 38 fc 76 38 21 98 07 bc 7f 8a 04 bc 7e c5 09 3a
       5.8885867e-05 -0.008276016 -0.008089661 0.0005255564

sequential_3/conv2d_21/Conv2D f4 [4, 3, 3, 1]
000000 7d 8b b1 3e d2 99 a0 be a8 12 00 3e 0a c5 a7 be
       0.34676734 -0.31367356 0.12507117 -0.32767516
000010 76 9f 9d be 09 31 06 3e b5 ad 97 3e 48 57 c0 3d
       -0.30785722 0.13104643 0.29624715 0.093916476
000020 60 d4 da bd b0 c6 ce 3d 6b 43 81 be 8c 20 4e be
       -0.106850386 0.100964904 -0.25246748 -0.20129603
000030 05 eb 51 bd 19 22 70 3e d3 5b d9 bd 5b 1f 37 be
       -0.051249523 0.23450507 -0.10613217 -0.17883055
000040 70 7d 85 3e 35 ff 44 be ff 2d 11 3d 10 81 9e 3d
       0.26072264 -0.19237979 0.035444256 0.077394605
000050 b1 f5 01 3e dc 1b 01 be bc b8 51 be 23 24 a9 3e
       0.1269138 -0.12608284 -0.20480627 0.33035383
000060 e2 43 a0 3c 7e 56 96 3d bc 4b dd 3d ad 4a 52 3d
       0.019563619 0.07340716 0.10805461 0.051340748
000070 36 cf 96 3d e1 ca 43 be e6 5e 50 be 89 a4 a6 3e
       0.07363741 -0.19120361 -0.20348701 0.32547405
000080 bc 71 a7 3e d4 f9 35 be de 8a f0 3c dc 80 86 3e
       0.3270396 -0.17771083 0.029363092 0.26270187

sequential_3/conv2d_22/Conv2D f4 [4, 3, 3, 4]
000000 a5 7b ab 3d 04 90 77 bc b2 11 86 3e 52 fa 6b 3d
       0.08373193 -0.01511002 0.26185375 0.05761177
000010 42 73 55 3c bb 47 8a be c1 4d 8d 3e c9 1f ff bb
       0.013027968 -0.2700785 0.27598384 -0.0077857715
000020 8d 14 6d 3e 7f 0b 87 3e f4 3c 99 3d e4 77 9b bc
       0.23152371 0.26375958 0.07482329 -0.018978067
000030 fe 4a 06 be d1 0a 6e be d6 1d f6 bd 16 11 83 bc
       -0.13114545 -0.23246314 -0.120174095 -0.015999358
000040 32 a3 69 be 13 ae 86 be 87 49 44 3e 8f 43 86 3e
       -0.2281616 -0.26304683 0.19168673 0.26223418
000050 fa b7 07 3e c8 b1 8e be 65 83 91 3e d3 61 22 be
       0.13253775 -0.2787001 0.2842056 -0.1585763
000060 2b 2d 57 3d 4c 61 a9 3d 6b 23 0f be a5 7f 40 be
       0.05253331 0.08270511 -0.13978355 -0.18798693
000070 2e 6f 23 bd fd 19 89 3e 35 17 ae bd 9d b0 22 be
       -0.03990095 0.2677764 -0.0850052 -0.15887685
000080 38 87 90 3d 90 84 10 be c7 43 a7 bd 21 42 9d 3d
       0.07057041 -0.14113069 -0.081672244 0.07678629
000090 a2 54 60 3e 5a 1b 24 bd c6 45 4b 3e 18 24 8e bd
       0.21907285 -0.040065147 0.19850835 -0.06940478
0000a0 78 8d 35 3e 35 76 0d 3e f8 2f b6 bd f9 7d 0d be
       0.17729747 0.13814624 -0.08895868 -0.13817586
0000b0 b8 7a 8e 3e ad e8 c3 3d c0 4f dc 3c 74 cc 89 be
       0.27828002 0.09565864 0.026893497 -0.26913798
0000c0 ca cb 26 bd 75 4c 21 be 74 7e c7 3d b5 13 8d 3e
       -0.040721692 -0.15751822 0.09740916 0.27554098
0000d0 02 8e 41 be 8a f8 3e 3e fc 02 de 3c 20 1e 82 3e
       -0.18901828 0.18649498 0.027101032 0.2541361
0000e0 7d 66 7b be 60 61 bc 3d 79 be 8d 3d 2a 15 91 3e
       -0.24550815 0.0919826 0.069210954 0.2833646
0000f0 a4 be 43 3e ca 3a 2c be 0f f4 34 bd 04 4a 46 3e
       0.19115692 -0.16819301 -0.044178065 0.19364172
000100 f6 7a 90 3d 3e e4 11 be 3b 4f 60 3e bc 3f 17 be
       0.07054703 -0.14247224 0.21905224 -0.14770406
000110 e0 73 11 be e7 6e e0 3b 94 f9 06 3e f8 58 bb bb
       -0.14204359 0.006849158 0.13181144 -0.005717393
000120 66 27 05 bd 1e 13 29 3d 50 cc b1 3d 92 bf 4a 3e
       -0.032508276 0.041277997 0.08681548 0.19799641
000130 8c 92 87 be 0a 70 0d be 74 56 26 3d b8 cf 93 3e
       -0.26478994 -0.13812271 0.040609792 0.28869414
000140 c8 40 12 bd 5a 86 8c be 2c 3e 1f 3e 51 5d 43 3e
       -0.03570631 -0.27446252 0.1555106 0.19078566
000150 56 ee f5 ba 4a 12 86 3d c6 e3 7c be 01 47 88 3e
       -0.0018763046 0.06546457 -0.24696264 0.26616672
000160 48 2e ee bd d0 03 34 be 34 af 5e 3e 3d ab 68 3e
       -0.11629921 -0.1757958 0.21746522 0.22721572
000170 b9 c7 b9 bd cc fc 7e 3e 3c bd 44 be e5 27 7a 3e
       -0.09071297 0.24901122 -0.19212812 0.24429281
000180 63 a7 0b 3e ae 05 f2 bd 9a d1 9a bd 15 16 86 3e
       0.13638072 -0.118174896 -0.075595096 0.26188722
000190 30 30 45 3e 7a b3 bb bd e4 dc 7c bd f0 cf 1a be
       0.19256663 -0.09165092 -0.061734095 -0.15118384
0001a0 58 37 a1 bc 6b 5e 73 3e 3d 93 39 3e 27 f3 22 be
       -0.01967971 0.23766486 0.18122573 -0.15913068
0001b0 60 39 56 bd a7 b8 41 be 3a dc 6d 3e 35 b7 1a be
       -0.05230081 -0.18918096 0.23228541 -0.1510895
0001c0 4f 66 da bc 6d 28 53 be 65 ea 82 3e 4f 7c 23 3e
       -0.026660113 -0.2062089 0.25569454 0.15965389
0001d0 c7 54 02 3e 60 79 70 be 6d c8 4b bd d4 3e 19 be
       0.12727652 -0.23483801 -0.049751688 -0.14965373
0001e0 f4 d6 89 be ca f0 81 be bf 96 8b be ee df 42 be
       -0.2692181 -0.2537902 -0.27263448 -0.19030735
0001f0 94 7c 5b be 71 18 5c bd d4 7b 90 be a7 da b4 3d
       -0.21434242 -0.053734247 -0.28219473 0.08830767
000200 4e dc 90 3d fb dd 92 bd ad dc 20 be e0 33 19 be
       0.0707327 -0.07171246 -0.15709181 -0.14961195
000210 2c fa 82 3d ca 3e 0b 3d ac a7 ef 3c 0b e1 8d 3e
       0.06395373 0.033995427 0.029254757 0.27710757
000220 61 36 de 3d 39 d6 84 3e f0 65 3c be 35 24 4e 3d
       0.10850216 0.2594469 -0.18398261 0.0503275
000230 a1 0a 4c be d4 ba 81 be 86 93 69 bd f5 d3 8d be
       -0.1992593 -0.2533785 -0.057025455 -0.27700773

sequential_3/conv2d_23/Conv2D f4 [4, 3, 3, 4]
000000 b1 33 28 be 8d 20 1f 3e 66 d1 94 3d 06 e7 98 bd
       -0.16425969 0.15539761 0.07266502 -0.07465939
000010 15 c7 57 3e 3e 67 83 bd 0d 5b 2e be a5 5c 0b 3e
       0.21072038 -0.06416176 -0.1702692 0.1360956
000020 0c 40 96 bd a6 40 10 3e 26 bb 80 3e 9f a2 53 be
       -0.07336435 0.14087161 0.25142783 -0.20667504
000030 8f fe 60 3e fa d0 f2 3d 72 d2 23 3e e2 f7 93 3e
       0.21972106 0.11856265 0.15998247 0.28900057
000040 f1 d0 52 3e dd da 82 be 20 f6 44 3e 0c d6 56 bd
       0.20587517 -0.25557604 0.19234514 -0.052450225
000050 2e 59 80 be 98 0b 78 3e a5 2c 03 3e 13 e2 16 3e
       -0.2506804 0.24223173 0.1281 0.14734678
000060 04 0b 44 3d 38 80 b9 3d 55 e1 b1 bd ca d4 73 3d
       0.047862068 0.09057659 -0.08685557 0.059529103
000070 df 2c c6 bd 8b c8 2a be 55 b3 ab bd f9 a8 01 bd
       -0.09676527 -0.16678064 -0.08383814 -0.031655286
000080 e5 71 0e 3e 19 d6 33 be 71 cb d2 bd 00 37 a0 3c
       0.13910635 -0.1756214 -0.102927096 0.019557476
000090 48 27 60 3e 04 83 d2 3d 88 e9 61 3d 01 f3 2b 3e
       0.21889985 0.102788955 0.055154353 0.16791917
0000a0 7f 22 5e 3e 68 7a 8c be fd dd 73 be 5a b0 58 be
       0.21692847 -0.2743714 -0.2381515 -0.21161023
0000b0 fe 03 39 be 78 d4 a9 3d 8c 43 6d be 5f a5 5e be
       -0.18067929 0.08292478 -0.23170298 -0.21742772
0000c0 c7 00 f1 3d 6c f1 0d 3e 2e aa 21 be ba f9 66 be
       0.117677264 0.13861626 -0.15787575 -0.225562
0000d0 64 8e 71 be 7d bc 59 3e 6a 08 02 be 52 65 5d bd
       -0.23589474 0.21263309 -0.12698522 -0.054051705
0000e0 ff 99 18 be d8 17 91 3e 82 c0 cc bc b0 e7 3e 3e
       -0.14902495 0.28338504 -0.024994139 0.1864307
0000f0 49 ff 18 be 7e 90 94 bc a8 71 95 be ce 19 a1 3d
       -0.14941134 -0.018135305 -0.29188275 0.0786625
000100 95 bf 47 3e 79 20 70 be 9a 4c e9 bd 7d ee 1b bd
       0.19506676 -0.23449887 -0.11391564 -0.038069237
000110 89 c5 be 3d 1d ed 52 3e cc c2 4d bd 76 ce 5c 3e
       0.093150206 0.20598264 -0.0502346 0.21563134
000120 82 07 0e be c4 4a 73 3d 68 a2 01 be f5 16 95 bd
       -0.13870052 0.059397474 -0.1265961 -0.07279769
000130 bb 71 d5 3c ab dd 90 3e ff dd 20 3e 1f be 34 be
       0.026055207 0.2829412 0.15709685 -0.1765065
000140 4e 98 99 3d 67 10 83 3d 06 07 55 be 9c b4 fe bc
       0.07499753 0.06399613 -0.2080346 -0.03109198
000150 61 62 63 be 2f 57 c2 3d e2 01 91 be 06 40 54 3d
       -0.22205497 0.09489285 -0.2832175 0.05181887
000160 4b 17 26 3d d0 82 29 be 80 dd e4 bd 25 13 0f be
       0.040549558 -0.16553807 -0.1117506 -0.13972147
000170 46 d2 88 bd 83 06 19 be 2e 9d 17 be 85 3a 83 3e
       -0.066807315 -0.1494389 -0.14806053 0.25630584
000180 6c 98 1d be cb 07 81 3d f0 a1 8c 3e cc 63 5a be
       -0.15390176 0.063003145 0.27467299 -0.21327132
000190 d8 96 46 be bb 08 8e be 49 26 1a 3c 0d fe dc bd
       -0.1939348 -0.27741036 0.009408542 -0.10790644
0001a0 06 c8 81 be 34 31 06 bd aa f9 82 3e a4 6e 77 3e
       -0.25347918 -0.032761768 0.25581104 0.241633
0001b0 1b c6 24 3e 49 81 28 be b7 ff 00 be 41 d0 85 3e
       0.16091196 -0.16455568 -0.12597547 0.26135448
0001c0 72 e2 20 3e 1b ab 82 bd 2c ee 64 be e3 1f 30 be
       0.15711382 -0.06380292 -0.2235648 -0.17199664
0001d0 de 17 e8 3d eb 23 e5 3d 41 7b cb bd 36 3b 53 3e
       0.11332677 0.111884914 -0.09935618 0.20628056
0001e0 d7 a8 93 3e 6e 35 3f 3e f2 e4 89 be f2 7a c0 bd
       0.28839752 0.18672726 -0.26932484 -0.0939845
0001f0 b5 dc 95 3e a6 05 f0 3c f0 c0 36 bd 65 5c 88 3e
       0.2926995 0.029299568 -0.044617593 0.2663299
000200 5b db 40 3e b3 3e 9f 3d 54 75 eb bd 38 12 85 3c
       0.18833677 0.07775631 -0.11496988 0.016244039
000210 ac db e6 bd 6a 13 b1 3d d2 a8 8e be a5 de db 3d
       -0.11272368 0.08646281 -0.27863175 0.107358254
000220 06 60 4c bd 02 27 51 be d4 c6 01 3e a2 13 91 be
       -0.049896263 -0.20425037 0.12673503 -0.2833529
000230 98 c6 08 3e 14 d7 b1 bd e0 07 87 be 13 a8 52 3e
       0.13357008 -0.08683601 -0.26373196 0.20571928

sequential_3/conv2d_24/Conv2D f4 [4, 3, 3, 4]
000000 82 66 2f be c4 24 da bd 53 fc 63 3d 64 55 81 3e
       -0.17128947 -0.10651544 0.055660557 0.2526046
000010 e6 94 29 be ce 33 4a bd 9f 32 c2 3d ae 42 90 3e
       -0.16560706 -0.04936581 0.094823115 0.28175873
000020 f3 db 0a 3e df cb ef bc be f9 5d be db 4f 7e 3e
       0.13560466 -0.029272018 -0.216773 0.2483515
000030 be ec b7 3d c6 5b 18 3e c7 dd 37 be ea d5 48 bd
       0.08980702 0.14878759 -0.17955695 -0.04903213
000040 45 d6 2c 3d 5b b3 b0 bc c1 c8 0e 3e 7a 0c 9c 3d
       0.04219653 -0.021569898 0.13943769 0.07619567
000050 9d 8c 5c be 25 0c 54 3e d9 6a 3b 3e 42 77 50 be
       -0.21538015 0.20707758 0.18302478 -0.20357993
000060 16 75 d5 bd 55 46 2b 3d c9 31 72 be 2d 0a ea bd
       -0.10422723 0.04181512 -0.23651804 -0.11427722
000070 b5 f0 86 3e 05 35 15 3e 0a 55 73 3e 16 a7 8e be
       0.2635552 0.14571007 0.23762909 -0.2786185
000080 c5 6d 52 be 0b 11 ac bd e5 54 b9 bd 27 dc 87 3e
       -0.20549686 -0.08401688 -0.090493955 0.2653515
000090 14 e2 82 3e 8b eb 0f 3e 58 ac ed 3d 5e 4e 25 be
       0.2556311 0.14054696 0.116051376 -0.16143176
0000a0 14 05 7d be 06 e1 6c 3e 65 02 a1 bd 34 8a 31 3e
       -0.24708968 0.23132715 -0.07861785 0.17337877
0000b0 3d 29 4a 3e 7b 3e ce bd ad d0 59 be 91 2f 1c 3e
       0.19742294 -0.10070511 -0.2127101 0.1525252
0000c0 35 ef 06 be 6c 10 bf bc 37 98 54 be 5c 8e 84 3e
       -0.13177188 -0.02332326 -0.2076119 0.25889862
0000d0 72 6f 09 be 21 6b 1b 3d 04 7a f4 3d 96 5a 6e 3e
       -0.1342142 0.037943963 0.11937335 0.23276743
0000e0 e5 74 2b be 58 b4 c7 3b 2d 38 20 be e2 3e 39 3d
       -0.1674381 0.0060944967 -0.1564643 0.045225985
0000f0 9f d0 60 3c 5c 6f 90 bb ad 14 92 3e 46 62 50 be
       0.013721614 -0.0044078063 0.285314 -0.20349988
000100 22 d0 41 be a9 0c 57 be 83 75 82 be 5b c4 5c 3e
       -0.18927053 -0.21000923 -0.2548028 0.21559279
000110 17 24 88 3e 2f b2 81 bd 5f 57 78 3e 0a 1b 39 be
       0.26590034 -0.06332814 0.2425208 -0.18076721
000120 60 e8 42 3d 75 63 57 3e 8f 5d 92 3e 8e ff 17 bd
       0.04758489 0.21034034 0.28587005 -0.03710895
000130 10 f4 85 be c0 80 78 3e c9 b9 84 be b3 c8 8a 3c
       -0.26162767 0.24267864 -0.25922993 0.016941404
000140 de fd 28 3e 58 1f 44 bc 99 2e e0 3d f9 58 5e 3e
       0.16503093 -0.011970364 0.10946388 0.21713628
000150 33 31 5d bd ac 12 d9 bd 97 35 1c be 97 e6 67 3e
       -0.054002 -0.105992645 -0.15254818 0.22646557
000160 01 44 0c 3e 67 ab ca 3d 8b bd 1a be 1a ac 82 be
       0.13697816 0.09895974 -0.15111367 -0.25521928
000170 6a 1c ab 3d 1b 1c 62 3e 73 50 29 3e da f2 ac bc
       0.08355029 0.22081034 0.16534595 -0.021111894
000180 19 d9 15 be 7c 4c 14 be 25 ae 0b be 4a cd 18 3d
       -0.14633597 -0.14482301 -0.1364065 0.037305154
000190 3e 0b 06 bd be f0 8b bb 57 6e 5e be ce d1 8d 3e
       -0.032725565 -0.004270642 -0.21721779 0.2769913
0001a0 f5 7c c7 bd 1c 4e 5e be 8d 7b 32 3e e1 c2 ad bd
       -0.097406305 -0.21709484 0.17429943 -0.08484436
0001b0 3b b9 4f bd d0 3a 77 bc c2 3e 8f 3e d6 74 c4 bc
       -0.05071376 -0.015089706 0.27977568 -0.023981493
0001c0 9c b1 60 be 13 d5 67 3e 1f 1c fe bd bd 2e 9c bc
       -0.21942753 0.22639875 -0.124077074 -0.019065255
0001d0 16 32 80 be 23 c9 db 3d 27 09 2e bb 41 16 65 3e
       -0.25038213 0.10731723 -0.0026555748 0.2237177
0001e0 44 77 09 3e 04 ca aa 3d c1 35 51 be 28 99 82 3e
       0.13424402 0.08339313 -0.20430662 0.25507474
0001f0 c7 5d f7 bd 54 ae ef bc 6a 97 b2 bd 05 46 f1 bd
       -0.120784335 -0.02925793 -0.08720286 -0.11780933
000200 02 6c 82 be 96 da 83 bc 56 25 47 3e 7b 84 69 3e
       -0.25473028 -0.01609544 0.19447836 0.22804444
000210 57 f3 5e 3e b7 d5 18 3e 9a e7 e5 3c 31 a6 7d be
       0.21772514 0.14925276 0.028064538 -0.24770428
000220 97 1f b6 3d 70 e7 21 3e c9 ca 0d 3e 87 79 c7 3c
       0.08892744 0.15810943 0.13846888 0.024349941
000230 7d 86 53 bc 86 b0 ab 3c 12 f8 2d 3e f2 0e 6a 3e
       -0.0129104825 0.020958196 0.16989163 0.22857264

sequential_3/conv2d_25/Conv2D f4 [4, 3, 3, 4]
000000 19 43 23 3e c0 ad 1e be 1d 81 95 bd 56 52 70 be
       0.15943564 -0.15495968 -0.07300017 -0.23468909
000010 8f d2 8c be c9 54 28 3e 6e 4e 39 3e 71 95 a6 3d
       -0.27504393 0.16438593 0.18096325 0.081339724
000020 73 1a e6 bd fa a5 86 3e 34 1a f4 3a cc 89 75 3e
       -0.112355135 0.26298505 0.0018623532 0.23978347
000030 2b 51 a3 bd 44 37 e2 bd 03 7f 11 bc 23 3b 8c 3e
       -0.07974466 -0.11045697 -0.00888038 0.27388868
000040 b8 d4 39 3d d0 c2 37 be 9f 93 ed 3b 62 8b 57 3e
       0.04536888 -0.17945409 0.007250264 0.21049264
000050 c6 ba 07 be 31 53 3b 3e 10 16 52 3d 59 64 37 be
       -0.13254842 0.18293454 0.05129057 -0.17909373
000060 5a e8 8d 3d b4 a7 11 be f2 a8 03 be 87 e8 51 be
       0.06929083 -0.1422413 -0.12857416 -0.20498858
000070 5b 2c 0b 3e a4 64 50 3d 07 3c 0c 3e af aa e2 3d
       0.13591139 0.05087723 0.13694774 0.110677116
000080 af 0d fe bc 1a f5 bd bb 02 8c 88 bd 35 a8 82 be
       -0.031012384 -0.0057970406 -0.06667329 -0.25518957
000090 40 20 0b 3c 84 36 40 3d 9b 20 4b be 03 39 13 3e
       0.008491576 0.04692699 -0.19836657 0.14377217
0000a0 63 42 a6 39 a9 5d 79 be 73 4a 30 3e 3f 06 85 3e
       0.0003171145 -0.24352135 0.172159 0.25981328
0000b0 b8 45 4a be c3 ce 80 be 3b 7d 92 be 71 05 1b be
       -0.19753158 -0.25157747 -0.28611168 -0.15138794
0000c0 ac a2 8e 3d 35 29 0c 3e 3d 34 8e bc b5 de 07 3e
       0.06964621 0.13687594 -0.017358894 0.1326855
0000d0 ef f5 4d 3e 86 cd be bd 68 71 75 3d b1 4b d7 3d
       0.20113347 -0.09316544 0.059922606 0.10512484
0000e0 d0 3b 12 bb 6b a0 06 be 86 cb cb 3d 73 50 b8 bd
       -0.0022313483 -0.13147132 0.099509284 -0.089997195
0000f0 13 b8 a5 3d 48 da 0d 3e 79 d7 0c 3e 45 e0 c1 3c
       0.0809175 0.13852799 0.13754071 0.02366651
000100 62 37 89 3c 1f 01 51 3e 12 40 80 3e d2 4e db 3c
       0.016750041 0.20410584 0.25048882 0.026770983
000110 08 cc 82 be e6 3b 0c be ed 95 27 be 56 cb 38 3e
       -0.25546288 -0.13694724 -0.16365786 0.18046317
000120 82 67 6c 3e 1a f3 aa bd ec 92 54 3e 4d ee 72 3e
       0.2308636 -0.08347149 0.20759171 0.23723717
000130 60 74 35 3e a6 0a 8b bd 3e b2 83 be 6c 62 77 3d
       0.17720175 -0.067891404 -0.25721925 0.060396597
000140 3c cb 91 3e ee 0e 99 bd 01 fb 8d be b0 e2 27 be
       0.28475368 -0.07473551 -0.27730563 -0.16395068
000150 73 fb ea 3d bd 10 b3 bd 38 18 53 3e 98 9e 4f be
       0.114737414 -0.08743427 0.20614707 -0.20275342
000160 00 fe 01 3e 8f 47 63 3d de 8b 50 be 96 80 44 3e
       0.1269455 0.055488165 -0.20365855 0.19189677
000170 9c 9b 74 be b6 6b 7f be 62 a0 3d 3d b0 ec 89 be
       -0.23887485 -0.24943432 0.04629553 -0.2693839
000180 5c 53 1c bd 0d c9 63 3e 88 1c 06 bd 19 63 75 be
       -0.038165435 0.22244664 -0.032742053 -0.23963584
000190 4b c9 14 bc 2b ad 99 3d e5 0e e4 bd a0 c1 84 3e
       -0.009081195 0.07503732 -0.111356534 0.25928974
0001a0 b8 df 82 be 13 51 95 be 22 0d f4 bd d1 da f6 bd
       -0.2556131 -0.29163417 -0.119165674 -0.12053455
0001b0 52 7e 80 bc f9 23 7b 3d a7 b5 77 3e a0 50 48 3d
       -0.015685234 0.061313603 0.24190389 0.048905015
0001c0 a0 9b 00 be f3 3d 37 3e f1 f8 25 be 99 0a d9 3d
       -0.12559366 0.17894726 -0.16208245 0.105977245
0001d0 e9 dc 30 3e 3b c2 a4 3d a6 f2 84 3e bb 4b 2b bd
       0.1727177 0.08044859 0.25966376 -0.04182027
0001e0 0f 45 1c 3d a5 0f 54 3e 17 65 5e bd 43 f2 7a be
       0.038151797 0.20709093 -0.054295626 -0.24506478
0001f0 5e 4b 8e 3d c9 88 32 3e 76 86 87 be 05 23 87 3c
       0.06947969 0.17434992 -0.26469773 0.01649619
000200 b9 e7 2d bd 38 ff 44 be e5 fa cb bd 75 66 20 be
       -0.042457316 -0.19237983 -0.09959964 -0.15664084
000210 0e 3b 3a be 41 88 87 3d 68 30 73 bd e7 43 8c 3e
       -0.1818659 0.06617785 -0.059372336 0.27395555
000220 60 83 67 be e3 f3 c2 bd b3 c1 28 bd bf aa 73 be
       -0.2260871 -0.09519174 -0.04120035 -0.23795603
000230 8d f4 81 bc 0f e0 03 be c2 a7 e7 bd 1e dc c4 bd
       -0.015863681 -0.1287844 -0.11311294 -0.096122965

sequential_3/conv2d_26/Conv2D f4 [4, 3, 3, 4]
000000 7a 76 77 be 3a 2c d2 bd 5a 6e d3 bc 25 11 96 3c
       -0.24166289 -0.10262342 -0.025809456 0.018318722
000010 a4 ff 58 3d 26 64 e8 bd e0 74 93 be b6 64 19 be
       0.052978173 -0.11347227 -0.28800106 -0.14979824
000020 63 43 88 be 25 cf 22 bd ac ae 85 bd a6 83 f6 3c
       -0.26613912 -0.03974833 -0.06527457 0.030092072
000030 f6 c3 4a 3e 1f 33 b3 3d 98 06 7c 3e 71 b3 ac 3c
       0.19801316 0.08749985 0.2461189 0.021081658
000040 30 90 36 3e d6 c1 3d be ed e0 88 be 86 b7 79 be
       0.1782844 -0.18530974 -0.26734105 -0.24386415
000050 3d 3b c0 bc d4 f5 c2 3d 2e d0 8a be 68 df a1 ba
       -0.023465747 0.09519544 -0.27111953 -0.0012349905
000060 57 ce 5e 3d c9 94 ea bc e8 6c 81 be 4d ef 69 3e
       0.054396 -0.0286354 -0.252784 0.22845192
000070 cc 1e 6f 3e 2e 79 6e 3d 62 ef f4 bd 3e ef 38 be
       0.23351592 0.058221035 -0.11959721 -0.18060014
000080 e8 69 57 be be 60 87 3d 4f a1 1f 3e 44 35 5f be
       -0.21036494 0.06610249 0.15588878 -0.21797663
000090 1d ec 66 be e3 61 1d 3e da b9 27 be 10 52 e3 3d
       -0.22551008 0.15369372 -0.1637949 0.110996366
0000a0 ee 6d 69 bc e8 3f 23 bd 68 ff 5c be a8 a4 bc bd
       -0.014247401 -0.039855868 -0.21581805 -0.09211093
0000b0 cc 0d 3c 3d 8c f2 45 be e5 92 25 3e 7a 6e 51 3d
       0.045911595 -0.19330806 0.16169317 0.05113075
0000c0 fa 04 8a be 4a 1e ea bd 1d d7 80 be 06 96 49 3c
       -0.26956922 -0.114315584 -0.25164118 0.012303835
0000d0 06 6a 5f be da 1e 82 3e 7b da 0a 3d 08 85 86 be
       -0.21817788 0.25414163 0.033899765 -0.2627337
0000e0 9d b4 88 be 1a d1 fb 3d dd 67 bd bd 16 b0 86 bd
       -0.26700297 0.12295742 -0.09248326 -0.065765545
0000f0 4b ad 42 bd 9f 6c e9 3d 68 4d 29 bc 3b 26 22 be
       -0.047528546 0.11397671 -0.0103333965 -0.15834896
000100 5c 5b 94 be 34 d2 e6 3a 12 0a b6 bb aa 81 98 3c
       -0.28975952 0.0017610253 -0.0055553997 0.018616516
000110 d3 75 8d 3e 01 80 76 3e 96 33 42 be 46 7e b6 3c
       0.27628955 0.24072267 -0.18964991 0.022277009
000120 d1 a8 a0 3d 96 57 ef bd 12 48 80 be 2f 98 04 3e
       0.07844699 -0.116866276 -0.25054985 0.12948678
000130 ce 46 ef bd f5 a2 a5 3d 6d 21 f2 3c fa 90 5a 3e
       -0.11683427 0.08087722 0.029556954 0.21344367
000140 64 15 2d 3e 9e 83 dd bd fe 87 e5 3a b2 13 cd bd
       0.16902691 -0.108161196 0.0017511842 -0.10013522
000150 06 cd d8 bd 13 75 4f be 8f 49 cc 3d 6d 77 34 3d
       -0.1058598 -0.20259504 0.09974968 0.044059206
000160 63 1e 16 3e be 26 77 be 8d f8 8a be ca 11 5b be
       0.14660029 -0.24135873 -0.27142754 -0.21393505
000170 b7 84 8c 3e 25 a1 38 3e f8 bb 3b bd 1e 77 58 be
       0.27445003 0.18030222 -0.045833558 -0.2113919
000180 50 84 f4 bd d4 ba 5b bd 7c 79 80 3e d6 45 56 be
       -0.11939299 -0.05364497 0.25092685 -0.20925078
000190 16 5f 89 be 3f 8d 56 bd 73 d4 8c 3e 80 73 ae bd
       -0.26830357 -0.052380797 0.27505836 -0.085181236
0001a0 5f 13 09 3e c9 d2 eb bc 57 0d 86 3e f8 f6 64 3e
       0.13386296 -0.028787034 0.26182052 0.22359836
0001b0 63 94 8e 3e be e2 b6 3d 45 89 77 3d 13 b4 36 be
       0.27847585 0.089299664 0.060433645 -0.1784213
0001c0 8b 9c ba bd 21 b3 eb bd 40 9b 0c be 9a 18 80 3e
       -0.091118895 -0.115087755 -0.13731098 0.2501877
0001d0 cd 7b 8e be a4 19 2c 3e 14 92 37 3e 16 bd 64 be
       -0.27828828 0.16806656 0.17926818 -0.22337756
0001e0 28 a5 bb bd 4c 2d 91 be c1 b2 b9 3c c2 a3 69 3d
       -0.091623604 -0.2835487 0.022668244 0.057040937
0001f0 d2 d2 88 be 85 70 92 3d 5a 11 16 bd 9b 58 d3 bd
       -0.26723343 0.07150368 -0.03663764 -0.103196345
000200 23 46 6a 3e cb 61 e1 bc 9b cc b1 3d 43 34 e4 3d
       0.22878318 -0.027512452 0.086816035 0.11142781
000210 bf e6 8d 3e c6 a3 1a bd aa c0 80 3d 10 ee 74 bd
       0.27715108 -0.037753843 0.06286748 -0.059797347
000220 48 db 9e 3c ac 29 82 3e 00 c9 5f be 34 64 3a 3e
       0.01939167 0.25422418 -0.21854019 0.18202287
000230 29 13 03 be 65 05 34 be 35 8e 86 be fc 85 66 bd
       -0.12800278 -0.17580183 -0.2628037 -0.05628012

sequential_3/conv2d_27/Conv2D f4 [4, 3, 3, 4]
000000 a3 f6 10 3e e5 55 8f be c8 0b 33 3e 5d 28 75 bc
       0.14156584 -0.2799522 0.17484963 -0.014963237
000010 ba 52 15 be 7d 92 65 3e 3c ed f2 bb 9b 5c 15 be
       -0.14582339 0.22419162 -0.0074135344 -0.14586107
000020 fc 8c 7d be 54 51 07 be 5d 0b 50 3d 82 6c 0c be
       -0.24760813 -0.13214618 0.050792087 -0.13713267
000030 7a c2 b8 3d 57 7e 63 bc fe 22 16 be e1 85 36 3e
       0.090214685 -0.013885102 -0.14661786 0.17824508
000040 f5 23 8f bb 68 51 8e 3e c0 0b 05 be 3b fd d8 3d
       -0.0043683 0.27796483 -0.12992764 0.10595175
000050 64 73 8b 3e 61 a0 0c 3d d3 b8 88 3d 84 65 6c be
       0.27236474 0.034332637 0.066758774 -0.230856
000060 90 e0 8b 3e 58 ed c7 bd 0a da 16 3d 47 2f 2d be
       0.27319765 -0.097620666 0.036829032 -0.16912566
000070 fd c2 81 3e f9 12 30 3e 13 75 67 be 79 be 8d 3d
       0.25344077 0.17194737 -0.22603254 0.069210954
000080 71 69 e2 bd b5 4d a0 3b 9f 35 84 bd 11 6e 9f bd
       -0.110552676 0.004892076 -0.0645554 -0.077846654
000090 d6 62 78 3e 5c f0 1c be fd e2 57 be ec 10 c2 3d
       0.24256453 -0.15326065 -0.21082683 0.09475884
0000a0 5c a6 21 be fc 9e 8b be 86 1f ec bd 93 b7 7c 3e
       -0.15786117 -0.27269733 -0.1152945 0.24679403
0000b0 f7 37 91 be fb e7 d0 3d c3 52 07 3e 76 6d 35 be
       -0.2836301 0.10200497 0.13215165 -0.17717537
0000c0 54 c4 95 3e 57 89 c2 3d ca 1a 93 be 33 06 4b 3e
       0.2925135 0.09498852 -0.28731376 0.19826584
0000d0 73 d3 30 be 31 58 27 be ef fe 28 be f1 9d 41 3e
       -0.17268161 -0.16342236 -0.165035 0.18907906
0000e0 0a f4 27 be 93 07 e6 bd f5 9f b1 3d 92 2d 74 3e
       -0.16401687 -0.112319134 0.086730875 0.23845509
0000f0 77 2a 96 3d 9a f3 31 be d1 03 90 be 22 1d 41 bd
       0.07332318 -0.17378083 -0.28127912 -0.047146924
000100 e6 b2 0f bd 87 21 be 3d ab 9e 91 be 8c f5 72 3d
       -0.03508272 0.092837386 -0.28441367 0.059316203
000110 4c 74 96 bd 5a 37 c5 bc 3a ec 4f be 3f 29 8c be
       -0.073464006 -0.024074245 -0.20304957 -0.27375218
000120 37 ba 4d 3e 59 fd 31 3e 59 ee 30 be b0 1c 20 3e
       0.20090567 0.173818 -0.17278422 0.15635943
000130 78 84 96 3d d7 b9 23 be 8c c1 7a 3c 1c 33 06 3e
       0.07349485 -0.15988861 0.015304934 0.13105434
000140 ec ab 59 bd b6 d8 93 3e 2f 84 2f 3e 26 48 1f be
       -0.053142473 0.28876275 0.17140268 -0.15554866
000150 33 26 ab bd 9f a1 1b 3d 9d 87 6b 3d 31 75 f7 bc
       -0.08356895 0.03799593 0.057502378 -0.030207248
000160 10 a1 3c bd 88 25 49 3e cd 0b 57 be a5 23 9e bd
       -0.04605204 0.19643223 -0.21000595 -0.077216424
000170 15 58 0b be 34 ae 16 be 4c f7 23 3d 42 43 14 3d
       -0.1360782 -0.1471489 0.040030763 0.036196955
000180 7f a3 85 be dd 1c ef 3d aa 34 0c be ff 30 1d be
       -0.261013 0.11675427 -0.13691965 -0.15350722
000190 d3 6d 17 be 83 31 7d 3d 14 e5 bd bd 57 1b 8d be
       -0.14787988 0.061814796 -0.09272209 -0.2755992
0001a0 2c b6 ce 3d 4a 0d bf bd a9 87 c4 bd 5b a0 f9 bc
       0.1009334 -0.093287066 -0.095961876 -0.030471971
0001b0 b6 4e 33 3d e0 7b 5c 3d 1e 29 03 3e 69 c0 ec bc
       0.043776236 0.053829074 0.12808654 -0.028900342
0001c0 43 23 6c bd af 77 d9 3b 2e f9 86 be a7 a9 46 be
       -0.057650816 0.006636582 -0.26361984 -0.19400655
0001d0 d1 7f e7 3c 0f c1 cc 3d cd 62 8b be 29 f9 7e be
       0.02825919 0.099977605 -0.27223817 -0.24899735
0001e0 35 f7 4c 3e e8 60 87 be 29 41 24 be d6 d7 ad bc
       0.20016177 -0.2644112 -0.16040482 -0.021221083
0001f0 df 55 a3 bd 1e f8 51 3e aa f5 83 3e aa 4e a8 bd
       -0.07975363 0.20504805 0.25773364 -0.08218129
000200 58 03 77 be b4 91 77 3e 25 10 07 bd f1 49 84 be
       -0.2412237 0.24176675 -0.03297438 -0.25837663
000210 4a 72 5e 3e b3 93 76 bd fa 3e 87 3d 6e 06 4b be
       0.21723285 -0.06019945 0.06603809 -0.19826671
000220 d1 94 b7 3d c4 71 8f be 24 6a 8a 3e b7 5c 50 be
       0.08963931 -0.28016484 0.27034104 -0.20347868
000230 42 82 34 be d4 2e b3 3d 93 bf 0d 3e 06 d1 7e be
       -0.17627814 0.08749166 0.13842611 -0.24884424

sequential_3/dense_7/BiasAdd/ReadVariableOp f4 [7]
000000 f5 cd bf bc 99 ed e4 39 c4 af 41 bb f4 19 af 3b
       -0.023413638 0.00043664573 -0.0029554227 0.00534367
000010 60 01 87 3b d0 95 ad bb 1f bd 7b 3b
       0.004120037 -0.0052974 0.0038412286

sequential_3/dense_6/BiasAdd/ReadVariableOp f4 [64]
000000 55 19 1e 3b 81 c7 a6 bb 58 f1 82 bb 5c e4 c1 bb
       0.0024123986 -0.0050897007 -0.0039960556 -0.005917115
000010 1b 46 08 bc 38 6f 99 bb b2 4f 86 bb d4 1a 58 ba
       -0.008317496 -0.0046824478 -0.004098856 -0.0008243744
000020 30 c4 12 ba 54 19 9a bb 88 2e a3 ba 43 43 79 3b
       -0.0005598692 -0.0047027264 -0.001244978 0.0038034476
000030 7f 07 7c bb a1 c6 88 ba 6b 17 6f bb 76 dd 66 bb
       -0.0038456616 -0.0010435173 -0.0036482464 -0.0035227216
000040 63 ea 3f bb b0 63 82 bb e0 dc ee 3a fa 0e 78 bb
       -0.0029283992 -0.003979169 0.0018223785 -0.0037850724
000050 a6 12 bd bb 54 77 b3 bb 6a 44 38 b9 96 c6 ac bb
       -0.0057700453 -0.0054768715 -0.00017573094 -0.0052726967
000060 77 ca 9d bb 2d 93 cc ba e3 65 82 3a 6d 79 c8 ba
       -0.0048153955 -0.0015607827 0.0009948577 -0.0015294977
000070 c9 81 b4 ba cd 96 4c 3a f6 a6 de 3a fc c5 4b bb
       -0.0013771589 0.00078044535 0.0016987014 -0.003109335
000080 82 bd 31 bb de ef 54 3b d4 38 23 3a 18 59 23 bc
       -0.0027121012 0.0032491605 0.00062264246 -0.009969972
000090 33 c2 31 bb 74 9e 68 38 06 22 15 3b 9e 3a 89 3b
       -0.0027123808 5.546068e-05 0.0022755875 0.004187896
0000a0 1c 3e 8c 3a c2 ce cb bb d1 15 49 3a d2 b4 4a ba
       0.0010699662 -0.006219716 0.00076707924 -0.0007732633
0000b0 90 65 3a bb 02 e3 dc bb 7a 24 eb b9 d8 fd f6 bb
       -0.0028441884 -0.0067409286 -0.0004484987 -0.0075375848
0000c0 e8 4c a9 ba c0 e6 3e bb 3b 79 43 3b 64 b0 a0 bb
       -0.0012916597 -0.0029129237 0.0029826898 -0.00490384
0000d0 34 73 b1 bb 05 51 92 3b 60 b5 3d bb db 04 e8 bb
       -0.0054153446 0.0044652247 -0.002894722 -0.007080657
0000e0 4b 2f 80 39 3b ac 28 bb e1 f8 03 bc 29 97 82 bb
       0.00024449299 -0.0025737423 -0.008054943 -0.003985305
0000f0 5a 81 7f 3b 1d b9 b4 bb 59 6b 19 bb 0b 15 f0 bb
       0.0038987012 -0.0055152313 -0.0023409931 -0.0073267273

sequential_3/batch_normalization_21/FusedBatchNormV3 f4 [4]
000000 17 c5 38 3c de b4 b9 3c cf 8b e7 3c be cd 5e 3c
       0.011277459 0.022669252 0.028264908 0.013598857

sequential_3/batch_normalization_21/FusedBatchNormV31 f4 [4]
000000 2e aa 1e bf 08 9e 3a bf 2e 0c 46 bf 18 9f 38 bf
       -0.61978424 -0.72897387 -0.77362335 -0.7211776

sequential_3/batch_normalization_22/FusedBatchNormV3 f4 [4]
000000 8e e5 10 40 43 69 5d 3f b7 77 84 3f 84 28 e4 3f
       2.264011 0.8648874 1.0349034 1.7824864

sequential_3/batch_normalization_22/FusedBatchNormV31 f4 [4]
000000 eb 5a 0b bf 1e a9 1e bf 10 85 10 bf c5 e9 ca bf
       -0.54435605 -0.619768 -0.5645304 -1.5852591

sequential_3/batch_normalization_23/FusedBatchNormV3 f4 [4]
000000 5a 78 cc 3f 8d 64 11 40 d1 70 18 40 0c f8 fe 3f
       1.5974228 2.2717621 2.3818858 1.9919448

sequential_3/batch_normalization_23/FusedBatchNormV31 f4 [4]
000000 d1 e7 15 bf d2 04 63 bf 5f fb b1 bf f7 8b 94 bf
       -0.5855685 -0.8867923 -1.3904837 -1.1605214

sequential_3/batch_normalization_24/FusedBatchNormV3 f4 [4]
000000 56 0a 09 40 97 0e 06 40 51 dc ac 3f 28 10 cc 3f
       2.1412559 2.0946405 1.3504735 1.594243

sequential_3/batch_normalization_24/FusedBatchNormV31 f4 [4]
000000 d8 77 62 bf b1 4d 70 bf c9 e1 32 bf df b8 70 bf
       -0.8846412 -0.9386855 -0.6987577 -0.9403209

sequential_3/batch_normalization_25/FusedBatchNormV3 f4 [4]
000000 76 ed 2b 40 df 14 6b 3f 86 15 8f 3f 4c a2 2e 40
       2.6863685 0.9182872 1.1178443 2.7286558

sequential_3/batch_normalization_25/FusedBatchNormV31 f4 [4]
000000 32 da 6e bf 9c 2a 1c bf 52 07 43 bf 57 d5 96 bf
       -0.9330169 -0.61002517 -0.76183045 -1.1783856

sequential_3/batch_normalization_26/FusedBatchNormV3 f4 [4]
000000 26 78 c8 3f c4 35 cc 3f 7d c1 15 40 a0 e8 1e 40
       1.5661666 1.5953908 2.3399346 2.4829483

sequential_3/batch_normalization_26/FusedBatchNormV31 f4 [4]
000000 a2 93 98 bf 17 cf 78 bf 65 d3 82 bf e6 bd 9c bf
       -1.1920054 -0.97190994 -1.0220762 -1.2245452

sequential_3/batch_normalization_27/FusedBatchNormV3 f4 [4]
000000 fb b0 a8 3f e6 24 81 3f a3 b1 d3 3f 6d 7b 85 3f
       1.317901 1.0089386 1.6538585 1.0428292

sequential_3/batch_normalization_27/FusedBatchNormV31 f4 [4]
000000 50 b2 5a bf 1c 0a 91 bf bb 0f 56 bf 69 6b 5e bf
       -0.85428333 -1.133121 -0.8361775 -0.86882645

sequential_3/dense_6/MatMul i1 [64, 6760] scale=0.00039827303 zero_point=0
000000 29 f7 28 d2 d4 43 de 1c dd 1a eb 22 cd 00 d3 0d
       0.016329193 -0.0035844573 0.01593092 -0.018320559 -0.017524013 0.026684294 -0.013541283 0.011151644 -0.013939556 0.010355099 -0.008363734 0.013541283 -0.020311924 0.0 -0.017922286 0.0051775496
000010 18 bf 19 1a 2e 2f 33 d9 ce f9 b3 d3 d9 f7 11 02
       0.009558553 -0.025887746 0.0099568255 0.010355099 0.018320559 0.018718833 0.020311924 -0.015532648 -0.019913651 -0.002787911 -0.030667024 -0.017922286 -0.015532648 -0.0035844573 0.0067706415 0.00079654605
000020 49 b8 c1 03 3e 47 1b 3d 4b c2 d5 e1 d6 f8 48 c0
       0.029073931 -0.028675659 -0.025091201 0.0011948191 0.024692928 0.028277384 0.010753372 0.024294654 0.029870477 -0.024692928 -0.01712574 -0.012346464 -0.016727468 -0.0031861842 0.028675659 -0.025489474
000030 59 cb 3d 49 c2 c9 21 0c 0f 3f 0a e3 cc 11 ff ae
       0.0354463 -0.02110847 0.024294654 0.029073931 -0.024692928 -0.021905016 0.0131430095 0.0047792764 0.0059740953 0.025091201 0.00398273 -0.011549918 -0.020710198 0.0067706415 -0.00039827303 -0.032658387
000040 56 31 be 18 0f 21 cf 1a 2d 06 f6 df dd e3 d7 e1
       0.03425148 0.019515378 -0.026286019 0.009558553 0.0059740953 0.0131430095 -0.019515378 0.010355099 0.017922286 0.0023896382 -0.00398273 -0.0131430095 -0.013939556 -0.011549918 -0.016329193 -0.012346464
000050 06 35 0f c7 39 31 0e ec 48 ba e2 4c 27 fe d4 14
       0.0023896382 0.02110847 0.0059740953 -0.022701563 0.022701563 0.019515378 0.005575822 -0.00796546 0.028675659 -0.027879111 -0.011948191 0.03026875 0.015532648 -0.00079654605 -0.017524013 0.00796546
000060 49 b8 06 43 cf 1f 09 e8 40 d4 13 1a 0b 49 41 d8
       0.029073931 -0.028675659 0.0023896382 0.026684294 -0.019515378 0.012346464 0.0035844573 -0.009558553 0.025489474 -0.017524013 0.0075671873 0.010355099 0.0043810033 0.029073931 0.025887746 -0.01593092
000070 ed b4 29 10 d7 34 fd 24 0d 41 5a 1c 1e a2 ea d2
       -0.0075671873 -0.03026875 0.016329193 0.0063723684 -0.016329193 0.020710198 -0.0011948191 0.014337829 0.0051775496 0.025887746 0.035844572 0.011151644 0.011948191 -0.037437666 -0.008762007 -0.018320559
000080 bc de 4e e9 44 17 f3 f5 08 40 13 2d cb 45 24 e2
       -0.027082566 -0.013541283 0.031065296 -0.009160279 0.027082566 0.009160279 -0.0051775496 -0.0043810033 0.0031861842 0.025489474 0.0075671873 0.017922286 -0.02110847 0.027480839 0.014337829 -0.011948191
000090 20 03 c6 1d ea 01 02 41 10 d6 2c 21 bb c8 f1 20
       0.012744737 0.0011948191 -0.023099836 0.011549918 -0.008762007 0.00039827303 0.00079654605 0.025887746 0.0063723684 -0.016727468 0.017524013 0.0131430095 -0.027480839 -0.022303289 -0.0059740953 0.012744737
0000a0 c7 23 1d f2 d6 35 e1 32 16 c3 60 b4 dc e3 db ce
       -0.022701563 0.013939556 0.011549918 -0.005575822 -0.016727468 0.02110847 -0.012346464 0.019913651 0.008762007 -0.024294654 0.03823421 -0.03026875 -0.014337829 -0.011549918 -0.014736102 -0.019913651
0000b0 03 ad 4a 46 43 ba f4 fc c6 b2 ce 49 f5 ec d3 13
       0.0011948191 -0.03305666 0.029472204 0.027879111 0.026684294 -0.027879111 -0.0047792764 -0.0015930921 -0.023099836 -0.031065296 -0.019913651 0.029073931 -0.0043810033 -0.00796546 -0.017922286 0.0075671873
0000c0 db 1d f9 c9 b4 cd e2 05 26 29 d5 c4 29 20 e6 c2
       -0.014736102 0.011549918 -0.002787911 -0.021905016 -0.03026875 -0.020311924 -0.011948191 0.001991365 0.015134375 0.016329193 -0.01712574 -0.023896381 0.016329193 0.012744737 -0.010355099 -0.024692928
0000d0 24 be da e1 e8 ed 09 db fb d0 f0 15 30 18 07 d5
       0.014337829 -0.026286019 -0.015134375 -0.012346464 -0.009558553 -0.0075671873 0.0035844573 -0.014736102 -0.001991365 -0.019117106 -0.0063723684 0.008363734 0.019117106 0.009558553 0.002787911 -0.01712574
0000e0 3e c3 21 d6 c3 ce 17 e5 31 14 0c 35 ff 27 f7 31
       0.024692928 -0.024294654 0.0131430095 -0.016727468 -0.024294654 -0.019913651 0.009160279 -0.010753372 0.019515378 0.00796546 0.0047792764 0.02110847 -0.00039827303 0.015532648 -0.0035844573 0.019515378
0000f0 35 d2 c4 18 21 d2 fe 16 cf ef 26 e4 d5 3d 4b fb
       0.02110847 -0.018320559 -0.023896381 0.009558553 0.0131430095 -0.018320559 -0.00079654605 0.008762007 -0.019515378 -0.0067706415 0.015134375 -0.011151644 -0.01712574 0.024294654 0.029870477 -0.001991365
